data/datasets/ca_alameda_county_neighborhood/resstock-amy2018-2021-release-1-35144.pth (torch, 8440 bytes, 9 tensors)

l_lstm.weight_ih_l0 f4 [32, 13]
000000 86 78 97 bf e9 c9 bd be b9 68 e3 be b5 c8 bb 3e
       -1.1833656 -0.37068108 -0.44415835 0.36676565
000010 dc a3 5e be e8 84 4f 3e cd 78 14 c0 db 8c 80 40
       -0.21742195 0.20265543 -2.319873 4.0171943
000020 f9 b5 b8 be 28 93 4a be a8 28 5d bf e8 8c 39 bb
       -0.36076334 -0.19782698 -0.8639016 -0.0028312746
000030 77 94 b8 bf ac 32 3e be 0e 27 fe be ea 28 3c 3d
       -1.4420308 -0.18574017 -0.4963917 0.045937456
000040 bb cc 0f 3e 53 d4 a3 3e c6 6b 4d 3f a5 aa 92 3f
       0.14042942 0.31997928 0.80242574 1.1458327
000050 e5 b6 83 3f 7f 3c f7 be 0e 3b c2 3e ce 9a 1e 3f
       1.029019 -0.48288342 0.3793568 0.61954963
000060 54 13 18 3e 2f e4 fa 3f 26 77 16 c0 25 3a da bf
       0.14851123 1.9600886 -2.3510222 -1.7048994
000070 b2 2d a6 bf 20 4b 60 bf e4 bb 23 40 e1 f1 27 3f
       -1.2982695 -0.8761463 2.558343 0.6560345
000080 99 85 3d c0 21 6d 8c c0 f9 25 aa 3f b8 a0 8a 3f
       -2.9612792 -4.3883214 1.3292838 1.0830297
000090 c6 61 d0 bf 42 ac 3e 3e d0 d0 a4 3f 52 bc 2f be
       -1.6279838 0.18620399 1.2876225 -0.17161682
0000a0 86 cf 17 be cf 31 9d bc ec 28 73 bc 5b 1f be 3d
       -0.14825258 -0.01918879 -0.0148412995 0.09283324
0000b0 e8 7c 4a be 35 01 82 3f 68 ef d8 be da 0f c8 be
       -0.1977421 1.0156618 -0.42370152 -0.39074594
0000c0 1f ec b6 bb 5c 2a f9 be ac a1 e1 3d 8a dc 38 c0
       -0.005582347 -0.4866513 0.110171646 -2.8884606
0000d0 1f 34 85 bf f9 f3 8e 3f 50 fa 6f 3e 94 26 9d 3e
       -1.0406531 1.1168205 0.2343533 0.30693495
0000e0 1e 73 7f 3f 65 2c 3b 3f 80 7a 52 c0 10 56 cf c0
       0.9978503 0.73114616 -3.2887268 -6.4792557
0000f0 4e 39 6d bf a5 b5 00 bf f1 03 00 40 48 ce 66 39
       -0.92665565 -0.5027717 2.0002406 0.00022011355
000100 ab 8b 1f 3f 15 1d ec be eb 44 60 bf c7 c7 b9 3e
       0.6232249 -0.46115938 -0.8760516 0.3628523
000110 9c 62 59 bd 31 2a 59 3f ee 26 d8 be c9 54 fa bf
       -0.053072557 0.84830004 -0.422172 -1.9557124
000120 e5 91 65 40 55 d6 03 3f 0c 8a 4c bf 44 94 9a 3e
       3.5870297 0.5149892 -0.7989814 0.30191243
000130 4d 7f 81 be 86 63 31 c0 e9 aa 02 bc f1 08 a4 3e
       -0.25292435 -2.7716994 -0.0079753185 0.32038072
000140 36 ce 40 3d d3 de 35 be ea 65 14 bf fa 59 de 3f
       0.047071658 -0.17760782 -0.5796801 1.7371209
000150 f3 4e 78 c0 48 eb f1 40 23 cc 03 bf eb 01 5d 3d
       -3.8798187 7.559971 -0.5148336 0.053956907
000160 66 55 94 bf 0d 63 de bc bb f3 cd 3f b2 3e b9 be
       -1.1588562 -0.02714684 1.6090006 -0.36180645
000170 87 f8 b2 3d b1 c9 04 3f 35 44 31 be e8 e0 17 bd
       0.08738809 0.51870257 -0.17311175 -0.03707972
000180 56 21 4b bd 34 38 9b 40 f3 46 d7 3f 95 83 b8 3f
       -0.04959234 4.8506107 1.6818527 1.4415156
000190 18 e6 0a 40 0e e7 af bf 6d 17 43 3e 28 cc 41 3f
       2.1702938 -1.3742387 0.19051905 0.7570214
0001a0 e5 66 81 3f 35 8c 18 3f d7 f6 f8 3e fb 05 06 bf
       1.0109526 0.5958894 0.48625824 -0.52352875
0001b0 72 7a 77 be 11 1e de be d8 2c 68 c0 c8 5b bf 40
       -0.24167803 -0.43382314 -3.627737 5.979954
0001c0 c5 f4 b4 bf 2f 8d 93 bf 2e 8c d0 3e 72 6f ae 3e
       -1.4137198 -1.1527461 0.4073195 0.340694
0001d0 dd 06 b6 bf d0 64 a8 3e eb 18 d6 be a3 5b 2b 3e
       -1.4220845 0.32889414 -0.41815886 0.16734175
0001e0 bd c8 b1 be b8 7a 52 be db f9 08 bd 08 07 18 c0
       -0.34723464 -0.20554626 -0.033441406 -2.3754292
0001f0 57 d1 9e 3f 63 8d 02 3f 3f 3f ac be 52 a0 0e 3f
       1.2407635 0.5099699 -0.33642003 0.5571338
000200 48 7c c9 3e ac 52 08 40 f6 b0 21 bf 1c a7 dc 3f
       0.39352632 2.130046 -0.63160646 1.7238498
000210 87 07 b6 be 92 c4 e6 3e 76 2f 36 c0 89 ee 91 3f
       -0.35552618 0.45071846 -2.8466468 1.140092
000220 9b e5 91 bf e1 6f 52 c0 bd 74 1b 3f ea 5e 0f 3f
       -1.1398195 -3.2880785 0.60725003 0.560042
000230 fa ab a1 3f 99 b3 17 be 77 e3 18 3f a1 d2 43 be
       1.2630608 -0.14814605 0.59722084 -0.19123317
000240 cb 15 36 be 62 65 ac bd ac f4 7f 3d 3f a7 fd bd
       -0.17781751 -0.08417775 0.062489197 -0.12385415
000250 3d 81 95 3e 18 69 12 3f a3 66 3a bf 67 0b 71 be
       0.29200163 0.5719161 -0.7281286 -0.23539506
000260 5a 14 dc be d6 46 23 be 15 e2 40 be 64 75 e6 bf
       -0.42984277 -0.1594499 -0.18836243 -1.8004575
000270 d8 32 a6 3f fe d0 d7 be 24 2a 6a 3e 57 12 1c bf
       1.2984266 -0.42151636 0.22867638 -0.60965484
000280 89 54 89 bf 66 57 c8 3d 07 34 d5 c1 52 81 09 41
       -1.0728923 0.09782295 -26.650404 8.594072
000290 7c 72 9a 3e ef 4f c3 be ae bd 86 bf 88 f4 e2 3e
       0.3016547 -0.38146922 -1.0526636 0.44327188
0002a0 6f d8 ad bf bd e7 4c be 44 29 35 3f a4 e1 dd bd
       -1.3581675 -0.20010276 0.7076609 -0.10834053
0002b0 e1 23 8c 3e 7a f5 01 3f 95 2e 51 c0 3a 0d 54 be
       0.27371123 0.5076519 -3.2684681 -0.2070817
0002c0 54 fc 8f 3f 56 06 ae 3f 87 82 f2 be 3d b8 b8 3d
       1.124888 1.3595684 -0.4736521 0.09019516
0002d0 12 4c 07 3e d9 77 3d c0 6c bb df be f9 ef e7 bf
       0.13212612 -2.96044 -0.4369768 -1.8120109
0002e0 a9 0d 43 3d 1e 77 03 3d c5 bf 1e 40 8d 20 31 3f
       0.04762045 0.03209602 2.4804547 0.69190294
0002f0 25 6b 68 be 06 5a 38 bf 5e 4f 8c 3f 7c 6d 5b 3f
       -0.22697122 -0.72012365 1.0961721 0.85713935
000300 fb 23 33 bf 4d c0 6d 3d 20 93 2c 3e ee 0c 49 3f
       -0.69976777 0.05804472 0.16852999 0.78535354
000310 4a a5 65 3e f9 10 91 be 4f a8 ae 3e 49 17 a8 3f
       0.22426334 -0.28333262 0.34112784 1.3132106
000320 e9 ad e3 be 9d d3 bc 40 e1 cf 03 c0 c8 d2 bb 3e
       -0.4446862 5.9008317 -2.059563 0.3668425
000330 d5 91 af 3f 88 d1 2a 3f 94 b9 6e 3c 91 82 92 3f
       1.371638 0.6672597 0.014570612 1.1446096
000340 62 a4 9c 3f 36 fe 07 be e4 03 87 be da 34 94 3d
       1.2237666 -0.13280568 -0.26370156 0.07236643
000350 a4 f3 99 3e d0 15 e8 be 50 a4 fc 3f ef 80 6d c1
       0.30068696 -0.45329142 1.9737644 -14.843978
000360 86 42 0b 3e a4 b8 6e bf 80 84 30 bf 1e ab 5b be
       0.13599595 -0.9325049 -0.6895218 -0.21451995
000370 76 55 aa bd 13 f8 71 3e 13 4a f2 bc af 82 0b bd
       -0.08317082 0.23629789 -0.029576337 -0.034060176
000380 7a 2a 3a bd 46 c8 ff be 70 07 ac 3b 9d 9a 0e 3f
       -0.045450665 -0.49957484 0.00524991 0.5570467
000390 c0 bb 56 3f ae 36 a8 3e a5 55 ad 3e ec af 3d bf
       0.83880234 0.32854217 0.33854404 -0.7409656
0003a0 8b 6b 36 bc 66 0d 17 c0 4e 23 6e be e1 03 e7 3e
       -0.011134039 -2.3601928 -0.23255655 0.45120147
0003b0 b6 88 87 bd 00 72 38 3d c0 4d fa 3f eb 42 a8 be
       -0.066178724 0.045030594 1.9554977 -0.32863554
0003c0 c6 a5 14 bf 1e 3a 22 c0 eb b5 9f 3f f4 96 34 3e
       -0.5806545 -2.5347972 1.2477392 0.17635709
0003d0 23 a7 b2 3f fa 68 75 3b d6 52 98 bf 11 04 8b bd
       1.3957256 0.0037446604 -1.190028 -0.06787885
0003e0 3a ad a4 bd 64 4b 84 be d3 31 f9 3e 39 10 61 40
       -0.08040853 -0.25838768 0.48670825 3.5166152
0003f0 6a a3 bd 3f 37 a9 40 40 3c 67 03 3d 9c 25 97 bf
       1.4815495 3.010328 0.032080874 -1.1808352

l_lstm.weight_hh_l0 f4 [32, 8]
000000 fb 9b 8e 3e 03 39 0c bf a2 10 ab be 2a 3a 4f 3e
       0.2785338 -0.5477449 -0.33411127 0.20237032
000010 b1 77 2e 3f 15 8a 0b 3e 3d 10 28 bf f7 21 91 3f
       0.68151385 0.13626893 -0.6564978 1.133849
000020 7b 2d 5d 3f 5f 1b 22 3f d6 29 e5 bf f6 29 ea be
       0.8639752 0.63323015 -1.7903392 -0.4573514
000030 53 5b a2 3f be 84 f7 3f 38 68 43 bf 38 15 3a 3f
       1.268412 1.9337385 -0.763309 0.7268863
000040 44 9b 1a 3e a2 15 5f bf 1d 5b 3a 3e ce c1 b7 3f
       0.15098292 -0.87142384 0.1819882 1.435602
000050 87 8c e5 3e 7d 55 1b c0 b6 29 af 3f 99 34 70 c0
       0.44833776 -2.4270928 1.3684604 -3.7532103
000060 ed 67 19 bf b9 87 4b 3e e6 44 5e be c2 ca e8 3e
       -0.59924203 0.19875993 -0.2170597 0.45467192
000070 61 e9 46 be d8 f4 83 3d a2 7d b2 be b5 3f 02 bf
       -0.19424964 0.064431846 -0.34861475 -0.5087846
000080 c2 ee 6c 3e 0f 53 5a bf 2e 38 a0 3e 9f e8 76 bf
       0.23137954 -0.8528299 0.31292862 -0.964487
000090 3c 1a 3b bf 8f 13 f9 3f c3 da c2 be 62 81 b0 bf
       -0.73086905 1.9459094 -0.38057527 -1.3789485
0000a0 1a dc f0 be 07 5c 31 3f f9 93 a2 be bc 28 35 3f
       -0.47042924 0.6928105 -0.3175352 0.7076528
0000b0 2a 7d 23 bf cf 53 22 be 09 3f 0a 3e 19 21 a7 3e
       -0.6386286 -0.15852283 0.13500609 0.3264244
0000c0 6d cd 9c 3e 26 01 55 3f 94 0c a2 bf d3 9e 4d bf
       0.30625477 0.8320488 -1.2660089 -0.8032047
0000d0 61 93 e8 3f d3 6f b3 3f e3 58 3f bf a3 5c 9e 3f
       1.8169976 1.4018501 -0.74745005 1.237202
0000e0 5c 64 27 3f 9d 9b c6 3e fa dd 8f bd 92 6a ae bd
       0.6538751 0.387906 -0.070247605 -0.085164204
0000f0 a5 26 5c bf 28 d5 61 be e0 38 53 3f 7d 34 e7 bf
       -0.85996467 -0.22053969 0.8250866 -1.8062893
000100 99 a5 16 3f 13 f0 96 bf 49 8b d3 3f 96 cd 42 bf
       0.5884643 -1.1792015 1.6526881 -0.7609495
000110 b4 22 0c 3f 8d fc 88 bf 27 7a 80 bf c9 e6 0e 3e
       0.5474045 -1.0702072 -1.0037278 0.13955225
000120 89 33 29 3e 52 18 85 3f ec 9d bc 3e 41 99 0e bf
       0.16523565 1.0398047 0.36839235 -0.55702597
000130 e3 ad 12 bf ed 3b ae bf c5 a9 55 3e 63 60 09 3f
       -0.5729658 -1.3612038 0.20865543 0.536627
000140 ad be 2d 40 d1 1a d0 3f dc a2 2c 40 7f 2b 02 be
       2.714763 1.6258184 2.6974401 -0.12711905
000150 a4 c3 1a c0 7a 04 ba 3f e7 92 85 3f e5 94 7e 3f
       -2.418191 1.4532616 1.0435456 0.99445945
000160 2c 7d 10 bf fb 38 b9 be 78 64 0e bf a4 49 55 3e
       -0.56441 -0.36176285 -0.55622053 0.20828873
000170 a0 32 62 3e ec 16 2d bf c3 9a 5e bf 75 71 52 be
       0.22089624 -0.676131 -0.869549 -0.20551093
000180 a8 99 2e 3f de 8e 7e be 23 c5 29 3f 12 5b ef 3f
       0.6820321 -0.24859187 0.6631643 1.8699667
000190 c7 dc 9d 3f bb dd f8 bf 30 45 8a be 49 e6 c1 bf
       1.2333001 -1.9442667 -0.2700591 -1.5148402
0001a0 40 0c f7 3a b5 dd 9e 3e c5 d0 11 3f a4 62 4a be
       0.0018848255 0.31028524 0.5695918 -0.19764191
0001b0 33 60 5e c0 56 65 da bf 25 8a d8 3d 69 84 e9 3f
       -3.4746215 -1.7062175 0.10573224 1.8243533
0001c0 1e 11 ec 3f 8a cf 83 3f ec be fa bf 8d 5d c7 3e
       1.8442724 1.0297711 -1.9589515 0.3893856
0001d0 3a 67 35 3f 06 d8 45 bf 27 cd 55 3f fe d0 eb bf
       0.70860636 -0.7728275 0.8351616 -1.8423154
0001e0 15 d3 ac bf 24 d7 4a bf 02 5f e2 be 07 56 88 3c
       -1.3501917 -0.7923453 -0.4421311 0.016642584
0001f0 ae 2c 8a bf 14 ae c5 be 36 9c 1f 3e 53 be 94 bf
       -1.0794885 -0.38609374 0.15586933 -1.1620582
000200 ec f9 7c bf f2 f4 8d 3f c3 28 8b 40 1e 74 51 3f
       -0.9881885 1.1090376 4.348726 0.81817806
000210 69 76 a4 3e c8 e0 f1 3f 41 70 aa 3f b3 72 a2 be
       0.3212159 1.8896723 1.3315507 -0.31728134
000220 bd 73 68 be 70 a6 85 bf 44 48 21 bf 26 ed 04 3e
       -0.227004 -1.0441418 -0.63000894 0.1298109
000230 2a 74 8d 3f 57 75 65 3f 8e 10 33 bf 9c c3 e6 be
       1.1051075 0.8963217 -0.69947135 -0.45071113
000240 fc 01 cc bf d5 03 6f 3f 84 41 c5 bd d9 37 da bf
       -1.5938106 0.9336522 -0.09631637 -1.7048293
000250 4e d8 1b c0 23 1a e6 bf ff 8e a4 3f ca 03 38 c0
       -2.4350772 -1.7976726 1.2856139 -2.8752313
000260 fd 61 89 3f ba 8d ae bf 85 d3 ed be f9 ce e8 3f
       1.0733029 -1.3637002 -0.4645044 1.8188163
000270 eb ba 78 3f f6 20 b0 be a4 3f 2f bf 17 65 30 3f
       0.97160214 -0.34400147 -0.6845648 0.6890425
000280 5f 3a 6a 3d 21 a6 6b 3f de a5 3e bf 85 ac 40 bf
       0.057184573 0.9205037 -0.74471843 -0.75263244
000290 bb a7 50 bf bc bc f6 bd 92 c2 95 bd 34 5f 9d 3f
       -0.81505936 -0.12047717 -0.07312502 1.2294679
0002a0 e1 7f 00 bf ea 6a 98 bf cd d3 c0 bf 87 47 20 be
       -0.5019513 -1.1907628 -1.5064636 -0.15652286
0002b0 fa b3 45 3f 1d 50 8b 3d fe 37 e7 be 00 50 2a 3f
       0.7722775 0.0680239 -0.45159906 0.6652832
0002c0 a1 4a 70 be 96 ac d6 3c b3 2d 9f bf 33 53 a8 3f
       -0.23465969 0.026205342 -1.2435821 1.315039
0002d0 11 2a cb be 2a f3 16 c0 39 c2 61 be 31 d8 1b bf
       -0.39680532 -2.3585916 -0.22046746 -0.60876757
0002e0 5e c8 1e 3e e8 a2 7b be f6 c9 11 bd 4f 16 6a bf
       0.15506122 -0.24573863 -0.035592996 -0.9144029
0002f0 06 52 97 be 70 a8 a7 bd 1d 81 73 3f 28 56 ea bf
       -0.29554766 -0.08186424 0.95118886 -1.8307543
000300 d7 bf 2a 3f 40 ae 77 be a4 2b 3b 3f a2 4c 62 bd
       0.66698974 -0.24187565 0.73113465 -0.055248864
000310 10 a9 cf 3f 80 ff 37 3e ec a9 22 3f 56 7e 01 c0
       1.6223469 0.1796856 0.6354053 -2.023336
000320 ad 93 05 3f 38 a1 88 be 68 13 87 3f 50 e8 3b bf
       0.5217846 -0.266855 1.0552797 -0.73401356
000330 40 ca d1 bf 51 fd 91 bf 09 2d 2f be f6 38 90 3e
       -1.6389847 -1.1405431 -0.17107023 0.28168458
000340 11 3e aa 3f 2c c6 c0 be 0f c0 9c 3e 00 b8 95 c0
       1.3300191 -0.37651193 0.3061528 -4.678711
000350 63 f1 9a bf e6 e2 83 be d6 4c 07 3e 39 e8 18 bd
       -1.2104915 -0.25759047 0.13212904 -0.03733084
000360 b8 98 42 bf 82 a1 30 bf 5c 15 1a bf 1e bf 34 3f
       -0.7601428 -0.6899644 -0.6018884 0.7060412
000370 97 e6 4b 3f 22 52 ff 3d 78 98 01 bf 63 35 75 3f
       0.7964873 0.124668375 -0.50623274 0.95784587
000380 ca 7b 1d bc 8d 5e 68 bf 5f 57 a1 3f 66 9c 31 3f
       -0.009612033 -0.90769273 1.2604789 0.6937927
000390 a0 1b 1a 3f 0c da 51 40 48 fc 89 bf cf 5b 80 3e
       0.601984 3.2789335 -1.0780115 0.25070044
0003a0 16 02 23 3f 89 e3 18 bd 97 bb 6d bf 3b 3e c3 be
       0.6367506 -0.03732637 -0.92864364 -0.38133416
0003b0 83 4e 6b 3f 27 71 30 bf e0 6a 56 bf 82 5e 02 3e
       0.91916674 -0.68922657 -0.8375683 0.12731364
0003c0 66 21 85 3f db a5 d7 3e d2 01 e3 bf 90 31 d3 bf
       1.0400817 0.42118725 -1.773493 -1.64995
0003d0 11 3c 1a 3e f2 40 0b 3f 49 c7 e9 3d 4d cf ea bd
       0.15061976 0.54395974 0.11414964 -0.11465321
0003e0 c7 8a cd 3f 0f 6d 1c 3f 9c 85 6d 3d b7 72 de be
       1.6057976 0.6110391 0.057988748 -0.43446895
0003f0 68 35 47 3f 06 2f d2 3d 2b e1 28 3f e9 b1 c5 be
       0.77815866 0.10262875 0.6596858 -0.38612297

l_lstm.bias_ih_l0 f4 [32]
000000 93 ad 4f 3f 02 af 91 be 53 34 76 3f da 43 08 3f
       0.8112423 -0.28453833 0.9617359 0.53228533
000010 36 e4 6a bf cd 53 0e 3f f5 b2 8a 3e f5 7f 19 bf
       -0.9175447 0.5559662 0.27089658 -0.5996087
000020 c6 94 fe 3d ea b6 bb bd 4d ed 90 be 02 3e f9 3e
       0.1243072 -0.091657475 -0.28306046 0.4868012
000030 6c 2b 0c 3e 82 1f 8d 3e b4 de b7 be 19 f5 d6 be
       0.13688439 0.275631 -0.35912097 -0.4198387
000040 a6 2c d5 be c9 fb 8d 3e cd a2 2f bf 80 94 8f 3f
       -0.41635627 0.2773116 -0.6860779 1.1217194
000050 a8 d9 12 3e 26 09 ae 3d e3 26 8e 3d 6e 97 77 bd
       0.14340842 0.08497839 0.06941011 -0.06044715
000060 6c 6b 4d 3d 3b 7a 8b be fc 00 82 bf 16 be fd 3e
       0.050151274 -0.27241692 -1.015655 0.49559087
000070 9b 68 31 bf 9c 9f 9d 3e 64 cc 32 3e 50 0b 56 bf
       -0.6930024 0.30785835 0.17460781 -0.8361101

l_lstm.bias_hh_l0 f4 [32]
000000 1e 24 82 3e f0 c9 81 be d1 cd 9d 3f 75 32 eb 3d
       0.2541818 -0.2534938 1.2328435 0.11484233
000010 c0 7f 61 bf 38 f6 0f 3f 20 64 b7 be b4 6c 32 bf
       -0.88085556 0.56235075 -0.35818577 -0.6969712
000020 bc 06 b6 3e c0 0d 56 be c2 a7 8b bd 2c 52 1d 3f
       0.35552013 -0.20903683 -0.06819107 0.6145351
000030 b6 ab 87 bc 72 6d d3 bc 50 99 f1 be 6e cf 06 3e
       -0.01656137 -0.025809024 -0.4718728 0.13165066
000040 e1 8c d1 bd 6a c6 88 3e 38 9c 1b bf 4d 58 7b 3f
       -0.10231949 0.26713878 -0.60785246 0.9818161
000050 40 7b ea bd 6b af ea 3e a9 02 c4 bd dc 71 4e 3e
       -0.11449289 0.45836958 -0.0957082 0.20160621
000060 d1 6f ea bd a6 89 26 be c3 8d b1 bf 25 a3 59 3f
       -0.114471085 -0.16263446 -1.3871387 0.85014564
000070 20 ac 35 bf 65 c6 55 be 71 89 a4 3e 17 02 55 bf
       -0.70965767 -0.20876463 0.3213611 -0.83206314

l_lstm.weight_ih_l1 f4 [32, 8]
000000 a0 75 6a be c1 c0 03 40 f5 f9 56 bf 7b 6d 5b 3e
       -0.22896433 2.0586398 -0.83975154 0.21428482
000010 71 41 50 3e de 6e df bf f9 29 97 3d 30 d4 40 3f
       0.20337464 -1.7455709 0.073810525 0.7532377
000020 b3 37 cb bd cb 35 06 3f df 6b 20 bf 0d 7a 1c 3f
       -0.09922733 0.5242583 -0.626646 0.61123735
000030 d2 6f db be 6d 66 98 be 0d 3d 2d 3f 58 b5 32 bb
       -0.4285875 -0.29765645 0.6767128 -0.0027268734
000040 85 d8 1c c0 be 6d de 3f fc 3f a4 be 61 b3 82 3f
       -2.4507153 1.7377241 -0.32080066 1.0210992
000050 e2 69 c6 be ef 9c ff 3f fd 11 d2 3e b4 ee 11 3f
       -0.38752657 1.9969767 0.4102935 0.5700486
000060 b8 0a 14 40 11 f4 18 be ee b5 26 3f 52 87 2a be
       2.3131542 -0.14936854 0.6512135 -0.16653183
000070 de ac da bd a8 06 55 3f 80 75 16 3f 43 77 50 bf
       -0.10677503 0.8321328 0.5877304 -0.8143198
000080 9f ae 72 3f ef 8f a8 bf c8 09 86 be 7a 22 f7 be
       0.947977 -1.3168925 -0.26179338 -0.4826849
000090 9c 3a 77 bf ac bf dc be 87 53 95 bf 2f 7f 88 3f
       -0.96573806 -0.43114984 -1.1666116 1.0663813
0000a0 16 76 27 3f 04 fc 56 bf 09 48 27 3f 6c 9c e1 be
       0.6541456 -0.83978295 0.6534429 -0.44064653
0000b0 71 c8 4d bf 7c ca b4 3e 9e 22 32 bc 4d d1 ed 3e
       -0.80383974 0.35310733 -0.010872511 0.46448746
0000c0 13 89 9f bf 80 93 b4 3d b6 cd 34 3e 7c 8d d1 bf
       -1.2463707 0.08817196 0.17656597 -1.6371303
0000d0 fe 4d 8f 3f 90 5f b2 38 34 ea b4 be ff 17 2d bf
       1.1195676 8.505501e-05 -0.35334933 -0.6761474
0000e0 9d 61 26 bf ee cd 8d be 41 1c 69 bf 38 f4 a7 3e
       -0.64992696 -0.27696174 -0.9105874 0.32803512
0000f0 59 cc 29 40 cb bd 68 40 af 6f d0 3f ee 38 54 bf
       2.6530974 3.636584 1.6284083 -0.8289937
000100 6d e0 38 40 f5 14 78 40 fa 52 a5 bf 37 f9 53 3f
       2.8886979 3.876279 -1.2915947 0.82802147
000110 16 ad fc 3e 6c 6b ad bf 01 5d 02 40 6c 62 4d 3f
       0.49350804 -1.3548408 2.0369265 0.80228305
000120 0d f5 9c 40 21 d7 3d 3e dd 9d 2b bf 2e 84 75 c0
       4.9049134 0.18539096 -0.67037755 -3.8361926
000130 d1 eb 51 40 72 1d 6c bf 13 2b 8c bf 7e 00 ca be
       3.280018 -0.9223243 -1.0950645 -0.394535
000140 07 5a 4e 3f df 3d 73 3f 10 fd 4d bf f8 b3 b0 bd
       0.8060612 0.9501628 -0.8046427 -0.08628076
000150 3c 6e e9 3f b2 f7 22 c0 4b e5 8c bf f1 45 d1 bd
       1.8236766 -2.5463681 -1.1007475 -0.102184184
000160 59 b6 cc 3f 1e 34 b6 bf c7 ea bf 3e 06 72 84 bf
       1.5993148 -1.4234655 0.37483808 -1.0347297
000170 b4 15 18 be 30 aa 94 bf 46 20 a4 3f 54 28 0b c0
       -0.14852029 -1.1614437 1.2822349 -2.1743364
000180 81 3b 02 bf 20 36 3b 40 33 13 91 c0 6f 6a e7 3d
       -0.50872046 2.9251785 -4.5335937 0.112995975
000190 0c e8 17 c0 67 e6 f4 be 02 82 59 bb 4c 8d 11 40
       -2.373538 -0.47832033 -0.0033189063 2.274249
0001a0 db b0 9b 40 85 23 7e bf f1 85 34 3f 62 d1 1d c0
       4.865339 -0.9927295 0.7051688 -2.4659047
0001b0 1b 9c cd 3f 35 6a 68 bf 4d 66 3f be f3 cd 0e 40
       1.6063265 -0.9078706 -0.18691368 2.2313201
0001c0 0c 88 b6 3f ce d3 44 be 9d 9b 1f bf 9a f3 ae bf
       1.4260268 -0.19221422 -0.6234682 -1.3668091
0001d0 cb 0a e1 3e 58 f7 11 c0 32 4e 9d bf d1 1b df bd
       0.43953547 -2.2807217 -1.2289488 -0.108939774
0001e0 57 32 7b 40 00 d1 68 3f 9c 89 a2 bf 87 c1 14 bf
       3.9249475 0.9094391 -1.2698245 -0.581078
0001f0 fe f8 09 40 d7 92 15 40 37 2d ce bf 9d a2 a3 3f
       2.1558223 2.3370874 -1.6107548 1.2784001
000200 c4 e1 c5 3e 78 41 44 3f ed 50 b0 3f 0e d1 9b 3f
       0.38648808 0.766624 1.3774697 1.2173173
000210 46 94 b5 bf 9a 87 51 3f cb 4f 8a 3f 6b 19 44 3e
       -1.4185874 0.81847537 1.0805601 0.19150321
000220 e5 98 d9 bd c2 b4 5d bf c6 82 b9 be 11 20 3b bf
       -0.106248654 -0.8660394 -0.36232585 -0.73095804
000230 78 d9 84 3f 9c b4 c8 3f 62 e3 78 bf e9 89 4e bf
       1.0378866 1.5680118 -0.9722196 -0.80679184
000240 67 d7 05 3f 9e cc 5e 3f 0c 53 25 3f c2 39 95 3f
       0.522818 0.8703097 0.64579844 1.1658251
000250 c5 6e 0f bf 13 d5 de 3e 66 57 49 3f a4 a8 21 be
       -0.56028396 0.43521938 0.78648984 -0.15786988
000260 4e ec 21 3f ea 14 7d bf 6b 14 a4 be f2 23 91 bf
       0.632512 -0.9886004 -0.32046828 -1.1339095
000270 1b e9 1d 3f 5f 3f 84 3d 18 d2 39 bf 8f 38 07 bf
       0.61683816 0.064573996 -0.725862 -0.52820677
000280 43 55 49 3f eb 2e 8e bf 9d 08 58 be 48 32 81 bf
       0.78645724 -1.1108068 -0.21097036 -1.009347
000290 2f c1 89 3e 44 87 2b bf ef e4 f3 be a5 bd 1c bd
       0.269052 -0.67003274 -0.476356 -0.038266797
0002a0 ad 19 10 3e 63 8f 3f 3f 49 1f 77 3e b1 7c a8 3f
       0.14072295 0.74828166 0.24133028 1.3163053
0002b0 74 02 07 bf b7 59 7e 3d 5f d5 2d 3f 61 ab 4c 3e
       -0.5273812 0.062097277 0.67903703 0.19987251
0002c0 e6 b8 bb be 6b 33 21 bf c9 0b 16 bd c0 98 b3 bf
       -0.36664504 -0.6296908 -0.036632333 -1.4030991
0002d0 2e 3c 52 3e a5 ab c3 3e 60 64 52 bf 9c 2a ee 3d
       0.20530769 0.38216892 -0.8218441 0.11629221
0002e0 af 54 91 bf be 15 2f bf 2b 0c 3d bf f7 1a 81 bf
       -1.1353968 -0.6839255 -0.7384669 -1.0086354
0002f0 68 01 f7 3e c0 27 3f bf 96 fc 70 bf 0c 8d 0d 3f
       0.4824326 -0.7467003 -0.94135416 0.55293345
000300 ba b6 64 be 8b c7 80 3f fe bb 2e 3e 36 62 ac 3f
       -0.2233533 1.0060896 0.17063901 1.3467472
000310 40 e5 d3 bf 38 a0 fd bf c2 b9 84 3e 88 02 06 3f
       -1.6554337 -1.981452 0.25922972 0.5234761
000320 a7 0c 96 bd 56 ce 39 bf 97 78 55 bf 12 06 18 3f
       -0.07326632 -0.7258047 -0.8338713 0.5938426
000330 59 c5 85 bf 2f c6 d9 bf 79 10 a6 3a 9f 33 9d 3f
       -1.0450851 -1.7013606 0.0012669704 1.2281379
000340 38 e5 07 c0 5e 03 29 3f e2 94 21 3f 01 a3 8b 3f
       -2.1233654 0.6602076 0.631178 1.090912
000350 49 88 c0 be a1 2e 7b bf d0 b7 a4 3d 81 3f 76 3e
       -0.37603977 -0.98118025 0.08042872 0.24047662
000360 dd 9d 15 40 80 1f eb be c2 18 8d 3d d1 d2 0a 3c
       2.3377602 -0.4592247 0.06889488 0.008473114
000370 f1 6f 96 3e 8a d8 50 3f 15 68 0e 3f fd 28 13 bf
       0.2938228 0.8158041 0.55627567 -0.5748442
000380 7a 97 2c 3f fb 04 dc be f6 01 bf c0 ba 8c 8f 3f
       0.67418635 -0.4297255 -5.9689894 1.1214821
000390 8b f9 1c 40 69 25 ed 3e 39 7c 62 bf ce 65 5a bf
       2.452731 0.46317604 -0.884708 -0.8531159
0003a0 ac 44 e0 3f 52 90 87 bf b4 0a 3c 3f 22 ea 09 bf
       1.7520957 -1.0590918 0.7345383 -0.53872883
0003b0 c9 35 0b 3f 2e de be bf 9a 74 3b 3c a0 29 37 3f
       0.54378945 -1.4911554 0.011441374 0.7154789
0003c0 ce 8e ec bd d4 20 13 bf 0c 52 70 3e ae e3 e4 bf
       -0.11550675 -0.57471967 0.23468798 -1.7881982
0003d0 23 e7 02 3e fe 15 84 c0 b9 e7 2c bf 4a bc a1 3e
       0.12783484 -4.1276846 -0.6754108 0.31588966
0003e0 32 6a 4d c0 67 2c 7d be 85 ab 8e bf 8f 7d e0 3d
       -3.2096066 -0.2472397 -1.1146094 0.109614484
0003f0 79 c4 cd c0 a2 ce 8d 3e a7 4f b6 bf d9 a0 93 bf
       -6.4302335 0.2769671 -1.4243058 -1.1533462

l_lstm.weight_hh_l1 f4 [32, 8]
000000 3b 87 88 bf da 73 6e 40 40 0c 04 40 56 92 ec 3f
       -1.0666269 3.725821 2.0632477 1.8482158
000010 3b 50 84 3c 9d ce 37 c0 5d c7 34 3f 1b 13 d1 bf
       0.016151538 -2.8719857 0.70616704 -1.6333956
000020 97 d3 95 3f cb d0 35 3f 33 6d 51 3d 48 4c e3 bc
       1.1705197 0.7102172 0.05112953 -0.027746335
000030 5b b6 fc bf 4b c2 c1 3f bf 7c c4 be 34 29 41 bf
       -1.974315 1.5137419 -0.38376424 -0.75453496
000040 63 6d 65 3e e5 5f 6d 40 fa d4 1e c0 6c b5 32 40
       0.22405009 3.708978 -2.481749 2.792323
000050 ab 85 dc be db 75 7a bf 6b e2 b5 3f f5 b0 9d c0
       -0.4307073 -0.97836083 1.4209722 -4.927851
000060 1b aa b1 3f be 9d 87 3c 9d 17 19 c0 4d b1 08 40
       1.3880037 0.01655471 -2.3920662 2.1358216
000070 a6 b3 c4 bd f1 31 86 bf 5c 46 2f 3d 44 8e 0f 3f
       -0.09604578 -1.0483991 0.04279171 0.56076455
000080 85 41 2c 40 16 e0 7a bf a0 b0 28 bf 25 33 b3 bf
       2.691499 -0.9799818 -0.6589451 -1.3999983
000090 b3 7b 68 c0 ca 56 90 3f 09 45 4a bf 43 87 d6 be
       -3.63255 1.1276486 -0.7901159 -0.41900072
0000a0 8e d2 12 40 ba bd 12 be 6f b1 61 3f 4c 2b 60 3f
       2.2941012 -0.14330187 0.8816137 0.87566066
0000b0 29 91 80 bf eb 1c 3b 3e f4 00 cd be 9d 99 fd bf
       -1.0044299 0.1827275 -0.4003979 -1.9812504
0000c0 ad 65 d3 3f 6d ce b3 bf 06 9f 50 be 6f a9 b4 bf
       1.6515404 -1.4047371 -0.20373163 -1.4114207
0000d0 f6 da 8c bf a2 e0 05 40 66 48 c5 3b 55 fc a7 bf
       -1.1004322 2.0918355 0.0060205935 -1.3123881
0000e0 2c 56 96 3f 02 25 82 3f df b9 8d bf f5 92 1d 40
       1.1745048 1.0167544 -1.1072348 2.4620945
0000f0 d3 2f 97 bf 52 cb 35 bf df 27 16 40 f0 1a bf c0
       -1.181147 -0.7101337 2.3461835 -5.9720383
000100 07 c5 a8 bf 4c c3 dc bf 57 71 8f 3f 7a 80 e9 bf
       -1.3185128 -1.72471 1.1206464 -1.8242333
000110 99 6c 2d bd 25 b8 98 be 42 9d 1a 3f 5a e0 a7 3f
       -0.042339895 -0.2982799 0.60396206 1.3115342
000120 79 40 99 bf 81 4d c9 3f 2f 08 be c0 c2 9e f7 3f
       -1.19728 1.5726777 -5.938499 1.9345324
000130 1d 14 05 3f 0d 18 49 c0 00 13 bd 3f c2 58 a9 40
       0.51983815 -3.142093 1.4771423 5.2920847
000140 47 52 4b 3f 0c cb 94 bf 28 a7 d4 3f bf d2 52 bf
       0.7942242 -1.1624465 1.6613512 -0.82352823
000150 84 e6 32 3f c3 df df 3d dd 52 73 3f 45 5f 20 3e
       0.6988299 0.10931351 0.95048314 0.15661342
000160 61 56 12 40 5f c8 84 bf f5 90 cf 3f 2c 24 38 bf
       2.2865222 -1.0373648 1.6216112 -0.71930194
000170 88 d9 e8 3e 7b df 50 3f 7d 56 bb bf 12 8a 6b bf
       0.45478463 0.81591004 -1.4635769 -0.92007554
000180 11 81 da 3f 1d bf 8a bf a7 49 78 40 bd 57 89 bf
       1.7070638 -1.0839573 3.8794954 -1.0729901
000190 4f 71 1a 40 2f a3 01 40 18 c5 bd 3e ad 1c 3e 3f
       2.4131658 2.025585 0.37064433 0.74262506
0001a0 fb 07 b0 3f 78 26 14 bd e8 84 a5 be 21 a1 a8 3f
       1.3752435 -0.0361695 -0.32327962 1.3174173
0001b0 bc 01 aa 3f eb 9a 99 bf dd 5b ed be 17 69 13 40
       1.3281779 -1.2000402 -0.4635915 2.3032892
0001c0 7d 13 a3 3f 6f 56 76 bf cb 80 45 3f 2a 49 6a bf
       1.2740322 -0.9622564 0.7714965 -0.9151789
0001d0 fb 56 41 3f 0a 0d 46 3f 08 0c 9e be e8 7a 79 3f
       0.75523347 0.77363646 -0.30868554 0.97453165
0001e0 e1 59 86 bf 5d 42 1c 40 13 69 65 bf f0 42 e4 3f
       -1.0496179 2.4415505 -0.89613456 1.7832928
0001f0 a0 7c 17 40 54 c5 8b bf 96 69 13 40 e8 3c 6a 3f
       2.3669815 -1.0919595 2.3033195 0.91499186
000200 ea a6 03 c0 4f 12 5a 3f 5c 9e fa be 61 c9 2a 40
       -2.0570626 0.85184187 -0.48948944 2.6685412
000210 90 99 67 3e 64 60 8a bf 9b 95 3f bf 80 03 53 bf
       0.22617173 -1.0810666 -0.74837655 -0.82427216
000220 42 e6 c6 3e 5b c4 5b bf da 7f c6 be c7 12 26 3f
       0.38847548 -0.8584649 -0.38769418 0.648724
000230 9b 16 d5 3f 65 3d 7b bf 0d 0d 13 40 fc 0d a8 3d
       1.6647524 -0.98140556 2.2976716 0.08205792
000240 ea 29 c1 bf b1 67 7a 3f 62 39 51 c0 e5 80 1d 3f
       -1.5090916 0.9781447 -3.2691274 0.615248
000250 99 bd b2 3f 9e 3d 4c bf 69 e6 b7 3f 67 61 9b 3f
       1.3964111 -0.7978152 1.4367191 1.21391
000260 25 b6 a7 3f 6a c2 1c bf 2b f1 08 3f 1e b5 cc bf
       1.3102461 -0.6123415 0.53492993 -1.5992773
000270 91 29 72 bf 9d 3c 85 3f 5c 15 57 be 3e 7f 4e 3e
       -0.94594675 1.0409123 -0.21004242 0.20165727
000280 37 20 37 bf 5d c3 55 bc d5 2b 16 c0 e6 8d f5 3e
       -0.7153353 -0.0130470665 -2.3464253 0.47959822
000290 4a 62 60 c0 89 70 6b bf d1 c0 61 3f 2d 0a a7 be
       -3.505999 -0.9196859 0.8818484 -0.3262495
0002a0 4a 46 85 bf 57 c9 97 3f 69 22 85 bf 02 7c aa be
       -1.0412076 1.1858319 -1.0401126 -0.33297735
0002b0 ac ee 60 3f 6b 04 b2 be b2 f4 f7 3e 8c e1 64 3b
       0.87864184 -0.34768996 0.48428875 0.0034924475
0002c0 8a 1d b3 3e 21 7f 96 bf d9 40 43 be 0d 3d af 3e
       0.34983474 -1.1757547 -0.19067706 0.34226266
0002d0 35 50 16 bf 2c 66 32 3f 54 ea 11 bf 6f c7 0c 3f
       -0.58716136 0.6968715 -0.5699818 0.5499181
0002e0 6e 14 f4 3d 76 a4 4d bf 9c 2b 91 bc 8b 1f 1f be
       0.11917959 -0.8032907 -0.01772099 -0.15539376
0002f0 b8 f9 0b c0 61 38 c8 3d f4 b8 9d bf 5e 3b 08 c0
       -2.1871166 0.097763784 -1.2322068 -2.1286235
000300 f3 fb 89 bf 98 06 5a 40 be b4 0a 40 27 aa ad 3f
       -1.0780014 3.4066525 2.1672816 1.3567551
000310 ba 9e 6f 3e dc 2e 20 c0 1e 10 c5 3f 10 73 e1 3e
       0.23400393 -2.50286 1.5395544 0.44033098
000320 9a 3c 21 3f 1b d5 1d 40 4c b1 5b bf 6a 64 72 3f
       0.62983096 2.466132 -0.8581741 0.9468447
000330 7d 08 a0 3e b5 6e 37 bf a2 94 7a 3f 48 63 66 3f
       0.31256476 -0.716533 0.97883046 0.8999524
000340 79 23 99 3f 7a b0 34 40 dd 30 f5 bf e1 b3 62 40
       1.196395 2.8232713 -1.9155537 3.542229
000350 bf 6e e0 bc 01 b1 c3 bf 3d 6b f9 3f e6 4f 8e c0
       -0.027396558 -1.5288392 1.9485852 -4.447253
000360 38 10 f0 3f 75 d9 cd 3e bd 02 54 bf d4 91 8b 3f
       1.875495 0.4020497 -0.8281668 1.0903878
000370 9b 2d 63 bf 31 cf 37 bf 63 ad a4 bd 6c 78 fe 3d
       -0.88741463 -0.71800524 -0.080408834 0.124253124
000380 32 65 7c 40 7d 52 c1 3f 1e 0d f5 3e e6 ff 67 c0
       3.9436765 1.5103298 0.4786157 -3.6249938
000390 52 ba b6 bf c8 c9 1c 3f b1 a8 25 3f cb 51 36 40
       -1.427561 0.61245394 0.6471053 2.8487422
0003a0 0e 71 bf 3f 49 a1 12 3f c9 a1 14 3e 8c 48 17 3f
       1.4956377 0.5727735 0.14514841 0.5909507
0003b0 f4 bc 89 bf 0f 80 4a 3e c7 38 a3 3e d2 e9 05 bf
       -1.0760789 0.19775413 0.31879255 -0.52309906
0003c0 02 50 f0 3f 38 3e 9d bf 4d 3a 4f be 22 62 c2 bf
       1.8774416 -1.2284613 -0.20237084 -1.5186198
0003d0 3b 5b 93 bf 4d eb e9 3f 3e be 0a be 5d 41 1c bf
       -1.1512216 1.8274933 -0.13549134 -0.61037236
0003e0 9d d6 dd 3e a7 06 28 bf 06 a7 53 c0 fa ce 16 c0
       0.433278 -0.6563515 -3.3070693 -2.3563828
0003f0 fc 27 ef bf 7b 0d ce 3f d3 b5 ff bf 13 a8 a0 bf
       -1.8684077 1.6097864 -1.9977363 -1.2551292

l_lstm.bias_ih_l1 f4 [32]
000000 66 fe 0e bf 9b 61 ac be 9b 3b 38 bf b9 18 9c bc
       -0.5585693 -0.33668217 -0.7196595 -0.019054757
000010 46 c0 aa bf bc 15 83 be b0 7d f9 be c6 0e 67 be
       -1.3339927 -0.2560252 -0.48728704 -0.2256423
000020 f8 ac 82 3e 0d 50 77 bf bc 28 40 3e 7a ca ef be
       0.2552259 -0.9660652 0.18765539 -0.46834165
000030 14 b2 3a be 20 79 9d be 90 df ed bb de 95 ca bd
       -0.18231994 -0.30756474 -0.0072593167 -0.09891866
000040 1b 04 47 bd 3c 27 4f be fb b0 2b 3e 52 c9 08 3e
       -0.0485879 -0.2022981 0.16766731 0.13358048
000050 a6 4e 62 3c 78 65 26 3e 89 db d9 bc dd fa 72 be
       0.013812697 0.16249645 -0.02659394 -0.23728509
000060 1f 5e ef bd 11 1c b8 be a7 45 01 bf 0c 11 7a be
       -0.11687874 -0.35958913 -0.50496906 -0.24420565
000070 b6 43 16 bf 41 89 b7 be 64 e1 d5 be ac 05 d9 be
       -0.5869707 -0.35846904 -0.41773522 -0.4238714

l_lstm.bias_hh_l1 f4 [32]
000000 82 56 01 bf 89 bb 3e bf 95 b6 3c bf bf e7 84 3b
       -0.50522625 -0.74504906 -0.737161 0.0040559466
000010 0b 60 45 bf e7 87 28 bf ad f9 ca be 62 30 0c bf
       -0.77099675 -0.6583237 -0.39643613 -0.54761326
000020 7d aa 98 bd 13 ed 90 bf 0f 23 ab 3e a5 1a 89 3d
       -0.07454393 -1.1322349 0.33425185 0.06694535
000030 ad 73 a1 3e 77 e4 b7 be c9 70 b7 3d 56 25 85 be
       0.31533566 -0.35916492 0.08957059 -0.26005048
000040 08 aa 05 3e d6 00 68 bd 9e 0d 30 3d 92 1d 19 be
       0.13053143 -0.056641422 0.042981736 -0.14952686
000050 6b f0 c1 bd ce 02 33 be 19 74 52 bd b6 88 0a be
       -0.09469684 -0.17481539 -0.05138025 -0.13528714
000060 6f ea 9a be 45 8f 3b be a8 4a 4b be 31 1c f5 3d
       -0.30256984 -0.18316372 -0.19852698 0.11968268
000070 3b 6b 37 bf b4 d7 12 bf 8e 0f 83 be 4e eb 27 be
       -0.71647996 -0.57360387 -0.25597805 -0.16398355

l_linear.weight f4 [1, 8]
000000 96 91 15 bf aa e6 97 3e e6 82 49 bf 9c 6f b8 3e
       -0.5842527 0.2966817 -0.7871536 0.3602265
000010 cd 8e ad 3e 1e 06 1a bf 3c 26 2b 3f d2 1c 90 3e
       0.3389801 -0.60165584 0.66855216 0.28146988
