data/datasets/ca_alameda_county_neighborhood/resstock-amy2018-2021-release-1-370126.pth (torch, 8966 bytes, 9 tensors)

l_lstm.weight_ih_l0 f4 [32, 13]
0	0x3e1bfa36	0.15232167
1	0xbed2d0df	-0.4117498
2	0x3e0ff38b	0.14057748
3	0x3e8b0078	0.27148795
4	0xbf823923	-1.0173687
5	0x3f0df180	0.55446625
6	0xbfa5d110	-1.2954426
7	0xc0bc3e95	-5.8826394
8	0x3e84c781	0.2593346
9	0xbead4f88	-0.3384974
10	0x3ecb4a56	0.3970515
11	0xbd384980	-0.04499197
12	0xc0153c00	-2.331787
13	0x3e981d4a	0.29709846
14	0xbe9ece77	-0.31016895
15	0xbdd8e203	-0.10589983
16	0xbd01c81c	-0.03168498
17	0xbe06e7d6	-0.13174376
18	0x3f0f9d50	0.56099415
19	0xc0a2e355	-5.0902505
20	0x40192e56	2.3934531
21	0xbf9389e6	-1.1526458
22	0xbde605be	-0.11231564
23	0xbed6866d	-0.41899434
24	0xbeb64f68	-0.35607457
25	0x3ffad08a	1.9594891
26	0xbc0f1a28	-0.0087342635
27	0xbed3aef3	-0.41344413
28	0x3e38ffa5	0.1806627
29	0x3ecda778	0.4016683
30	0x3ec44c80	0.38339615
31	0xbb508512	-0.0031817597
32	0xbf5d59c8	-0.8646512
33	0xc009eb70	-2.154995
34	0xbfd1c615	-1.6388575
35	0xc01b97bb	-2.431136
36	0xbf02889e	-0.5098971
37	0x3dcc38ab	0.09971746
38	0xc03e1e6e	-2.9706073
39	0x3dfad1e9	0.122470684
40	0x3f821146	1.0161521
41	0x3e6cb3cd	0.23115464
42	0xbdb2f3fc	-0.087379426
43	0x3d1b18ad	0.03786533
44	0x3f1e588e	0.61853874
45	0xc0918d1a	-4.5484743
46	0xc19cf68b	-19.620382
47	0x3f9a6a48	1.2063684
48	0xbfa651bc	-1.2993693
49	0xbef18c17	-0.47177193
50	0x3fb72efd	1.4311215
51	0x3f0743b3	0.52837676
52	0xbe86ea0b	-0.26350436
53	0x3e27fc13	0.16404752
54	0xbdcbcb34	-0.09950867
55	0xbd8a4670	-0.06751716
56	0xbece942e	-0.40347427
57	0xbd92b0d3	-0.07162633
58	0x3ef0d30b	0.47036013
59	0x3db054d0	0.08609927
60	0x3e929360	0.28628063
61	0x3e73f6f8	0.2382468
62	0x3ed2fbe8	0.41207814
63	0x3e31c172	0.1735895
64	0xbec537b5	-0.38519064
65	0x3f22e425	0.6362937
66	0xbfe5fe96	-1.7968318
67	0x3d82e4f1	0.06391323
68	0x3fa5a667	1.2941407
69	0xbe289118	-0.16461599
70	0x3e93d299	0.2887161
71	0x3ed546c6	0.41655558
72	0xc0230063	-2.5468986
73	0x3f91b4b6	1.1383274
74	0xbfddcf09	-1.7328807
75	0x3fe17c6b	1.7616094
76	0xbf5657cf	-0.83727735
77	0x3f167a4c	0.5878036
78	0x3d168e06	0.036756538
79	0x3f36b5bc	0.71371055
80	0x3eab0f57	0.3341014
81	0xbe16ec0d	-0.14738484
82	0x3ed459bc	0.41474712
83	0x3f9b21a1	1.2119638
84	0x3f959acb	1.1687864
85	0x40821674	4.065241
86	0x3e0342d2	0.12818459
87	0xbe33fe39	-0.17577447
88	0xbf46d20c	-0.77664256
89	0xbe42a7ce	-0.19009325
90	0xbf71a5c2	-0.9439355
91	0x3f56b706	0.8387302
92	0xbf25df5c	-0.64793944
93	0x3e06ff8d	0.13183422
94	0x3e422650	0.18959928
95	0xbeeff299	-0.46864775
96	0xbef0610d	-0.46949044
97	0x3fe8cc38	1.8187323
98	0x3f2d7334	0.6775391
99	0xbe1f8dd4	-0.15581447
100	0xbf4ef75c	-0.8084619
101	0x3f5fd8ba	0.87440073
102	0x3e2435c7	0.1603614
103	0x3f28e88e	0.6597985
104	0xbe71f873	-0.23629932
105	0x3eda3db2	0.42625195
106	0x3c07c6ec	0.008287173
107	0x3d3f2a1c	0.046671018
108	0x3e6b73c5	0.22993381
109	0xbe7224df	-0.23646878
110	0x3f59fb4a	0.8514906
111	0x3f88b984	1.0681615
112	0x3de29a30	0.11064565
113	0xbf1dc1a2	-0.61623585
114	0x3ea045df	0.31303307
115	0x3e6a1196	0.22858271
116	0xbf4a21d3	-0.7895786
117	0xbe02e114	-0.12781173
118	0x3cde20f6	0.027115326
119	0x3f16d1f6	0.58914125
120	0xbf2c6b4a	-0.6735121
121	0xbf0a53d7	-0.5403418
122	0x3d343200	0.043992996
123	0x3e7b95ac	0.24568814
124	0x40a1230a	5.035527
125	0x3d5600bc	0.052246794
126	0xbfb12fce	-1.3842714
127	0xbecb8a55	-0.39753976
128	0x3f52bcd9	0.8231941
129	0x3fb7409c	1.4316592
130	0x3f25e898	0.64808035
131	0x3fafc1ab	1.3730978
132	0xbe2fff31	-0.17187192
133	0xbe57dda1	-0.21080638
134	0xbfd8b52b	-1.6930288
135	0xbf8dab0e	-1.1067827
136	0x3fcba3ef	1.5909404
137	0x3cb6ae3c	0.022299878
138	0x3f67e5ef	0.90585226
139	0xc01b569a	-2.4271607
140	0xbd9717f5	-0.07377616
141	0xbf81bc1d	-1.0135533
142	0xc005d59d	-2.091163
143	0xbfc48847	-1.5354089
144	0xc0050982	-2.0787053
145	0xbe550e23	-0.20806174
146	0x3e0becf6	0.13664612
147	0xbdfc912b	-0.12332376
148	0x3eee9c81	0.46603778
149	0x3ff148f3	1.8850387
150	0xc211bdba	-36.43528
151	0xbd934d28	-0.07192451
152	0x3fa0399b	1.251758
153	0x3f593dc7	0.8485989
154	0x3ed10dec	0.40830934
155	0x3eee349a	0.46524507
156	0x3ff4b37a	1.9117272
157	0xbec013b1	-0.37515023
158	0x3d7a4d27	0.061108734
159	0xbe116e00	-0.14202118
160	0x40107bab	2.257548
161	0x3f227bc1	0.63470083
162	0xbf8dc26e	-1.107496
163	0xc0b484b7	-5.6412005
164	0xbf368353	-0.71294135
165	0x3e37e9bf	0.17960261
166	0x3f784a81	0.96988684
167	0xbe7e11df	-0.24811505
168	0x400306e6	2.047296
169	0x3fe9ba1e	1.8259923
170	0xc0430c3c	-3.0476217
171	0xbf9e2718	-1.235568
172	0xbf8d7aae	-1.1053064
173	0xbfe18b12	-1.7620566
174	0x3e144e78	0.14483058
175	0xc136f7fe	-11.435545
176	0x3ea26569	0.31717995
177	0x3f4c70d6	0.79859674
178	0xc02dc69f	-2.7152479
179	0xbed90d6c	-0.42393053
180	0xbf74b956	-0.955953
181	0xbe6dde76	-0.23229393
182	0x3f5907fb	0.847778
183	0xc08f3e9e	-4.4763937
184	0xbe299c64	-0.16563565
185	0xbdd23d8a	-0.10265644
186	0xbf5ee069	-0.8706117
187	0xbed144b8	-0.4087274
188	0xbf650387	-0.8945851
189	0xc00543e0	-2.0822678
190	0x3e539ad8	0.20664537
191	0xbecab05f	-0.39587685
192	0xbf835aef	-1.0262126
193	0x3ed2212a	0.41040927
194	0x3f4e3d5c	0.80562377
195	0x3df3d016	0.119049236
196	0xbedc6e30	-0.43052816
197	0xbd83e91b	-0.06440946
198	0xbdf9866d	-0.12183843
199	0x3e0ee3dd	0.1395411
200	0x3e10e5bf	0.14150141
201	0xc00b6821	-2.1782305
202	0xbca05004	-0.019569404
203	0x3e959aaf	0.29219577
204	0x3f5bdd69	0.8588472
205	0xbe0c86d6	-0.13723311
206	0x3e77aabe	0.24186227
207	0x3f7071fc	0.93923926
208	0x3e290ec0	0.16509533
209	0x3d61651d	0.05502807
210	0xbb810f6c	-0.003938606
211	0x3c45edac	0.012080591
212	0x3d85e280	0.06537342
213	0x3d03294c	0.032021806
214	0xbf060f37	-0.52366966
215	0xbee58a96	-0.44832295
216	0xbdfe2b88	-0.12410647
217	0xbdbde772	-0.0927266
218	0xbd708858	-0.058723778
219	0xbc9cac7a	-0.019125212
220	0x402ea316	2.728704
221	0xbec9e6ee	-0.39433998
222	0xbf280048	-0.6562543
223	0xbd2a3559	-0.041554783
224	0xbdd963d6	-0.10614745
225	0x3f00e591	0.5035029
226	0xbe517aa7	-0.20456944
227	0xc0344349	-2.8166068
228	0x4047e596	3.1233878
229	0x3e559e61	0.20861198
230	0x3efe294c	0.49640882
231	0x3e8a1813	0.26971492
232	0xbe9c05d9	-0.3047321
233	0x400388c3	2.0552223
234	0x3f09b875	0.53797084
235	0x3f095d43	0.5365793
236	0x3e22ed87	0.15910922
237	0x3d24c698	0.040228456
238	0xbe592667	-0.21206056
239	0x3e83fb0e	0.25777477
240	0xbf40608c	-0.7514732
241	0x40129231	2.2901728
242	0xbf318291	-0.69339854
243	0xbf9c0538	-1.2189093
244	0x3e21a5a0	0.15785837
245	0xbd885a7e	-0.06657885
246	0xc01ec102	-2.4805303
247	0xbdd049d3	-0.10170331
248	0xbf139935	-0.5765565
249	0xbd928098	-0.071534336
250	0xbdb42a93	-0.08797183
251	0x3e2d1a84	0.16904646
252	0xbf3fe07f	-0.7495193
253	0x404af470	3.1711693
254	0xc0a9d1af	-5.306846
255	0xbe9f03cd	-0.31057587

l_lstm.weight_hh_l0 f4 [32, 8]
0	0x3e2fe3d1	0.17176749
1	0x409b1545	4.8463464
2	0x3fca23ed	1.5792214
3	0xbfca324e	-1.5796602
4	0xbf6cf486	-0.92560613
5	0xbf826149	-1.0185939
6	0x3e6a4e9b	0.22881548
7	0xbf94f9cb	-1.1638731
8	0x3fd803a9	1.6876117
9	0x3e0b513d	0.13605209
10	0xc05cb083	-3.4482734
11	0xbdc72348	-0.09723526
12	0xbd8149a4	-0.06312874
13	0x3ff0dcd7	1.8817395
14	0xbf461385	-0.77373534
15	0x3dfe09f2	0.12404241
16	0x3f3cca90	0.73746586
17	0x3f217fcc	0.6308563
18	0xbd4b2734	-0.049597934
19	0x3f2b5d5d	0.66939336
20	0xbf3f429e	-0.74711025
21	0xbfc7fb78	-1.5623617
22	0x3e9438c8	0.2894957
23	0xbf27e32b	-0.65581006
24	0x406d33ac	3.7062788
25	0x3f6c0060	0.9218807
26	0x3f6ef7cc	0.9334686
27	0xc04a6cfa	-3.1629014
28	0xbecaf3ef	-0.39639232
29	0xbfb09499	-1.3795348
30	0x3f618d37	0.881061
31	0xbe1d97f5	-0.15389998
32	0x3f08dee2	0.5346509
33	0x3da9a689	0.08283717
34	0xbe436e86	-0.1908513
35	0xbfe1c8db	-1.7639421
36	0x3e35554d	0.17708321
37	0xbef815b9	-0.48454073
38	0x3eab0920	0.334054
39	0x3dde487b	0.10853668
40	0x3fa72471	1.3057996
41	0x3ea3b85a	0.31976587
42	0xc1190c08	-9.565437
43	0x407dc518	3.9651546
44	0xc08ba8b1	-4.364342
45	0xbfc4f9e6	-1.5388763
46	0xbe204954	-0.15652972
47	0x403adb89	2.9196494
48	0xbf33c66e	-0.70224655
49	0xbc6488f8	-0.0139486715
50	0x3f94ebd4	1.1634469
51	0x3fc8c773	1.5685867
52	0xbf839ff7	-1.0283192
53	0xbff11b90	-1.8836536
54	0x3fa0264b	1.2511686
55	0xbf8f7ec4	-1.1210561
56	0x3ff43cef	1.9081095
57	0xbde639f4	-0.112415224
58	0xbf2ab70e	-0.6668557
59	0xbf20fdb1	-0.628871
60	0xbf673eeb	-0.9033038
61	0xc054948a	-3.321566
62	0xc01cc2d9	-2.4493926
63	0x403f5d67	2.9900758
64	0x3fb10bc3	1.3831714
65	0xbdbce1e8	-0.09222776
66	0x3f4844f9	0.78230244
67	0x3e0d2b45	0.13786037
68	0x3d2e4a0e	0.042551093
69	0xbdc51ee0	-0.096250296
70	0x3efa18e0	0.48847103
71	0x3e91084f	0.2832665
72	0x3f422fdb	0.7585427
73	0xbd991924	-0.07475498
74	0xc065e215	-3.591924
75	0x3f778d84	0.9670031
76	0x3f4f9b62	0.8109647
77	0x3fb8e031	1.4443418
78	0xc00bc778	-2.1840496
79	0x3f91af66	1.1381652
80	0x3f8902a6	1.0703933
81	0xc0816c2a	-4.0444536
82	0xbe31e7b5	-0.17373545
83	0xbf8502ae	-1.0391443
84	0xbf5a5f66	-0.85301816
85	0xbfe3f2cc	-1.7808471
86	0xbe2f840a	-0.17140213
87	0xbff9ebbe	-1.9525068
88	0xbfbd413e	-1.4785535
89	0x3fa87b37	1.3162602
90	0x3ee2a189	0.44263867
91	0xbb831bcd	-0.004001117
92	0x3f856296	1.0420711
93	0xbe04e0b8	-0.12976348
94	0x3f18a39f	0.59624666
95	0x3f11b2d3	0.5691349
96	0xbf96f830	-1.1794491
97	0xbeece58d	-0.46268883
98	0x3cf0a995	0.029377738
99	0x3f063873	0.52429885
100	0xbf48c5da	-0.784269
101	0x3da41697	0.08012121
102	0x3fe05c65	1.7528197
103	0xbf0a122e	-0.5393399
104	0xc07d90f7	-3.961973
105	0x3ee9eddb	0.45689282
106	0x40dfea97	6.9973865
107	0x40d1c0be	6.554778
108	0x3ff49e5a	1.9110825
109	0xbf87f91e	-1.06229
110	0x4086282b	4.1924033
111	0xc00fabe0	-2.2448654
112	0x3e7487e7	0.23879968
113	0x3e1fc662	0.15603021
114	0x3fd3b9c8	1.6541071
115	0xc02695a5	-2.6028836
116	0x3eee6233	0.46559295
117	0x409d683f	4.9189754
118	0xbfd9a275	-1.7002703
119	0x400d6df7	2.2098367
120	0x3f8fa167	1.1221131
121	0xbf6b588e	-0.91932
122	0x3ec8c834	0.39215243
123	0x3fd4199f	1.6570319
124	0xbf754ec7	-0.9582333
125	0x40967153	4.7013335
126	0x3f8fb990	1.1228504
127	0x3f5e6add	0.8688181
128	0xbf5427f6	-0.82873476
129	0xbef655a1	-0.48112205
130	0xbf1e301f	-0.61792177
131	0x3f3404ac	0.7031963
132	0x3f3c2321	0.734911
133	0xbc58eac9	-0.013239571
134	0xbf6f94bb	-0.9358632
135	0x3f36680b	0.71252507
136	0xbf2c1ac6	-0.67228353
137	0xbfaefd89	-1.3671123
138	0x3f1d2dbf	0.6139793
139	0x3ea35a67	0.3190491
140	0x3f5aff09	0.855454
141	0xbe030919	-0.12796439
142	0xbf284332	-0.6572753
143	0xbe621dd7	-0.22081695
144	0xbee720d3	-0.4514223
145	0x3f20c6ac	0.6280315
146	0x3f392c77	0.7233347
147	0x3ea508c8	0.32233262
148	0xbf72990f	-0.947648
149	0xbfefb457	-1.872691
150	0xbf935480	-1.1510162
151	0xbf6d0842	-0.92590725
152	0xc00a3a94	-2.1598253
153	0xbfb38272	-1.4024184
154	0xbc88d72b	-0.016704163
155	0xc02445c0	-2.5667572
156	0x3f2708ae	0.6524762
157	0xbf4e1af9	-0.80509907
158	0x3e38f16a	0.18060842
159	0xbe93dc99	-0.2887924
160	0x3e698029	0.22802795
161	0x3ee41f5f	0.44555184
162	0x3f023898	0.50867605
163	0xbe2c0320	-0.16798067
164	0xbf82924b	-1.0200895
165	0xbdad7263	-0.08469083
166	0x3ee85fb0	0.45385504
167	0xbf545e1e	-0.8295611
168	0x3e47d9e5	0.19516714
169	0xbaa18f44	-0.0012326022
170	0x3e836ebd	0.25670424
171	0xbeefddae	-0.46848816
172	0x3f6c147f	0.92218775
173	0xbebd6d73	-0.36997566
174	0x3f2c8b04	0.6739962
175	0x3db6a5b2	0.089183226
176	0x3e56595f	0.2093253
177	0xbe147646	-0.14498243
178	0x3daa50a8	0.08316165
179	0x3e63b0c8	0.22235405
180	0xc016ef9f	-2.3583753
181	0xbf6d126b	-0.9260623
182	0xbf96c634	-1.1779237
183	0x3f824ec9	1.0180293
184	0x3e82b2c4	0.25527012
185	0xbf099e18	-0.53756857
186	0xbf5613c2	-0.836239
187	0x3f80f5d6	1.0075023
188	0x3eb5bc62	0.35495287
189	0xbf804f1c	-1.0024142
190	0x3f5be8ba	0.8590199
191	0xbffcdc89	-1.9754802
192	0xbce32832	-0.027729128
193	0x40a16f70	5.044853
194	0x3f8127c1	1.0090257
195	0xc064402f	-3.5664175
196	0xc079549b	-3.895789
197	0xbf3a477d	-0.7276533
198	0x3eb6e663	0.35722646
199	0xbfeccdbe	-1.8500288
200	0xbec6143c	-0.38687313
201	0xbfb0e9e6	-1.382138
202	0xc02a0a67	-2.656885
203	0x3f64bda4	0.8935187
204	0xbe9c1520	-0.30484867
205	0xc013a20f	-2.3067663
206	0x4013c35a	2.3087983
207	0x3f799b5d	0.9750269
208	0x3fabaae0	1.3411522
209	0xbf82de36	-1.0224063
210	0xbe05c25b	-0.13062422
211	0x3f488caf	0.78339666
212	0xbfc31fbc	-1.524406
213	0xbf4526af	-0.7701215
214	0x3e6fa1ef	0.23401617
215	0xbe48b74f	-0.19601177
216	0xbfe81a2f	-1.8132991
217	0xbf4bdefc	-0.7963712
218	0xbf33eb22	-0.7028066
219	0x3f667a82	0.9003068
220	0xbdfb699d	-0.122760035
221	0x3fe6c54e	1.8028963
222	0xc0fbfabc	-7.874357
223	0x3f594f76	0.8488687
224	0xc09551ef	-4.6662517
225	0x412fe10e	10.992445
226	0x404b26ca	3.1742425
227	0x40078a00	2.1177979
228	0xbef75024	-0.4830333
229	0x403ec832	2.980969
230	0x3feb2495	1.8370539
231	0xc093a64f	-4.6140513
232	0xbf7ee903	-0.995743
233	0x3e11a3c0	0.14222622
234	0x4039e001	2.904297
235	0xbdd6f898	-0.10496634
236	0x3f6e07b8	0.9298053
237	0xbffc4712	-1.9709189
238	0xbf19167d	-0.5979994
239	0xbe4536a2	-0.19259122
240	0x3efa4da8	0.48887372
241	0x3cc8179c	0.02442532
242	0x3f44f3f2	0.7693473
243	0x3f0c3712	0.5477153
244	0x3fad7a74	1.3552995
245	0xbf417802	-0.7557374
246	0xbf82496c	-1.0178657
247	0x3fa30fac	1.2739158
248	0xc018650a	-2.381167
249	0x3f00407a	0.50098383
250	0x3ebc49c8	0.3677504
251	0xbf495d76	-0.78658235
252	0x3fe18527	1.761876
253	0xbf3ff1f2	-0.74978554
254	0x40231e1d	2.548713
255	0xbe1235e8	-0.14278376

l_lstm.bias_ih_l0 f4 [32]
0	0x3ee81ba8	0.453336
1	0xbe0bd709	-0.13656248
2	0x3e82dff1	0.2556148
3	0xbf270040	-0.65234756
4	0xbf0f100e	-0.5588387
5	0x3f0e84e6	0.55671537
6	0xbf63ee57	-0.8903555
7	0xbf2d3638	-0.67660856
8	0x3e0aa4f9	0.13539495
9	0xbf1ca0f7	-0.6118311
10	0x3ed75d19	0.42063215
11	0xbdd4840d	-0.10376749
12	0x3f3a4140	0.72755814
13	0xbe1517d4	-0.14559871
14	0x3ef7a926	0.48371238
15	0x3ee3d3f2	0.4449764
16	0xbedc43a2	-0.4302035
17	0xbd0f7d24	-0.035031453
18	0x3ec0e8f1	0.3767772
19	0x3f28f487	0.6599812
20	0x3e4ac31a	0.19800988
21	0xbdf1c94f	-0.11805975
22	0xbf7a7e28	-0.9784875
23	0x3ec2b58e	0.3802914
24	0x3f63b9b1	0.8895522
25	0xbe9e91ba	-0.30970556
26	0x3eedbe51	0.46434262
27	0xbeaf5d47	-0.34250852
28	0x3fbd8ff5	1.4809557
29	0xbec227db	-0.37921032
30	0x3eab7ed2	0.33495194
31	0x3eb0c966	0.34528655

l_lstm.bias_hh_l0 f4 [32]
0	0x3f07b98c	0.530175
1	0xbe767a80	-0.24070168
2	0xbe0bcad6	-0.13651595
3	0xbf32242e	-0.69586456
4	0xbefddec6	-0.49584025
5	0x3f2770db	0.6540658
6	0xbf3854c8	-0.72004366
7	0xbce5e198	-0.028061673
8	0x3e3aa13c	0.18225569
9	0xbf4d3b2c	-0.80168414
10	0xbdc8a268	-0.097966015
11	0x3e4b24b5	0.19838221
12	0x3f30731d	0.6892565
13	0xbf4cb35e	-0.7996119
14	0x3f1506f6	0.58213747
15	0x3e6b4e98	0.229792
16	0xbf065711	-0.524766
17	0xbdad879e	-0.084731326
18	0x3f021485	0.5081256
19	0x3f008a3d	0.50210935
20	0x3f45867c	0.7715833
21	0x3dab9f73	0.08380022
22	0xbf823236	-1.0171573
23	0x3e352367	0.17689286
24	0x3f5fee02	0.87472546
25	0xbe622f17	-0.22088276
26	0x3eb0265a	0.3440426
27	0xbf4973e9	-0.7869249
28	0x3f91b562	1.1383479
29	0xbe58c329	-0.21168198
30	0x3deedcf1	0.11663235
31	0x3f1283ff	0.5723266

l_lstm.weight_ih_l1 f4 [32, 8]
0	0x3edbc10d	0.42920724
1	0x3e23a9ed	0.1598279
2	0x3f0c14b2	0.5471908
3	0xbe9a476e	-0.30132622
4	0xbf332b41	-0.69987875
5	0xbfa2c525	-1.2716414
6	0x3e833cec	0.25632417
7	0xbf249767	-0.6429352
8	0xbec9f9d2	-0.3944841
9	0x3ec002d1	0.3750215
10	0x3ef7dfe8	0.48413014
11	0xbf23b768	-0.6395173
12	0x3e7393b7	0.23786817
13	0x40119d29	2.2752173
14	0x3f2701b0	0.6523695
15	0x3f0da7f9	0.5533443
16	0xbeb2f55e	-0.34952825
17	0x3ea359e5	0.31904522
18	0x40285813	2.6303756
19	0xc01aac09	-2.4167502
20	0xbf27e6c6	-0.6558651
21	0xbee5b2e5	-0.44863048
22	0x3fb62d5c	1.4232593
23	0xbf13ab5a	-0.57683337
24	0xbd89f2c0	-0.06735754
25	0x3dc035fe	0.09385298
26	0x3f0cc320	0.5498524
27	0xbf11fc17	-0.57025284
28	0xbef78416	-0.4834296
29	0x3f3e557b	0.7434918
30	0x3fc53699	1.5407287
31	0xbebe2326	-0.3713619
32	0xbf147c21	-0.58001906
33	0x3fba5b38	1.4559088
34	0xbeedaa2f	-0.46418902
35	0xbe8be42c	-0.2732252
36	0xbb5bb15e	-0.0033522467
37	0x3fdbb07e	1.7163236
38	0x3fbb62ba	1.4639504
39	0xbf0a61cf	-0.54055494
40	0xbfa8a2f6	-1.3174732
41	0x3ed1d6db	0.40984234
42	0x3f886ed1	1.0658818
43	0xc01635ad	-2.347026
44	0xbe64156f	-0.22273801
45	0xbf3e95c9	-0.74447304
46	0x3fb07b66	1.3787658
47	0xbe882ae0	-0.2659521
48	0xbe6b4f2c	-0.2297942
49	0xbfa284fb	-1.2696832
50	0xbf814d86	-1.0101783
51	0x3eb7dcaf	0.35910556
52	0x3e9eecd1	0.31040052
53	0x3f4507e6	0.7696518
54	0xc03439ea	-2.8160348
55	0x3f97cb75	1.1858965
56	0xc0101edc	-2.2518835
57	0x3e2dfd89	0.16991247
58	0x3fa68914	1.3010583
59	0xbfc1dee3	-1.5146145
60	0xbf87430d	-1.0567337
61	0xbf3d4238	-0.73929167
62	0xbe1b4a88	-0.1516515
63	0xbf0b5a5b	-0.54434747
64	0xbfa032d9	-1.2515517
65	0xbfcdfd8e	-1.6093004
66	0x3ea321a5	0.31861606
67	0x3ff27f9b	1.8945192
68	0x3f8938d3	1.0720466
69	0x3eb4a7e2	0.35284334
70	0xbf9698a0	-1.1765327
71	0x3f2ea700	0.6822357
72	0xbfa8e43a	-1.3194649
73	0xbec13880	-0.3773842
74	0x3f39f3f9	0.726379
75	0x3fbfb0af	1.4975795
76	0x3f4beaf9	0.79655415
77	0x3e3c5bfe	0.18394467
78	0xc0350bbf	-2.828842
79	0x3d993533	0.0748085
80	0x4014467e	2.3168025
81	0x3f395126	0.7238945
82	0xbffa99ff	-1.9578246
83	0x3f22aa80	0.6354141
84	0x3c259860	0.01010713
85	0xbf964593	-1.1739982
86	0xbd89f03c	-0.06735274
87	0xbf18ad55	-0.59639484
88	0xbd6629a3	-0.05619205
89	0x3ef88ae0	0.48543453
90	0xbfd70e9d	-1.6801335
91	0xbe2b054f	-0.16701244
92	0xbf739dc3	-0.951626
93	0xbf7cb22e	-0.9870938
94	0xbf06c14e	-0.5263871
95	0xbf47df6e	-0.780753
96	0xc022f75f	-2.5463483
97	0x3f433fca	0.7626921
98	0x3ff52324	1.9151349
99	0x3f900644	1.1251912
100	0xbf20155d	-0.625326
101	0xc01e9fed	-2.478511
102	0xc00e59d8	-2.2242336
103	0xbf924e3b	-1.1430124
104	0x40093a9d	2.1442025
105	0x3f85f937	1.0466679
106	0xc0369911	-2.8530924
107	0x3fbf9f81	1.4970552
108	0xbee18578	-0.4404714
109	0x3e6cd64b	0.23128621
110	0xbf2faf5c	-0.6862695
111	0xbf98a5a3	-1.1925548
112	0xbff8ede6	-1.9447601
113	0xc0178f83	-2.3681343
114	0x40470a17	3.1099908
115	0xc0478403	-3.1174324
116	0x40b82924	5.755022
117	0xc1233746	-10.2009945
118	0x3ed5b00a	0.4173587
119	0x410f0e3d	8.940976
120	0xc07e6d8e	-3.9754367
121	0xc0639c57	-3.5564172
122	0xbe26896c	-0.1626336
123	0x40429963	3.040612
124	0x4031cf99	2.7782958
125	0xbef40a4d	-0.4766411
126	0x3fbabcc4	1.4588857
127	0x3f959c6c	1.1688361
128	0xbf8bacf7	-1.091216
129	0xbefcb3d7	-0.49355957
130	0x3e646182	0.22302821
131	0x3e168729	0.14699997
132	0x3f987b3f	1.1912612
133	0x3f3922c7	0.7231869
134	0xbf47a9cd	-0.7799347
135	0x3fa084ac	1.2540488
136	0x3f38b7e4	0.72155595
137	0x3fb27b70	1.394392
138	0x3e421ab4	0.18955499
139	0xbf4a81a4	-0.79104066
140	0xbfb89019	-1.4418975
141	0xbe76c681	-0.2409916
142	0x3f3c618b	0.7358634
143	0xbfe055b1	-1.7526151
144	0x3f8aa53c	1.0831676
145	0x3f412738	0.7545047
146	0x3e90fe19	0.2831886
147	0xbf964aa8	-1.1741533
148	0xbf8c9216	-1.0982082
149	0xbe9bdc2f	-0.30441424
150	0x3f47fbf7	0.7811884
151	0xbf854d0e	-1.041414
152	0x3f4bc4e5	0.7959731
153	0x3f2c542b	0.6731593
154	0xbf00f796	-0.50377786
155	0xbef6256f	-0.48075435
156	0xbf86a3aa	-1.0518696
157	0xbf085eee	-0.5326985
158	0x3f2b73f4	0.66973805
159	0xbfa14593	-1.2599357
160	0x3e721da4	0.2364412
161	0x3f3433eb	0.7039172
162	0xbf5e69bf	-0.86880106
163	0xbe8da065	-0.27661434
164	0xbf42489b	-0.7589204
165	0xbf807268	-1.0034914
166	0x3ed97dfd	0.42478934
167	0xbfa1243b	-1.2589182
168	0x3fc3800e	1.5273454
169	0x3f1f1ff7	0.6215815
170	0x3c9ee40d	0.019395852
171	0xbede6191	-0.43433812
172	0xbf95570a	-1.1667187
173	0x3e79d6b9	0.24398316
174	0x3f76818d	0.9629143
175	0xbf27a658	-0.65488195
176	0x3e92cd6d	0.28672352
177	0x3f13e993	0.5777828
178	0xbeca4c56	-0.39511365
179	0xc096b603	-4.709718
180	0xbfd3c08f	-1.6543139
181	0xbf90398d	-1.1267563
182	0x4029504b	2.6455257
183	0xc075722b	-3.8350933
184	0x3c9d6a53	0.019215738
185	0x3f947cfa	1.160064
186	0x3eb94fac	0.36193597
187	0xbf3a4aa8	-0.72770166
188	0xbfbc8b99	-1.4730102
189	0xbf0ea5d6	-0.55721796
190	0x3fb95a2e	1.4480646
191	0xbf98e84e	-1.1945894
192	0x3f035899	0.51307064
193	0x3f1622ad	0.5864666
194	0xbd0ec396	-0.034854494
195	0xbe1cc9c9	-0.1531135
196	0xbe877fc7	-0.26464674
197	0xbea78742	-0.3272038
198	0x3db024ef	0.086007945
199	0xbf00e93e	-0.503559
200	0xbf5ca4db	-0.8618905
201	0xbe28f3dc	-0.16499275
202	0x3fc2b8fa	1.52127
203	0xbe912d57	-0.28354904
204	0xbecb202f	-0.39672992
205	0x401aa083	2.4160469
206	0x3edfc337	0.43703625
207	0x3f4436cd	0.7664612
208	0x3f1be350	0.60893726
209	0x3f2a1b5a	0.66447985
210	0x3fd0b290	1.6304493
211	0xbfaba15f	-1.3408622
212	0xbeac8a94	-0.33699477
213	0x3cf3f0bb	0.029777875
214	0xbc485eff	-0.01222968
215	0xbf88bc68	-1.0682497
216	0x3fc5baaf	1.5447596
217	0x3d4dbe43	0.050230276
218	0xbee9d372	-0.45669132
219	0xbe90f9fc	-0.28315723
220	0xbeac396d	-0.33637562
221	0x400045a3	2.0042503
222	0x3e8ddb11	0.27706197
223	0xbf4c888e	-0.79895866
224	0x3fc71e77	1.5556172
225	0xbf15f4c0	-0.58576584
226	0xbee27e58	-0.44237018
227	0x3eaff12b	0.34363684
228	0xbdba78a4	-0.091050416
229	0x3fa64c28	1.2991991
230	0x3f8fdee8	1.12399
231	0xbf4d71d5	-0.8025182
232	0xbf233fad	-0.63769037
233	0x3eda20f7	0.42603275
234	0x3f0d6fd8	0.55248785
235	0xbf77d31c	-0.968065
236	0xbf0a9481	-0.5413285
237	0xbed931c3	-0.42420778
238	0xbf7a4c9f	-0.97773165
239	0xbee25802	-0.4420777
240	0xbf63d334	-0.88994145
241	0x3e2b80e3	0.16748385
242	0xbe9d8271	-0.3076358
243	0xc012836e	-2.2892718
244	0x3fac297a	1.3450158
245	0xbec31cb2	-0.3810783
246	0x3f920e2a	1.1410573
247	0x3f5d4785	0.86437255
248	0x3ea6d72f	0.32586047
249	0xbeb1e849	-0.34747532
250	0x3fa2f1c0	1.2730026
251	0xbefaedfe	-0.490097
252	0x3e7b3fc0	0.24536037
253	0xbe0a80f2	-0.13525751
254	0x3cd21d12	0.025648627
255	0x3dcbdcd6	0.099542305

l_lstm.weight_hh_l1 f4 [32, 8]
0	0x3e941085	0.28918853
1	0xbfdc8fa6	-1.7231338
2	0xbeafceb1	-0.3433738
3	0x3db43cf6	0.0880069
4	0x3e90ff55	0.28319803
5	0xbef178d0	-0.47162485
6	0xbf31d23d	-0.69461423
7	0xbf19d9b2	-0.600978
8	0xbf91217e	-1.1338346
9	0xbf311b49	-0.6918226
10	0x3f63280a	0.8873297
11	0x400679cd	2.1011841
12	0x3fb20010	1.3906269
13	0x3ec263fd	0.3796691
14	0x3f8bc554	1.0919595
15	0x3f387355	0.7205098
16	0x3f856e60	1.0424309
17	0xbfd59077	-1.6684712
18	0xbf19cd4b	-0.6007888
19	0xbe18c438	-0.14918602
20	0xbf57a015	-0.8422864
21	0xbfa097af	-1.254629
22	0xc005d85b	-2.0913303
23	0xbfa4fbb6	-1.2889316
24	0x3f0a2e91	0.53977305
25	0xc00877b1	-2.1323054
26	0x3f68b53c	0.9090154
27	0xbf6a7f32	-0.91600335
28	0xbfa7b434	-1.3101869
29	0xbebbfaf2	-0.36714894
30	0xbfdb51a4	-1.713429
31	0xbf963fbb	-1.1738199
32	0xbf55d829	-0.8353296
33	0xbf9dee9b	-1.2338442
34	0x4034b006	2.8232436
35	0x3fca9f21	1.5829812
36	0xbf9f6df9	-1.2455436
37	0x3f020965	0.50795585
38	0xbcc53d73	-0.024077153
39	0x3f2a17fb	0.6644284
40	0x3f830025	1.0234419
41	0xbfa8cf8c	-1.3188338
42	0xbe125fe5	-0.14294393
43	0x3eeddd77	0.46458027
44	0xbda5d4d8	-0.08097237
45	0xbfb2f094	-1.3979669
46	0xbf7d0c7e	-0.98847187
47	0xbf8eb10c	-1.114778
48	0x3e821ba4	0.25411713
49	0x3fa6ae92	1.3022025
50	0x3f54ecce	0.83173835
51	0x4037cdc1	2.8719332
52	0x3fd510fb	1.6645807
53	0x3fd0400f	1.6269549
54	0x3f82b82a	1.0212452
55	0xbd80b25a	-0.06284018
56	0xbed710b2	-0.42004925
57	0xbf07b0d2	-0.5300418
58	0x3efcf4d9	0.49405554
59	0x3ff5e9b6	1.9211948
60	0x3ff07795	1.8786494
61	0x3f48fbc6	0.78509176
62	0x3fd917cb	1.6960386
63	0x3f1f81a1	0.62307173
64	0x3ee6beb5	0.45067373
65	0xbf23875c	-0.63878417
66	0xbf068a87	-0.52555126
67	0xbef6cfaf	-0.48205325
68	0x3e21685a	0.15762463
69	0xbf8c7b5f	-1.097515
70	0xbe922b3d	-0.28548613
71	0xbf0fb8a8	-0.5614114
72	0xbdd9cbfd	-0.10634611
73	0x3d7068b8	0.058693618
74	0xbfc11746	-1.5085227
75	0x3ea51527	0.322427
76	0x3f87aa11	1.0598775
77	0xbf99652b	-1.1983999
78	0xbdf0bb4a	-0.117544726
79	0xbe9e242e	-0.30886978
80	0x3e638431	0.22218396
81	0xbee074ee	-0.4383921
82	0x3f953e67	1.1659669
83	0xbe6e371f	-0.23263215
84	0xbfa3baf6	-1.2791431
85	0x3f4fbf7a	0.81151545
86	0xbfaf06a7	-1.3673905
87	0xbdcc22a4	-0.09967545
88	0x3df98cd5	0.12185065
89	0xbeec6a45	-0.46174827
90	0x3e555300	0.20832443
91	0xbf0d396f	-0.5516576
92	0xbf8d7c6c	-1.1053596
93	0xbeddba23	-0.43306074
94	0xbfad7675	-1.3551775
95	0xbf3dc4b2	-0.7412826
96	0x3e4b6e55	0.19866307
97	0xbf58f142	-0.8474313
98	0xbef66f2a	-0.48131686
99	0x3f1ff68d	0.6248558
100	0xbf1aead0	-0.60514545
101	0xbedae647	-0.42753813
102	0xbf692f45	-0.9108775
103	0xbf7cde8b	-0.98777074
104	0xbd8b2653	-0.06794419
105	0xbf1118d6	-0.5667852
106	0x3f912ea5	1.134236
107	0x3e36ab5c	0.17838806
108	0xbf8e43d0	-1.1114445
109	0x3e32452f	0.17409204
110	0xbfe1498c	-1.760057
111	0xbe8a7c4e	-0.27047962
112	0x3f54f91c	0.8319261
113	0xc053314f	-3.2998846
114	0xc0172cf4	-2.3621187
115	0xbf9e1ed6	-1.235316
116	0xbeb8073f	-0.35943028
117	0xbff2a4f4	-1.895659
118	0x3b817101	0.0039502387
119	0xbf482041	-0.78174216
120	0x3f0b53bb	0.5442464
121	0xc012c401	-2.2932131
122	0xbef97e7e	-0.48729318
123	0xbe059731	-0.13045956
124	0xbf655710	-0.8958597
125	0xbfcc47b2	-1.595938
126	0xbf13543c	-0.57550406
127	0xbea9654a	-0.3308509
128	0xbfe4ca20	-1.7874184
129	0x3f4e2536	0.8052553
130	0x3dd79ad9	0.10527582
131	0x3ebe4afa	0.37166578
132	0x3f7b082e	0.98059356
133	0x3f5a73f0	0.85333157
134	0xbc8258cc	-0.015911482
135	0x3f82e09f	1.0224799
136	0x3f90972d	1.1296135
137	0xbfbfc7a5	-1.4982802
138	0xbf824383	-1.0176853
139	0xbf2ac9ac	-0.66713977
140	0xbfecf0e2	-1.8511012
141	0xbeed683b	-0.46368584
142	0xbf6b27e1	-0.91857725
143	0xbfa1e030	-1.2646542
144	0x3f665dce	0.89986885
145	0xbf64430c	-0.89164805
146	0xbf8df29c	-1.1089664
147	0xbf08433f	-0.5322761
148	0xbf580f63	-0.8439848
149	0xbfd605ce	-1.6720521
150	0xbf6e67bd	-0.9312704
151	0xbfd2ba16	-1.6463039
152	0x3f7db018	0.9909682
153	0xbf1489ce	-0.58022773
154	0xbe14e59b	-0.14540713
155	0xbf80dd4f	-1.0067538
156	0xbfc79a5d	-1.5593983
157	0xbf66bd93	-0.9013302
158	0xbf86c363	-1.0528377
159	0xbf37a99e	-0.7174319
160	0xbd2e5836	-0.042564593
161	0x3ec1e1d9	0.3786762
162	0x3ec68fb6	0.38781518
163	0x3f027fb2	0.509761
164	0xc02266d3	-2.537526
165	0xbf30b873	-0.6903145
166	0x3e9c232e	0.3049559
167	0xbebd0442	-0.3691731
168	0x3f99e953	1.202433
169	0xbd41ad81	-0.047284607
170	0xbe545b83	-0.20738034
171	0xbf10695c	-0.56410766
172	0xbf4114cd	-0.75422364
173	0xc00dc3b4	-2.2150698
174	0xbed96a5b	-0.42463955
175	0xbfbb66ee	-1.4640787
176	0x3e2eb1ec	0.1706006
177	0x3f860b6a	1.0472233
178	0x4052ad1f	3.2918165
179	0x3f358d1e	0.7091845
180	0xbf41a6a3	-0.7564489
181	0x3ec2881f	0.37994477
182	0xbfa26a54	-1.2688699
183	0x3e681b27	0.22666608
184	0x3f19fb73	0.60149306
185	0xbf381dba	-0.7192036
186	0x3f9611b3	1.1724151
187	0xbf71f4f7	-0.9451441
188	0x3ea275f1	0.31730607
189	0xbeda939f	-0.4269075
190	0x3d2ab586	0.04167702
191	0xbfac4be6	-1.3460662
192	0x3f1d165b	0.61362237
193	0xbfdf8f74	-1.7465653
194	0xbe64f0d8	-0.223575
195	0x3ef741c9	0.48292378
196	0x3d9e4ab6	0.07729094
197	0xbdf78097	-0.120850734
198	0xbf13d77f	-0.57750696
199	0xbea758a6	-0.3268482
200	0xbf11b0ef	-0.56910604
201	0xbf1adde8	-0.6049485
202	0x3f2bddb1	0.6713515
203	0x3ff3c6a3	1.9044994
204	0x3ff3b46c	1.9039435
205	0x3f231514	0.6370404
206	0x3f57d29c	0.8430574
207	0x3f61a962	0.8814908
208	0x3f4c4618	0.79794455
209	0xbfb54235	-1.416083
210	0xbf2ecffd	-0.68286115
211	0xbd9e2151	-0.07721198
212	0xbf475070	-0.7785711
213	0xbebb71be	-0.36610216
214	0xbff561da	-1.9170487
215	0xbf285a6f	-0.6576299
216	0x3ed32507	0.41239187
217	0xbf5ccd12	-0.8625041
218	0xb976999c	-0.00023517612
219	0xbd9d555a	-0.07682295
220	0xbf8eb01b	-1.1147493
221	0xbdc3065a	-0.09522696
222	0xbf79eaf0	-0.9762411
223	0xbec5a449	-0.38601902
224	0x40190e2c	2.39149
225	0xbf803bc6	-1.0018241
226	0xbfd9c0ab	-1.7011923
227	0x3f86665c	1.0499988
228	0xbecb2ed6	-0.3968417
229	0xbe0e98b6	-0.13925442
230	0xbedd5ff5	-0.43237272
231	0xc00f05a1	-2.2347186
232	0x3f83989e	1.028095
233	0xbf9e68cf	-1.2375735
234	0xbf23787f	-0.6385574
235	0xbea9132f	-0.33022448
236	0xbf229e86	-0.6352314
237	0xbf8ba652	-1.0910132
238	0xbfce640b	-1.6124281
239	0xbf858eaa	-1.0434163
240	0xbf8de1da	-1.108455
241	0x3ffbd8e0	1.967556
242	0x402bc6ca	2.6840081
243	0x404e3d18	3.2224789
244	0x4062e5ab	3.5452678
245	0x403a21c9	2.908312
246	0x408a693d	4.3253465
247	0x4043cf1e	3.0595164
248	0x3e7b697a	0.24551955
249	0xbf295e8d	-0.661599
250	0x3e4619a6	0.19345722
251	0x3f7b4390	0.9814997
252	0x3fe66b03	1.8001407
253	0x3f8c7ce5	1.0975615
254	0x3f9137fb	1.1345209
255	0xbf2f9950	-0.6859331

l_lstm.bias_ih_l1 f4 [32]
0	0xbf496839	-0.78674656
1	0xbf58f795	-0.8475278
2	0xbf3cfa8b	-0.738198
3	0xbf5cd910	-0.8626871
4	0xbf947b73	-1.1600174
5	0xbf0c851b	-0.548906
6	0xbf5d2c0a	-0.86395323
7	0xbdcb275d	-0.09919617
8	0xbe8708b8	-0.2637384
9	0x3e962463	0.29324636
10	0xbdc07777	-0.09397786
11	0x3c1bd346	0.009510821
12	0x3f24a13c	0.64308524
13	0xbdeea9d7	-0.11653488
14	0xbfd47607	-1.6598519
15	0xbf605396	-0.8762754
16	0xbdf4024d	-0.11914501
17	0xbe104adf	-0.14091061
18	0x3d1897e1	0.037254218
19	0xbde7f096	-0.11325185
20	0x3ddf0df0	0.1089133
21	0xbe8daa8b	-0.27669176
22	0xbe8f2903	-0.27960977
23	0xbde976f5	-0.113996424
24	0xbea7f82e	-0.32806534
25	0xbf207853	-0.626836
26	0x3bed2071	0.0072365333
27	0xbe6a0574	-0.22853643
28	0xbf57b66c	-0.8426273
29	0x3e17b999	0.14816894
30	0xbda85dba	-0.08221002
31	0xbf39dfe4	-0.72607255

l_lstm.bias_hh_l1 f4 [32]
0	0xbf336793	-0.70079917
1	0xbf669d74	-0.90084004
2	0xbf6e9f22	-0.9321157
3	0xbf5aebf1	-0.8551627
4	0xbf334ced	-0.70039254
5	0xbf712b56	-0.9420675
6	0xbf1b51dd	-0.6067179
7	0xbf16225e	-0.5864619
8	0xbe28dc61	-0.16490318
9	0x3e88ce37	0.2671983
10	0xbeaaf493	-0.3338972
11	0x3e78ef7d	0.24310108
12	0x3ec2b3a1	0.3802767
13	0xbe713c55	-0.23558171
14	0xbfe26789	-1.7687846
15	0xbf64c973	-0.8936989
16	0x3e69efc2	0.22845367
17	0xbcebbbaa	-0.028776009
18	0xbe2e16a8	-0.1700083
19	0x3cde4120	0.027130663
20	0xbe4c1eb1	-0.19933583
21	0x3deece3b	0.11660429
22	0xbe3583a6	-0.17726001
23	0xbe14b080	-0.14520454
24	0xbe7522e0	-0.23939085
25	0xbef2a518	-0.47391582
26	0xbe9e265f	-0.3088865
27	0xbee3e140	-0.4450779
28	0xbf05a92f	-0.5221128
29	0xbed33e91	-0.41258672
30	0xbebb2861	-0.36554244
31	0xbf3f9e7f	-0.7485122

l_linear.weight f4 [1, 8]
0	0xbef95829	-0.48700073
1	0x3f03bcc1	0.5145989
2	0x3f2a8478	0.6660838
3	0x3f0a0a5a	0.53922045
4	0x3eb89c37	0.36056682
5	0x3eec70e9	0.46179894
6	0x3eea6ad1	0.4578462
7	0x3ec96142	0.39332014
