data/datasets/ca_alameda_county_neighborhood/resstock-amy2018-2021-release-1-534588.pth (torch, 8966 bytes, 9 tensors)

l_lstm.weight_ih_l0 f4 [32, 13]
0	0xbf857abb	-1.0428079
1	0x3e43e867	0.19131623
2	0x3f07f7fe	0.5311278
3	0xbe9ec5f7	-0.3101041
4	0xbf34c529	-0.7061334
5	0x3fad9e5a	1.356395
6	0x40e0c3e5	7.023913
7	0xbf0d2ffa	-0.5515133
8	0x3fea6808	1.8312998
9	0xbf76eb91	-0.96453196
10	0xbedcbfde	-0.43115133
11	0x3e584764	0.21120983
12	0x3fb74b55	1.4319865
13	0x3f1b057b	0.6055524
14	0x3eca986c	0.39569414
15	0x3de68142	0.11255123
16	0x3db2ebb7	0.08736365
17	0xbd69da71	-0.057093088
18	0xbf090387	-0.5352101
19	0x3fe6e4a9	1.8038532
20	0x3f16b533	0.5887024
21	0x3db6f0af	0.089326255
22	0xbeab4b48	-0.33455873
23	0x3ec1996c	0.37812364
24	0xbf1cdf4d	-0.6127823
25	0x3fa52ac6	1.2903678
26	0x3f59fcdc	0.8515146
27	0xbdcec812	-0.10096754
28	0xbf1621e1	-0.58645445
29	0x3e31b18b	0.17352884
30	0x3ea91762	0.33025652
31	0xbf3a64cd	-0.7281006
32	0x3f322a51	0.6959582
33	0x3f2d9e58	0.6781974
34	0x3ece3601	0.40275577
35	0x3f2abe0a	0.66696227
36	0x3f07b261	0.5300656
37	0x3ea38f4a	0.31945258
38	0xc04768ab	-3.1157634
39	0xbf9a73ea	-1.2066624
40	0xbd7883c8	-0.06067255
41	0xbd966fcb	-0.073455416
42	0xbbb94440	-0.005653888
43	0xbe9e9461	-0.3097258
44	0x3f9f0f74	1.2426591
45	0x3f4b27e0	0.7935772
46	0xc083491b	-4.102674
47	0xbe86a925	-0.26300922
48	0xbf58ba4d	-0.8465927
49	0xbf395ff7	-0.72412056
50	0xbf2620e0	-0.64893913
51	0x400c9a90	2.1969337
52	0xbd0a766f	-0.033804353
53	0xbe599e6c	-0.2125184
54	0x3f282d47	0.6569409
55	0x3c89b8d0	0.016811758
56	0x3f27babe	0.6551932
57	0xbf90acc4	-1.1302724
58	0x40ee4ad8	7.446636
59	0x407e6c37	3.975355
60	0x3ebc992e	0.36835617
61	0x3e7a941e	0.24470565
62	0x3dd5ddeb	0.10442718
63	0x3dc3098d	0.09523306
64	0x3e97b1ab	0.29627737
65	0xbf727882	-0.9471513
66	0x3f7ef693	0.9959499
67	0x3cb08041	0.021545531
68	0x3df56bae	0.11983429
69	0x3efcedd0	0.49400187
70	0x3f9a1f4b	1.20408
71	0xbf2784ba	-0.654369
72	0x3f533e1d	0.8251665
73	0x3e20fe08	0.15721905
74	0xbe821eaa	-0.2541402
75	0x3f829a9c	1.0203433
76	0xbde68c6f	-0.11257254
77	0xbe3b5e9c	-0.1829781
78	0x3e103446	0.1408244
79	0x3f1b6197	0.60695785
80	0x3e003a86	0.12522325
81	0xbcab14ad	-0.020883882
82	0xbf99cbcb	-1.2015318
83	0x3f0e2a8f	0.5553369
84	0x3f2773e8	0.65411234
85	0xc008d122	-2.1377645
86	0x3e3926c9	0.18081202
87	0xbde981e9	-0.114017315
88	0x3e17aaeb	0.14811294
89	0xbe7ac1fb	-0.2448806
90	0x3fd26ccf	1.6439456
91	0x3ffe2d9e	1.9857671
92	0x4042f25e	3.046043
93	0xbece36d3	-0.40276203
94	0x3dc48fe4	0.095977575
95	0xbe536635	-0.20644458
96	0xbfbe2cba	-1.48574
97	0x409485f0	4.64135
98	0x417a33d5	15.637654
99	0xbd7f271a	-0.06229315
100	0xbfa97672	-1.3239272
101	0x3cb59a74	0.022168376
102	0xbe56afc7	-0.20965491
103	0x3f0bc528	0.5459771
104	0x3e655191	0.22394396
105	0x3f501efe	0.8129729
106	0x3ee976ea	0.45598537
107	0x4027830e	2.617374
108	0xbe03fb67	-0.12888871
109	0x3faa8e92	1.3324759
110	0x3ed09d0a	0.4074481
111	0xbe92e1fc	-0.28688037
112	0x3f40e193	0.753442
113	0xbf7bbf80	-0.9833908
114	0xbfc95ab1	-1.5730802
115	0xbf3cb926	-0.73720014
116	0x3fc49ffe	1.5361326
117	0x3ed96acf	0.424643
118	0x3fa8c03d	1.3183666
119	0x3db3faf2	0.087880984
120	0x3dbb2590	0.09138024
121	0xbee94cb2	-0.45566326
122	0x3f396e4c	0.72433925
123	0x3feb48a4	1.8381543
124	0xc06293c1	-3.5402682
125	0x3f038dde	0.5138835
126	0x3dd39143	0.10330441
127	0x3e0bcb4d	0.13651772
128	0xbea0d332	-0.3141113
129	0x3fee29e9	1.860654
130	0x3f7c4dcf	0.98556226
131	0x3f055a76	0.5209116
132	0x3eb31fa6	0.34985083
133	0xbe8d9c63	-0.27658376
134	0xbe68416d	-0.22681208
135	0x3f201bef	0.62542623
136	0x3f98f32a	1.1949208
137	0x3f52e225	0.8237632
138	0x3ed03b86	0.40670413
139	0xbf1fee16	-0.62472665
140	0x3e77d5e5	0.24202688
141	0x3dcc1858	0.09965581
142	0xc047a5fa	-3.1195054
143	0xbe3a5d7b	-0.18199722
144	0x3e18f8cc	0.14938658
145	0x3d9c2189	0.07623584
146	0xbcfae99a	-0.030628968
147	0x3e428477	0.18995844
148	0xbe15b215	-0.14618714
149	0xc0839f06	-4.113162
150	0x3f3e0487	0.7422566
151	0x3ea08b3d	0.3135623
152	0x3e40ad81	0.18816186
153	0x3ef4474c	0.47710645
154	0x3e1e3e58	0.1545347
155	0x3fbc7bbc	1.4725261
156	0x3ddeec14	0.10884872
157	0xbf0adf72	-0.542472
158	0xbed77486	-0.42081088
159	0x3e5c228b	0.21497552
160	0x3f5414f4	0.8284447
161	0xbedd7995	-0.43256822
162	0x408dbf39	4.4295926
163	0xbefc3c94	-0.49264967
164	0x3e7b5c08	0.24546826
165	0xc066952d	-3.602855
166	0x3f9f633f	1.2452163
167	0x3f92315f	1.1421317
168	0x4004bc8b	2.0740077
169	0xbf72732c	-0.9470699
170	0xbe20794d	-0.15671273
171	0xbdbe8dab	-0.09304365
172	0xbe5e3366	-0.21699294
173	0xbe4e52fc	-0.20148844
174	0x3ebb5d05	0.36594406
175	0xc09f0006	-4.968753
176	0xc01b6d3a	-2.4285417
177	0xbe2e7b56	-0.17039236
178	0x3f5d7adc	0.86515594
179	0x3f67514d	0.9035843
180	0x3e050ced	0.12993212
181	0x3f76e66d	0.9644535
182	0x3f63e565	0.89021903
183	0x3dc43333	0.09580078
184	0xbe33b159	-0.17548122
185	0xbe3fc79f	-0.18728493
186	0x3f00f410	0.5037241
187	0x3e965d9c	0.29368293
188	0x4010c1d7	2.261831
189	0xbeb19d1a	-0.3469017
190	0xbe4eec62	-0.2020736
191	0xbef6a32c	-0.48171365
192	0xbf66984b	-0.9007613
193	0x3f407c64	0.75189805
194	0x402f40c1	2.7383273
195	0xbe91df9b	-0.2849091
196	0xbf15c5df	-0.5850505
197	0x3f087b49	0.5331312
198	0x3c06670e	0.008203281
199	0x3ecdc5f9	0.40190104
200	0x3f2be67b	0.6714856
201	0x3fcfff59	1.6249801
202	0x4047f18a	3.1241174
203	0x3d6f62e3	0.058443915
204	0xbe66493d	-0.22488876
205	0x4000f42b	2.0149028
206	0x3ee322e9	0.44362572
207	0xbe45d08e	-0.19317839
208	0x3f2cb601	0.67465216
209	0xc043b482	-3.0578923
210	0x3d1d8b37	0.038462844
211	0xbcbd96d6	-0.023143213
212	0x3d19951d	0.03749572
213	0x3c4539da	0.012037719
214	0xc07fb337	-3.9953134
215	0x3fe67717	1.8005093
216	0xbebd6759	-0.3699291
217	0x3fd25f2d	1.6435295
218	0xbd99ba7d	-0.07506273
219	0x3f86c8e7	1.053006
220	0xbfe9dc26	-1.8270309
221	0xbe31d306	-0.17365655
222	0xbd1e4904	-0.038643852
223	0x3c92b167	0.017906858
224	0xbd3e4fa5	-0.046462674
225	0x3d450e1a	0.04810915
226	0x3ce23747	0.027614249
227	0x408b4787	4.3524814
228	0xc07be015	-3.935552
229	0x3e26272c	0.1622588
230	0x3e400ed7	0.18755661
231	0xbe9f4f51	-0.311152
232	0xbd8ee68d	-0.06977568
233	0x4007be79	2.1210005
234	0xbf0e1b69	-0.55510575
235	0xbee94a4a	-0.4556449
236	0xc02244c5	-2.5354474
237	0xbf8bb7ad	-1.0915428
238	0xbee7c951	-0.4527078
239	0xbf4898f0	-0.78358364
240	0x402a5139	2.6612074
241	0x3dfe41d7	0.12414902
242	0xc02af09d	-2.6709359
243	0xbec2e960	-0.38068676
244	0xbf2ac1ca	-0.6670195
245	0x3ef0d66a	0.47038585
246	0x400f13ec	2.235591
247	0xbd83c4e6	-0.0643404
248	0xbe1e6abd	-0.15470405
249	0x3c913022	0.017723147
250	0x3c92cbe8	0.017919496
251	0xbd0b331b	-0.033984285
252	0x3d026887	0.031837966
253	0xc0183216	-2.378057
254	0xbe31dfa9	-0.17370476
255	0x3dca5ff0	0.0988158

l_lstm.weight_hh_l0 f4 [32, 8]
0	0x3f789f3a	0.9711796
1	0xc0195a9a	-2.3961549
2	0xbf5ef35e	-0.870901
3	0xc01e588a	-2.474154
4	0xbfde3646	-1.7360313
5	0x3e8413c0	0.25796318
6	0x402142f2	2.519711
7	0xc04d570a	-3.2084374
8	0xbfb2664c	-1.3937469
9	0x3ee23f78	0.44189048
10	0xbf2ef698	-0.6834502
11	0x3fdac0a9	1.7090045
12	0x404af0d3	3.1709487
13	0x3f75a33c	0.959522
14	0xbf94a314	-1.1612267
15	0x3fffe6b8	1.9992285
16	0xbe938df0	-0.28819227
17	0x3ee91237	0.4552171
18	0xbe7dcbdc	-0.24784797
19	0xbf6feeaa	-0.9372355
20	0x40282381	2.627167
21	0x3c277d30	0.010222718
22	0xbf9a116f	-1.203657
23	0x40284b5d	2.6295998
24	0x3e1edc51	0.15513732
25	0xbe9ed3bb	-0.31020913
26	0xc036d3b7	-2.856672
27	0x3f971ebc	1.1806254
28	0xbe21de5a	-0.15807477
29	0x3f6ba7d0	0.92052937
30	0xc01e4277	-2.4728067
31	0x3f8832eb	1.0640539
32	0x3d64e7d0	0.055885136
33	0x3dae81fe	0.08520888
34	0xbf3b40bd	-0.7314566
35	0xbee50710	-0.4473195
36	0x3e921cc2	0.28537565
37	0x3fedf70d	1.8591019
38	0x3fe60bf7	1.7972401
39	0x3f9710d7	1.1802014
40	0xbff09071	-1.879408
41	0x40205839	2.5053847
42	0x4006f3b7	2.1086252
43	0x3f823e78	1.0175314
44	0x3f81bb08	1.0135202
45	0x3d9ab5ba	0.07554193
46	0xbd99d0e0	-0.07510543
47	0xbe2de6b3	-0.16982536
48	0x4007b153	2.120198
49	0x3f9aa3ec	1.2081275
50	0x3fa28312	1.269625
51	0x3bb8bb39	0.005637553
52	0x3f114890	0.56751347
53	0xbf801878	-1.0007467
54	0xbf85d0dc	-1.0454364
55	0x3fa62c28	1.2982225
56	0xbff16758	-1.8859663
57	0xbf31070e	-0.6915139
58	0x3f96dd70	1.1786327
59	0xc0397480	-2.8977356
60	0xc0302f03	-2.7528694
61	0xc0227d73	-2.5389068
62	0x3fc39e15	1.5282618
63	0x3fcf5cf1	1.6200238
64	0xbf7a7dcc	-0.978482
65	0xbfd8b8f8	-1.6931448
66	0x3f62732e	0.88457
67	0xbfa7ffa5	-1.3124892
68	0x40005331	2.0050776
69	0x3d85e0e5	0.06537036
70	0xbff44834	-1.9084535
71	0xc07c9d8c	-3.947116
72	0x4028e12a	2.638743
73	0xbf0c6a12	-0.5484935
74	0xbf7e5b1a	-0.9935776
75	0xbecc376e	-0.3988604
76	0xc0206665	-2.5062497
77	0x3f4abaff	0.79191583
78	0xbed82123	-0.4221278
79	0xbf62bbb3	-0.88567656
80	0x3f333a0d	0.70010453
81	0x3d3c1e61	0.04592741
82	0xbee8a1da	-0.45435983
83	0xbfe8d882	-1.8191073
84	0x3f11591e	0.5677661
85	0x3f99f164	1.2026792
86	0xbfd1dff5	-1.6396471
87	0x3face4f9	1.3507377
88	0x3fb95f2b	1.4482168
89	0x3f89ebbb	1.0775064
90	0x3f7aa403	0.9790651
91	0xbfdb9626	-1.7155197
92	0x3ee1e81f	0.44122407
93	0x3f3456b3	0.7044479
94	0x3f259560	0.64681053
95	0xbf30d38f	-0.6907281
96	0x3f29a170	0.6626196
97	0x3f5515e5	0.83236533
98	0x3fb92d08	1.4466867
99	0x3fc3a28f	1.5283984
100	0x40033e65	2.0506833
101	0x3f353840	0.70788956
102	0xc02d6e89	-2.7098715
103	0xbe54cfb5	-0.20782359
104	0xbf71a828	-0.9439721
105	0xbf8ec7e5	-1.1154753
106	0x3fad0f98	1.3520384
107	0x3f595dc6	0.8490871
108	0xbf93dc55	-1.1551615
109	0x3e4ac791	0.19802691
110	0xbf99c591	-1.2013417
111	0x3eb582d0	0.35451365
112	0x3ffaaf04	1.958466
113	0xbf1a615d	-0.60304815
114	0x3d9a34b0	0.075295806
115	0x3ca46f24	0.020072527
116	0x3e20ae49	0.15691485
117	0x3f86099b	1.0471681
118	0xbef67342	-0.4813481
119	0x402acbab	2.668681
120	0x40416cdc	3.0222692
121	0xbfa55654	-1.291697
122	0x407ba308	3.9318256
123	0xbf099364	-0.53740525
124	0x3efcb623	0.4935771
125	0xbff6611c	-1.9248385
126	0xbf3a63f6	-0.7280878
127	0x3ecf96c8	0.40544724
128	0x3efcb344	0.4935552
129	0x3edd557a	0.43229276
130	0xbf990d20	-1.195713
131	0x3f2364d0	0.638257
132	0x3f3a1d45	0.7270091
133	0xbed58e63	-0.41710195
134	0xbdbb3ded	-0.09142671
135	0x3d981298	0.074254215
136	0xbf74fcdf	-0.9569835
137	0xbf3e42a5	-0.7432044
138	0xbf4f8306	-0.810593
139	0xbf390a60	-0.72281456
140	0xbdaf3d3b	-0.08556601
141	0xbe158e9c	-0.14605182
142	0x3d9abfcb	0.07556113
143	0xbe7b58f3	-0.2454565
144	0xbf92a7f8	-1.145751
145	0xbe9ca991	-0.3059812
146	0xbfd6107b	-1.672378
147	0xbee5364c	-0.44767988
148	0x3fb72ec4	1.4311147
149	0xc05d40a3	-3.45707
150	0x3feb1352	1.8365271
151	0x40059370	2.0871239
152	0xbdc37528	-0.0954383
153	0x3f14d5cb	0.5813872
154	0x3eb3e505	0.35135666
155	0xbf9ca3ce	-1.2237489
156	0x3e71517c	0.2356624
157	0x3e74b6ff	0.23897932
158	0x3e02f6b5	0.12789424
159	0x3ea5b5b5	0.32365194
160	0x3d8a0231	0.06738699
161	0x3f4d8b9f	0.8029117
162	0xbf520eef	-0.82054037
163	0x3f4816ce	0.781598
164	0xbf4a266a	-0.78964865
165	0x3e26a58a	0.16274086
166	0xbfc5d345	-1.5455099
167	0xbfdb4a88	-1.713212
168	0x3d2a5eed	0.041594435
169	0xbedcb6ca	-0.43108207
170	0x3f23b542	0.6394845
171	0x3d94ee2c	0.0727199
172	0xbf355f4a	-0.70848525
173	0xbf9cc6a2	-1.2248118
174	0x3c83e940	0.016102433
175	0xbf3f89ad	-0.7481945
176	0x400f7288	2.2413654
177	0x3f21eafe	0.63249195
178	0x3f28fce2	0.6601087
179	0xbfbdddb1	-1.483328
180	0x3e2b98b2	0.16757467
181	0xbe999cd9	-0.30002478
182	0xbf82ea41	-1.0227739
183	0x3dcdf22a	0.10055955
184	0x3dc172f4	0.09445754
185	0x3fbaf04f	1.4604586
186	0xc0044258	-2.0665493
187	0xbc581d50	-0.013190582
188	0x3feb94e2	1.840481
189	0x40048d56	2.0711265
190	0xbece6365	-0.40310207
191	0xc00a718e	-2.1631808
192	0x3ea35570	0.3190112
193	0xc05f8815	-3.4926808
194	0x3ddc3b83	0.107535385
195	0xbe1e3bcc	-0.15452498
196	0xbf051ce5	-0.51997215
197	0x3f8a73e3	1.0816616
198	0xbf5c4aa5	-0.860514
199	0xc033a157	-2.8067224
200	0x3eb63bf3	0.35592613
201	0xbf5a8492	-0.85358536
202	0x3e3e4342	0.18580344
203	0xbf318aef	-0.6935262
204	0xbef852a1	-0.4850054
205	0x40053e0b	2.0819118
206	0x3f2878a8	0.65809107
207	0x3d539f2a	0.051665463
208	0xbed9321e	-0.4242105
209	0xbf396124	-0.7241385
210	0xbe3421db	-0.1759104
211	0xbdc5c253	-0.09656205
212	0xbf175b4f	-0.591237
213	0x4005c06a	2.089869
214	0xbfb3c6bd	-1.4045025
215	0x3f4e870e	0.8067483
216	0x3f0a6379	0.54058033
217	0x403df617	2.9681451
218	0xc0a15752	-5.041909
219	0x3ff55263	1.9165767
220	0x40b8d866	5.776416
221	0xbf614c4a	-0.8800703
222	0xc022387e	-2.534698
223	0xc068f85e	-3.6401591
224	0xbfa4a47a	-1.2862694
225	0xc09e6c9e	-4.950759
226	0xbf5cf628	-0.86313105
227	0xbfe230bb	-1.7671121
228	0xbf795b0c	-0.9740455
229	0xbf9f731c	-1.2457004
230	0xbf5a9b05	-0.8539279
231	0xc092a8e8	-4.5831184
232	0xbfac0f31	-1.3442136
233	0xbfe1d8c1	-1.7644273
234	0xbf61503f	-0.8801307
235	0x3f235bbc	0.6381185
236	0xbf5d7d56	-0.8651937
237	0x3e01a89c	0.12661976
238	0xbfa327ca	-1.2746518
239	0x3f9e8c28	1.2386522
240	0x3e7d40ef	0.24731801
241	0xbdc27bea	-0.09496291
242	0x3dcfabb2	0.1014017
243	0xbf52326e	-0.821082
244	0x3e98c3ff	0.29837033
245	0xbf1a5796	-0.60289896
246	0xbeaba666	-0.3352539
247	0x3f7eb64c	0.9949691
248	0x3f87e0b1	1.0615445
249	0xbac8194a	-0.0015266326
250	0x3f3f220d	0.7466133
251	0x3f1f2ec6	0.62180746
252	0x3f9ca587	1.2238015
253	0xbeb53816	-0.35394353
254	0xbf339f9f	-0.7016544
255	0x3f9ebc97	1.2401303

l_lstm.bias_ih_l0 f4 [32]
0	0xbf50d1ad	-0.8156994
1	0xbf246686	-0.6421894
2	0xbdbd91b6	-0.09256308
3	0x3f6c014b	0.9218947
4	0xbf83d630	-1.029974
5	0xbd27a5a1	-0.04092944
6	0xbf0523cf	-0.52007765
7	0xbea763bf	-0.32693288
8	0xbf2d3417	-0.6765761
9	0xbc589750	-0.013219669
10	0x3e9afce6	0.3027107
11	0xbc87d2c0	-0.016579986
12	0xbf3a6c70	-0.7282171
13	0xbd168a88	-0.036753207
14	0xbe98a460	-0.29812908
15	0xbdafd308	-0.08585173
16	0xbdc9c01f	-0.09851097
17	0xbf1d6bd2	-0.61492646
18	0x3e06ae7d	0.131525
19	0xbf2af3c4	-0.66778207
20	0xbe34fd63	-0.17674784
21	0x3f1904e1	0.5977307
22	0xbecafe4a	-0.39647132
23	0x3f413c6e	0.75482833
24	0xbf48cfc5	-0.7844203
25	0xbe67b1b6	-0.22626385
26	0x3e3cc7b8	0.18435562
27	0x3f8195df	1.0123862
28	0x3c29e1b2	0.010368751
29	0x3f21229b	0.6294343
30	0xbf3f4e55	-0.747289
31	0xbf44e86f	-0.76917166

l_lstm.bias_hh_l0 f4 [32]
0	0xbf0db156	-0.5534872
1	0xbf43f469	-0.76544815
2	0xbd05d121	-0.032670144
3	0x3f4e7860	0.8065243
4	0xbf62a79e	-0.88537014
5	0xbeaac9f7	-0.33357212
6	0xbf842d77	-1.0326375
7	0xbf3cd57d	-0.7376326
8	0xbe8fbeb7	-0.2807519
9	0xbe08e55b	-0.13368742
10	0xbd43844e	-0.047733597
11	0xbda43926	-0.08018713
12	0xbf4b9631	-0.7952605
13	0x3ed18214	0.40919554
14	0xbef8ff74	-0.48632395
15	0xbdb3d823	-0.08781459
16	0x3dfbe75c	0.12299988
17	0xbd0525ed	-0.032506872
18	0xbee57d6d	-0.44822255
19	0xbeb2428d	-0.348164
20	0xbe88c2d1	-0.26711133
21	0x3edde3a2	0.43337733
22	0xbeaa4948	-0.33259034
23	0x3f35a40c	0.7095344
24	0xbf1f0f49	-0.621327
25	0xbf1a1ef7	-0.602035
26	0xbe80f432	-0.25186306
27	0x3fb59816	1.4187038
28	0xbe9063f1	-0.2820125
29	0x3e503564	0.20332867
30	0xbf00579e	-0.50133693
31	0xbecd1bbb	-0.4006022

l_lstm.weight_ih_l1 f4 [32, 8]
0	0x3f9ea5c6	1.239434
1	0xbf0b45d0	-0.544034
2	0xbef99b9f	-0.48751542
3	0xbf819d79	-1.0126182
4	0xbe329887	-0.17440997
5	0xbfa6319f	-1.2983893
6	0xbfdba33a	-1.7159188
7	0xbee2bb62	-0.44283587
8	0xbea4660e	-0.32109112
9	0xbfee965f	-1.863964
10	0xbf900165	-1.1250426
11	0x3ec28ccc	0.37998044
12	0xbdeaa0c8	-0.11456448
13	0xbf9a7e90	-1.2069874
14	0x3e1b65e7	0.15175591
15	0xbd9c7965	-0.07640342
16	0xbf5498eb	-0.83045834
17	0x3d249623	0.040182244
18	0xc0092cf4	-2.1433687
19	0x3f589d5c	0.8461511
20	0xbf4c1740	-0.79722977
21	0x3ed44dab	0.41465506
22	0x3fc037a1	1.5016977
23	0x3ef185b8	0.47172332
24	0xbf4acd0d	-0.7921913
25	0x3c5712c7	0.013127035
26	0xbf29fb1a	-0.66398776
27	0xbee68f1a	-0.45031053
28	0x3edfd5a4	0.43717682
29	0xc01a15b0	-2.4075737
30	0xbf1f9daa	-0.6234995
31	0xbe325475	-0.1741503
32	0xbf86a37a	-1.0518639
33	0xc049cc59	-3.1530974
34	0xbfcf2960	-1.6184502
35	0xc0db1c4b	-6.8472037
36	0x3f7837ce	0.9696015
37	0xc0e12182	-7.0353403
38	0xbf579c64	-0.8422301
39	0x3fb0c2ce	1.380945
40	0x3f87a3fa	1.0596917
41	0xbf1e971a	-0.6194931
42	0xbeea2827	-0.4573376
43	0x3fb73fe3	1.4316372
44	0x3eb5de27	0.3552105
45	0xbfe14de5	-1.7601897
46	0xbd924f2e	-0.071440086
47	0x3f8a964e	1.0827119
48	0x3fa46b21	1.2845193
49	0x3f123b27	0.5712151
50	0xbe3e61ef	-0.18592046
51	0xc02bcc48	-2.6843433
52	0x3f9c9832	1.2233946
53	0xbfb711d3	-1.4302315
54	0x3eb601e4	0.35548317
55	0x3d23f759	0.04003081
56	0x3f71e5ee	0.9449147
57	0xbf5fe8ce	-0.87464607
58	0xbf06bf7e	-0.52635944
59	0x3f35e9f0	0.71060085
60	0xbfa4a9b7	-1.2864293
61	0xbf561d80	-0.83638763
62	0xbfe78173	-1.808638
63	0xbd7bfa9a	-0.06151829
64	0xbf5822fd	-0.8442839
65	0x3f2eee3f	0.68332285
66	0xbf89ad8b	-1.0756086
67	0x3ef9d220	0.48793125
68	0xbf8c0d7a	-1.0941613
69	0xbe34f457	-0.17671333
70	0x3f8faa13	1.1223778
71	0xbdf0972b	-0.11747583
72	0xbecb0425	-0.396516
73	0x3fba9505	1.4576727
74	0x3fcfa080	1.6220856
75	0x4006cc81	2.106232
76	0x3f864fd7	1.0493115
77	0x3e8b2452	0.27176148
78	0x3f7f8a2f	0.99820226
79	0x3fcabe24	1.5839276
80	0xc006f910	-2.1089516
81	0x3f7776ae	0.96665466
82	0x400b1316	2.17304
83	0x3fdf8899	1.7463561
84	0x3fc15a56	1.5105693
85	0x3daccdd3	0.08437695
86	0x3eec19d4	0.46113455
87	0xbf87c3ad	-1.060659
88	0x3ee190da	0.44055825
89	0xbe00d7a6	-0.12582263
90	0xbea65f6a	-0.3249467
91	0xbe8df17e	-0.27723306
92	0x3e53b0e2	0.20672944
93	0x3ee4db83	0.44698724
94	0xbb4b286c	-0.0030999435
95	0xbf2ee8cd	-0.68323976
96	0x4016432f	2.3478506
97	0x3fa74d6b	1.3070501
98	0x3eee2fb0	0.46520758
99	0x3f886041	1.0654374
100	0x3f3bb307	0.7332005
101	0x401631cb	2.3467891
102	0x40177008	2.3662128
103	0x40420f9c	3.0322027
104	0x3f126e2a	0.57199347
105	0xbf93ec03	-1.15564
106	0x3fae21d6	1.3604076
107	0x3f9d9b60	1.2313042
108	0xbea4b6d3	-0.32170734
109	0xbe8ea7de	-0.27862448
110	0x3eace9cf	0.33772132
111	0xbf9b743b	-1.2144846
112	0x3ff16f03	1.8862003
113	0x3fbb52af	1.4634608
114	0x3f1814e2	0.59406865
115	0x3f3f6e1a	0.74777377
116	0x3edeff03	0.43553934
117	0x3fe0ce4a	1.7562954
118	0xbdd4c80d	-0.10389719
119	0xbf314561	-0.6924649
120	0xbea0cfaf	-0.3140845
121	0xbe83fb2c	-0.25777566
122	0x3f2e913a	0.6819035
123	0x3fb01d7f	1.3759001
124	0xbf2ce9c6	-0.6754421
125	0xbef60561	-0.4805098
126	0x3fa089cb	1.2542051
127	0xbf6da167	-0.92824405
128	0xbeffd5fa	-0.4996794
129	0xbd959987	-0.07304674
130	0x3f2d151c	0.67610335
131	0x3fac6530	1.346838
132	0xbf27856e	-0.6543797
133	0xbf9451df	-1.1587485
134	0x3f4bfcbe	0.7968253
135	0xbf2e88e3	-0.6817762
136	0xbf8be6db	-1.0929826
137	0xbe120779	-0.14260663
138	0xbcd0ff4f	-0.025512366
139	0x3fdead73	1.7396683
140	0xbed1f85d	-0.410098
141	0xbf7f3260	-0.9968624
142	0x3f359eea	0.7094561
143	0xbf5581fb	-0.8340146
144	0x3eff96ea	0.49919826
145	0x3eea8e6f	0.45811793
146	0xbe9c4cac	-0.30527246
147	0xbfc51202	-1.539612
148	0x3f7ed8b0	0.9954939
149	0x3fc38fde	1.527828
150	0xbf07ccd5	-0.53046924
151	0x3f78ee3e	0.9723853
152	0xbd45dc5d	-0.048305858
153	0xbf031404	-0.51202416
154	0x3f940a04	1.1565557
155	0x3f9dce2e	1.2328546
156	0xbece6a93	-0.40315685
157	0xbf7d6b2e	-0.9899167
158	0x3ef8c163	0.48585042
159	0xbf3f8383	-0.74810046
160	0xbf127cad	-0.5722149
161	0x3fa66ace	1.3001344
162	0xbf77b3a9	-0.96758515
163	0xc0282d96	-2.6277823
164	0x3c27b43a	0.01023584
165	0x4034ecaf	2.826946
166	0x3e474b74	0.19462377
167	0x3f1e7855	0.6190236
168	0xbeba11c3	-0.36341676
169	0xbfb7f388	-1.4371195
170	0xbe0fa2e1	-0.14026977
171	0x400360f8	2.0527935
172	0xbea02cae	-0.31284088
173	0xbf883c4f	-1.0643405
174	0x3ef4afe8	0.47790456
175	0xbe5f4ec2	-0.21807387
176	0x3e917cce	0.2841553
177	0xbeb5e2be	-0.35524553
178	0x3fadf197	1.3589352
179	0x3f93671b	1.151584
180	0xbfaa3ab0	-1.329916
181	0xbf4ed859	-0.8079887
182	0x3ed44a20	0.41462803
183	0xbf9e8fd2	-1.238764
184	0xbf0440d1	-0.516614
185	0xbea5c6b9	-0.32378176
186	0x3f0e26a8	0.55527735
187	0x3fc2daef	1.5223063
188	0xbf27dba7	-0.6556954
189	0xbf6884b0	-0.90827465
190	0x3ee90d0b	0.45517763
191	0xbf5a9a3b	-0.85391587
192	0x3f01778e	0.5057305
193	0x3d687a6c	0.056757376
194	0xbee7e9bb	-0.4529551
195	0xbe9046e0	-0.28179073
196	0xbef3f7cd	-0.47649994
197	0xbf83de7f	-1.0302275
198	0x3da71777	0.081587724
199	0xbf1f7e64	-0.6230223
200	0x3ed08f9a	0.4073456
201	0xbf523268	-0.82108164
202	0x3ed80765	0.42193142
203	0x3f06393f	0.524311
204	0xbfac76f0	-1.3473797
205	0x3ee04114	0.4379965
206	0xbeb64d30	-0.35605764
207	0xbecac595	-0.39603868
208	0xbf95406b	-1.1660284
209	0xbe323f4c	-0.17406958
210	0xc02fb05c	-2.7451391
211	0x3faab5de	1.3336751
212	0xbfe16218	-1.7608061
213	0x3edc1200	0.42982483
214	0x3ee8953f	0.45426366
215	0xbfd95e77	-1.6981953
216	0xbea845ee	-0.32865852
217	0x3f09c0c1	0.53809744
218	0x3ca28ff6	0.019844037
219	0xbe831e83	-0.25609216
220	0x3f890b55	1.0706583
221	0xc00c32b1	-2.190594
222	0x3eae18e9	0.3400338
223	0x3dd204e0	0.10254836
224	0x3efdfb03	0.4960557
225	0x3fc26499	1.518695
226	0x3f4bac4f	0.795598
227	0xc022b843	-2.5424964
228	0x3fc3a1ae	1.5283716
229	0x3fbe3a1d	1.4861485
230	0xbff0f5ec	-1.8825049
231	0xbf48ee83	-0.7848894
232	0x3f3294ed	0.6975849
233	0xbf1e7a3a	-0.6190525
234	0xc02f7691	-2.7416117
235	0x40011cff	2.0173948
236	0x3e67d091	0.22638156
237	0xbf85d650	-1.0456028
238	0x3ce6b9d8	0.02816479
239	0xbdb65a45	-0.08903936
240	0x3f898483	1.0743564
241	0x3f031d89	0.5121694
242	0xbfad7f08	-1.3554392
243	0xbfbc27af	-1.469961
244	0xbf98b23c	-1.1929393
245	0x3e9c768a	0.30559188
246	0x3e57efcc	0.21087569
247	0xbf832077	-1.0244282
248	0x3d96a592	0.07355799
249	0xbf8d0f01	-1.1020204
250	0xbef4ca1f	-0.47810456
251	0x3f9f7a00	1.2459106
252	0xbebcf360	-0.3690443
253	0xbf6edbc3	-0.9330408
254	0x3ed78494	0.42093337
255	0x3ee8414c	0.45362318

l_lstm.weight_hh_l1 f4 [32, 8]
0	0xbf16f8bf	-0.58973306
1	0x3f39ab05	0.7252658
2	0xbea2adbb	-0.3177317
3	0xbf2983e2	-0.6621686
4	0xbfa5ae1b	-1.2943758
5	0x3f2a35a1	0.6648808
6	0xbe9ed5f1	-0.310226
7	0x3f06cec4	0.5265925
8	0xbf948334	-1.160254
9	0x3fcf44f9	1.6192924
10	0xbf12781f	-0.5721454
11	0xbf6a8ad3	-0.9161808
12	0x3fa98641	1.3244096
13	0xbeba1ff4	-0.36352503
14	0xbffd7991	-1.9802724
15	0xbd73e9af	-0.05954903
16	0xbf4dd390	-0.80400944
17	0x3f222235	0.63333446
18	0x3e6a8787	0.22903262
19	0xbf7d3097	-0.9890227
20	0x3f8e7601	1.1129762
21	0xbd4bf60d	-0.0497952
22	0xc01841ac	-2.3790083
23	0x3f23c223	0.63968104
24	0xbd708efe	-0.058730118
25	0x4003877b	2.055144
26	0xbf31769a	-0.69321597
27	0x3ec3d190	0.3824582
28	0x3f4ac574	0.7920754
29	0x400547e7	2.0825136
30	0xbf837ce8	-1.0272493
31	0x3fd223ff	1.6417235
32	0xbfd22574	-1.641768
33	0x405c6ad7	3.444021
34	0xc081c6d8	-4.055523
35	0x401b77f2	2.429196
36	0xc06d613a	-3.7090592
37	0x408b26c7	4.3484836
38	0xc0063e55	-2.0975544
39	0x407717bc	3.8608236
40	0xbea92a7e	-0.3304023
41	0xbec25095	-0.37952104
42	0x3facfedd	1.3515278
43	0xbef9a8ba	-0.4876154
44	0x400a1c9f	2.157997
45	0xbfd1a2a1	-1.6377755
46	0xbea4c36c	-0.32180345
47	0xbee507c8	-0.447325
48	0x3f08c397	0.53423446
49	0x4040738a	3.007052
50	0xc004a037	-2.0722787
51	0x3fb9e27a	1.452224
52	0xbf2a657c	-0.665611
53	0x3fb37216	1.4019191
54	0xbec7476b	-0.38921675
55	0x3fd6a5c7	1.6769341
56	0xbf88cebb	-1.0688089
57	0xbf3d901b	-0.7404801
58	0x3ee81093	0.45325145
59	0xbf91838a	-1.1368268
60	0x3fd876c3	1.6911243
61	0xbf0f64c7	-0.5601315
62	0xbfcd0ada	-1.6018937
63	0xbf46a29d	-0.7759188
64	0xbf0bf6d6	-0.54673517
65	0x3f15a1dd	0.5845011
66	0xbe5cd2aa	-0.21564737
67	0xbf040c6d	-0.5158146
68	0x3eba3336	0.36367196
69	0x3ea2e1b8	0.31812835
70	0xbf3a99a3	-0.7289068
71	0x3e18f964	0.14938885
72	0x3f85ba94	1.0447564
73	0x3fa2ca82	1.271805
74	0xbf5dd3a3	-0.86651057
75	0x3e962c3b	0.2933062
76	0xbf7d2b59	-0.9889427
77	0xbed442e5	-0.41457286
78	0xbf7fc1e2	-0.99905217
79	0x3eae7f39	0.34081438
80	0x3e289547	0.16463195
81	0x3f5faebd	0.87376004
82	0x3e988031	0.29785302
83	0xbe83153b	-0.25602135
84	0xbfaa6ec9	-1.3315059
85	0xbf0a6ec2	-0.54075253
86	0xbe9df832	-0.3085342
87	0x3e0e7172	0.13910463
88	0xbfb6523c	-1.4243846
89	0xbf18f53a	-0.59749186
90	0x3e25677b	0.16152756
91	0xbf73bc20	-0.9520893
92	0x3fa8f431	1.3199521
93	0xbf81c2f9	-1.0137626
94	0xbf91cfd5	-1.139155
95	0xbf67174f	-0.9026994
96	0x3e1cb97b	0.1530513
97	0x3fd4898d	1.6604477
98	0xbfcf3b3e	-1.6189954
99	0x3f7d305f	0.98901933
100	0xbe29f8a1	-0.1659875
101	0xbec927ac	-0.3928808
102	0xbf32fc5c	-0.6991632
103	0x3e8231eb	0.2542871
104	0xbdcc4f0c	-0.099760145
105	0xbf20fc50	-0.62885
106	0x3f6b0757	0.91808075
107	0x3f308485	0.6895221
108	0x3fa8c303	1.3184513
109	0xbfd0de1a	-1.631778
110	0xbe53128b	-0.20612542
111	0xbe40a7b1	-0.18813969
112	0x3f3c472c	0.735461
113	0x3ff58721	1.9181863
114	0xbfb78784	-1.4338231
115	0x3feb0eb2	1.836386
116	0xbfada4e9	-1.3565952
117	0x3eb89651	0.36052182
118	0xbcabcc87	-0.02097155
119	0x3e837b62	0.2568007
120	0xbe57b760	-0.21066046
121	0xbe81ea82	-0.25374228
122	0x3e0cc32f	0.13746332
123	0x3e41e01d	0.18933149
124	0x3eec5be1	0.46163848
125	0xbf1ae40b	-0.60504216
126	0xbe684cdd	-0.22685571
127	0xbeaffa42	-0.3437062
128	0xbfcf0ef1	-1.6176435
129	0xbf96913a	-1.176307
130	0x3fb9bbd8	1.451045
131	0xbfced080	-1.6157379
132	0x3f8bb38b	1.0914167
133	0xbf821909	-1.016389
134	0xbfbf3efa	-1.4941094
135	0xbf8b97c6	-1.0905693
136	0x3d1a7164	0.037705794
137	0xbf4ab607	-0.79184
138	0x3fc0be2a	1.5058033
139	0x3fae47fa	1.3615716
140	0xbf439dc5	-0.7641261
141	0x3fc7fa81	1.5623323
142	0xbf9dd354	-1.2330117
143	0x3d30bdd7	0.043149795
144	0xbea7bb4e	-0.3276009
145	0xbe24064d	-0.16018029
146	0xc0183a02	-2.3785405
147	0x3f2b29a1	0.66860396
148	0xbfd8e90c	-1.694612
149	0x3f509578	0.8147807
150	0x3f7e2fa3	0.9929144
151	0xbe81f6ed	-0.25383702
152	0xbec6c0a9	-0.38818863
153	0xbf1e5b57	-0.61858124
154	0x3ec553ca	0.38540488
155	0xc0087c7e	-2.1325984
156	0x3f9b0e23	1.2113689
157	0xbfd7fa6f	-1.6873301
158	0xbf3fa2eb	-0.7485797
159	0xbf65fcec	-0.89839053
160	0x3e830ec3	0.255972
161	0x402496e6	2.57171
162	0xbf9196c7	-1.1374139
163	0x3e9a8092	0.30176216
164	0xc0674382	-3.6134953
165	0x4014e599	2.3265135
166	0x3ff4f43c	1.9137034
167	0x3fa66e7b	1.3002466
168	0xbe09414e	-0.13403818
169	0xbe3b29d5	-0.18277676
170	0x3e091069	0.13385166
171	0x3f12c085	0.5732501
172	0x3e1876d7	0.14889084
173	0xbff4a61a	-1.911319
174	0x3d74213b	0.059602004
175	0x3d69a0d2	0.057038136
176	0x3fedd74c	1.8581328
177	0xbf49ec1d	-0.78875905
178	0xbef8e1c0	-0.48609734
179	0x3f94c457	1.1622418
180	0x3e8706b4	0.26372302
181	0xbffe82eb	-1.9883703
182	0xbf9fc9d3	-1.2483467
183	0x3f041736	0.5159792
184	0xbf7df933	-0.9920837
185	0xbf91c2fa	-1.1387627
186	0x3fa7d98e	1.3113267
187	0xbf49b19a	-0.78786623
188	0x3f4a9d11	0.79145914
189	0xbf3c7750	-0.73619556
190	0xbf80bd2e	-1.0057733
191	0xbfc489d5	-1.5354563
192	0xbf6c79ab	-0.9237315
193	0x3f57efe2	0.8435041
194	0xbe323d0e	-0.17406103
195	0xbea5dcad	-0.32394925
196	0xbf367500	-0.7127228
197	0x3e78a3dd	0.24281259
198	0xbf4e9346	-0.8069347
199	0x3e4f41d4	0.20239955
200	0x3f0e0ce7	0.5548844
201	0xbf25d5ca	-0.6477934
202	0x3f0034af	0.5008039
203	0x3f425603	0.75912493
204	0x40053c0a	2.0817895
205	0xbf94cc5f	-1.1624869
206	0xbff18f3e	-1.8871839
207	0x3f1c0f54	0.6096089
208	0xbdcf2643	-0.1011472
209	0x3db05028	0.086090386
210	0x4017169b	2.3607547
211	0xbfc0200d	-1.5009781
212	0x3fb570cc	1.4175048
213	0xbf763acf	-0.96183485
214	0xbfe3c3f2	-1.7794173
215	0x3f31a369	0.6938997
216	0x3eacddab	0.3376287
217	0x3f7eb523	0.9949514
218	0xbe343716	-0.17599139
219	0xbef09d6c	-0.46995103
220	0xbf7e61a2	-0.99367726
221	0xbccbd60f	-0.024882345
222	0xbf2a3c11	-0.66497904
223	0x3f1946bd	0.59873563
224	0xbf842d8a	-1.0326397
225	0x404d4aa8	3.2076817
226	0xc0361d03	-2.8455207
227	0xbf61c7c5	-0.8819545
228	0xbffa5b2f	-1.9559077
229	0x3e1eaac5	0.15494831
230	0x4076b35a	3.8546968
231	0x401045bf	2.254257
232	0xbe8077fe	-0.25091547
233	0xbf807881	-1.0036775
234	0x40137085	2.3037426
235	0xbf9a751f	-1.2066993
236	0x401ac04d	2.417987
237	0xbff247d2	-1.8928168
238	0x3e9d0882	0.30670553
239	0xbe7fb4be	-0.24971291
240	0x3f2f7bd9	0.6854835
241	0x408996ce	4.299659
242	0x3f958920	1.1682472
243	0xbf2359b7	-0.6380877
244	0xbfc08d46	-1.5043113
245	0x3edb4bc1	0.42831233
246	0x3f8a3405	1.0797125
247	0x3fd8c7bf	1.6935958
248	0xbf1a9384	-0.6038134
249	0xbf6818ca	-0.90662825
250	0x3f43b78f	0.76451963
251	0x3eed5c15	0.46359316
252	0x3feb0d5a	1.836345
253	0xbf467c86	-0.7753376
254	0xbfddfc99	-1.7342712
255	0xbed09831	-0.40741113

l_lstm.bias_ih_l1 f4 [32]
0	0xbf4ac595	-0.79207736
1	0xbef03e41	-0.46922496
2	0xbf02bb85	-0.5106738
3	0xbf43dc96	-0.7650846
4	0xbdfd8daa	-0.12380536
5	0xbf7030da	-0.9382454
6	0xbf4ccbbc	-0.79998374
7	0xbf8b0a2d	-1.086248
8	0x3ecba982	0.39777762
9	0xbe4f9ed5	-0.20275433
10	0xbec1e5fb	-0.37870774
11	0xbe18941e	-0.14900252
12	0x3ebea775	0.37237135
13	0xbf0d7a88	-0.5526509
14	0xbef29518	-0.47379375
15	0x3ee3db43	0.4450322
16	0x3da1ca32	0.07899894
17	0x3d1e3281	0.038622383
18	0xbe181fb1	-0.1485584
19	0xbec438bb	-0.38324532
20	0x3d020fac	0.031753227
21	0xbccefafb	-0.025266161
22	0xbdae241d	-0.08502982
23	0xbedf02f8	-0.43556952
24	0xbed96bb3	-0.4246498
25	0xbf33b7b1	-0.70202166
26	0xbf1cee2d	-0.6130093
27	0xbf16b5bd	-0.5887106
28	0xbed6cd34	-0.41953433
29	0xbe82b9ee	-0.25532478
30	0xbe3c6449	-0.18397631
31	0xbec046d7	-0.37554047

l_lstm.bias_hh_l1 f4 [32]
0	0xbf6bab07	-0.9205784
1	0xbdac1094	-0.084015995
2	0xbf7bec0f	-0.9840707
3	0xbf04746c	-0.51740146
4	0x3d6bd87f	0.057579514
5	0xbf78f546	-0.9724926
6	0xbf53b389	-0.82695824
7	0xbfa82848	-1.3137293
8	0x3f5fe69f	0.87461275
9	0x3eaf65b6	0.34257287
10	0x3e868a84	0.26277554
11	0x3ec3cb5d	0.3824109
12	0x3e1c2e75	0.15252097
13	0xbef34b97	-0.47518608
14	0xbe039d75	-0.12853034
15	0x3f27dd91	0.6557246
16	0xbeaf0627	-0.3418438
17	0xbee0deb1	-0.439199
18	0x3edef053	0.43542728
19	0x3e85330e	0.26015514
20	0x3cf764a7	0.030199362
21	0xbe8df205	-0.2772371
22	0xbe24a70c	-0.16079348
23	0x3e16d43b	0.14729397
24	0xbe4e69ca	-0.20157543
25	0xbf986ca9	-1.190816
26	0xbf49fdcd	-0.78902894
27	0xbe2a0b9c	-0.16605991
28	0xbec570e4	-0.3856269
29	0xbea0473b	-0.31304345
30	0xbf0994ed	-0.5374287
31	0xbe8a21e0	-0.2697897

l_linear.weight f4 [1, 8]
0	0x3ee56041	0.44799998
1	0x3eaf1519	0.34195784
2	0xbeaa1fab	-0.33227286
3	0x3edc40d4	0.4301821
4	0xbe9a3f7e	-0.30126566
5	0x3eb41a45	0.35176292
6	0x3ebe6bca	0.37191612
7	0x3ef51bcd	0.47872773
