data/datasets/ca_alameda_county_neighborhood/resstock-amy2018-2021-release-1-358862.pth (torch, 8966 bytes, 9 tensors)

l_lstm.weight_ih_l0 f4 [32, 13]
00000000: 8827 18c0 a85c 2dc0 67e8 a8be f108 233f
00000010: 65bb 1e40 24fb 5a40 d29e 3341 8ef3 69bd
00000020: f168 1240 89d9 1740 dd52 6abf 8f90 883e
00000030: 99ca d13f e3aa 9abe 26b4 d7be 806c a33e
00000040: acf5 8bbe 479c 6dbf 79ca c43e 2da5 7dc0
00000050: 93a3 1f40 c312 473d 5539 013e d80f 99bf
00000060: 4932 33be 0064 203e 001b 483f 8e8a 363f
00000070: fc36 433e 12bc 5bbe a975 63c0 8272 ee3f
00000080: 8cc2 6f3d bc03 d2bf 9363 903d 5c25 023f
00000090: aca4 013f a10e e6bd 5d51 b13f e018 babe
000000a0: 8b13 da3e e83f b1bd dbc0 b83e 59a5 1ebe
000000b0: 3564 d1be 80e4 00c0 07ff 73bf ada5 8abf
000000c0: 5e77 41bf 20c0 c83d 669d 86be 384a 5f40
000000d0: dfcb 4640 cc91 cc3e aab4 5f3e 09ee c03d
000000e0: 81ab 0bc0 92e6 e0bf 069a 3bc0 3733 e7bf
000000f0: fcf7 be3f c59f 7040 384c ecbf 3cff f8be
00000100: 08d2 a8be ebbd 48be 63d8 68be 3308 05be
00000110: 8108 993d 808a c0bd 32a0 ef3d 43b5 2fbf
00000120: aa51 5e3f 1a95 f1bd eb00 a0be 8717 ebbe
00000130: 4d6b 26be 8f4c 37c0 df6a b23e dc7a 8ebe
00000140: c5b1 893c 03c2 e5bd 2374 463f 4ada dc3e
00000150: e2c8 b43f d4f9 2a3f a3b6 27bf 88fe 4cbf
00000160: ed49 c13e 1636 b73c 3ad4 14be e7c8 963f
00000170: af3b 4f3d 991c 2e40 fcda 4040 1599 28bf
00000180: edfb cf3f 0657 8540 3c2e 2140 154b 5bbf
00000190: 295c 22bf f6f2 ef3e d324 1240 a62d 79bf
000001a0: 681f 9bbf 30fe 9ebf f376 90bc a63a 1dbe
000001b0: 7c38 d83f ad1d c23f 03d6 3f3f 72a3 293f
000001c0: 0dd7 ec3f 1cf0 74bf 362c 5c3f 623e a63d
000001d0: 1493 9a3f 6e9b ae3e a32e 443d bfc6 05be
000001e0: 6fe6 acbe dd68 7fbf b42e cf3f db73 88c0
000001f0: fed7 6041 6f1c 86bf 39e9 2bbf c7f5 e13f
00000200: ca72 f13e 1dfe cb3f 1784 593d 6356 903b
00000210: b3fd 553d 8447 d43d 67fd 9940 7bb2 f23f
00000220: ebd5 87c0 1106 ae3f 615c 3bbf 456b 8abf
00000230: 3695 813e dee2 003f 723d a03d 0451 003f
00000240: 2f9e 353f 4952 f43d 6249 9dbc cb20 313f
00000250: cc9a e4bf 5ebd 1fbd 9310 d63e 378e 7ebe
00000260: 97b2 3fbf 40de d33d 9b21 b2bc 0450 3340
00000270: ae60 4b3f 4bd7 3bc0 dea5 aebe b705 3dbe
00000280: b925 f73f 9542 dbbf 44fc 6c3f 491a 2d40
00000290: aad5 e03f 8416 c33f 90b3 4540 09e7 db3e
000002a0: 703f 9f3f f402 b2bd f188 1dbe 1023 0c3e
000002b0: 5b8d 563d 632d 7e3e 2bc5 bb3e d14e 333f
000002c0: 8277 16be c175 53bf 3a34 09bf 0f94 4a3d
000002d0: 784c 653e ffc1 37c0 9504 993e af85 6a3e
000002e0: 742f d03d 8ed7 12be 5e82 b63e d397 363f
000002f0: 76cd 04c0 c4ba ddc0 f578 01bf 5885 74bf
00000300: 2644 883f 73f7 4fbd d783 88be 40b9 96be
00000310: e27b 173f 49e0 3a40 c904 9f40 b9e8 fabe
00000320: 7879 ba3f b991 08c0 98cc dd40 15c9 6cbf
00000330: c61a a6bf 132a dabd 0797 6d3d a919 5dbe
00000340: 710b 63bd 8d63 d33d 82ba f13e c98a 3bbe
00000350: d940 2cbf b3db babe 2712 68c0 911f 5840
00000360: 80b2 6f3f e918 27be dee2 bf40 77d7 573d
00000370: 24cb bf3f ba2e c93d 9308 b8be 8620 ff3d
00000380: 2cbf fbbd b66e 7c3f 7d28 ea3f 5658 1940
00000390: 8bf1 bd3f ca12 90bf 6e61 b1bf bf56 01c0
000003a0: 8267 e53e b6c8 26be 48a2 a6bf e38d 90c0
000003b0: 9608 943e 0578 f73e ab13 373f 1d54 5a3e
000003c0: a563 8b3e a79f d33f 25a2 123f 9334 cb3f
000003d0: 1ea5 7fbf f853 70bf ef7d 60bf d8f1 c63e
000003e0: 62ae e53e aedc b63e b65b 6fbf b7e4 b9be
000003f0: 768c e63e 955f 2940 bc63 38be 7361 09bd
-2.3774128 -2.7087803 -0.3298981 0.6368552 2.4801877 3.4215784 11.2262745 -0.057117037
2.287655 2.3726523 -0.9153269 0.2667279 1.6389953 -0.302085 -0.4212963 0.31918716
-0.2733587 -0.92816585 0.38435724 -3.9632065 2.4943588 0.048601877 0.12619527 -1.195796
-0.17499651 0.15663147 0.781662 0.7130517 0.19063944 -0.21458462 -3.5540564 1.8628695
0.058535144 -1.640739 0.07050242 0.50838256 0.50641894 -0.11233259 1.3852955 -0.36347103
0.42593035 -0.08654767 0.36084637 -0.15492763 -0.40896764 -2.0139465 -0.95311016 -1.083181
-0.75572765 0.0980227 -0.2629196 3.488905 3.1061933 0.39954984 0.21846262 0.094204016
-2.1823428 -1.7570364 -2.9312758 -1.8062505 1.4919429 3.7597516 -1.846076 -0.48632228
-0.3297274 -0.19603698 -0.22738795 -0.12991409 0.07472325 -0.09401417 0.11700477 -0.6863596
0.8684336 -0.11796017 -0.312507 -0.45916387 -0.1625187 -2.8640478 0.3484716 -0.2782811
0.0168084 -0.112186454 0.7752096 0.4313529 1.4123805 0.6678746 -0.65513057 -0.80075884
0.37751713 0.022364657 -0.14534083 1.178006 0.050594028 2.7204955 3.0133657 -0.65858585
1.6248757 4.166873 2.518447 -0.8566144 -0.63421875 0.46865052 2.2834976 -0.9733528
-1.211896 -1.2421322 -0.017634844 -0.15354404 1.6892238 1.5165306 0.7493593 0.6626502
1.8503128 -0.9567888 0.8600496 0.08117367 1.2076135 0.34102958 0.04789604 -0.13064097
-0.33769557 -0.99769384 1.6186128 -4.2641425 14.052732 -1.0477427 -0.67152745 1.765313
0.4715789 1.5936924 0.053104486 0.0044048293 0.0522439 0.10365203 4.812183 1.8960718
-4.244863 1.3595601 -0.73187834 -1.0813986 0.2530915 0.5034617 0.0782422 0.5012362
0.70944494 0.11929757 -0.01920003 0.69190663 -1.785974 -0.038998954 0.4180952 -0.24858938
-0.7488188 0.10345125 -0.02174454 2.8017588 0.79444396 -2.9350154 -0.34110922 -0.18459211
1.9308387 -1.7129694 0.92572427 2.7047293 1.7565205 1.5241246 3.0890846 0.42949703
1.2441235 -0.086919695 -0.1538427 0.1368525 0.0523809 0.24822001 0.36673865 0.7004214
-0.14694026 -0.82601553 -0.53595316 0.049457606 0.22392452 -2.8712156 0.29886308 0.22902559
0.10165301 -0.1434004 0.35646337 0.71325415 -2.0750403 -6.9290485 -0.5057519 -0.95515966
1.0645797 -0.050773095 -0.26663086 -0.2943821 0.59173405 2.9199393 4.969334 -0.49005678
1.4568319 -2.1338942 6.931225 -0.92494327 -1.2976921 -0.10652556 0.05800536 -0.2159182
-0.055430833 0.10321722 0.47212607 -0.18314661 -0.6728645 -0.36495742 -3.626108 3.3769267
0.93631744 -0.16318096 5.9964437 0.052695718 1.4983869 0.098233655 -0.35944042 0.12457375
-0.122923225 0.9860643 1.8293606 2.3960166 1.4839338 -1.1255734 -1.3857858 -2.0209196
0.44805533 -0.16287503 -1.3018274 -4.51732 0.289128 0.48333755 0.71514386 0.21321149
0.2722446 1.6533097 0.5727866 1.5875419 -0.99861324 -0.93878126 -0.8769216 0.38856387
0.44859606 0.3571524 -0.93499315 -0.36307308 0.45029038 2.6464589 -0.18006796 -0.0335402

l_lstm.weight_hh_l0 f4 [32, 8]
00000000: e401 bc3f 393b 68be c94a c5be 06fa 0040
00000010: 9fb9 1e40 bfaf 67bf de48 03c0 cccf 3a3e
00000020: fa4e 1dc0 97c1 523f ced1 923f 8d65 0e40
00000030: 31d4 643f 272e a7bf 2383 1040 2106 64bf
00000040: a6ab 8fbf d777 22c0 1065 bd3e d958 e7bd
00000050: 9d44 9e40 f58d 55c0 d4e4 133f 2023 4dc0
00000060: 492e a1be 5642 fcbe a299 603d f6a8 0a3f
00000070: a58c 24bf 2a85 b2be 2829 ffbe f467 05be
00000080: a2eb 72bf 9a71 8cc0 7f99 e8bf 0aba 0f40
00000090: 66e7 653f 049c f0bf e392 cabf 4620 5f40
000000a0: d92e d63e c90e e6be fd3f 78bf d2ea a5be
000000b0: 336c 1d3f 65d6 e13e 131f 453f 6651 4c3e
000000c0: 6389 3240 5194 acc0 5d85 01bf e7b6 753f
000000d0: fd35 a5be 7fe1 4d3f ee74 53bd 9ac4 0040
000000e0: d8e9 43be e171 5740 fd10 fc3d c055 83be
000000f0: d9a1 9fbf b643 b83e d41a a9bf cf63 15bf
00000100: 5e1a 7b3f b1a4 14bf 0ddb 1c3e f276 573e
00000110: e7dc 0c3f 452b edbf 4587 aa40 a523 5f3f
00000120: f558 7c3e cff7 53c0 b37b e9bf 4be2 f4be
00000130: d63a 023f dd92 dfbe 4360 c140 1d5f b9be
00000140: 037e 8cbf 66c7 7e40 b7d3 8fbf 00c3 1f3f
00000150: 2706 73bf 44c1 16bf 3264 013f c000 3dc0
00000160: a211 a4be 1445 e3be 253c 643f dc03 e53e
00000170: 4ecb 7fbf fd43 a7be f2d4 4fc0 31e5 e8be
00000180: 6b65 0740 befa 06c0 7dfe c33e 2d3a 0440
00000190: 8c69 01c0 cde2 89c0 3abe 6c40 0bd1 783e
000001a0: 953c 803e 8a74 0bbe d201 29bf c02a 85be
000001b0: b376 cc3e 2395 213e 1181 9b3f 10bf 143f
000001c0: 73ed 8abf 1721 30c0 c04e 4640 c61e 0bbf
000001d0: 3876 683b d165 9e3f f168 f4bf f411 813f
000001e0: 2d4d e03f 38e3 133f 2f15 aebd 467f d03e
000001f0: 1d29 33bf 530d 4b3e 25e7 d93f 5d35 b5be
00000200: 6b78 d63c d1a3 34bd a85c a63f e271 3d3f
00000210: 641c 52c0 441a b6bf 0a98 4cbe 790b 1740
00000220: d417 febf b624 0dc0 30bd 9abe c5ae 913e
00000230: a539 d13b de67 3e3f 4185 dbbf f71d 77bf
00000240: 53d6 0e40 fcff 8e3f b07f 4c3f 2abe b1bd
00000250: f993 903e 16bd babe c2b0 68bf 3fe6 9cbf
00000260: cd28 d0be f6f1 733f 90a9 63be 64a8 96bd
00000270: 283a c2be cc7b 433e 6ea2 65bf 1137 94be
00000280: 6f2e 60bc 3656 50bf 1591 af3e 811d 4a3f
00000290: 6916 2cc0 6632 4bbe c35b d93b c8a3 4640
000002a0: 33c7 963d 7824 97bf b0b0 423f b705 bc3c
000002b0: acbb 953d cec8 693f 4838 643f c479 993f
000002c0: 341c 76bf 4b27 65bf 26a8 a83e 10ac 0c3e
000002d0: d3f5 a23e aad2 1cbf b4f9 adbf efbc a0bf
000002e0: 046a e53f fd6a 2a3e a14b 05c0 e8a4 4b3f
000002f0: a241 423f 9841 763f 515d 5fbe d678 1c3d
00000300: bedf c23e 8442 993f ba64 66bf 72f3 e6bd
00000310: 5518 023f 08b0 3dbf 23dd 183f 7c72 aebe
00000320: 50a6 93be 7251 133f ed71 1140 4b06 77bf
00000330: 0a16 3cbf 9840 dc3f 23af 91be 0f49 6d3f
00000340: f28b 843f 2e27 873f b830 d63f 0799 933f
00000350: 1118 a6bf 3c78 08c0 7cd5 ecbd 746d 9ebf
00000360: b60a 05be 1994 febc b972 7d3e 8764 453e
00000370: c5c6 a33d 52ff 15bf e82b 9ebf 7f3a 36bf
00000380: 83e1 d03f fccf 4dbf a2a7 9dbf e069 a4bf
00000390: 893c c4bf bb5d 753f 30d7 243c 5c2e 2540
000003a0: 36df 183f b0af 523f d47f 03bf 524d 04bf
000003b0: 4404 acbd e5c4 903f e0dc 62be 909f c63d
000003c0: 2d7a 45bf eb53 3540 44b7 23c0 587c d13f
000003d0: e4d8 6f40 478b d63e e1fe fbbf 4aed 2a40
000003e0: bbdc 2bbf d128 81bf 5a06 68bf c85f 293e
000003f0: 10b1 e4be f6a5 4ebf c5f4 543c c1c2 533d
1.4688077 -0.22678842 -0.3853362 2.0152602 2.4800794 -0.9050254 -2.0513225 0.1824333
-2.4579453 0.82326645 1.1470277 2.2249482 0.8938628 -1.306096 2.258004 -0.8907185
-1.1224258 -2.5385644 0.36991167 -0.11296243 4.9458756 -3.3367894 0.5777104 -3.2052689
-0.31480625 -0.4926936 0.054834016 0.54164064 -0.64277107 -0.3486722 -0.49836087 -0.13027936
-0.948908 -4.3888674 -1.8171843 2.24573 0.8980621 -1.8797612 -1.5826076 3.4863448
0.41832617 -0.44933155 -0.9697264 -0.32405716 0.61493224 0.44108883 0.7700054 0.19952926
2.7896354 -5.393105 -0.5059412 0.9598221 -0.32267752 0.80422205 -0.051625185 2.0119996
-0.19132173 3.3663256 0.12307928 -0.2565136 -1.2471267 0.3598916 -1.3211312 -0.5835542
0.9808711 -0.580638 0.15317936 0.21041468 0.5502457 -1.852883 5.3290124 0.87163764
0.2464331 -3.312 -1.8240875 -0.47828898 0.50871027 -0.43666735 6.0430007 -0.36205378
-1.0975956 3.9809203 -1.1236485 0.6240692 -0.9493126 -0.5888865 0.5054351 -2.9531708
-0.32044703 -0.4438864 0.89154273 0.44729507 -0.99919593 -0.32669058 -3.2473722 -0.4548736
2.115565 -2.109054 0.38280097 2.0660508 -2.022067 -4.3089356 3.6991105 0.24298494
0.2504622 -0.13618675 -0.660184 -0.26009178 0.3993431 0.15779547 1.2148763 0.5810404
-1.0853714 -2.7520196 3.0985565 -0.5434383 0.0035470854 1.2374822 -1.9094526 1.0083604
1.7523552 0.57768583 -0.08500134 0.40722102 -0.6998461 0.19829302 1.7023665 -0.35392275
0.026180467 -0.04410154 1.2997026 0.74001896 -3.2829828 -1.4226766 -0.19979873 2.3600752
-1.9851022 -2.2053657 -0.30222464 0.2845365 0.0063850456 0.7437724 -1.7150041 -0.965301
2.2318313 1.117187 0.79882336 -0.08678849 0.28237894 -0.36472386 -0.9089471 -1.2257766
-0.4065613 0.9529108 -0.22232652 -0.07356337 -0.37934995 0.19090194 -0.89700973 -0.28948262
-0.013682946 -0.8138155 0.34290376 0.7895127 -2.6888678 -0.19843444 0.0066332533 3.1037464
0.07362213 -1.1808004 0.76050854 0.022951944 0.07311186 0.9132203 0.8914838 1.1990285
-0.96136785 -0.8951308 0.32940787 0.13737512 0.31828174 -0.6125895 -1.3591828 -1.2557658
1.7922978 0.16642375 -2.082741 0.795485 0.758814 0.9619384 -0.21812941 0.038201176
0.38061327 1.1973424 -0.89997447 -0.11276902 0.5081838 -0.7409673 0.5971243 -0.3407172
-0.28837824 0.5754615 2.2725785 -0.9649398 -0.7347113 1.7207212 -0.2845393 0.92689604
1.0355208 1.0558832 1.6733618 1.1531075 -1.2976094 -2.1323385 -0.115641564 -1.2377152
-0.12992367 -0.031076478 0.24750794 0.1927663 0.07996897 -0.5859271 -1.2357149 -0.7118301
1.6318821 -0.80395484 -1.2316782 -1.284481 -1.5330974 0.95846146 0.01006107 2.5809546
0.5971559 0.8229933 -0.51366925 -0.5168048 -0.08399251 1.1310087 -0.2215457 0.09698403
-0.7713955 2.833247 -2.5580606 1.6366072 3.747613 0.41903135 -1.9687158 2.670733
-0.6713368 -1.0090581 -0.9063469 0.16540444 -0.44666338 -0.80721986 0.012997811 0.051699404

l_lstm.bias_ih_l0 f4 [32]
00000000: 20b4 d53e 43e0 fcbe ed40 4bbf 094e 1cbf
00000010: db45 61bc 67c5 dc3e 370a 13bf 14ff 7c3c
00000020: 7864 68bd 31b7 2f3f 3bb5 a83d 002e dfbe
00000030: 1e69 edbd a320 af3e 5452 8fbe 9cee 15be
00000040: d343 a3be 2cb9 703f 389a 19bf 4444 3b3e
00000050: 7fb8 673f d10f 793f bf7c a1be fd43 a03e
00000060: c73f 85bf 5daf 27bc f384 5cbe 4d09 34bf
00000070: bded d8be 80c7 043f 3571 0e3f 772b 28be
0.41738987 -0.49389848 -0.79395944 -0.6105657 -0.013749565 0.43119356 -0.5743746 0.015441675
-0.05673644 0.686389 0.08237692 -0.43589783 -0.11592315 0.34204587 -0.279925 -0.14641804
-0.31887683 0.9403255 -0.60000944 0.1828776 0.90515894 0.9728976 -0.31540486 0.3130187
-1.0410088 -0.010234681 -0.21535091 -0.7032669 -0.4236888 0.5186691 0.5564149 -0.1642283

l_lstm.bias_hh_l0 f4 [32]
00000000: dd4a 11be a92f afbe 1ca6 5fbf d1c4 bbbe
00000010: 491c c73e ddc3 183f 8615 36be 8161 023f
00000020: 64d0 13bf 4a77 123f 6aaf d0be e3b7 15bf
00000030: 02fd c0be 20dd 3a3f 9aa6 ffbe 9277 bebe
00000040: e61a a9be eb58 813f 60ee 1cbf c5e4 11be
00000050: 1948 3a3f 6633 3a3f 3c2c 82be 3452 edbd
00000060: e9dd bcbe 443f 9b3d 4533 0dbf c9d0 1ebf
00000070: f978 18bf 180e e23e 267d 3e3f 9004 d23e
-0.14188714 -0.3421605 -0.8736284 -0.36673597 0.38888767 0.59673864 -0.17781648 0.5093003
-0.57739854 0.5721327 -0.4075883 -0.58483714 -0.3769303 0.7299366 -0.49931794 -0.372006
-0.33028334 1.0105261 -0.6130123 -0.14247425 0.7276626 0.7273468 -0.25424373 -0.115879446
-0.36888054 0.07580426 -0.55156356 -0.6203733 -0.5955959 0.44151378 0.7440971 0.41019106

l_lstm.weight_ih_l1 f4 [32, 8]
00000000: 4201 773c 2873 053f 7d15 23bf 94c3 733e
00000010: c592 7e3f b18e 37bf 385c 98bf 0d25 9bbf
00000020: aa99 53bf 2843 253f 7561 9d3d b4c2 953e
00000030: 4dc1 253f 5a28 93bf 02f6 da3f 1b24 92be
00000040: 9bb6 15bf 412e 1dbf 5a33 5cbf fd7b ad3f
00000050: 6d9c be3f a642 12bf 7028 2b3e f56c 91be
00000060: 3413 fcbe 8902 0040 ed26 5abf 3596 153f
00000070: 57b4 ff3e 2a8f d1bf 100c d13f c7cd 80bf
00000080: 05cd 8abe 4ce2 a5bf 7c64 15bf e3ba dc3e
00000090: 40fd 0e3f fef9 c0bf 2a2b 863f 037f 58bf
000000a0: b901 02bf 6d64 fdbd e00b 0d3e 41cf 3ebf
000000b0: 3db7 c63f 48d0 57bf 9470 613f 6a4b c63e
000000c0: 3f02 a63f 1731 80c0 9d00 8040 deab d83f
000000d0: bb71 0241 0acf 2ebf 7306 40bf baaa e43f
000000e0: 51f3 b1bf 0c71 b5bf 6ac8 b340 ec4e 87bf
000000f0: 5add 3a3f 0f6e 3b3e f7c8 76c0 23cc bbbf
00000100: 87ee a13f e800 003f 2d62 903f 7df2 1d3f
00000110: 8eae 11c0 332f 67bf fbd3 f23f 9ee9 01c0
00000120: b895 593d 0bb9 89bf 29b9 87be c2ee 663f
00000130: bd46 21c0 b25c 393d 635b abbf a1f0 11bf
00000140: 63df d23f 1dfd 1d40 f7f6 f6bc 760b c6bd
00000150: 92bc 68c0 933d a4bd 6a25 d73f 2c5a f9ba
00000160: d32d 773e 70cb 0dbf bc1b dbbe f02e 493f
00000170: 8786 8cbe 057b 10c0 3441 a23f 8afd 11c0
00000180: cb71 f4be 9fb9 2ec0 0c43 c0bc 2612 cb3e
00000190: 6b5c 713e 815d 0dc0 61be 503f d56e febf
000001a0: fc35 0e3f 5abc 33c0 ee14 f0bf 16aa e63e
000001b0: d018 d3be 10dd d73f 003c cdbe 8d1a c8bf
000001c0: 07cf ecbf 0e9e a2c0 81fd 8840 690e b4bf
000001d0: 3f71 b3c0 371e a93f af8f c7bf c17e 2bc0
000001e0: 3f36 7bbf 4f99 bec0 0161 73c0 fa6f 54bf
000001f0: fba1 763e 27fc a73f 7013 0d40 274f d4be
00000200: 6b1a 40bf 63e2 d7be a9ca 353f 4c1d 8abf
00000210: 53cd 29be e71f 1f3f b21e 38bf f78a 98be
00000220: 64cf 4cbf 9d8f 15bf d550 433f 81d2 26bf
00000230: f88e 0bbf d04c 223f e67a 8cbf 814f 38bf
00000240: e5fd 283f cc78 a73e 192a 3abf 100e 613f
00000250: fdc6 0d3f 8ca3 3fbf 6ed0 543f 9d2e fd3e
00000260: 3378 26bf b9ab 48bf f042 623f f3c9 2bbf
00000270: 29b9 81bf f003 273f d12c b9bf d66c 33bf
00000280: 5b36 6c3e 7cfd 8c3e 6076 3abf 425a 533f
00000290: 08de ca3e f370 70bf 90e1 aa3f 1fd4 cc3e
000002a0: bedd e73e 417a ea3d 2e22 8abf 26a5 273f
000002b0: 3ff6 c93e 16c5 56bf e437 da3f 21ea b4bd
000002c0: aa80 8dbf 1f88 833f a821 5f3e eb4a 91bf
000002d0: 965f babd 7be3 243f 6a36 48be a88d 21be
000002e0: f034 80bf 3f53 793f 111b 843f 6b59 a1bf
000002f0: 9d52 f3be 6c4f 503f f64c 90bf e7f6 133f
00000300: 5590 9b3e 6c48 2fc0 b00d 2c3c a2eb 243e
00000310: 4dc2 713f 3f52 20bf e798 a8bf d59e f6be
00000320: be99 743f be5f 8f3e 6558 c13e b528 9a3e
00000330: ae51 51bd c19e 54bf 5cb7 ad3c 3abb 3fbd
00000340: 53c1 023f 7ab7 64c0 6ff5 54bf 2ec8 fd3e
00000350: f570 82bd 45de 66bf c445 d9bd 8513 82be
00000360: 5761 543e 3302 a13f b123 fdbe 3077 093f
00000370: 8f37 b43e 5f3d c5bf 7b09 c83f 3d50 32bf
00000380: 45fc aebe 3823 bebf 7a80 90bf 00fb 143f
00000390: e012 503d 34cb a8bf db4b 483f b0f4 3cbf
000003a0: 4b38 49be 6120 b3be 2922 823e 1bb7 9dbd
000003b0: 6664 043e 919c 2cbe 6c5d 233f d59e 22bf
000003c0: 1f20 fb3f a40d dc3f f488 e4be 5c2a 94bf
000003d0: 1289 26bf bc0d 423f 34ef c1bf d109 36bd
000003e0: 6846 e4be 05e6 5ec0 43e9 ea3f 868a 1cbf
000003f0: 216d 5a3e d3fc 953f 6930 1dc0 eb17 6cbf
0.0150759835 0.5212884 -0.63704664 0.23805076 0.994427 -0.71702105 -1.1903143 -1.2120682
-0.8265635 0.645556 0.07684604 0.2925011 0.6474808 -1.1496689 1.7106326 -0.2854317
-0.5848176 -0.613987 -0.86015856 1.3553463 1.4891487 -0.5713295 0.16714644 -0.2840344
-0.492334 2.0001547 -0.85215646 0.5843232 0.49942276 -1.6371815 1.6331806 -1.0062798
-0.27109542 -1.2959685 -0.5835645 0.43111333 0.5585518 -1.5076292 1.0481923 -0.84568805
-0.5078388 -0.1237267 0.13774061 -0.74534994 1.552467 -0.84302187 0.88062406 0.3872941
1.2969435 -4.0059924 4.000075 1.692745 8.152766 -0.68284667 -0.7500984 1.7864602
-1.3902379 -1.4175124 5.6182146 -1.057096 0.72994006 0.18303703 -3.856016 -1.4671673
1.2650918 0.5000138 1.1279961 0.6169813 -2.276279 -0.90306395 1.8970941 -2.0298839
0.0531213 -1.0759596 -0.26508453 0.90208066 -2.5199425 0.045254417 -1.3387264 -0.57007796
1.6474422 2.4685738 -0.030147059 -0.09670155 -3.6365094 -0.08019557 1.6808293 -0.0019024066
0.24138574 -0.55388546 -0.42794597 0.78587246 -0.27446386 -2.2575085 1.2676148 -2.2810998
-0.47743067 -2.7300794 -0.02346947 0.39662284 0.23570411 -2.208832 0.81540495 -1.9877573
0.55551124 -2.808371 -1.8756387 0.4505164 -0.41229868 1.6864338 -0.4008484 -1.5633103
-1.850068 -5.081794 4.2809453 -1.4066898 -5.607574 1.3212346 -1.5590724 -2.6796114
-0.9812965 -5.9562144 -3.8027956 -0.8298336 0.24085228 1.3123826 2.2043114 -0.41466638
-0.7504031 -0.42164907 0.7101236 -1.0790191 -0.16582231 0.62158054 -0.7192184 -0.29793522
-0.8000395 -0.5842226 0.76295215 -0.65164953 -0.5451503 0.63398457 -1.0975006 -0.71996313
0.6601241 0.32709348 -0.72720486 0.8791208 0.5538176 -0.7485893 0.8313054 0.49449626
-0.6502716 -0.7838703 0.8838339 -0.67105025 -1.0134631 0.65240383 -1.4466802 -0.70087945
0.2306761 0.27537143 -0.72836876 0.825596 0.3962252 -0.93922347 1.3350086 0.40005586
0.45286363 0.11449099 -1.0791681 0.6548637 0.39445683 -0.8389448 1.7048306 -0.08833719
-1.105489 1.0275916 0.21790183 -1.1350988 -0.09100263 0.6440961 -0.19552007 -0.15776694
-1.0016155 0.9739265 1.032076 -1.2605413 -0.47523966 0.8137119 -1.1273487 0.5779862
0.30383554 -2.7387953 0.01050131 0.16105512 0.94437104 -0.626255 -1.3171662 -0.48168054
0.9554709 0.28002733 0.37762752 0.30109182 -0.051103286 -0.8305474 0.021205597 -0.046809413
0.5107624 -3.5736985 -0.83187 0.49566787 -0.06369201 -0.90182906 -0.1060901 -0.25405517
0.20740257 1.2578796 -0.49441293 0.5369749 0.35198638 -1.5409354 1.5627893 -0.69653684
-0.3417684 -1.4854498 -1.1289208 0.58195496 0.05079925 -1.3187013 0.78240746 -0.73810863
-0.1965038 -0.3498564 0.25416687 -0.0770094 0.12928924 -0.168566 0.63814425 -0.6352361
1.9619178 1.7191663 -0.44635737 -1.1575427 -0.650529 0.75802207 -1.5151124 -0.044442955
-0.44584966 -3.4827893 1.8352436 -0.6114887 0.21330692 1.1717781 -2.4560797 -0.92223996

l_lstm.weight_hh_l1 f4 [32, 8]
00000000: e67b b8be 7aea 743e 7be7 1abd b76c aebf
00000010: 7e48 303f 2977 12bf 3e33 ef3f 5e80 893f
00000020: 3622 8a3f a819 893f f5ea 873d 21e4 75be
00000030: 64eb 4fbe 0607 30bf b839 653f 2ee2 0340
00000040: 30d4 3e3f c17f 6b3f 2536 e1bf 448c cabd
00000050: 4117 6dbf a1fb c2bf 98aa cd3f 6814 543f
00000060: 9cd1 ad3f be83 973f 9a32 6ebf 129a 883f
00000070: ae10 56bf 5fd3 b1bf c7d1 9c3f 3f08 a840
00000080: 80f5 973f dac0 813f 1cdf 93bf 36f9 7d3c
00000090: 881d 30bf a8d3 3dbf 4d6b 693f 63fe 7940
000000a0: c97b 6bbe 5374 1cbf 6cbd 003f d084 27c0
000000b0: 5abf afbd 192e 38c0 dd80 47bf 75a2 2540
000000c0: 211b 5dc0 0602 b2bf f534 f13f 9bd7 183f
000000d0: 362b 3dbf de45 3ac0 1f8d 12c0 11af 253f
000000e0: 97ee 98c0 94ab c8bf 37e1 3840 2bfa 4bc0
000000f0: 5fe5 1340 16f3 e7be bfa5 0ec0 78bd d9bf
00000100: 751f 1a3f b04f fdbf 3566 8c3f 175d d9be
00000110: 1381 663f 530a 893f 22c6 0b3f a9c0 00be
00000120: 5681 bb3f 7879 d23f 7c64 32bf 4cbd 0abf
00000130: 3f27 5ebe b244 30bf a45b f53f 84ca 8a3f
00000140: f3aa 473f 128e 8ebe ef97 08bf 0cfe a0be
00000150: 318c 74bd 8ab1 99be eea8 273f 9fac 98bf
00000160: 98a5 95be 8988 6abd 243f 833c 70b3 39bf
00000170: ad0b fc3e e048 c93e 6550 3dbd 68cb 5f40
00000180: 88da 313f fcff 0f3e d249 12bf 5d72 c7be
00000190: 7aad a4be e8b4 343e 8c25 4c3f 6736 3140
000001a0: fd27 ef3c 7467 95be 5faf 8ebe ec91 bebf
000001b0: 1a82 903f a523 8cbf 8444 0d3f 802d 3440
000001c0: 1c66 f13e e65e 1e3e f460 f33e 2c60 a83e
000001d0: 51fa 123f 02c7 00c0 6b19 81be 6c92 ffbf
000001e0: c0a9 a4bf f17d 1dc0 4ab4 1c40 8681 5fc0
000001f0: 149c 6540 f2d6 5f3f cacc 2ac0 da8a abbf
00000200: d8a9 1bc0 fb23 593f 5021 4d3f 9b3b 613f
00000210: 6b76 133f 0328 acbf 0647 90bf e21a 2ebf
00000220: 8398 64bf b844 15c0 c94b 943f f979 a83f
00000230: 14c6 9b3f ae2f c93e b397 f6be 7752 543e
00000240: e511 4f3f 019f 1dbd b4b3 3bc0 1c0e 7fbe
00000250: b548 02c0 4342 db3f 5488 663e 473d e5bc
00000260: f37a 4cbf f535 10bf 3e29 133f b9ca 7c3e
00000270: 7ad1 393f 58fb 6f3e a0e8 f53d 6047 00bf
00000280: 0c89 513f 1ca3 093f ed1a 5abf 7c50 5dbe
00000290: 365e e5bf 1257 29bf 2b86 093d ee39 653e
000002a0: 31ab b13f a416 1a40 604f 15c0 98b9 833f
000002b0: 594c 9dbf 7596 0bc0 1718 0540 70d1 723f
000002c0: 98c4 dabd cd31 8e3f a06d 0f3e 1a42 f13f
000002d0: 9f8b 433f 2f51 42c0 47b3 5dc0 f9d1 1f3f
000002e0: 8820 93bf adae acbf a711 933f ea56 3f3f
000002f0: b953 aabf 9982 81bd 7d7d d3bf 25e9 16c0
00000300: 7206 f03d 7c1f 5e3f c57c 54bf 639a 07bf
00000310: 0a0f 4f3f 1fdf e6be 50a1 2f40 6d5a 4440
00000320: ace4 fd3c a687 7abf 2e32 443f 5420 dabf
00000330: c358 283f de1a 0f3f d56f 353f d8a5 b6bd
00000340: e173 963e fb9a c03f f97b 0fc0 adae cf3e
00000350: 5d29 4bbf ecfc 76bf 90a0 1040 3f09 493d
00000360: c85e 933f 8e95 7d3f 28ef 41bf 3ae2 293f
00000370: 5450 52be 210d e7be 1cb5 ac3f aefc 7240
00000380: 830a 293f bab1 6e3f 7c93 4abf 720a 7abc
00000390: ff21 4ebe a926 a3be eb8b ae3f 59b4 4940
000003a0: f562 4d3e 636b bbbe 4d04 1f3f 1fcf 40bd
000003b0: fc31 bcbb bc58 babe fe4e db3c 5709 95bc
000003c0: 9640 94c0 19f8 bf3e 759e eabf 33dc dabe
000003d0: 17a5 52bf d0dd 2abf eed2 7c3f 762f 45bf
000003e0: 5c4e 34c0 fe38 57bf 370e bb3f 13b7 48c0
000003f0: d066 0740 6334 64bf f160 15bf 3a25 1ebf
-0.36032027 0.2391757 -0.037818413 -1.3626927 0.68860614 -0.57213074 1.8687513 1.07423
1.079169 1.0710955 0.06636611 -0.24012806 -0.20304638 -0.68760717 0.89541197 2.06068
0.7454252 0.9199181 -1.7594649 -0.09890035 -0.9261361 -1.5233041 1.6067686 0.8284364
1.3579593 1.183708 -0.9304596 1.0672019 -0.836192 -1.389263 1.2251519 5.2510066
1.1871796 1.0136979 -1.1552463 0.015501311 -0.6879506 -0.74151087 0.91179353 3.9061515
-0.22996439 -0.61114997 0.50289035 -2.6174812 -0.08581419 -2.8778136 -0.77931005 2.5880406
-3.4547808 -1.3906868 1.8844286 0.5970399 -0.7389406 -2.9105144 -2.2898633 0.64720255
-4.7791247 -1.5677361 2.888746 -3.187144 2.3108747 -0.45302647 -2.2288663 -1.7010946
0.6020425 -1.9789944 1.0968691 -0.42453834 0.900407 1.0706276 0.545992 -0.12573494
1.4648845 1.6443319 -0.69684577 -0.54195094 -0.21694659 -0.6885482 1.9168591 1.0843053
0.7799522 -0.27842766 -0.5335683 -0.31443822 -0.05970401 -0.30018264 0.6549214 -1.192768
-0.292279 -0.057259116 0.016021319 -0.72539425 0.49227658 0.39313412 -0.04621925 3.49679
0.6947408 0.14062494 -0.5714389 -0.3895444 -0.32163602 0.17647135 0.7974479 2.7689455
0.029193873 -0.2918049 -0.27868173 -1.4888282 1.1289704 -1.0948378 0.5518267 2.815277
0.47148216 0.15465888 0.47534907 0.32885873 0.574132 -2.0121465 -0.25214705 -1.996656
-1.2864304 -2.4608119 2.448504 -3.4922805 3.5876513 0.87437356 -2.6687493 -1.3401749
-2.4322414 0.84820527 0.80128956 0.87981576 0.57602566 -1.3449711 -1.1271675 -0.6800977
-0.89295214 -2.3323193 1.1585628 1.3162223 1.2169824 0.3929419 -0.48162612 0.20734583
0.8088668 -0.038481716 -2.9328432 -0.24907726 -2.0356877 1.7129596 0.22512943 -0.02798332
-0.79875106 -0.5633233 0.57484806 0.24686708 0.7258526 0.23435724 0.1200726 -0.5010891
0.8184974 0.5376451 -0.85197335 -0.21612734 -1.7919376 -0.66148484 0.03357522 0.2238538
1.3880368 2.4076319 -2.3329697 1.0291014 -1.2288924 -2.1810582 2.0795953 0.94850826
-0.106820285 1.1108948 0.14006662 1.8848298 0.7638492 -3.036205 -3.4640672 0.6242977
-1.1494303 -1.3490807 1.1489762 0.74741995 -1.33068 -0.06323738 -1.6522671 -2.35798
0.11719979 0.8676679 -0.83002883 -0.5296995 0.8088232 -0.45092103 2.7442207 3.0680192
0.030992828 -0.97863233 0.7663907 -1.7041116 0.6576044 0.5590037 0.7087377 -0.08918351
0.29385284 1.5047296 -2.2419417 0.40562955 -0.7935999 -0.9647968 2.2598 0.049081083
1.15133 0.9905633 -0.7575555 0.6636082 -0.20538455 -0.45127204 1.349277 3.7966723
0.66031665 0.9323994 -0.79131293 -0.015261279 -0.20130156 -0.31865433 1.363645 3.1516325
0.2005728 -0.36605367 0.6211594 -0.047072526 -0.0057432633 -0.36395824 0.026771065 -0.01819293
-4.632884 0.3749397 -1.8329607 -0.42746124 -0.8228316 -0.6674471 0.98759353 -0.77025545
-2.8172827 -0.8407134 1.4613713 -3.136174 2.1156502 -0.89142436 -0.58351046 -0.61775553

l_lstm.bias_ih_l1 f4 [32]
00000000: 7ca4 68bf ea5d babe 34d7 46bf 2830 d1be
00000010: 3b6f f8be 58cd 16bf 77df e6bd c96c 9fbe
00000020: b690 89be 95ac 5c3f be9e d53d 1783 40be
00000030: 7ed0 56bf a21f 7b3f 00bd 913c 5881 76be
00000040: 1990 2c3e 55f3 8b3e d1b6 183e c0f3 ac3e
00000050: 2117 24be 6c1d 99bd f19c d6bd 190a 04be
00000060: 6e8b 52be e9d8 13bf 7e83 10bf 37c1 30bf
00000070: 9b64 31be 8186 d7be a9db 62bf 25d2 473e
-0.90875983 -0.36399776 -0.77672124 -0.40857053 -0.48522362 -0.5890708 -0.11273091 -0.31137684
-0.26868218 0.8620084 0.10430668 -0.18800007 -0.83911884 0.9809514 0.017790318 -0.24072778
0.16851844 0.27334085 0.14913489 0.33779716 -0.16024448 -0.07476315 -0.10479153 -0.12894477
-0.20561 -0.57752854 -0.5645064 -0.6904482 -0.17323534 -0.42094806 -0.88616425 0.19513758

l_lstm.bias_hh_l1 f4 [32]
00000000: dd0c afbe 830a ffbe 0b5c c4be 8a83 12bf
00000010: 2076 0abf 0313 fbbe 73b3 bfbe 85da 46bf
00000020: cfc1 5ebe 1fe2 763e 779b 713e 2b6a 8fbd
00000030: 0c6b aebe 984b 4e3f bb87 8d3e 7fd6 623e
00000040: 6103 573d 4acb 36bd 749d aebe cb4d 0dbd
00000050: 2bef 1a3e c845 bc3d 3089 023e 1ad3 593e
00000060: f53d 15be 6be1 78be 0d93 7bbe 9288 1bbf
00000070: bc3a 16be 21ec 27be 9364 32bf 4fc8 6bbe
-0.341895 -0.49812707 -0.38351473 -0.5723196 -0.54086494 -0.49037942 -0.37441596 -0.77677184
-0.2175362 0.24109696 0.23594461 -0.07002672 -0.34066045 0.80584097 0.27642617 0.22152136
0.052493457 -0.044627465 -0.34104502 -0.034498017 0.15130298 0.09192997 0.12747645 0.21271935
-0.14574416 -0.2430474 -0.24567814 -0.60755265 -0.14670843 -0.1639867 -0.69684714 -0.2302563

l_linear.weight f4 [1, 8]
00000000: 8e43 d1be e6a8 cabe 0cb4 d83e 820c 33bf
00000010: b399 2e3f c625 d33e 2517 b4be 1da6 ffbe
-0.40871853 -0.39581984 0.42324865 -0.6994096 0.68203276 0.41239756 -0.35173908 -0.49931422
