data/datasets/ca_alameda_county_neighborhood/resstock-amy2018-2021-release-1-66099.pth (torch, 8440 bytes, 9 tensors)

l_lstm.weight_ih_l0 f4 [32, 13]
00000000: bbbe 2e40 9155 ab3f 2e16 0bbf 7616 45bd
00000010: 005a 153d d88a e8bf a822 d8c1 083e bfbf
00000020: 181d 143e b95e ebbf 5ee7 a4bf 99f2 453f
00000030: 6dee ba3f cca5 fa3e 0610 1cc0 ebf6 54be
00000040: fd94 c0be acf5 05c0 2bd1 8d3f ceb9 04c1
00000050: 39b4 393f 2196 b4bc bb69 68bf ccfd d0be
00000060: 6ccd 553d 6277 763f f395 763f a3e3 c33e
00000070: 8dda 50be fd80 01be a716 193d 0828 0740
00000080: a03d 8cc0 eff3 34bf 4d1a 94be ee72 babe
00000090: e750 a33f 9e89 9d3f 6c51 85bf c5cd 723f
000000a0: 9b85 0a3f 4805 c13f 857e 82be d742 4cc0
000000b0: 4723 7e40 5bda 0440 0b41 1e41 441f 2cbf
000000c0: 298a fdbe 426b a0bf ec1e 6dbf 5a1b dfbe
000000d0: a561 9f3f e314 923e d4ef c43e 2100 25c0
000000e0: 7f9d 03c0 50ec 6240 47ed dcbf c2d5 cabf
000000f0: a096 76bc 4b8b 58bf e5e8 e93f a249 01c0
00000100: 8b60 10bf 13a2 fabe ef53 6a3f dc96 0b3e
00000110: 7c60 dd3e ae61 d63f afaa b5c0 f981 aa40
00000120: 01b1 aa3e 0c08 2cbf b925 c73f 6704 69bf
00000130: 1eca 45bf a503 473f 4e1d b4be cde7 f5be
00000140: 4c39 533e 76b4 0c3d f649 18be e3e7 583f
00000150: 9640 07c1 63ab 3140 cc43 41bd 68cc 4dbd
00000160: 3222 b23d 70c5 4ebe 8d7d 62bf c4fa 85be
00000170: c9b6 92be eed2 d13c 2b61 20bf c8cb e03e
00000180: 645a 0abe 6304 0dc0 7554 bc3d 8bb8 9bbd
00000190: bd49 b03d 353b 8ebf 0acc 07bf a71f b9bf
000001a0: baa5 0b3f 32dc c43f 1bd7 cebe 4b53 c7be
000001b0: 6175 053f ed7b fcbf 7be6 2340 3786 d0bf
000001c0: 2dff 56bd 4190 21c0 3a8b da3e 0dab 8d3e
000001d0: 7721 6d3f b848 f1bf 3faa d8be ff60 fc3e
000001e0: 73d4 2ac0 aef5 08bf a04a b9bf d961 27c1
000001f0: ec56 a53d a04a c7bf bb55 d8bd 3af4 8bbe
00000200: e1d7 ba3e 9ad2 563f b932 893e e4b0 0abe
00000210: 5905 dabd 445c 8c3d 707a 0a3f 7c9c db3e
00000220: eaa8 c9c0 cf2f 92c1 99cf 853d 11e1 603d
00000230: b609 3cbf acc8 d2bd a6df d7bd 074a 6c3f
00000240: 282c d53e 379b ba3d 5a56 c53c 62f4 d3bd
00000250: 20e6 053e 6e42 24c0 e498 b63f f8b8 47bf
00000260: 5714 013c 47c4 9abe 1dbf a43e 0934 0240
00000270: 4bfe 973e c67b 9a3e 5b34 7440 eb3c 5bc0
00000280: e0aa a1bf c9a0 0f40 674c 8841 f5ef 973f
00000290: b812 933f 96cd 1ebf 2fe0 c93f 5748 2dbf
000002a0: bf5f 793d ac2b 0c40 8802 683f f476 56bf
000002b0: e447 fbbe c5a5 9cbe 1d51 26bf 8a13 903e
000002c0: 06b0 43c0 bacb 6440 303b 27c0 dded 1b3f
000002d0: 2cca 04be 1a51 0b40 2218 763d ee6b 71be
000002e0: c6c3 2dbe 7d43 863d 8c98 46bf 5458 86bb
000002f0: a678 2ac1 c470 0940 f6b3 31bf 19a8 2bbe
00000300: f526 ccba 703c a73d dbbf d4bf ba9c 8dbe
00000310: 1847 7f3f f039 073e 2f43 b43e 61e4 de3f
00000320: 381e ce3e 89c4 06bf 6c61 103f 3416 b3bd
00000330: 16ad 553e 9933 b1bf 0c7a 043e 9a4c afbf
00000340: 1ca9 b13e f6b0 373f e8f8 293e e76d 423e
00000350: aa80 083f 3b74 58bf 1b1f 05c1 7c3d 06c0
00000360: a4e8 45bf b90f 2dbe 0ecf a73f cdea 5cbd
00000370: 712b e83f e8d3 f63b 07fe eebf 2491 943e
00000380: 3a07 a23f abe0 aa3f 58c5 d8bf a619 91c0
00000390: 0544 0e40 4c5a db3d 8ef0 7bbe 39ef 863e
000003a0: 257f bebe fc1b e13d 00d8 a53e 3a86 d93d
000003b0: d252 de3c 8275 61bd ae9f 493e a02d 1ebe
000003c0: e2fa f93f a104 eabf e65c 4ebd 13c2 b33a
000003d0: 1255 e8be 80e8 10bb b9f5 15be cb3e 273e
000003e0: 5f7c 893d cda0 6bbc 282b 0c3c 1983 ec3c
000003f0: b3ad 6f3c 7f72 553f c758 59bf d227 67bc
2.7303913 1.3385488 -0.5433072 -0.048117124 0.036462784 -1.8167372 -27.016922 -1.4940805
0.14464223 -1.8388282 -1.2883108 0.773233 1.4604012 0.48954618 -2.438478 -0.20797317
-0.3761367 -2.0931196 1.1079458 -8.295362 0.7254062 -0.022044243 -0.9078633 -0.40818632
0.05219786 0.96275914 0.96322554 0.3825961 -0.2039587 -0.12646861 0.03737512 2.1118183
-4.3825226 -0.70684713 -0.28926316 -0.3641581 1.2759064 1.2307622 -1.0415473 0.9484523
0.54110116 1.5079737 -0.25487152 -3.1915796 3.9709032 2.0758274 9.89088 -0.6723521
-0.4951947 -1.2532732 -0.9262531 -0.43575555 1.2451674 0.2853156 0.38464224 -2.5781329
-2.0564878 3.5456734 -1.7259911 -1.5846484 -0.01505056 -0.84587544 1.8274199 -2.0201192
-0.5639731 -0.48951778 0.9153432 0.13631767 0.43237674 1.674856 -5.6770854 5.328366
0.33338168 -0.6719978 1.5558387 -0.9102234 -0.7726153 0.77739936 -0.35178608 -0.48028412
0.20627326 0.03435179 -0.14871964 0.8472883 -8.453268 2.7760856 -0.047183797 -0.050243765
0.086979285 -0.20192504 -0.88472825 -0.2616788 -0.2865508 0.025613274 -0.62648267 0.43905473
-0.13511044 -2.2033927 0.091957964 -0.07603558 0.086078145 -1.1111819 -0.53045714 -1.4462785
0.54549754 1.5379698 -0.40398487 -0.38930735 0.5213223 -1.9725319 2.5609424 -1.6290959
-0.05248945 -2.5244296 0.42684346 0.27669564 0.9262919 -1.8850317 -0.42317387 0.49292752
-2.6692169 -0.5349988 -1.4475899 -10.461389 0.0807322 -1.5569649 -0.10563227 -0.27334768
0.36492828 0.839151 0.2679651 -0.13544041 -0.10645551 0.06853536 0.54093075 0.42892826
-6.3018694 -18.273344 0.06533737 0.05490214 -0.7345232 -0.102921814 -0.105407044 0.92300457
0.4163525 0.09111636 0.024089027 -0.10349347 0.13076067 -2.5665545 1.4265409 -0.78016615
0.007878385 -0.30227873 0.32177058 2.034426 0.29686198 0.30172557 3.8156955 -3.4255931
-1.2630272 2.2441885 17.037306 1.1870104 1.1490088 -0.6203245 1.577154 -0.67688507
0.060882326 2.1901655 0.9062886 -0.8377526 -0.49078286 -0.30595222 -0.6496752 0.28139907
-3.0576186 3.5749345 -2.6129875 0.60909826 -0.12967747 2.176825 0.06008161 -0.23576328
-0.16969213 0.06555841 -0.7757652 -0.004099885 -10.654455 2.1475077 -0.69415224 -0.16763343
-0.0015575575 0.081658244 -1.662105 -0.27658635 0.99717855 0.13205695 0.35207507 1.7413446
0.4025743 -0.5264364 0.56398654 -0.08744469 0.20866808 -1.3843871 0.12937182 -1.3695252
0.34699333 0.71754396 0.16598856 0.18987237 0.53321326 -0.84552354 -8.320094 -2.0975027
-0.77308106 -0.16900529 1.3110063 -0.05393486 1.8138257 0.0075325854 -1.8671273 0.29016984
1.2658455 1.3349813 -1.6935225 -4.534381 2.2229016 0.10710582 -0.24603483 0.26354387
-0.3720638 0.10991666 0.32391357 0.10621305 0.027139101 -0.055043705 0.19689819 -0.15447092
1.9529688 -1.8282663 -0.050381564 0.0013714455 -0.45377403 -0.0022111237 -0.14644517 0.16332547
0.06713175 -0.0143816 0.008555211 0.028871106 0.014628815 0.8337783 -0.8490109 -0.014108615

l_lstm.weight_hh_l0 f4 [32, 8]
00000000: 6d5d a7be 9fa3 a43e 999e 6ebc b169 a0bd
00000010: 39ec 353d b843 c1be 96d9 973e cc57 15be
00000020: 1ef8 7240 98d4 8bbe 4386 87be 9e9d d6bf
00000030: bb7f 35c0 48f2 f2be ad2a e4bf d1f1 7f3f
00000040: b96e a6bf eaad 45bf 7660 4bbe 6d5f 96bf
00000050: e6c8 fbbe 3252 6440 6462 9dbe faeb 893f
00000060: 9236 90c0 e45c 1140 5782 67bf f077 99bf
00000070: 6848 b140 7078 e1bf 2098 22c0 3eaf fb3f
00000080: f547 3440 9c52 bfbe 8f1a 223f 411a d83f
00000090: 8d8e 5d3f 07ea 51c0 1425 d83c c4c5 0c40
000000a0: 7d02 40c0 4be5 1fbf 923d 3dbd 4cee 14c0
000000b0: cb5c d13e 1a17 563d b85b 133e c592 cfbe
000000c0: 4108 84be bd39 5f3e a6cf 4ebf 8205 4f3e
000000d0: b608 c53f 3e87 953e 45c5 58bf 02e1 ce3f
000000e0: 63cb 7a3f f688 b7be e2cd f9bd 5ebe 113f
000000f0: fca0 173e 9752 90be 24f8 4abf 5334 b13f
00000100: eca8 81bd cdcd 5c3c 77f5 113f 888b 5b3f
00000110: 13bd f13d 9ba4 973f 32ee dd3e f4b9 acbe
00000120: 32f0 5a40 4c7e 8d3f 0471 b5be 8b5d 7cc0
00000130: c55d 573f d8ef 9e40 faf8 30be 73b3 63c0
00000140: 0360 8d3f c734 233d b6ec bcbf cbe6 e4bf
00000150: aefb acbf cfe8 16bf 5905 06bf 653c 0cbe
00000160: a6cd fc3e 014c 123f 0fa0 a93e 3fd9 193f
00000170: ecb9 0f3f 9396 aabf cdbf 82bf 00ed 543e
00000180: a5db 1640 906f dc3f 6aac 23bf 76ad fb3e
00000190: 5476 1740 9341 c0bf 91fc ee3e 86bf 1440
000001a0: 1c65 aabf d097 c03f 35ef a1bf f883 35c0
000001b0: 7e02 0fc0 56df 6ebf bcbb 813f c834 07bf
000001c0: b85d 7d3f 9f52 c03d 67a8 20bf 25a0 5fbf
000001d0: 5537 233f 34ae ad3e 80c0 53bc 54d6 6b3e
000001e0: 6e20 02bf 7bdd 023e 761b d83e 4cd5 693e
000001f0: 5ea9 d23e 9fcf 9a3f 8e4f 98bf d8df 803f
00000200: bdf4 21c0 7f10 02bf 7e76 88bc b52e 7e3e
00000210: a16e 4cbf a6f4 d7bd 3634 7d3f a822 42bf
00000220: c932 24c0 4d4c fabe bbe4 36be fd8d dc3f
00000230: fabc 0840 033a 923f a76a 06bf fc43 7c40
00000240: a8b4 d6bb 8679 513e f71b 20bf 9650 2f3e
00000250: 8bce b6be 2427 0c3f 7a8b 6abf 2778 d73e
00000260: c7c7 db3d 9db1 3b3f 545a 32be 7496 b2bf
00000270: 4422 603e b19f ac3e 824b 6ebf 12ff 553c
00000280: 4c0c bbbf 528b 9240 64ec 50be f390 4fbf
00000290: 3bca 6640 0583 eabf 71e9 bebf dc69 a13f
000002a0: 9019 48c0 5c67 c3bd 28af 6cc0 ae44 b8bf
000002b0: ccad 2bbe 3320 48c0 3ec9 e6be 4419 ca3f
000002c0: 5773 87bf c0db e8bf 8118 74bf 9645 1c3f
000002d0: 5181 f5bf c376 d03e 3879 a93f b917 cfbf
000002e0: 2426 8cbf 4e24 4b3e fcd2 27bf 4ff7 fdbf
000002f0: 07a8 41bf f148 2f40 20e8 03bf af24 cfbf
00000300: 5324 3f3f d138 e2bc f74b 99bf 40e6 f3be
00000310: eb67 b5bf d083 413f 6796 be3f bd78 12bf
00000320: 43c3 69bf d692 cb3e 8e8a 58be 5d33 843e
00000330: bf1c 8abf 9fc9 863f 6f87 8fbe fc28 f7be
00000340: 443d a93f b755 1dbf 4f10 863f ef2a 7bbf
00000350: bdd8 e43f ac93 97bf 5ec5 703f 64dd 463f
00000360: 1283 793d ce77 d33f f7ca 293f c8e5 423e
00000370: b466 e53e 407b 45bf dd3c 69bf 61e4 f73e
00000380: 68ae 473f f962 32bf 9479 a73e a87e aabd
00000390: f548 3bbe a145 50be cd7a 193f 5242 adbe
000003a0: 0f5a 44c0 5fb7 87bf a323 993e 4782 1940
000003b0: 4e27 0dc0 04b1 acbf c9ca 47bf f341 bfbf
000003c0: f29a 093f 3be3 35be 02b9 8d3d 021c c2be
000003d0: a883 afbe b6bc 743e ef69 9dbe 3de5 603e
000003e0: 58d9 65bf 51ff 613e fa09 1fbf b6fd 3a3f
000003f0: ed63 d93c b443 11be fcbd b43d dc8a 553e
-0.32688466 0.32156083 -0.01456418 -0.07832659 0.044414733 -0.37746978 0.29658192 -0.14584273
3.7963939 -0.27310634 -0.2646962 -1.6766851 -2.835921 -0.4745047 -1.7825524 0.9997836
-1.300254 -0.77218497 -0.19861016 -1.1747872 -0.4917671 3.5675168 -0.3073913 1.0775139
-4.5066614 2.2712946 -0.9043326 -1.1989727 5.5400887 -1.761488 -2.540535 1.9662855
2.816892 -0.37367713 0.63321775 1.6883012 0.8654564 -3.279909 0.026384868 2.1995707
-3.0001519 -0.6245925 -0.046201296 -2.3270445 0.40891108 0.052268125 0.14390457 -0.40541664
-0.25787547 0.21799369 -0.80785596 0.20216945 1.5393283 0.29204744 -0.8467601 1.6162417
0.97966594 -0.3584668 -0.12197472 0.569311 0.14807504 -0.2818801 -0.7928488 1.3844093
-0.063310474 0.013476801 0.57015175 0.8575978 0.11803641 1.1847109 0.4334579 -0.3373562
3.4209104 1.1054168 -0.35437787 -3.9432094 0.84127456 4.966778 -0.17282477 -3.5578277
1.1044925 0.039845254 -1.4759738 -1.7882932 -1.3514307 -0.5894899 -0.5235191 -0.13694914
0.49375647 0.5714722 0.33129928 0.60097116 0.5614307 -1.3327202 -1.0214783 0.20793533
2.357156 1.7221546 -0.6393496 0.49155778 2.3665972 -1.5020012 0.46677068 2.3241897
-1.3312106 1.504633 -1.2651125 -2.8361797 -2.234527 -0.93309534 1.0135417 -0.5281491
0.9897113 0.09390759 -0.6275696 -0.87353736 0.63756305 0.3392197 -0.012924314 0.23030978
-0.50830734 0.127798 0.4220845 0.22835273 0.41144842 1.2094611 -1.1899278 1.0068312
-2.5305626 -0.5080642 -0.016658064 0.24822505 -0.79856306 -0.1054471 0.9890779 -0.7583413
-2.5655997 -0.48886338 -0.17860691 1.7230831 2.1365342 1.1423954 -0.5250649 3.9416494
-0.0065522976 0.20456514 -0.6254267 0.17120585 -0.35704455 0.54747224 -0.91619074 0.42083856
0.10731464 0.7331789 -0.1741727 -1.3952165 0.21888071 0.33715585 -0.93083966 0.013061302
-1.4613128 4.579507 -0.20402676 -0.8108055 3.6060932 -1.8321234 -1.4914991 1.2610431
-3.1265602 -0.095411986 -3.6981907 -1.4395959 -0.16765517 -3.1269653 -0.4507541 1.578896
-1.0582074 -1.8192062 -0.9534989 0.6104368 -1.9180089 0.40715608 1.3240118 -1.6179115
-1.094914 0.19838068 -0.6555631 -1.9841098 -0.75647014 2.738827 -0.5152607 -1.618307
0.746648 -0.027614983 -1.1976308 -0.47636604 -1.4172338 0.75591755 1.4889649 -0.5721548
-0.9131357 0.39760464 -0.21146604 0.25820437 -1.0790023 1.053028 -0.28033015 -0.48273456
1.3221822 -0.61458915 1.0473727 -0.98112386 1.7878643 -1.1841941 0.9405116 0.77681565
0.060916014 1.6520936 0.66325325 0.19032967 0.4480492 -0.7714119 -0.91108495 0.48416427
0.780005 -0.6968227 0.32709944 -0.08324939 -0.1828955 -0.20339061 0.59953004 -0.3383966
-3.0679967 -1.0602835 0.2991 2.3985765 -2.205524 -1.3491521 -0.780438 -1.4942001
0.5375205 -0.17762463 0.06920053 -0.37911993 -0.34280133 0.23900113 -0.30744883 0.21962447
-0.89784765 0.22070052 -0.621246 0.7304338 0.026536906 -0.14185983 0.08825299 0.20853752

l_lstm.bias_ih_l0 f4 [32]
00000000: 0852 46be dc0f a43f 9050 313f 6546 883f
00000010: df74 9b3f 04d6 bbbe 6f97 813f a530 f23e
00000020: 924d 2cbf 5341 9ebd 5071 713e da18 b8bd
00000030: e5f4 663f add7 963e 23d8 323f c7f4 353f
00000040: 6c1d 08bc a83e db3f f4a9 6a3e cc64 8f3e
00000050: 5ee4 083f 6ab5 893e 7bd5 42bf 1855 113e
00000060: ee8f b3be 4a88 e5be 8f92 d93e 236c 853f
00000070: c86c d0bb 2064 16bf 6c02 803e 0e11 e33e
-0.1936723 1.281734 0.69263554 1.0646483 1.2145041 -0.36686718 1.0124339 0.47302738
-0.6730586 -0.07727303 0.23578382 -0.08989115 0.9021743 0.29461423 0.6986105 0.71076626
-0.008307796 1.7128496 0.22916394 0.2800659 0.5347346 0.2689622 -0.76106995 0.14192617
-0.35070747 -0.44830543 0.42494628 1.0423626 -0.006360624 -0.5874653 0.25001848 0.4434895

l_lstm.bias_hh_l0 f4 [32]
00000000: fcae 09bf 20af a93f e3d6 143f db98 673f
00000010: 6f99 4b3f 65b8 0dbe e1b0 563f 957f 3a3e
00000020: 9b5e dbbc 2acf f6bd 3120 273f de7c d33e
00000030: de76 753f 187d 163f 95ed fa3e 466e 383f
00000040: 378d 03be 2424 d23f 11a9 143e 6de2 ee3e
00000050: 2e71 9a3f 2617 a43e c20b 39bf 4e57 ce3e
00000060: e3e9 aabe 61a7 883d 243d 5b3f f0cf c73f
00000070: 334b 17be 40ae 8abb 549a 0b3e d2b1 783e
-0.5378263 1.3256569 0.5814039 0.90467614 0.79530996 -0.13839872 0.83863646 0.18212731
-0.02677851 -0.12051232 0.65283495 0.41306204 0.958845 0.5878463 0.49009386 0.72043264
-0.12846838 1.6417279 0.14517619 0.46657124 1.206579 0.3204891 -0.72283566 0.40300983
-0.33381566 0.0667255 0.8564017 1.5610332 -0.1477478 -0.004232198 0.1363309 0.24286583

l_lstm.weight_ih_l1 f4 [32, 8]
00000000: 4fd9 c33e 0238 23bf 9c46 46bf 7d07 1d40
00000010: f539 2040 22c5 e2bf d6a1 f4bf 337f 39bf
00000020: 90f2 b3be 4366 a5bf 09d8 39bf cbdd 1c3f
00000030: 59c9 b03e 0e87 10c0 6440 743d 2fe6 5fbf
00000040: 77e3 88bf 5841 8bbf 248e 82bf b75b 3440
00000050: c851 6c3f e7c9 cebf 3d60 a5be b46e 6ebe
00000060: 424d 65bf 53ff 87be e10e f4bf 7306 0140
00000070: ec82 18c0 3812 3f3f dd14 ecbf 6882 80bf
00000080: f88f 673f 89b4 c6bb c05f 5e3f 27c1 49be
00000090: 6b85 513f ab85 ea3e 4180 373f 5bde eebe
000000a0: 9fae 9b3e fe27 9abf 57a3 33bf c17d 2240
000000b0: 8e2b 1440 dc0b a7bf 831c a2bf 1b76 95bf
000000c0: 80e5 8ac0 8089 5bc0 3eeb a9bf 3fad 11be
000000d0: 7142 973f 198e 36c0 f478 73c0 f44b ba3f
000000e0: 0984 fabe 6072 dcbb 0509 92bf a733 7f3f
000000f0: fccd 923e 2715 c4bf f74c 11bf 8620 29be
00000100: f4f3 8f3d dcb3 933e 50fc 4b3f cb9b 89bf
00000110: ebb2 24bf bdce ab3f 614d 9abc 7519 bb3e
00000120: 1cbf 3ebf 421c 883f 8c1a 6c3f 4aa8 57bf
00000130: 46a7 273f 7a87 793e 4803 003e ca41 2cbd
00000140: 4be2 613f 0d56 0b40 7dd4 cd3e 4fbe 0e3e
00000150: aece 91bf e537 543f 6a58 d53f 176a f6be
00000160: 9a65 2f3e 2d73 cd3f 7c3a 2bbf 3183 fdbf
00000170: 6014 c5b9 301b f5bf b7ea 113f 6e3b 0e3f
00000180: 8a06 03c0 3af8 21bf 736f b8be 5a38 d1bf
00000190: b710 7b3f 5787 fd3d e033 13bf fefd c83f
000001a0: 7eb3 a2bf c5de 46be 2af8 a33f b0c6 75bf
000001b0: b4f0 86bd 534a b33f 6506 d6be 769e 033f
000001c0: 545a 1cc0 194d 00c1 2108 643f e122 1840
000001d0: 4ded c9bf 5a3c 16bf c296 de3e 4ea8 38bf
000001e0: 683e e23e a32d 313f 32e7 9d3f 6425 58be
000001f0: 10ae 03bf 8756 823e 45fc bf3f edf1 ccbd
00000200: c6b3 fb3e 10c9 3c3f d6c9 59be 53c4 c8bf
00000210: a876 9ebe 2efe 103f acaa 2dbe e21d 19bf
00000220: 6143 fabe 3345 41bf c784 073f 77eb 8c3f
00000230: 6650 7dbe 1b50 733e 2349 6b3e 440f 8a3f
00000240: d20f 423f 1dca 3e3f 0fae ecbe 514e c5bf
00000250: 9410 55bf 87f5 933f ddee 8cbe 1fc4 61be
00000260: 537f 07bf f380 acbe 166f a5bf 4fc4 9a3f
00000270: b23e 283f 8823 a9bf 45d6 e1bf 8991 db3d
00000280: 539a bf3e ea83 323f 3b98 533e dbf6 a5bf
00000290: c02a dc3e c303 873e 0754 1b3e 5cc3 59bf
000002a0: c2d5 c43e b214 463f 30ea 98be 92c7 ccbf
000002b0: 8f6d 16be 6f32 a53e 4bcd d2bd 16b7 bbbe
000002c0: 2fbf 583f 708b b3be 990f 2840 40e9 c33f
000002d0: 6770 f0be 88a4 983f df28 4540 3b42 933e
000002e0: b0df 2c3f 319a 1d3f cbd6 12bf 59bf 80bf
000002f0: f1dd 2dbf 8b33 053f 572f 04bf 2e19 43bf
00000300: 57d3 4bbe cc99 083f 8e5e c6bf f903 153f
00000310: 2982 4d3f 4a54 b2bf bb5a b63e f163 4ebe
00000320: 0203 95be 12ff d6bf 698b de3d e989 1abf
00000330: 1ff5 b93e 645f 533f a8ec 943d 74aa 46be
00000340: f53f f73e 3f20 9b3e 3868 3ebd 81cb d33f
00000350: 1919 1140 152d 0fc0 eb82 c5be a678 5d3f
00000360: 861e 66c0 a699 e4bf 73a4 74c0 66ed ddbf
00000370: c67e c940 320f 37c0 4637 b5c0 3e84 2840
00000380: 160a 48bf d624 bbbf 01a8 c53d 22b0 d2bf
00000390: 2aa8 963f da25 1340 ba83 4a3f 9ff5 e83e
000003a0: 0a31 893f f226 6fbf 0413 75bf 5525 0dbd
000003b0: 837d 2b3f 127c d83e a556 67be aa5a f03e
000003c0: 6b91 87bd 3324 8e3d b6f2 1740 ba5b 4a40
000003d0: 133c c43f bd0d 853e eda6 0c3f 9173 b03e
000003e0: b0d6 0c3e 65c2 a03e edca 32be d37b 92bd
000003f0: e504 073f 8473 21bf 99ac ddbe 0649 893e
0.3825173 -0.63757336 -0.7745149 2.453582 2.5035374 -1.771641 -1.9111888 -0.72459716
-0.35145998 -1.2921833 -0.7259527 0.6127593 0.34528616 -2.258243 0.05963172 -0.8746061
-1.0694417 -1.0879316 -1.0199628 2.8180978 0.9231229 -1.6155366 -0.32299986 -0.23284417
-0.8957101 -0.26561984 -1.9067041 2.0160186 -2.3829908 0.74637175 -1.8443867 -1.0039797
0.90454054 -0.006064002 0.8686485 -0.19702588 0.81844205 0.45805106 0.71680075 -0.4665402
0.30406663 -1.2043455 -0.7017111 2.5389254 2.3151584 -1.3050494 -1.2664951 -1.1676668
-4.340515 -3.4302673 -1.3274915 -0.14226244 1.1817151 -2.852423 -3.8042574 1.4554429
-0.4892886 -0.0067275017 -1.1409003 0.9968819 0.2867278 -1.5318955 -0.56758064 -0.16516313
0.07028952 0.2884816 0.79681873 -1.0750669 -0.6433551 1.3422467 -0.018835725 0.3654286
-0.7451036 1.0633624 0.9222801 -0.84241164 0.65489614 0.24368086 0.12501252 -0.04205493
0.8823592 2.1771271 0.40201178 0.13939784 -1.1391199 0.8289779 1.6667607 -0.48127815
0.17128602 1.6050774 -0.66886115 -1.9805661 -0.0003758995 -1.9148922 0.5699877 0.5555943
-2.047274 -0.6326939 -0.3602253 -1.6345322 0.9807238 0.1237933 -0.5750103 1.5702512
-1.2711027 -0.19420917 1.2810109 -0.960063 -0.06588879 1.4007057 -0.41801754 0.5141367
-2.4430132 -8.018823 0.89074904 2.3771288 -1.5775543 -0.5868584 0.43474394 -0.7213181
0.44188237 0.6921026 1.233618 -0.21108013 -0.51437473 0.2545664 1.4998862 -0.10007081
0.49160594 0.737443 -0.212684 -1.5684913 -0.30949903 0.5663785 -0.16959637 -0.5981122
-0.4887953 -0.75496215 0.5293698 1.1009358 -0.24737701 0.23761027 0.22977118 1.0785909
0.7580539 0.7452715 -0.46226546 -1.5414525 -0.8322842 1.1559304 -0.27525988 -0.2204747
-0.52928656 -0.3369213 -1.2924526 1.2091159 0.65720665 -1.3213968 -1.7643515 0.10721118
0.37422428 0.69732535 0.2066354 -1.2965959 0.43001366 0.26370057 0.15168773 -0.8506372
0.38444334 0.7737533 -0.2986617 -1.5998404 -0.14690231 0.3226504 -0.10293063 -0.3666312
0.84666723 -0.3506732 2.625952 1.5305557 -0.46960756 1.1925211 3.0806196 0.28761467
0.6752882 0.615634 -0.57359 -1.0058395 -0.6791678 0.52031773 -0.51634735 -0.76210296
-0.19904839 0.53359675 -1.5497606 0.58209187 0.80276734 -1.3931973 0.35616097 -0.20155312
-0.29103857 -1.6796591 0.10866434 -0.60366684 0.36319825 0.8256743 0.07271701 -0.1940096
0.48290983 0.3029804 -0.04648611 1.654648 2.2671568 -2.2371266 -0.38576445 0.8651222
-3.595613 -1.785939 -3.8225372 -1.7338073 6.2967253 -2.8603024 -5.6629972 2.6330714
-0.7814039 -1.4620616 0.09651185 -1.6460001 1.177007 2.2991853 0.7910725 0.45499894
1.071809 -0.934188 -0.9573214 -0.03445943 0.6698839 0.42282158 -0.22591646 0.4694417
-0.06619533 0.06940498 2.374189 3.1618485 1.5330833 0.25987044 0.5494221 0.3446317
0.13753772 0.3139831 -0.17460223 -0.07152524 0.52741843 -0.6306689 -0.43295744 0.26813525

l_lstm.weight_hh_l1 f4 [32, 8]
00000000: 7678 2e3f eb6b 7cbf 9e02 2cbf 79d7 0fc0
00000010: de81 4340 61ac d63e 881f 10be 0cf8 c8bf
00000020: 4a27 273f 1185 0ac0 8364 10bf f0ed 163f
00000030: 3ea8 1640 9327 7c3e 0ba6 3f3f b76e 1fbf
00000040: 9778 1040 22dc 88bf faee 1d40 ae14 30c0
00000050: d6b9 1b40 a1d7 b83f 51c3 38bb 504c aa3e
00000060: dc2f e4be 5c26 3fc0 cce1 1f3f 0e92 22bf
00000070: 37ac 9b40 e0d6 27bf 76b4 0a41 719b a3bf
00000080: 3a4c aa3f 5e15 7fbf 91aa 1abf 9fcb b33f
00000090: 0e11 2a40 25fb 813f 9eb5 f3bf 756d 14be
000000a0: 16b1 0a40 63a8 91bf 0f66 8fbe 46e1 bc3f
000000b0: 74b2 3c40 d3ee ea3f 1334 cbbe 1e51 b3bd
000000c0: b14f 2440 c6ee fabe f020 1340 3356 3340
000000d0: 2645 2abe fae9 d23f bbe0 52bf e8cc 503f
000000e0: cace 91bd f852 22bf ec7e f9be 2c82 923e
000000f0: 4959 a13f 2690 12bf 2cfe 623e 61df b63e
00000100: f8a0 cb3d 14d5 a6bd 644a 93be 1d18 053f
00000110: dd23 8cbf 4b4d dfbe dfb1 a3be 5471 383e
00000120: 1518 8dbf 8627 cdbf 8f6b 60bf ea40 2dbf
00000130: 5574 36be de30 9fbf af4d 2b3f 7823 3c3e
00000140: 19e5 2f3e a1f0 d0be 22f8 e83e 97bb 39bd
00000150: 89fd 04bf 599d f0be 316d 01c0 c865 6f3f
00000160: 532a 8bbf 5a60 dd3f af25 293f 0032 e63e
00000170: 89df bdbf 6ba1 e2bf e3b5 edbf f5e8 0dc0
00000180: 00ff 64c0 42ea 923f 7003 78c0 adb1 bdbf
00000190: a4cb 65bf 9f34 35c0 00d8 6c40 4e30 00c0
000001a0: 0d2b 99bf b467 1ebe 4f2d 8ebe fd2c 913e
000001b0: 3abc dcbe 95c7 bfbe 1afd 7d3c 3911 57be
000001c0: 8e1b 53bf aae7 92bf 5cc3 7fbf cec2 78be
000001d0: d459 7a3f f46e 8ebf 2b63 8a3e 108e b13e
000001e0: f570 cdbe 9cfd 423e d170 8cbf 19d0 bbbd
000001f0: a09f f73d 61fd d5bf 22c3 d8be 3560 933f
00000200: ca8c 07c0 a4a3 a83f 4d31 adbf 1c0a c7bf
00000210: 8534 53bf 67f3 6dbf d458 ad3f e9b5 90bf
00000220: c1ee ba3e dab8 09c0 3e9a 6a3f 53e1 c83f
00000230: e0ac 4f3f aaed c5bd ef41 a13e 7b90 163f
00000240: bb98 2ebf cb8f 853f 3ab5 07c0 4c2f 5bbf
00000250: 65ee 41bf 7379 95be fb40 a93f dd56 a2bf
00000260: 2ad0 3f40 18b9 d6bf 3741 c03f 088b 00c0
00000270: c7a6 1c40 7da8 5540 b62c 9a3f 471e 203f
00000280: 370a 06bf d966 1f3f 7b17 833d 44c4 86bf
00000290: b8e7 4bc0 e419 1b3f 0f03 50be 3f5f 8d3e
000002a0: aeb4 84bf 4386 b93f c065 e2bf 1729 18c0
000002b0: 3455 9dbf cfbb 06c0 dede 4d3f 4e65 d1bf
000002c0: d685 18bf 23ea acbf 9818 eabd 9a4c 4c3f
000002d0: cbac 73bf 46c7 8f3e 0cdc 13c0 c211 dd3f
000002e0: 5c1a 2ebf 5c07 163f 40bb 8abe 3b09 08c0
000002f0: ee3d c6be 161c b9be 0331 27bf 0dd5 fcbf
00000300: 3544 0940 6e08 b3bf c1e6 623f 700b 65be
00000310: a54d cd3f 5af2 793f 7dab 4d3f af5f d63e
00000320: 89be 933d 2502 acbf 536d ab3d 8581 25be
00000330: d322 1abf 9269 6abf 46f0 b03e d1f7 44be
00000340: f8b6 0240 da22 7bbf 8f3a a03f 4be3 1ebe
00000350: 9722 833f 3a86 c03f cb4b c2bd a3a8 9c3e
00000360: 16c5 2e3f 9209 6f40 7bb9 a93f c1c3 843f
00000370: edc1 a4c0 c2df ecbf f5f9 8940 c786 66c0
00000380: b5f8 85bd 1131 4c3f 5e83 b8be 411e ef3c
00000390: f250 9b3c 1141 70bf e23a dbbe 5e0d bcbf
000003a0: 5b06 aa3f 0c02 05bf 867e 333f 6285 a1bf
000003b0: 8c15 cb3f 10c7 113e 05cf b13f 8bce 35bd
000003c0: 0bb3 5340 3043 9cbf 133d 8140 d4fa 533f
000003d0: fb36 0040 0d51 3a40 57c9 d23e 7186 6cbe
000003e0: 8ffd 3fbf fb8e 9dbd 9726 4abf 4a7b 9d3e
000003f0: cdc4 07be b370 abbf 8d46 3e3e 0173 003f
0.6815256 -0.9860217 -0.67191494 -2.2475264 3.0548015 0.4192839 -0.14074528 -1.5700698
0.65294325 -2.1643717 -0.5640337 0.58956814 2.3540187 0.24624471 0.74862736 -0.6227831
2.2573602 -1.0692179 2.467711 -2.7512622 2.4332175 1.4440805 -0.002819259 0.33261347
-0.44567764 -2.9867163 0.62453914 -0.6350411 4.8647723 -0.6556225 8.669058 -1.2781812
1.3304513 -0.9964198 -0.60416514 1.4046515 2.657291 1.0154768 -1.90398 -0.1449488
2.1670585 -1.1379513 -0.28007552 1.4756248 2.948392 1.8354133 -0.39688167 -0.08755706
2.567364 -0.49010295 2.2988853 2.8021362 -0.1662794 1.6477654 -0.8237416 0.8156266
-0.0711952 -0.6340785 -0.48729646 0.28614938 1.2605373 -0.57251203 0.22167271 0.357173
0.09942812 -0.0814611 -0.28767693 0.5198992 -1.0948445 -0.43613657 -0.31971642 0.18011981
-1.1022974 -1.6027687 -0.8766412 -0.67677176 -0.17817815 -1.2436788 0.6691541 0.18372905
0.17177238 -0.40808585 0.4550181 -0.045344915 -0.51949364 -0.46995047 -2.0222895 0.9351468
-1.0872291 1.7295029 0.66073126 0.44960022 -1.4833843 -1.7705511 -1.8571132 -2.2173436
-3.578064 1.147774 -3.8752098 -1.4819847 -0.89763856 -2.8313367 3.7006836 -2.0029483
-1.1966263 -0.15469247 -0.27768943 0.28354636 -0.43112355 -0.37456957 0.015502239 -0.21002664
-0.8246392 -1.1476948 -0.9990747 -0.24293062 0.97793317 -1.112761 0.27028784 0.34678698
-0.40125242 0.19042057 -1.0971929 -0.09170551 0.12090993 -1.671795 -0.42336375 1.1513735
-2.117968 1.3174939 -1.353067 -1.554996 -0.82502013 -0.9294953 1.3542733 -1.1305515
0.3651028 -2.1519074 0.91641605 1.5693763 0.8112316 -0.096644714 0.31495616 0.5881421
-0.682018 1.0434507 -2.1204362 -0.85619044 -0.75754386 -0.2919422 1.3222955 -1.2682759
2.9970803 -1.6775236 1.5019902 -2.0084858 2.4476793 3.3384087 1.2044895 0.625462
-0.52359337 0.6226631 0.06400963 -1.0528646 -3.186018 0.6058638 -0.20313667 0.2761173
-1.0367639 1.4494098 -1.7687302 -2.377508 -1.2291627 -2.105213 0.80418193 -1.6359041
-0.5957922 -1.3508953 -0.11430472 0.79804385 -0.95185536 0.2808172 -2.3103056 1.7271044
-0.6800897 0.5860498 -0.27095985 -2.1255634 -0.38719124 -0.3615424 -0.6530916 -1.9752518
2.144788 -1.3986948 0.8863335 -0.22367644 1.603932 0.97635424 0.80339795 0.41869876
0.07214076 -1.3438154 0.08370461 -0.16162689 -0.6020939 -0.9156734 0.34558314 -0.1923516
2.0424175 -0.98100054 1.2517871 -0.15516393 1.0244931 1.5040963 -0.094871126 0.3059741
0.6826948 3.7349591 1.3259729 1.0372239 -5.1486726 -1.8505785 4.3117623 -3.6019762
-0.06541578 0.7976237 -0.36037725 0.02918923 0.018959496 -0.93849283 -0.42818362 -1.4691579
1.328319 -0.5195625 0.70114934 -1.261883 1.586595 0.14236093 1.3891302 -0.044386428
3.307803 -1.2208004 4.0387053 0.8280461 2.0033557 2.911197 0.41169235 -0.2309816
-0.74996275 -0.07693287 -0.78965133 0.30758125 -0.13258667 -1.3393768 0.185816 0.5017548

l_lstm.bias_ih_l1 f4 [32]
00000000: 4d4e f4be ae93 e0be 0a76 ddbe efc9 61bf
00000010: 80bf 09bf a398 bdbe 9c65 833e 32a0 31bf
00000020: 902e 313f 944b 073f aa07 a5be 972a 80be
00000030: 840f f93e 0bdc 9a3f 2f48 e2bf e6b8 6d3d
00000040: af32 74be 6014 b23b 771c 93be 726d 7dbe
00000050: 398b 85be c015 1dbe d4dc d43d ac3e a8be
00000060: 744c 44bd 7957 06be d84c 7b3f 6572 7d3e
00000070: 50c5 21bf 5801 8bbd 9f83 3ebf 20b5 09be
-0.4771599 -0.4386267 -0.4325412 -0.8819875 -0.5380783 -0.37030515 0.2566346 -0.69385064
0.69211674 0.528497 -0.3223241 -0.25032493 0.4864465 1.2098402 -1.7678279 0.05803766
-0.2384746 0.005434558 -0.28732654 -0.24748781 -0.2608278 -0.15340328 0.10393682 -0.32860315
-0.047924474 -0.13119306 0.9816413 0.2475067 -0.631917 -0.06787366 -0.7441959 -0.13448

l_lstm.bias_hh_l1 f4 [32]
00000000: 8008 5fbe 2182 41bf 0ebd 13bf 551b 4cbf
00000010: 7c21 f0be 6a1f 24bf 9458 4abe 4b27 3abf
00000020: e47f 543f 0049 f33e 2465 18bf a618 6fbc
00000030: c5e5 223f 1dc5 7b3f 1be2 afbf 510f e3bd
00000040: 8148 38be 1cf7 533e 5abb c7bd f14b e23e
00000050: 106b 1abe 9257 5ebe 3365 81bc 3cf8 903d
00000060: f1c2 163e 7754 343d cb27 ce3e d532 163e
00000070: 92ca c8be 4ae1 1fbe e718 4bbf f5fd cc3e
-0.21780586 -0.75589186 -0.5771035 -0.79729205 -0.46900547 -0.64110434 -0.19760352 -0.72716206
0.83007646 0.47516632 -0.5952933 -0.014593279 0.6363185 0.98347646 -1.3740877 -0.11086906
-0.17996408 0.20699733 -0.09752531 0.44198564 -0.15079904 -0.21713093 -0.015795326 0.07078597
0.14722802 0.044025864 0.40264735 0.14667828 -0.3921705 -0.15613285 -0.7933487 0.40037504

l_linear.weight f4 [1, 8]
00000000: 23dd d83e 41df d6be 782a 013f a630 0c3f
00000010: f40f d03e 70c1 d83e 42fb 80be 224a d33e
0.42356214 -0.41967204 0.5045543 0.5476173 0.4063717 0.4233508 -0.25191694 0.41267496
