data/datasets/ca_alameda_county_neighborhood/resstock-amy2018-2021-release-1-418097.pth (torch, 8966 bytes, 9 tensors)

l_lstm.weight_ih_l0 f4 [32, 13]
-0.10162662 0.15167631 0.01092899 0.34571165 0.105206296 0.012333757 -3.4365208 -0.21521887
0.089073606 -0.6375317 0.46586987 0.30917194 1.0234954 0.41382068 0.65331376 -0.53163415
-0.6994382 0.72277397 0.6455876 -1.3543158 -5.270463 1.1347203 1.8209164 0.030272765
-0.8088596 -0.59372216 0.67820776 1.0984228 0.26221448 0.034645177 3.3830948 -1.697529
-7.890481 -1.2405193 1.3583212 -1.0026495 0.84648806 0.16835791 0.40998164 0.71427786
-0.22017404 -0.3592795 0.018545415 0.12647706 0.09734865 1.1430813 -0.8936602 -0.643982
-0.9636414 -0.773464 -0.031682994 -2.516412 -0.47233945 -1.653927 0.074960776 -0.5121899
0.46837363 -0.115149006 3.083199 -3.5590215 -0.535807 -0.27688062 -0.7192971 0.57593054
-1.7914736 3.2126524 -0.33466187 -0.7160817 0.5965681 -0.34319735 0.018264357 1.9646702
4.4731493 -0.58839214 -0.7162343 0.369406 -0.58193225 0.3056897 0.29850185 0.21254778
-0.3867162 -0.4159686 1.2334267 -0.7049653 -4.213589 -6.196735 0.6916831 0.12739831
0.5677658 0.650615 -1.5578924 0.36541158 -0.19967288 -0.63009083 0.3067215 -0.41959226
0.14276078 4.819689 -2.4585812 0.26127532 0.72136873 0.3288462 0.25676242 -2.2736428
0.56653374 0.29129198 0.03814756 -0.4012734 0.3131862 0.13773368 -0.35667962 -0.7690208
-0.3310866 0.21725434 0.26746428 0.02008082 1.555715 2.2171664 0.431457 0.0901821
-0.34426403 1.5502659 -0.82346326 1.4193138 -3.3833115 -0.46525303 -1.7421663 1.3734778
0.097266614 0.9867371 2.4093938 -1.7813585 -4.9758554 -5.14182 -2.0587378 -0.9554445
-4.73598 0.32824865 1.5915412 2.6460967 -0.95618 0.3836353 -0.05567335 -0.24931844
0.34825152 0.6972623 0.18359841 -0.14501733 -0.4495678 -1.0846947 -0.7087304 -1.053769
-2.124059 -0.46372116 -0.64474154 -2.379108 -0.9135416 -0.66520476 0.76871336 0.37622395
-0.11327052 1.0586017 2.8880978 0.24349952 -1.4402778 -0.100163236 0.17674392 0.32520816
-1.3241204 1.1740562 0.20850372 0.14539796 -0.21058364 0.53721017 0.8384739 -8.988488
-9.842832 -0.061786048 0.62213403 -1.8192358 0.23612048 2.0337174 0.8617612 -1.5177447
-0.40880078 1.1278653 -0.18382786 -0.23131688 -5.5532866 9.84507 -0.16062908 0.6067115
-1.6037086 1.0053836 -1.8496938 0.010999414 -0.6984371 0.047639947 0.09234601 -0.88133633
-0.27646253 1.3326476 -3.7217557 -1.4424936 0.31177986 0.76689106 -0.8171428 -2.3622935
-0.052479886 -0.11496682 -0.046003003 0.0025453407 0.037076697 0.02393634 0.20462823 0.23145138
0.10013289 0.05358044 0.1830483 -0.016646596 2.0887935 -0.28894028 -0.43153134 0.034162838
-0.07523589 0.122966655 0.23016125 -0.26140833 1.799316 -0.04994506 0.070237 0.12439408
0.0494805 -2.1645014 0.5761802 0.18353675 -0.055873945 0.3880586 -0.1757195 -0.5800381
5.4859023 0.8883892 0.28376812 -0.14939396 0.492583 -0.003634518 -2.8674994 -1.8554816
-0.3697182 0.41095805 -0.2971568 0.17469141 -0.50685036 1.779792 3.0131369 -0.28134882
00000000: 9e21 d0bd 0951 1b3e 820f 333c 1e01 b13e
00000010: 6676 d73d 8713 4a3c f5ef 5bc0 5662 5cbe
00000020: 396c b63d 4735 23bf 7f86 ee3e c94b 9e3e
00000030: e601 833f 4ee0 d33e 923f 273f 2d19 08bf
00000040: 620e 33bf b707 393f 3b45 253f 385a adbf
00000050: a2a7 a8c0 843e 913f ca13 e93f 97fe f73c
00000060: 6c11 4fbf 2dfe 17bf 069f 2d3f 1e99 8c3f
00000070: fa40 863e 1ae8 0d3d a084 5840 a148 d9bf
00000080: d27e fcc0 56c9 9ebf 78dd ad3f d256 80bf
00000090: 71b3 583f 0466 2c3e 1de9 d13e eada 363f
000000a0: 4e75 61be 7cf3 b7be 8eec 973c 3483 013e
000000b0: bb5e c73d 7d50 923f eac6 64bf 01dc 24bf
000000c0: 34b1 76bf bd01 46bf 07c6 01bd e50c 21c0
000000d0: 7ad6 f1be e1b3 d3bf 0985 993d e11e 03bf
000000e0: abce ef3e 3ed3 ebbd 2253 4540 02c7 63c0
000000f0: a62a 09bf 4cc3 8dbe db23 38bf 2f70 133f
00000100: 024f e5bf 199c 4d40 cd58 abbe 2151 37bf
00000110: b0b8 183f 90b7 afbe 229f 953c 507a fb3f
00000120: 0a24 8f40 dea0 16bf 225b 37bf c922 bd3e
00000130: 83f9 14bf 5c83 9c3e 3cd5 983e 20a6 593e
00000140: aaff c5be d6f9 d4be ede0 9d3f 9b78 34bf
00000150: b9d5 86c0 a74b c6c0 2512 313f b474 023e
00000160: 1959 113f b48e 263f 0569 c7bf 3a17 bb3e
00000170: 0c77 4cbe a24d 21bf 9a0a 9d3e ccd4 d6be
00000180: e22f 123e e43a 9a40 6559 1dc0 e1c5 853e
00000190: 9fab 383f 875e a83e 5d76 833e 5d83 11c0
000001a0: 5b08 113f 3924 953e 9e40 1c3d b573 cdbe
000001b0: f159 a03e 0f0a 0d3e b69e b6be 8cde 44bf
000001c0: 2f84 a9be ec77 5e3e 14f1 883e 8880 a43c
000001d0: ab21 c73f 0ee6 0d40 efe7 dc3e 65b1 b83d
000001e0: 6043 b0be 1d6f c63f 7dce 52bf 13ac b53f
000001f0: 2d88 58c0 a535 eebe 4eff debf 1fce af3f
00000200: b833 c73d cd9a 7c3f 8233 1a40 8e03 e4bf
00000210: 353a 9fc0 ca89 a4c0 5cc2 03c0 0398 74bf
00000220: 268d 97c0 3510 a83e 9fb7 cb3f a659 2940
00000230: 36c8 74bf d96b c43e bd09 64bd 554d 7fbe
00000240: 064e b23e c87f 323f 3901 3c3e 6c7f 14be
00000250: c02d e6be 47d7 8abf 5b6f 35bf e7e1 86bf
00000260: 95f0 07c0 dc6c edbe c80d 25bf 4e43 18c0
00000270: dddd 69bf dc4a 2abf 66ca 443f 6da0 c03e
00000280: 60fa e7bd 4380 873f 98d6 3840 f057 793e
00000290: 065b b8bf 6222 cdbd 5cfc 343e af81 a63e
000002a0: c77c a9bf 7947 963f 0082 553e 34e3 143e
000002b0: 3da3 57be 9b86 093f 3aa6 563f d9d0 0fc1
000002c0: 3d7c 1dc1 5e13 7dbd 2d44 1f3f b8dc e8bf
000002d0: 91c9 713e 6d28 0240 629c 5c3f 7545 c2bf
000002e0: 564e d1be e45d 903f 5f3d 3cbe 55de 6cbe
000002f0: 86b4 b1c0 6885 1d41 f37b 24be 7251 1b3f
00000300: 5346 cdbf 69b0 803f c4c2 ecbf e336 343c
00000310: c6cc 32bf 1b22 433d e81f bd3d 429f 61bf
00000320: 7f8c 8dbe 3294 aa3f 3f31 6ec0 a1a3 b8bf
00000330: 9ca1 9f3e f952 443f 4530 51bf d12f 17c0
00000340: 26f5 56bd b973 ebbd a56d 3cbd bbcf 263b
00000350: bcdd 173d 2516 c43c 108a 513e 9701 6d3e
00000360: 7912 cd3d 2a77 5b3d 0371 3b3e 715e 88bc
00000370: cbae 0540 fbef 93be adf1 dcbe 55ee 0b3d
00000380: 4615 9abd f1d5 fb3d 64af 6b3e 50d7 85be
00000390: fd4f e63f 3193 4cbd 6bd8 8f3d 53c2 fe3d
000003a0: 11ac 4a3d 3187 0ac0 8c80 133f 0ff1 3b3e
000003b0: 14dc 64bd 9eaf c63e d0ef 33be 607d 14bf
000003c0: 838c af40 7a6d 633f 0e4a 913e bbfa 18be
000003d0: d733 fc3e 1831 6ebb 1c85 37c0 6c80 edbf
000003e0: b44b bdbe 1869 d23e f024 98be 4ee2 323e
000003f0: f2c0 01bf 39d0 e33f 3cd7 4040 f40c 90be

l_lstm.weight_hh_l0 f4 [32, 8]
0.18556722 -0.31551933 2.681808 0.094007015 -0.210589 -0.8620646 0.5523483 0.5703716
0.3759648 0.33972594 2.1233187 0.010929514 -5.0215607 0.60730594 -1.0973073 -2.072095
0.789345 -3.711712 -3.9189136 -1.2660444 -2.2372105 -3.935066 -3.7574177 -6.5385337
0.351753 -1.4488138 -0.8769967 0.11333218 -0.12035621 -0.2620558 -0.55672985 -0.3111314
-0.999715 -1.0404292 -3.8669572 -1.1891736 -0.7521814 0.8949785 -1.887379 -0.5615159
-3.781372 -6.71234 -1.2580804 0.22233234 1.1753666 1.9525179 -1.867347 3.0575829
0.24464351 -2.9990106 -1.6688422 -1.4520983 -0.706728 -1.1403503 1.5724803 0.38714308
0.9532215 -1.2105603 0.07861428 -0.5497989 -0.945418 1.3518349 0.66175306 0.37762317
-0.34770942 2.4971547 1.495795 -0.2463216 -0.060674056 0.27504727 0.6573402 0.08208099
-1.4905603 2.363013 -1.7326946 -0.26393303 -0.18680465 0.3084362 -0.9953837 1.9668535
0.16107711 2.6208012 -1.3385816 -0.5298203 -3.0752265 1.7504205 -1.9903505 -2.2183833
0.20170107 -0.99351555 0.53415304 0.525539 -0.27929106 1.5383923 1.4717715 -0.8360544
0.49396783 -0.72667354 -1.632318 -0.6438564 -0.47227553 3.3198814 -1.6261518 -0.15045814
-0.6831599 -2.2734303 -2.1396263 -1.159319 -0.91017747 2.2715926 -0.73561084 -0.94927377
-0.66647243 1.3161557 -2.6948178 -0.5521878 -1.9051772 2.2175715 0.15249369 0.28056955
0.35298777 1.1094122 -0.40530887 0.078041695 0.13222554 0.1440739 0.043380965 0.44260624
-0.6745824 0.17183156 0.08924656 -0.12794425 -0.54972076 -0.42865956 0.6372412 0.4568836
0.6237056 -1.1527838 0.4428055 -0.5090786 -0.37810326 0.9341507 0.31245655 0.879583
0.9288038 -1.7949911 -0.68152034 0.5327561 2.855486 0.20241277 -0.3204108 0.54960465
0.45655662 -1.4488697 -1.3192666 0.5980956 -0.2292908 -1.4775732 1.8358254 -0.63733286
-1.2231866 4.459828 0.2131981 -3.0737967 -3.2170968 -0.4541413 0.27945262 -0.5425291
-0.13154845 -0.9607078 -0.24833055 -0.022051161 -1.4216886 -1.0287815 0.8772534 0.19047645
0.19362831 -0.9534546 0.70503116 0.13877049 -0.557579 -0.37987766 0.40218434 0.3496814
0.3463836 -0.83689755 0.40442556 -0.109242804 0.86617935 -0.6039912 0.13691364 2.4857814
-1.7904078 5.3683124 0.31611252 -3.8790143 0.048083853 -0.31471166 -0.08004942 0.5572628
-1.0845909 -1.1927996 1.2253063 -2.6704125 -1.4450649 0.8294748 2.3867729 0.7578417
1.3327428 -1.058057 -4.179067 0.8878983 0.018356005 -0.6380452 0.93372 -7.759776
0.06188387 -0.29209706 -0.12798092 0.33252266 0.8214594 0.35181275 -0.041512065 0.13109648
0.8535795 -3.2341278 0.5292863 -0.41206932 0.54574364 0.7516177 0.028362647 0.037946206
-0.70069826 0.375893 -3.2515361 -1.3187379 1.5520318 1.2637504 2.2632093 -1.8679283
1.5050642 -0.052063804 0.36323395 -0.059532475 -0.36249867 -0.3233129 1.095294 0.1394273
0.023745002 -0.52247083 0.04346477 -0.34211904 -0.18817148 0.15004633 -1.1583042 0.2722987
00000000: 5505 3e3e c08b a1be bea2 2b40 c086 c03d
00000010: a5a4 57be 44b0 5cbf b366 0d3f e003 123f
00000020: 757e c03e 8ff0 ad3e 74e4 0740 b411 333c
00000030: a0b0 a0c0 6778 1b3f 9174 8cbf 349d 04c0
00000040: 8412 4a3f b08c 6dc0 7bcf 7ac0 be0d a2bf
00000050: 752e 0fc0 1fd8 7bc0 8879 70c0 ab3b d1c0
00000060: f818 b43e bb72 b9bf db82 60bf b41a e83d
00000070: 517d f6bd 2e2c 86be d985 0ebf 9d4c 9fbe
00000080: 52ed 7fbf c92c 85bf 3a7c 77c0 d736 98bf
00000090: f68e 40bf 501d 653f a395 f1bf 82bf 0fbf
000000a0: 0002 72c0 7dcb d6c0 c708 a1bf 17ab 633e
000000b0: 6a72 963f 1bec f93f 3a05 efbf 70af 4340
000000c0: d483 7a3e caef 3fc0 9f9c d5bf 5bde b9bf
000000d0: 20ec 34bf 00f7 91bf 0947 c93f 9e37 c63e
000000e0: 5306 743f a4f3 9abf 8600 a13d 9fbf 0cbf
000000f0: ea06 72bf ed08 ad3f a668 293f d357 c13e
00000100: f806 b2be 62d1 1f40 3676 bf3f bb3b 7cbe
00000110: 5c85 78bd ffd2 8c3e 7347 283f 141a a83d
00000120: aeca bebf 9b3b 1740 f0c8 ddbf 3b22 87be
00000130: b849 3fbe 59eb 9d3e 77d1 7ebf dbc1 fb3f
00000140: 66f1 243e 35bb 2740 a456 abbf 4ea2 07bf
00000150: 83d0 44c0 c70d e03f cec3 febf fef9 0dc0
00000160: ba8a 4e3e 0957 7ebf 41be 083f b989 063f
00000170: 3dff 8ebe 0aea c43f 0263 bc3f a907 56bf
00000180: 5ae9 fc3e 4707 3abf ccef d0bf c6d3 24bf
00000190: 19ce f1be f078 5440 be25 d0bf b311 1abe
000001a0: 91e3 2ebf e27f 11c0 a3ef 08c0 9164 94bf
000001b0: 6401 69bf c661 1140 fe50 3cbf 9b03 73bf
000001c0: f09d 2abf ca77 a83f e577 2cc0 2e5c 0dbf
000001d0: d9dc f3bf b1ec 0d40 4e27 1c3e d0a6 8f3e
000001e0: d0ba b43e 3801 8e3f a584 cfbe 53d4 9f3d
000001f0: 2266 073e 1c88 133e 3db0 313d 499d e23e
00000200: 6fb1 2cbf 9df4 2f3e e7c6 b63d d103 03be
00000210: 80ba 0cbf 4479 dbbe 3d22 233f a6ec e93e
00000220: 2cab 1f3f 6b8e 93bf 67b7 e23e fa52 02bf
00000230: c096 c1be 8024 6f3f 4efa 9f3e 5a2c 613f
00000240: 16c6 6d3f 45c2 e5bf 1e78 2ebf b462 083f
00000250: 48c0 3640 4b45 4f3e e20c a4be e4b2 0c3f
00000260: cac1 e93e 9074 b9bf badd a8bf cb1c 193f
00000270: 35cb 6abe 1e21 bdbf 54fc ea3f 3f28 23bf
00000280: 6191 9cbf e9b6 8e40 9a50 5a3e 16b9 44c0
00000290: eae4 4dc0 3585 e8be 6a14 8f3e 30e3 0abf
000002a0: a3b4 06be f2f0 75bf 5d4a 7ebe a3a4 b4bc
000002b0: e4f9 b5bf 1daf 83bf ae93 603f 420c 433e
000002c0: 8046 463e 9a15 74bf ec7c 343f da19 0e3e
000002d0: 7fbd 0ebf 537f c2be 1beb cd3e 7109 b33e
000002e0: 3159 b13e eb3e 56bf de10 cf3e b1ba dfbd
000002f0: eebd 5d3f 2b9f 1abf 1733 0c3e 0b17 1f40
00000300: 152c e5bf 37c9 ab40 80d9 a13e c541 78c0
00000310: 93f3 443d e321 a1be f3f0 a3bd c6a8 0e3f
00000320: e0d3 8abf a8ad 98bf d6d6 9c3f 0ae8 2ac0
00000330: e3f7 b8bf 7658 543f e3c0 1840 ea01 423f
00000340: 5197 aa3f 696e 87bf ebba 85c0 4e4d 633f
00000350: 555f 963c ee56 23bf 4608 6f3f 1650 f8c0
00000360: f179 7d3d bf8d 95be 6e0d 03be 6940 aa3e
00000370: 2a4b 523f cd20 b43e 8e08 2abd 283e 063e
00000380: 3084 5a3f f3fb 4ec0 4f7f 073f c0fa d2be
00000390: dbb5 0b3f 056a 403f c858 e83c 7b6d 1b3d
000003a0: f660 33bf 0c75 c03e 2b19 50c0 67cc a8bf
000003b0: faa8 c63f 93c2 a13f 6cd8 1040 4618 efbf
000003c0: f2a5 c03f db40 55bd cdf9 b93e 53d8 73bd
000003d0: 6d99 b9be 4589 a5be 9832 8c3f 08c6 0e3e
000003e0: e184 c23c a6c0 05bf 1d08 323d 3a2a afbe
000003f0: 06b0 40be bfa5 193e 5043 94bf bc6a 8b3e

l_lstm.bias_ih_l0 f4 [32]
-0.15079941 -0.05265389 0.05357349 0.64925504 0.54136175 -0.04814735 0.030012421 0.45392033
0.3914214 0.20866649 0.07048195 0.43267816 0.5492429 -0.4336094 0.16222182 0.6791774
-0.22303772 0.66905 0.41832832 -0.7829989 0.2500664 -0.05901835 -0.93711644 0.6257115
0.57130957 0.2023612 0.16710381 0.42724815 0.19689022 0.16939415 0.12080068 0.40218097
00000000: 296b 1abe 9bab 57bd e06f 5b3d 9435 263f
00000010: af96 0a3f 2836 45bd 9cdc f53c 3f68 e83e
00000020: 6368 c83e abac 553e d758 903d fe87 dd3e
00000030: 2f9b 0c3f 0d02 debe 7a1d 263e 92de 2d3f
00000040: 0064 64be dc46 2b3f 212f d63e 9e72 48bf
00000050: b408 803e 3abd 71bd dde6 6fbf a12e 203f
00000060: 5841 123f c637 4f3e 431d 2b3e 45c0 da3e
00000070: 979d 493e a975 2d3e 5966 f73d aaea cd3e

l_lstm.bias_hh_l0 f4 [32]
-0.24919517 -0.64075977 -0.23245636 0.18282741 0.5872567 0.23039967 0.34470183 -0.066856645
0.2190021 0.3241542 -0.1223547 0.30586183 0.5668863 -0.16134042 -0.29373965 0.16302972
-0.87084925 0.42917192 0.3800495 -0.87503594 0.42432904 0.026705189 -0.7025337 0.77965
0.16909257 -0.27732545 -0.22386429 0.5210627 -0.06574928 0.02233909 0.16916017 -0.07771951
00000000: 052d 7fbe d508 24bf 0a09 6ebe 1c37 3b3e
00000010: 7556 163f e4ed 6b3e c27c b03e 23ec 88bd
00000020: 1642 603e 8af7 a53e 1a95 fabd ec99 9c3e
00000030: 761f 113f 6c36 25be 0b65 96be 43f1 263e
00000040: faef 5ebf 6cbc db3e d995 c23e 5b02 60bf
00000050: a841 d93e d7c4 da3c 40d9 33bf 2497 473f
00000060: 9a26 2d3e 9afd 8dbe ae3c 65be 5d64 053f
00000070: 8fa7 86bd 7800 b73c 5338 2d3e 682b 9fbd

l_lstm.weight_ih_l1 f4 [32, 8]
-1.2805636 1.2297523 0.9648562 0.39556754 -0.42030805 -0.0024110817 -2.863265 0.6031481
0.47141847 0.9510966 0.8761564 2.426963 -1.4035238 2.0181255 -0.21478686 -0.5866086
-1.149309 2.139724 3.2447436 -0.09494382 -0.10218979 -0.019289957 -1.6225812 1.1884266
1.3912401 -0.5706291 1.0129638 2.2025077 -1.1178465 -0.0025017 -2.0001693 -2.559689
-0.94813937 1.1737028 1.2129601 -0.15312819 1.4673494 0.027346738 1.5351433 1.0329345
-1.7211909 0.31848183 1.2443439 -0.0029272963 0.6307529 0.16782327 0.27989918 -0.05601958
0.33325803 0.64575267 4.612449 0.566154 0.59610766 0.20933545 2.027999 -0.06067588
-1.1827062 -0.99901265 0.61499333 0.23725797 -0.88996035 0.48262072 -1.5004647 0.71616673
1.0641856 -1.1967291 -2.4417076 -0.79580474 1.2652993 -0.51156116 -2.1979187 -0.5438347
-0.86856323 -1.6201631 -3.8209355 -0.6102388 3.5668457 -0.71952057 6.124609 0.8069615
0.9018018 -1.6609781 -2.487668 0.6548961 0.3614646 0.63065594 -0.6446467 -1.3277113
-1.25187 0.3101146 -4.67748 -1.7586619 0.8825747 -1.262288 2.3040025 3.0172296
1.001143 -2.7991133 -4.258619 -0.6896396 -2.0561335 -1.0725772 -0.75212026 0.27669626
-2.2836993 1.1659918 -1.8392928 -0.35968313 -0.5416211 -2.6723497 2.280014 -0.092043616
1.3220578 -1.7900988 -4.136787 -0.87532413 2.4174435 -1.0496438 2.6601112 -0.071041904
3.348771 -2.047741 -2.6029847 0.77986604 2.4663665 -1.9945061 2.0039954 -3.9574065
1.2073501 -0.85371745 -0.5871434 1.1070877 0.5248681 0.81633204 -0.119843416 -0.98164386
0.6529743 -0.3893941 0.9830513 2.1107423 0.37227604 1.3013442 -0.5440383 -0.7394622
-1.1372044 0.8733045 0.05711971 -1.0981654 -0.72401774 -0.8876724 -0.06340921 1.1159838
0.8294296 -0.62372184 -0.6408033 1.7776496 -0.0714399 0.010300381 -0.1617281 -2.2911723
-0.64762133 -0.3680949 -0.29353127 -1.4339333 -0.13120441 -0.5972853 -0.9305283 0.4560111
-0.9289013 0.091338 -0.528534 -1.0090067 -0.760439 -0.711222 -0.8897876 0.8116291
-0.86080474 0.21528332 0.096285306 -0.8780887 -0.6742792 -1.0192413 0.36245686 0.69246405
-0.6448823 0.46749508 0.035092838 -1.4538232 0.17767444 -0.09627887 -0.3726053 1.565773
0.45824155 -0.7269209 -0.10505685 -0.0872525 0.14705095 -0.19249502 0.6232052 0.8837158
0.33655962 0.06683188 -0.21327348 -0.12919767 1.6413175 1.3374635 1.3299831 1.676369
-0.103717715 -0.1535499 2.1527457 -0.2008983 0.5003154 -0.27405623 -0.6545979 1.3017801
-0.08697756 2.2443166 -2.0192103 -0.64525455 4.4846087 0.66018087 -2.9894314 1.940974
0.032315034 -0.45962867 -2.30748 -0.41498145 1.2458854 0.32914373 0.67385083 0.7149904
-1.829841 0.28715804 1.1587706 -0.69674844 1.306971 -0.046580695 -0.9797931 0.48675668
1.1977916 -0.6617877 0.77843803 -0.68027973 0.2662597 -0.32598174 -1.6556429 0.75100833
0.4260027 -3.3276536 0.35674018 -0.95511794 1.8479089 0.86912733 -2.4545379 1.7170748
00000000: 82e9 a3bf 8668 9d3f d100 773f d487 ca3e
00000010: 9e32 d7be 3d03 1ebb bc3f 37c0 ea67 1a3f
00000020: c35d f13e 117b 733f c94b 603f 5d53 1b40
00000030: aba6 b3bf f828 0140 16f1 5bbe fb2b 16bf
00000040: 8f1c 93bf 3df1 0840 e1a9 4f40 e871 c2bd
00000050: e148 d1bd f905 9ebc beb0 cfbf 5d1e 983f
00000060: 2814 b23f c014 12bf cca8 813f e3f5 0c40
00000070: 9815 8fbf 90f3 23bb c602 00c0 f2d1 23c0
00000080: 43b9 72bf e53b 963f 4742 9b3f a3cd 1cbe
00000090: 1bd2 bb3f 4406 e03c 937f c43f 3337 843f
000000a0: fc4f dcbf 0d10 a33e a946 9f3f e2d7 3fbb
000000b0: 0679 213f ddd9 2b3e f24e 8f3e ca74 65bd
000000c0: cca0 aa3e 0c50 253f 2f99 9340 78ef 103f
000000d0: 839a 183f 085c 563e bcca 0140 4687 78bd
000000e0: eb62 97bf 4bbf 7fbf 3470 1d3f c1f3 723e
000000f0: 71d4 63bf 101a f73e 3a0f c0bf b456 373f
00000100: 3c37 883f 6b2e 99bf f044 1cc0 dcb9 4bbf
00000110: 54f5 a13f acf5 02bf b3aa 0cc0 c038 0bbf
00000120: 295a 5ebf 8161 cfbf 358a 74c0 9c38 1cbf
00000130: 3347 6440 8032 38bf ccfc c340 0795 4e3f
00000140: 7cdc 663f ee9a d4bf f435 1fc0 45a7 273f
00000150: e311 b93e ab72 213f 9107 25bf 72f2 a9bf
00000160: 473d a0bf 57c7 9e3e ebad 95c0 d51b e1bf
00000170: 6af0 613f a792 a1bf c774 1340 4a1a 4140
00000180: 7425 803f ac24 33c0 9b46 88c0 398c 30bf
00000190: b197 03c0 364a 89bf f48a 40bf 22ab 8d3e
000001a0: 2128 12c0 383f 953f f26d ebbf 6328 b8be
000001b0: aea7 0abf c707 2bc0 c0eb 1140 5d81 bcbd
000001c0: 3139 a93f f521 e5bf 8f60 84c0 3e15 60bf
000001d0: 65b7 1a40 ba5a 86bf 433f 2a40 6b7e 91bd
000001e0: 4452 5640 300e 03c0 4d97 26c0 4da5 473f
000001f0: f3d8 1d40 fa4b ffbf 7641 0040 2646 7dc0
00000200: 738a 9a3f 3a8d 5abf 084f 16bf 0db5 8d3f
00000210: c15d 063f 23fb 503f 7770 f5bd 034d 7bbf
00000220: 5329 273f aa5e c7be 40a9 7b3f 6716 0740
00000230: f79a be3e 7292 a63f 1846 0bbf 654d 3dbf
00000240: ea8f 91bf e290 5f3f 5bf6 693d af90 8cbf
00000250: 3a59 39bf 803e 63bf b0dc 81bd 8fd8 8e3f
00000260: 8055 543f 3cac 1fbf af0b 24bf 068a e33f
00000270: 154f 92bd eec2 283c 0d9c 25be 91a2 12c0
00000280: 83ca 25bf ef76 bcbe bb49 96be 208b b7bf
00000290: 735a 06be b0e7 18bf 1a37 6ebf 497a e93e
000002a0: 7acc 6dbf 6b0f bb3d 014e 07bf 2227 81bf
000002b0: 21ac 42bf a512 36bf 1fc9 63bf edc6 4f3f
000002c0: b35d 5cbf 3b73 5c3e 3b31 c53d 6cca 60bf
000002d0: 909d 2cbf 8076 82bf f293 b93e 5345 313f
000002e0: 0217 25bf 845b ef3e 82bd 0f3d e116 babf
000002f0: 4af0 353e db2d c5bd 1fc6 bebe 406b c83f
00000300: a39e ea3e 7d17 3abf 0c28 d7bd 70b1 b2bd
00000310: 8694 163e 6a1d 45be 608a 1f3f 333b 623f
00000320: 8b51 ac3e 27df 883d 5d64 5abe 654c 04be
00000330: b116 d23f 0132 ab3f e33c aa3f 4293 d63f
00000340: f469 d4bd 2f3c 1dbe 96c6 0940 49b8 4dbe
00000350: ac14 003f 1951 8cbe ba93 27bf bba0 a63f
00000360: 4a21 b2bd e2a2 0f40 be3a 01c0 672f 25bf
00000370: ea81 8f40 9d01 293f d852 3fc0 d671 f83f
00000380: c55c 043d 7354 ebbe c1ad 13c0 7378 d4be
00000390: 2c79 9f3f 8785 a83e 7d81 2c3f 9c09 373f
000003a0: 3b38 eabf 6106 933e 9852 943f 1b5e 32bf
000003b0: d34a a73f 66cb 3ebd b8d3 7abf 2c38 f93e
000003c0: 3c51 993f eb6a 29bf b747 473f d026 2ebf
000003d0: 3153 883e 14e7 a6be 1bec d3bf 1542 403f
000003e0: 071d da3e 47f8 54c0 a6a6 b63e 9c82 74bf
000003f0: 4788 ec3f 217f 5e3f 2617 1dc0 1bc9 db3f

l_lstm.weight_hh_l1 f4 [32, 8]
1.4413999 0.89905643 -0.38630393 2.1667044 0.5278186 0.5499192 -0.8579028 -0.88691187
-2.3742745 2.1489475 2.2638657 -0.81646264 -1.1136831 2.0079336 -1.4571716 -0.4961331
1.5099368 1.7299737 -0.27202103 2.5286705 0.011054778 1.7567806 -0.4507592 -1.0012542
-0.8210643 0.7453757 -0.8717553 2.5979338 0.7978952 -0.41914284 0.828369 -1.5515357
2.0786288 0.91816485 -1.7087291 1.8125645 -0.43389755 1.1508346 -0.2747332 -1.8802949
0.8697573 3.4455569 -0.60123795 1.4773439 -0.48213154 0.0033294437 -0.18207534 -1.4673563
-0.6895232 -0.66436744 0.8207651 3.7202694 2.077474 2.1877894 -1.3645202 -1.9250628
2.858027 0.64116114 -1.9320265 2.1925128 -0.11436574 1.7770981 1.1800103 -2.3521483
-0.4732064 -0.53914773 1.0157893 -0.4707154 -0.3085481 0.7384424 -0.68995017 0.3928146
-4.3876076 0.82477504 3.3987377 -3.4502451 1.3956382 1.3857849 2.021888 0.6925884
-1.070944 -0.8696938 0.37540865 -1.1455927 -0.37836242 -0.6267786 -0.53207016 0.63527113
-2.3021083 -2.0850372 1.3639379 -0.6225836 1.8163886 2.66261 2.3597713 2.6400754
-2.1142313 -2.1380613 1.0432017 -1.6801213 -0.8201065 0.25528744 0.82462054 0.49317285
-0.61601275 0.9357671 0.081200235 0.104952626 -0.7483475 -0.48485604 -0.35843083 -0.561938
-3.467069 -2.547165 2.1773443 0.74482155 0.42852053 1.1329554 -0.97142756 0.3062214
2.6383662 -4.05887 -3.4794898 -1.8157532 -1.4735084 -0.21501859 -4.6316166 -1.3784051
-1.2689981 -1.4267035 1.1772116 -1.5715073 1.7461169 0.6017925 1.9593581 1.6140758
2.0134108 -0.80292994 -0.9522643 2.1021202 -1.1116047 1.6631596 -2.0608218 -0.50237435
0.5487209 1.3553815 -1.6735879 1.1926073 -1.4141233 -1.4518076 -0.8407576 -1.4516513
0.780119 -2.6564522 0.30366907 -2.1709116 -0.6416428 -1.4418585 -0.10726762 -0.43941653
-0.89478815 0.5491225 0.98750603 1.2745252 -3.3490205 0.12398818 0.7548733 -2.309367
0.0705884 0.13523494 0.2966824 1.2537924 -1.0592805 -2.484585 -0.62468165 -0.3802294
-1.6173972 1.2729434 -0.20909643 0.012770381 -1.3319935 -0.7865671 -2.9924324 -1.4589953
-1.8562884 0.11367787 -0.00029565138 2.979343 1.253044 -0.8387834 1.5679839 -2.8479464
0.6820085 0.8129579 0.43949375 1.0197098 0.10701568 0.80809736 -0.67878246 0.05620225
-1.6095918 0.63008153 0.8352501 -1.7798706 0.66907734 1.9385793 1.3535817 0.014949059
0.8878836 0.6795696 0.064697124 0.931939 -0.27627277 2.5396335 -0.4081613 0.05619602
0.7263598 -0.28038496 -0.2789148 1.929544 0.6736618 0.34961113 2.0177836 0.89723
1.7878054 0.52036196 -1.6953057 0.5650804 -1.2540364 1.791141 1.3661048 -1.2654407
1.4305203 3.6531312 -1.4233452 2.330056 -1.6720694 -0.7139556 -0.7472375 -2.4488413
-0.64214045 -0.8427951 0.14112303 0.6580874 -0.2971321 2.3329484 0.38965052 -1.6753901
-0.5295166 0.76476735 -0.04635357 -2.0902233 1.2730474 2.8157096 1.612471 -0.95048696
00000000: cb7f b83f 9028 663f a1c9 c5be 49ab 0a40
00000010: 1f1f 073f 81c7 0c3f 859f 5bbf a80c 63bf
00000020: 1df4 17c0 5b88 0940 2de3 1040 b203 51bf
00000030: 2b8d 8ebf fc81 0040 9984 babf 2805 febe
00000040: 9c45 c13f c76f dd3f 5746 8bbe bdd5 2140
00000050: 191f 353c 30de e03f e9c9 e6be 1929 80bf
00000060: 4531 52bf f1d0 3e3f 5b2b 5fbf 8c44 2640
00000070: dc42 4c3f e499 d6be fe0f 543f b998 c6bf
00000080: 4108 0540 da0c 6b3f a3b7 dabf 1d02 e83f
00000090: d227 debe 8c4e 933f d4a9 8cbe 81ad f0bf
000000a0: 6aa8 5e3f 0184 5c40 bbea 19bf 9b19 bd3f
000000b0: f2d9 f6be cc32 5a3b f571 3abe 55d2 bbbf
000000c0: 9884 30bf fc13 2abf a91d 523f e518 6e40
000000d0: 56f5 0440 be04 0c40 99a8 aebf 7568 f6bf
000000e0: eae9 3640 2323 243f a54c f7bf 2152 0c40
000000f0: 9638 eabd f377 e33f 940a 973f 9989 16c0
00000100: 1c48 f2be 9605 0abf 6205 823f 9c01 f1be
00000110: 04fa 9dbe 900a 3d3f 93a0 30bf ff1e c93e
00000120: 4867 8cc0 7524 533f eb84 5940 d1d0 5cc0
00000130: 46a4 b23f 6661 b13f 9d66 0140 794d 313f
00000140: b114 89bf 41a4 5ebf 9035 c03e c8a2 92bf
00000150: b8b8 c1be 9074 20bf c035 08bf 21a1 223f
00000160: be55 13c0 4071 05c0 8495 ae3f a461 1fbf
00000170: 6c7f e83f 3468 2a40 7e06 1740 fff6 2840
00000180: 914f 07c0 ffd5 08c0 a287 853f 370e d7bf
00000190: 80f2 51bf 09b5 823e 551a 533f 2781 fc3e
000001a0: 03b3 1dbf 6f8e 6f3f 4f4c a63d 67f1 d63d
000001b0: b493 3fbf 0d3f f8be 3f84 b7be 2bdb 0fbf
000001c0: 75e4 5dc0 c004 23c0 9c59 0b40 a0ac 3e3f
000001d0: 0b67 db3e af04 913f 7aaf 78bf 0dc9 9c3e
000001e0: feda 2840 43e2 81c0 f6af 5ec0 9a6a e8bf
000001f0: ec9b bcbf d52d 5cbe 3436 94c0 946f b0bf
00000200: 886e a2bf 389e b6bf dfae 963f 2727 c9bf
00000210: c280 df3f 130f 1a3f 3fcc fa3f 099a ce3f
00000220: b9db 0040 d18c 4dbf 98c7 73bf 2389 0640
00000230: 1049 8ebf 6ae2 d43f 81e4 03c0 9b9b 00bf
00000240: f978 0c3f 247d ad3f 2138 d6bf 5ba7 983f
00000250: fe01 b5bf d5d4 b9bf e43b 57bf b6cf b9bf
00000260: e1b5 473f 5003 2ac0 837a 9b3e 37f0 0ac0
00000270: b442 24bf d28e b8bf 20af dbbd 34fb e0be
00000280: d610 65bf 4b93 0c3f 32cd 7c3f a423 a33f
00000290: 5a56 56c0 84ed fd3d 603f 413f abcc 13c0
000002a0: a790 903d 077b 0a3e c1e6 973e 457c a03f
000002b0: 8196 87bf 7103 1fc0 23eb 1fbf 6ead c2be
000002c0: df06 cfbf cfef a23f 601d 56be dc3a 513c
000002d0: c37e aabf 765c 49bf 0384 3fc0 5cc0 babf
000002e0: dc9a edbf f1cf e83d a801 9bb9 8ead 3e40
000002f0: bf63 a03f 82ba 56bf b2b3 c83f c144 36c0
00000300: 1c98 2e3f 021e 503f 5305 e13e da85 823f
00000310: 092b db3d 78df 4e3f b0c4 2dbf 5534 663d
00000320: 1b07 cebf 064d 213f f3d2 553f cdd2 e3bf
00000330: a748 2b3f 5e23 f83f 2a42 ad3f e6ec 743c
00000340: 574c 633f 46f8 2d3f ed7f 843d 8e93 6e3f
00000350: a073 8dbe 5b89 2240 85fa d0be cc2d 663d
00000360: b7f2 393f 9e8e 8fbe eccd 8ebe 4cfb f63f
00000370: 1a75 2c3f 3b00 b33e 5e23 0140 deb0 653f
00000380: cfd6 e43f 7136 053f c7ff d8bf 1ca9 103f
00000390: 4484 a0bf 1c44 e53f 86dc ae3f f6f9 a1bf
000003a0: 4a1b b73f e7cc 6940 2d30 b6bf a31f 1540
000003b0: 5f06 d6bf cbc5 36bf f54a 3fbf d1b9 1cc0
000003c0: 5163 24bf 6bc1 57bf 8e82 103e 6a78 283f
000003d0: b321 98be 074f 1540 4680 c73e 2f73 d6bf
000003e0: 668e 07bf cbc7 433f 3edd 3dbd 38c6 05c0
000003f0: 38f3 a23f 9634 3440 7365 ce3f 1d53 73bf

l_lstm.bias_ih_l1 f4 [32]
-0.6074845 -1.4464768 -1.0539396 -0.81542134 -0.8138882 -0.32542852 -1.0245925 -0.4420123
0.7440597 -0.421681 0.06576997 -0.5286928 0.60182166 -0.8198718 0.3569604 -0.91929406
-0.11872693 0.2824463 0.027183441 0.12387101 -0.07157952 0.053551335 -0.04889656 -0.35926074
-0.39206922 0.053814214 0.101061165 0.098416224 -0.37614468 -0.09591221 -0.035459504 0.25366986
00000000: 1b84 1bbf 2726 b9bf 7ee7 86bf 74bf 50bf
00000010: fa5a 50bf 919e a6be d925 83bf 704f e2be
00000020: b27a 3e3f 92e6 d7be 68b2 863d 6958 07bf
00000030: fc10 1a3f 1ee3 51bf 83c3 b63e db56 6bbf
00000040: 1b27 f3bd cd9c 903e cfaf de3c 16b0 fd3d
00000050: 4998 92bd a558 5b3d c247 48bd 06f1 b7be
00000060: 4cbd c8be 4b6c 5c3d 28f9 ce3d 728e c93d
00000070: 0996 c0be 9f6d c4bd fc3d 11bd 04e1 813e

l_lstm.bias_hh_l1 f4 [32]
-0.477558 -0.82081234 -0.54957503 -0.92422235 -0.5882593 -0.21792583 -1.1800363 -0.83402413
0.77068716 -0.17473751 0.5780412 -0.94629747 0.10778183 -0.77835643 0.6250337 -0.9234348
0.024510706 -0.30526114 0.08369828 0.14296612 -0.019600399 0.0045059263 0.20420219 0.113025546
0.18371093 -0.5339461 -0.22855116 0.37212104 -0.19786248 -0.08530577 -0.3151121 0.21229441
00000000: 7b82 f4be c220 52bf f3b0 0cbf d699 6cbf
00000010: 2998 16bf f327 5fbe 6e0b 97bf 9b82 55bf
00000020: c14b 453f 64ee 32be 82fa 133f 8d40 72bf
00000030: b8bc dc3d 5e42 47bf 3502 203f 3966 6cbf
00000040: adca c83c 304b 9cbe 016a ab3d b665 123e
00000050: 0491 a0bc 73a6 933b 611a 513e f079 e73d
00000060: b81e 3c3e b1b0 08bf 5109 6abe a686 be3e
00000070: 769c 4abe cbb4 aebd 6056 a1be b563 593e

l_linear.weight f4 [1, 8]
0.39292654 0.45862016 -0.50162107 0.41404632 -0.4082598 -0.34990147 -0.38890025 -0.39872277
00000000: ab2d c93e 43d0 ea3e 3d6a 00bf e1fd d33e
00000010: 6e07 d1be 4926 b3be ef1d c7be 6425 ccbe
