data/datasets/tx_travis_county_neighborhood/resstock-amy2018-2021-release-1-296934.pth (torch, 8966 bytes, 9 tensors)

l_lstm.weight_ih_l0 f4 [32, 13]
000000 71 3d 57 bf 7a e7 58 be 0e 98 12 bf a3 0b d9 be
       -0.8407813 -0.21182051 -0.5726327 -0.4239169
000010 4e f9 c3 3f d1 40 be be dd bc 05 40 1e a5 2d 3f
       1.5310457 -0.37158826 2.0896523 0.67830074
000020 d5 b3 c6 40 d0 14 97 3d ef 43 3e 3f e9 a3 2b 40
       6.209452 0.073770165 0.7432241 2.6818793
000030 68 e5 c5 bf f2 b8 85 bf e0 6d 8b 3e 12 dc a6 3f
       -1.5460634 -1.0447066 0.27232265 1.303591
000040 5a fe 70 3f b0 56 87 3f 94 f2 ba 3e a7 b3 e7 be
       0.9413811 1.057333 0.36513197 -0.4525425
000050 29 06 03 c0 48 20 a1 3f 19 1e e2 bf 58 41 c8 3e
       -2.047251 1.2587976 -1.7665435 0.39112353
000060 a7 e3 3e bf 48 67 3e bf 85 fa aa bf 62 c9 0f bf
       -0.7456612 -0.74376345 -1.3357702 -0.5616666
000070 71 bf c4 be 3e 17 b5 be ab c0 b3 3f df 15 76 40
       -0.38427308 -0.35369295 1.4043173 3.845085
000080 76 23 81 bf 8b fe 53 40 3a 0a 79 3e 19 ad 76 bd
       -1.0088947 3.312411 0.24320307 -0.060223673
000090 2b 4e 81 3f f3 1d b3 3f 12 ac 05 3f db 41 4c 3c
       1.010198 1.3993515 0.52215683 0.012466873
0000a0 44 09 b0 bd f7 7b 93 3e 1f f8 02 bf be bc d1 3f
       -0.08595517 0.28805515 -0.5115985 1.6385725
0000b0 e6 5e 05 3e e7 b8 fe 3e da 4d 26 40 c5 71 df 3e
       0.13024482 0.49750444 2.5985017 0.43641487
0000c0 91 40 83 3f 65 0e e6 be 36 53 22 3e b7 4e 37 c0
       1.0254079 -0.44932857 0.15852055 -2.8641794
0000d0 d0 db ad 3f f3 ed 7a 3f 7f 1d 74 be c8 de 8c bd
       1.3582706 0.9801933 -0.23839377 -0.0687843
0000e0 62 7d 45 bf 4b cc 78 3d 8d ca fb c0 b3 a8 56 41
       -0.77144444 0.060741704 -7.8684754 13.416186
0000f0 0a 4a 7a 3f c8 8c 1b bf b4 a9 14 c0 68 3b 0c bf
       0.97769225 -0.6076169 -2.3228579 -0.54778147
000100 df dc a5 3f ee a2 4d 3f 1d a3 9f bf 11 b7 73 be
       1.295803 0.80326736 -1.2471653 -0.23800303
000110 b8 ff 14 3f 8a c0 bb 3e c5 31 b0 3f 4f 20 e1 3f
       0.58202696 0.36670333 1.3765188 1.7587985
000120 4d 84 5b c0 f6 5a dd 3e 52 eb 00 3d a9 d0 a9 3f
       -3.42995 0.4323346 0.03147442 1.3266803
000130 c2 43 b9 3e d0 6f 37 3f 14 a4 01 3e f8 19 43 3f
       0.36184508 0.7165499 0.12660247 0.762115
000140 aa 14 d9 3e 8b 58 28 bf e5 21 96 bf 5a 6a 7e 40
       0.42398578 -0.65760106 -1.1729094 3.9752412
000150 3a 7c c9 3e 64 93 4f 40 70 f5 08 3a d4 05 35 bf
       0.3935259 3.243371 0.00052245613 -0.7071202
000160 e7 40 a8 3f 86 a9 5d bf fd 5d 9e be ef c7 cc 3d
       1.3144807 -0.865868 -0.30931082 0.09999072
000170 d6 6a 8f 3c f0 c8 ec bc 02 99 a7 bc 0d 57 71 3e
       0.017506998 -0.028904408 -0.020458702 0.23568363
000180 8d bf 88 be 61 df fd 3e c1 e5 61 be 47 d5 c8 be
       -0.26708642 0.49584487 -0.220603 -0.39225218
000190 60 96 0c bf 3d 0d 2c bf 7a 7c 06 3d 58 45 9a 3f
       -0.54916954 -0.672077 0.032833554 1.2052412
0001a0 1c 13 d3 bf cc 0e be 3f 35 77 88 be 46 59 22 40
       -1.6490207 1.4848266 -0.26653448 2.5366988
0001b0 73 99 bb 3f c9 e7 e8 3e 5a 26 aa bf 57 60 6b 40
       1.4656204 0.45489338 -1.3292954 3.677755
0001c0 fc e9 28 40 b5 bd 35 bf be 7f 88 3f 85 16 03 40
       2.6392813 -0.70992595 1.0663984 2.0482495
0001d0 9d dc 41 3c 22 b7 ca bd 6c d7 01 40 59 04 08 bf
       0.011832383 -0.09898211 2.0287733 -0.53131634
0001e0 b8 1f cf 3e 72 4f 86 3f 12 f1 e9 3e 63 3d 22 c0
       0.40453887 1.0492995 0.45691735 -2.5349967
0001f0 3a 13 62 40 64 b7 90 3d 0f b3 a2 bf fc 80 8e bf
       3.5324235 0.07066229 -1.2710894 -1.1133113
000200 5b db 85 be a3 08 9e bf 30 ba 70 3f 5d 19 86 3f
       -0.26143917 -1.2346386 0.940341 1.047649
000210 e9 91 ad 3f 9e 7e 52 bf ec 7b dd be 9a 35 98 3f
       1.3560153 -0.8222445 -0.43258607 1.1891358
000220 c1 b4 c6 3f 61 ef cb c0 db 59 49 c0 ef 63 09 3f
       1.5523912 -6.372971 -3.1461093 0.5366811
000230 eb a3 79 bf bf a1 1b 40 64 38 7a 3f 73 fb c6 3c
       -0.97515744 2.4317472 0.97742295 0.024289822
000240 23 b2 95 3c 8c 18 b2 bd 4e bc 9d 3e 6a 51 de 3e
       0.018273419 -0.08696088 0.30807728 0.4342149
000250 e0 75 1b 3f 26 bd ef 3f b5 4d 2f c0 6c f2 50 be
       0.6072674 1.8729599 -2.7391179 -0.20404977
000260 50 a1 45 bf 41 4a a6 bd 9e 1b bc be 79 22 18 c0
       -0.7719927 -0.081196316 -0.3673982 -2.377104
000270 a0 1d 84 3e 88 c5 26 bf 32 e8 05 3f 84 b9 3b 3f
       0.25803852 -0.6514516 0.52307427 0.7332995
000280 a2 4d 96 3f e7 78 3f 3f 58 e8 8d c0 de 85 bb 3f
       1.1742442 0.7479386 -4.4346123 1.4650228
000290 e1 3e 4d bf 79 0b 46 3f b2 99 a3 bf 10 0d be 3f
       -0.8017407 0.77361256 -1.2781279 1.4847736
0002a0 e1 92 14 40 28 2e d3 3f 6b 9c 55 40 52 98 ed bd
       2.3214648 1.6498461 3.337672 -0.116013184
0002b0 1a c2 55 be 6b a7 0f c0 e5 f8 ec bf c0 85 b5 c1
       -0.20874825 -2.2445934 -1.8513457 -22.690308
0002c0 40 5b a7 41 ca 9a 0b bf 3d d5 9f bf 09 22 a4 3f
       20.919556 -0.54533064 -1.248695 1.2822887
0002d0 cd 89 a1 be 93 65 85 3e b4 e0 e8 be 1d 7b cb be
       -0.31550446 0.26054057 -0.45483935 -0.39742365
0002e0 44 89 d4 3e 49 e8 93 be ed 72 0f 3f 81 ea 77 3e
       0.41510975 -0.28888157 0.5603474 0.2421055
0002f0 52 1f bc c0 5b 33 32 c1 cb 69 01 bf 4e cb b6 bd
       -5.8788233 -11.137538 -0.5055205 -0.08925496
000300 97 33 b9 3f fc 97 13 3f ef 18 6c c0 58 39 ec 3e
       1.4468869 0.57653785 -3.6890218 0.461375
000310 eb 1d 88 3e fa 63 09 3e 8a cc 62 3c c9 8a e1 3e
       0.26585326 0.13417044 0.013842711 0.44051197
000320 6e d7 c5 3e bb 3d ad 3f de d8 4a 3f a0 20 ce 3d
       0.38640922 1.3534464 0.79237163 0.100648165
000330 e8 7e 27 3f 75 bc 18 bd b0 5b 67 3e 77 d5 18 40
       0.6542802 -0.0372891 0.2259357 2.3880289
000340 33 7b 5f bf 7c 03 79 3c 9b 4b d6 3e 78 80 aa be
       -0.8729736 0.015198585 0.41854557 -0.3330114
000350 98 9b 84 be 27 11 ce 3c 63 02 1b c0 8f e2 1a c0
       -0.2589996 0.025154663 -2.4220207 -2.420078
000360 34 3d 14 40 f7 44 c3 40 ba b9 77 3d 74 58 d0 3f
       2.3162355 6.1021686 0.060479857 1.6276994
000370 a1 3a 0f bf 83 40 5a bf 49 49 d8 3e 56 cf 14 3f
       -0.55948836 -0.8525469 0.42243412 0.5812887
000380 e3 e1 70 3f 33 86 99 bf 2b 89 06 3f d1 4b bf 3f
       0.94094676 -1.1994079 0.5255305 1.4945012
000390 93 f3 bd bf ae b7 ab 3e eb 75 ae c0 8b c8 e9 bd
       -1.4839958 0.33538574 -5.4518943 -0.11415204
0003a0 61 5a 14 c0 8e 13 73 3f a1 66 75 3e 96 3a f8 3e
       -2.3180163 0.94951713 0.23964931 0.48482198
0003b0 9d 18 d4 3d 6e fc 6b be 17 02 29 3f 65 eb 51 3f
       0.10356257 -0.23045513 0.66018814 0.8199981
0003c0 d0 c4 00 3f ea 14 cc 41 9c 49 8e bd 9e 8f 12 3e
       0.5030031 25.510212 -0.069476336 0.14312598
0003d0 40 9e 12 bf b6 2b 4b bd 1e 55 9f 3f 1e b3 a4 be
       -0.5727272 -0.049602233 1.2447851 -0.32167906
0003e0 67 5b 4f c0 bb 66 b9 be 33 a6 b6 bd 68 7d 99 3f
       -3.2399538 -0.3621119 -0.08918419 1.1991396
0003f0 6a 93 78 3e 4c 1f 88 3f 06 d5 95 40 cb 2a 19 3e
       0.24274984 1.0634551 4.682254 0.1495773

l_lstm.weight_hh_l0 f4 [32, 8]
000000 d2 b1 1d bf 3d d8 1d bf d9 d3 43 be 13 af a6 3f
       -0.6159946 -0.6165808 -0.19123782 1.3022178
000010 3c 3d d0 bf 10 8b a1 3e 21 8d e0 3f 03 a2 2c be
       -1.6268687 0.3155141 1.7543069 -0.16858678
000020 5d 5e f8 3f a8 dd 1a c0 f1 df ea 3f 7f 08 39 c0
       1.9403797 -2.4197788 1.8349591 -2.8911436
000030 08 9e 8c 3f 8e 57 23 bf f8 df bb 3d ab 04 25 bf
       1.0985727 -0.6380547 0.09173578 -0.6446025
000040 7f 9e d7 bf d3 57 c9 3f 51 32 8e bf f4 60 01 40
       -1.6845244 1.5729927 -1.1109105 2.0215425
000050 ae 00 3a c0 67 db c1 3f 76 a0 2b 40 89 97 c3 bf
       -2.9062915 1.5145081 2.6816688 -1.528062
000060 ad 01 1d 3e 51 91 5a bf 30 2d 90 3e 47 cd e5 bd
       0.1533267 -0.85377985 0.28159475 -0.11220794
000070 26 1d b8 3b be 82 ef bf 7d 0c 32 bf 1f e1 78 3f
       0.005618709 -1.8711774 -0.69550306 0.9721851
000080 fc 37 2f 3f 99 86 eb bd 12 48 47 bf 4e 9d 97 be
       0.684448 -0.11500282 -0.77844346 -0.296122
000090 e6 b3 24 bf a5 ff 88 3f cb f5 60 3f a6 2b 46 bf
       -0.64337003 1.0703017 0.8787505 -0.7741035
0000a0 44 ae 5f bf 55 55 0f 40 2a f2 53 c0 82 fb fd 3f
       -0.87375283 2.2395833 -3.3116555 1.9842379
0000b0 ad c1 68 c0 13 00 3c 3e 27 22 49 bf 7d 3f 26 c0
       -3.636821 0.18359403 -0.7856774 -2.597625
0000c0 24 ad ff 3e 44 53 3b be b8 ef b9 c0 2d 43 5c c0
       0.49936783 -0.18293482 -5.8105125 -3.4416
0000d0 f7 72 78 40 b7 50 c4 c0 e1 b7 51 3f 68 7f 86 c0
       3.882017 -6.134853 0.819212 -4.2030525
0000e0 b4 d0 a2 bf c7 e6 d9 3f fa 6d 95 be 24 9d 47 bd
       -1.2719941 1.7023553 -0.29185468 -0.048733845
0000f0 fc b7 56 3f 76 ca 78 3f 86 56 aa 3d bb 4b b2 3f
       0.8387449 0.9718393 0.08317284 1.3929361
000100 51 4a 33 3e 0d 3f 74 bf f5 48 a9 3f 10 cd 58 bf
       0.17508818 -0.9540871 1.322539 -0.846879
000110 9d 82 26 3f 3f ff ca 3e f3 b6 21 bf 56 27 8f 3f
       0.6504305 0.39647862 -0.63169783 1.1183879
000120 8e 68 cf 3f 12 0d 02 c0 a7 b3 1b 3f 4e da 41 c0
       1.6203783 -2.0320477 0.60821 -3.0289493
000130 81 5d a6 3f 7c 24 0f bf ac 37 8d 3f 65 91 5b 3f
       1.2997285 -0.55915046 1.1032615 0.8576873
000140 dd 84 8a bf fe 0f b0 3f 51 51 29 c0 d3 f2 55 3f
       -1.0821797 1.375488 -2.6455882 0.83573645
000150 60 04 96 bf 97 6c a3 3f f5 0f 65 bf a1 a5 af 3f
       -1.1720085 1.2767514 -0.89477473 1.3722421
000160 20 09 44 3e f7 9f 27 bf 22 35 b9 bd 16 82 48 3d
       0.19144106 -0.6547846 -0.090433374 0.048952185
000170 9e c4 4d 3f ea 25 d8 bf 5a 04 c1 3e 81 f8 23 3f
       0.8037814 -1.688657 0.37698632 0.6405106
000180 db 9a ba be 0c 2a 3c 3f b9 52 08 bf 3f 10 86 3f
       -0.3644627 0.7350166 -0.53251225 1.0473708
000190 76 f2 48 bf 87 3f 59 bf b4 11 64 3c 23 ed bb bf
       -0.78494966 -0.8486256 0.013920236 -1.4681743
0001a0 31 b4 19 c0 53 71 ad 3f ce 7e 8c 3f b4 ca ba 3f
       -2.401623 1.3550209 1.0976198 1.459311
0001b0 4f 33 e2 be 72 71 a1 3f 21 4d 15 c0 66 47 85 c0
       -0.4417977 1.2612746 -2.3328326 -4.1649656
0001c0 28 f9 8b be 02 be 3e 3f 85 18 d8 3f c3 75 22 40
       -0.2733853 0.7450868 1.6882483 2.5384376
0001d0 c7 a2 a7 bf 12 d2 b8 40 38 b9 31 bf 63 68 c1 3f
       -1.3096551 5.7756433 -0.69423246 1.5109981
0001e0 f7 2b 43 3e 0e 44 c1 3e 10 16 12 3d 12 0b 1c bf
       0.1905974 0.37747234 0.03566557 -0.6095439
0001f0 9f 03 af 3f 68 77 b7 be 10 60 08 3f bf f4 86 bd
       1.367298 -0.35833287 0.5327158 -0.0658965
000200 a2 6e 77 40 27 4c 4a c0 1a d4 7e 3f b5 68 16 c0
       3.8661275 -3.160898 0.9954239 -2.3501408
000210 56 0a 88 3f 00 f3 43 c0 49 6c 6b be bf 8d df be
       1.0628154 -3.0617065 -0.22990526 -0.4366283
000220 4d ea 2c c0 3f fd c9 3d 7e 21 25 bf a9 75 3d 3e
       -2.7018006 0.09862756 -0.6450423 0.18501915
000230 ac 6c 7b be bc 38 51 be 30 84 e2 3e a7 aa 9a 3c
       -0.24553174 -0.20431799 0.44241476 0.018880202
000240 fb f0 ab be f9 03 95 3f 45 a2 1f bf 5c a9 b0 be
       -0.3358229 1.1641837 -0.6235698 -0.3450421
000250 67 c9 cf be 9c e9 3f bf 0c 35 9f bd 17 bd 35 bf
       -0.40583345 -0.74965835 -0.0777379 -0.70991653
000260 8e 50 2a bf 4c 2e 42 3f 0b 4a 12 bd 70 ae b6 3f
       -0.66529167 0.75851893 -0.035715144 1.4271984
000270 4b 3d 2c c0 40 af 86 40 7b fd 47 3e ac f1 0d 40
       -2.691241 4.208893 0.19530289 2.2178755
000280 8f 45 14 3e a4 9f 18 be b0 fb 6b bf 1d 25 69 3e
       0.1447966 -0.14904648 -0.9218092 0.22768064
000290 08 bf 91 3f 23 64 ea bf 16 8b 5f bf 87 e9 fe be
       1.1386423 -1.8311809 -0.87321603 -0.49787542
0002a0 be a4 71 3e 72 9e 64 be 83 3b ef bf 2c 66 63 40
       0.23598 -0.22326067 -1.8690037 3.553111
0002b0 a6 ab 6e 40 c7 bc 1c 3f bb a5 a1 3e 67 73 da 3f
       3.7292266 0.6122555 0.31571755 1.7066468
0002c0 7e 2d 63 3e 2f 98 8b be e1 6d 95 bd 93 99 03 3e
       0.22185323 -0.27264544 -0.07296348 0.12851553
0002d0 ed 28 f7 3e d7 9a d8 be 35 06 d4 be a1 15 66 3f
       0.4827341 -0.42305633 -0.41410986 0.89876753
0002e0 be a7 42 3f 48 86 5b bf 2b 81 47 3f cc 59 45 3e
       0.76037204 -0.8575177 0.7793147 0.19272536
0002f0 60 6f c5 3e 42 64 1e bf 4a 48 30 bf 8c 8d 59 bf
       0.38561535 -0.6187173 -0.68860304 -0.8498161
000300 82 c7 f8 bd 76 5a 08 bf 89 05 81 3e 06 62 01 3e
       -0.12147428 -0.5326303 0.25199535 0.12635049
000310 7e 99 96 3e 9e 63 d4 3d 01 3c 78 bf 81 23 e2 bd
       0.2941398 0.10370563 -0.9696656 -0.11041928
000320 18 ea b0 3e 6d eb 52 bf d8 39 00 3e 4e 18 e0 3e
       0.345536 -0.8239048 0.12522066 0.43768543
000330 80 b5 52 3e 09 eb 43 bf 63 60 f6 bd e6 f7 58 3b
       0.2057705 -0.7653051 -0.12030103 0.0033106743
000340 ce 98 8f be 0f 35 24 3e af 7e b0 bf ec 2b 8c 3f
       -0.28046268 0.16035865 -1.3788661 1.0950904
000350 d7 77 14 bf 5b eb 45 be fc 80 83 3f 01 45 00 3f
       -0.5799536 -0.19328062 1.0273738 0.5010529
000360 57 92 d8 3d 75 17 fc be c4 3a 4d bf a5 15 d8 3b
       0.10574787 -0.49236646 -0.80167794 0.006594377
000370 57 c7 02 bf 6d 7d f6 bf 56 16 03 bf d4 e1 d5 3e
       -0.5108542 -1.9257027 -0.51205957 0.41773856
000380 a1 13 d4 be 68 e6 31 3e ad 38 db bf 32 c5 ff 3f
       -0.41421226 0.1737305 -1.7126671 1.9982054
000390 8b 0c a5 be c1 10 a4 3e 88 b6 1a 40 f4 f5 e9 3e
       -0.32236132 0.32044032 2.4173908 0.4569546
0003a0 14 a9 8f bf 23 ca ce be 3a b6 ad 3f c0 f3 6c 3e
       -1.1223474 -0.40388593 1.3571236 0.23139858
0003b0 f9 83 d9 bf 2e ee 5c 3e 12 83 e8 3d d9 85 76 bf
       -1.69934 0.21575233 0.11353125 -0.96297985
0003c0 83 09 db be b9 ef b7 3e 86 25 4c c0 e4 e3 0b 3f
       -0.42780694 0.3592508 -3.1897902 0.5464461
0003d0 c6 73 7b c0 80 19 23 c0 dd 94 b5 bf 3f 4c 4a 40
       -3.9289412 -2.5484314 -1.4186054 3.1609037
0003e0 2d 22 b1 bd cb 91 6d 3f 76 61 ad bf 1e 83 e0 3d
       -0.08649097 0.9280059 -1.3545368 0.109625086
0003f0 5d 4e 6b bf 66 99 07 bf 4a 67 fd be cf 82 d8 3f
       -0.9191645 -0.5296844 -0.49492866 1.691492

l_lstm.bias_ih_l0 f4 [32]
000000 5f 22 a1 be 59 d9 11 3f 26 3c 79 bf 07 bb 7a be
       -0.31471536 0.5697227 -0.97357404 -0.24485408
000010 b0 ff 25 be 0c 9e a1 be 53 80 44 3e 08 5b 3b bf
       -0.16210818 -0.31565893 0.19189577 -0.7318578
000020 b8 4b 03 3f b4 1c 89 3f 91 2b ac bf dd 35 04 3f
       0.5128741 1.0711884 -1.3450795 0.5164469
000030 9f 5a 9d be 2f 9e 83 bf 4b 63 8a 3e dd d1 59 3e
       -0.307332 -1.0282649 0.2702888 0.21271463
000040 4f 2b ed 3e 6c e0 a4 be f8 c8 66 be 1f a4 ca be
       0.46322104 -0.3220247 -0.22537601 -0.3957834
000050 51 7b f6 3e aa 8a 40 bd d6 80 cd 3e 65 5d ed 3d
       0.48140958 -0.04700724 0.40137357 0.11590079
000060 3c 4e 58 3d e2 55 7c 3e 94 eb ba be 7d c2 90 be
       0.052808985 0.24642137 -0.36507857 -0.28273383
000070 e7 82 da bc 36 fd 0c bf e2 95 90 3f 39 8a 8f 3e
       -0.026673747 -0.5507387 1.1295741 0.28035143

l_lstm.bias_hh_l0 f4 [32]
000000 63 e8 14 be 09 74 37 3f 0b d9 2b bf 7f a7 ac bd
       -0.14541773 0.7166143 -0.67128056 -0.08430385
000010 0a 88 50 3c d8 4b da be 24 0b 00 3f 13 14 bd be
       0.012727747 -0.4263599 0.50017 -0.36929378
000020 fa e4 52 3f 4a c6 1d 3f 33 da a9 bf 60 e9 61 bd
       0.8238064 0.6163069 -1.3269714 -0.055154204
000030 4b a1 9b 3d bd de 8c bf 46 40 1b 3d 1a e7 0e 3e
       0.075991236 -1.1005474 0.037903093 0.13955346
000040 e3 fa 45 3f f8 35 6b bf 14 ed 21 bd 04 5a 52 bf
       0.7733595 -0.91879225 -0.039532736 -0.821686
000050 92 d2 e2 3e de 97 e2 3e 9a 95 9b 3e b2 be ca 3e
       0.44301277 0.4425649 0.30387574 0.39598614
000060 ab 61 4b 3e a0 c3 2d 3e ec c4 30 be 9d 8e 4b 3e
       0.19861476 0.16969156 -0.1726262 0.19878621
000070 32 1f 17 be e3 12 2b bf c5 18 3b 3f ae 70 90 3e
       -0.14757994 -0.66825694 0.7308467 0.28210968

l_lstm.weight_ih_l1 f4 [32, 8]
000000 eb b5 b0 bf 01 59 3a 3e 09 6b 1a be ad 96 a4 3e
       -1.3805517 0.18198015 -0.15079893 0.32146206
000010 70 48 84 3f 46 c7 ad 3e 93 54 38 3f f0 c7 a7 3e
       1.0334606 0.33941096 0.7200405 0.32769728
000020 14 9c a4 bf bd 07 10 bf 23 25 aa 3f fe ca be bf
       -1.2860131 -0.5626181 1.3292583 -1.4905698
000030 fa 05 9a 3f be 74 1b c0 d9 56 7b 3d 5c 0a b1 bf
       1.2033074 -2.4290004 0.06136212 -1.3831286
000040 b6 86 03 bf eb 21 b9 3e 24 40 b6 be 38 e1 f4 bf
       -0.5137743 0.3615869 -0.3559581 -1.9131231
000050 d9 17 81 bd db 44 32 bf 6e dc 0e 3f 83 70 a1 be
       -0.06303377 -0.69636315 0.558051 -0.31531152
000060 66 21 5a bf 7a 82 d2 be ea 3e 87 3f e3 2e af be
       -0.8520721 -0.4111517 1.0566075 -0.3421546
000070 15 75 ca 3e be 97 20 bf 6e a8 af be 84 1a 00 bf
       0.39542452 -0.6273154 -0.3430819 -0.5004046
000080 49 4f 88 bd a9 27 64 3e 9a a1 47 bf 90 9e 23 be
       -0.066557474 0.22280754 -0.7798096 -0.15978456
000090 87 f0 a1 3f c4 8e 14 bf 79 50 59 3f 88 8d fc bd
       1.2651528 -0.58030343 0.84888417 -0.123316824
0000a0 27 83 93 bf 5b eb 0e 3f d2 94 9a be 76 40 01 be
       -1.15244 0.55827874 -0.30191666 -0.12622246
0000b0 72 02 c8 3f e5 f8 c6 be 25 ac 5f 3f 02 de fa be
       1.5625746 -0.38861766 0.87372047 -0.48997504
0000c0 24 8d 07 bf b0 07 de 3e f2 f6 50 be 73 9e 59 bf
       -0.5294974 0.4336524 -0.20406702 -0.850074
0000d0 5d 9a 5a 3f 4e fd 84 3e bc c2 78 3e 83 41 67 bf
       0.8539179 0.25974506 0.24293035 -0.9033434
0000e0 0a dc 78 be c5 ae 2c bf 9e 45 77 40 e6 da 25 40
       -0.24302688 -0.6745418 3.863624 2.5914855
0000f0 c0 13 46 40 da c6 d1 3f dd 59 28 c0 61 09 9a bf
       3.0949554 1.638881 -2.6304848 -1.2034112
000100 ad cb 98 bf 82 ea 0d 3f 38 cd bd bd e8 3b 4d 40
       -1.1937157 0.55435956 -0.09267658 3.2067814
000110 f3 5a 80 3f cf ea 72 bf 4a d4 92 bf 46 1e ad 3d
       1.0027755 -0.9488954 -1.1471035 0.0845304
000120 bf 5f 54 3f 17 e6 bd bf c8 6e 5c bf 13 f3 c9 3f
       0.82958597 -1.4835843 -0.8610654 1.5777305
000130 1a 4e 98 3e 2c ba ba 40 32 42 6a 3f 70 83 8c 40
       0.29747087 5.835226 0.91507256 4.3910446
000140 49 6c 03 3e 36 13 8c be 9a 4f d2 3e 0d bf fe 3c
       0.12834276 -0.27358407 0.41076356 0.03109696
000150 f4 5a 88 3f 8f 0f 9d bf 53 13 5b be 94 8a 3b 3e
       1.0652757 -1.2270373 -0.2139409 0.18314582
000160 6e 60 30 3e 2a 2b 51 bf 2c a7 1c bf 11 fd 3e bf
       0.17224285 -0.8170649 -0.61192584 -0.746049
000170 98 60 b9 3e 6e cc 00 c0 85 3f 7f 3f 9b 34 03 3e
       0.36206508 -2.0124774 0.997063 0.12813036
000180 15 6f f1 bf a9 86 e6 3f 90 85 21 3f 13 2b 84 40
       -1.8862025 1.8009845 0.63094425 4.130258
000190 82 d6 0e 3f 5a 47 a5 bf ae fc 77 be 61 cd 11 bf
       0.5579606 -1.29124 -0.24217483 -0.5695401
0001a0 17 55 84 bf a3 22 69 3f e5 ec b5 3d ee 36 08 40
       -1.0338467 0.91068476 0.08883075 2.1283526
0001b0 91 b0 39 3f 4e 78 6a bf 78 18 ce bf e4 0f 29 be
       0.72535044 -0.9158982 -1.6101217 -0.16509968
0001c0 b6 b9 41 bf 92 92 68 3f c4 8b a7 bd f5 3a 06 40
       -0.75674 0.9084865 -0.08180955 2.0973485
0001d0 03 07 fe be 99 80 7e bd fa c0 7b 3b fb f7 a8 3f
       -0.49614725 -0.06213436 0.0038414584 1.3200678
0001e0 bc 64 cc bf da 81 15 40 26 f2 8a be cc e6 72 40
       -1.5968242 2.3360505 -0.2713787 3.7953367
0001f0 f9 9d 74 be c0 bf 63 bf 61 44 80 3e 76 b0 17 bf
       -0.23888387 -0.8896446 0.2505217 -0.59253633
000200 4d eb 33 3f 8c 40 4e bf f4 49 48 bd 10 36 38 bf
       0.70280915 -0.8056724 -0.048898652 -0.7195749
000210 8c ce af be 89 48 cd 3e 4d d9 05 3f 09 14 80 3e
       -0.3433727 0.40094402 0.522847 0.25015286
000220 d8 b8 35 bf 8c ca 5a 3e 45 96 83 3f a7 9c 91 3f
       -0.70985174 0.21366328 1.0280234 1.1375932
000230 17 f4 22 3f 7b 5e 92 3e fe 77 07 bf 57 46 a6 bd
       0.636537 0.28587708 -0.5291747 -0.08118885
000240 ae 1c 5a bf 37 89 97 3f fc 19 e8 3e 50 05 11 3f
       -0.8520001 1.183875 0.45332325 0.5664873
000250 b8 56 d5 3e 7d e7 3a bf fe 69 1f bf 20 bd e7 be
       0.41667724 -0.73009473 -0.62271106 -0.45261478
000260 6d 1e 02 3f 74 b4 04 bf 88 5d 1e bf a7 25 2d bf
       0.50827676 -0.5183785 -0.6186147 -0.6763558
000270 88 ce 00 be a6 3b 44 3f 58 0a 4e 3f 3c 92 29 bd
       -0.12578785 0.76653516 0.80484533 -0.041399226
000280 16 ac ed be 6c 89 46 3f 9b e2 2a be 0f 66 1e 3f
       -0.46420354 0.7755344 -0.16688006 0.6187448
000290 6e bf ca 3d a0 96 44 bd 77 17 01 bf 42 2a b0 3d
       0.098997936 -0.04799521 -0.5042643 0.0860181
0002a0 35 a1 0a 3f 74 5f 84 bf e6 ae 0c 3e 54 40 84 bf
       0.5415223 -1.034163 0.13738593 -1.0332131
0002b0 a0 f8 0b bf 1e 8e 39 3f 44 01 13 3f 19 97 0b 3f
       -0.54676247 0.7248248 0.57423806 0.5452743
0002c0 02 ab f7 be 25 51 7a 3f 4d df c2 3e 9a 70 e7 3e
       -0.48372656 0.97780067 0.3806099 0.45203096
0002d0 8e db 36 3f 4c 6e c9 be bb 23 0b bf 21 33 94 be
       0.71428764 -0.39341962 -0.54351395 -0.28945258
0002e0 36 5a 01 40 7b e7 67 bf 68 98 34 c0 71 11 77 c0
       2.021131 -0.90587586 -2.8218021 -3.8604395
0002f0 0e fe cb bf f9 c7 bf 40 c4 d2 ab 40 52 2a 19 40
       -1.5936906 5.9931607 5.369478 2.393208
000300 a0 c5 37 bf cd 71 31 3d db e6 f0 be 41 25 a7 bc
       -0.71785927 0.04332142 -0.4705113 -0.020403506
000310 97 09 90 bd ee 0e 70 3e c3 47 ff 3d 3b 82 07 3f
       -0.07033079 0.23443195 0.12464859 0.5293309
000320 34 6d 9a be c4 aa e8 be d6 ac f8 be 6c e2 10 c0
       -0.3016144 -0.45442784 -0.48569363 -2.2638197
000330 2a 00 6b 3e 2a a9 d2 3e 8e 9a f8 bc 8c 31 3d bf
       0.22949281 0.41144687 -0.030347135 -0.7390373
000340 c5 c0 66 3e 06 e2 22 bf e1 dc 33 3f 90 76 c6 bf
       0.22534473 -0.63626134 0.7025891 -1.5504932
000350 88 9f 7c 3f ac 1e 80 bf 86 65 7f 3f 4b 96 11 bf
       0.98680925 -1.000936 0.9976429 -0.56869954
000360 db bf 3b bf ac 00 1c 3c 49 c0 b0 bf 79 23 05 bf
       -0.73339623 0.009521645 -1.3808681 -0.5200725
000370 2a 52 c4 bf f9 87 8f 3f 8d 32 f3 be a4 0f 92 3f
       -1.5337574 1.121337 -0.47499505 1.1411023
000380 bc 54 77 bf af 2a 69 3f 82 e7 08 bf 2a c1 75 3f
       -0.9661367 0.91080755 -0.5347825 0.9599787
000390 ae dc d9 bd f9 fc 00 bf 6e 9f 13 3f 34 bf 3f 3a
       -0.106377944 -0.50386006 0.57665145 0.0007314563
0003a0 b2 a0 a7 bf b9 d2 68 3e ce 6a 42 3f 6e 20 0e be
       -1.3095915 0.22736634 0.7594422 -0.13879558
0003b0 92 db 3c 3f b6 5c d8 3e 51 f5 eb 3e af bd 1d bf
       0.7377254 0.42258233 0.460856 -0.6161756
0003c0 e9 09 0f be 0f 12 82 bb a9 c0 f9 be 78 1d 77 bf
       -0.13968624 -0.003969438 -0.487798 -0.9652934
0003d0 18 91 7b 3f c2 b9 f7 3e b0 bf 08 3f 87 57 34 bf
       0.9826827 0.4838391 0.5341749 -0.70446056
0003e0 43 fe 63 c0 f7 f2 43 40 5b 61 77 3f c2 79 a6 40
       -3.562394 3.0617044 0.9663293 5.202363
0003f0 02 4b 53 3e 66 35 d8 3d 2b a0 1c c0 af 58 24 3e
       0.20634082 0.1055706 -2.4472759 0.16049455

l_lstm.weight_hh_l1 f4 [32, 8]
000000 bb 19 cc 3f 26 27 0f bf 64 5d 74 bc 63 fd 48 3f
       1.5945352 -0.5591911 -0.014914844 0.7851164
000010 3f 96 f1 be 85 11 04 3d 9d dd b6 bf b8 79 24 c0
       -0.4718494 0.03224327 -1.4286381 -2.5699291
000020 74 52 a2 bf 82 43 2b 40 79 0a c9 3f 54 15 a0 3e
       -1.2681413 2.6759953 1.5706321 0.31266272
000030 26 6d 4b 3f 9d eb 44 c0 c1 4d 99 3f 4d b1 b4 bf
       0.7946342 -3.0768807 1.1976854 -1.4116608
000040 64 17 83 be 64 0e a1 3e 1d d1 57 bf 32 f2 a9 3f
       -0.25603783 0.31456292 -0.84303457 1.3277037
000050 ad 8f 6e 3e 1e 79 97 bf 8e c7 5c 3d fa 20 42 c0
       0.23296995 -1.1833837 0.053901248 -3.0332627
000060 6d c1 08 bf a0 98 18 bf b0 61 f4 bf f7 b5 d4 3f
       -0.53420144 -0.5960789 -1.9092312 1.6618031
000070 b5 91 b9 3c 8e c7 8d be c2 e0 53 bf 50 51 15 c0
       0.022652486 -0.2769131 -0.8276483 -2.333088
000080 23 85 12 bf c5 a6 24 3e 1d 75 00 bf 5a 0d 28 3f
       -0.572344 0.16079243 -0.501787 0.6564537
000090 e2 d9 61 bf 2f 54 56 3e a3 44 ae be a7 ea 01 c0
       -0.8822309 0.20930551 -0.3403674 -2.029947
0000a0 e0 62 8b bd a2 3c ac bf c9 9f 58 3e 9d 31 79 3f
       -0.06805968 -1.3456004 0.21154703 0.9734133
0000b0 4b 4d 40 bf c8 5a d8 3e b4 12 89 bf 0b 23 a3 bf
       -0.7511794 0.4225676 -1.0708833 -1.2745069
0000c0 90 2d ab bf 32 89 20 bf 37 39 57 bf 82 fe ae 3e
       -1.337328 -0.62709343 -0.8407168 0.3417855
0000d0 d7 77 08 3f f4 21 62 bf 98 bd c4 bf 42 31 88 bf
       0.5330786 -0.8833306 -1.537036 -1.0640032
0000e0 44 94 56 be 10 80 0c 40 ea 53 ad 3f ac 6b 3d bf
       -0.20954996 2.1953163 1.3541234 -0.7399242
0000f0 2f 69 05 3f 75 c9 bc bf 98 53 8b 3f c3 80 66 bf
       0.5211362 -1.474898 1.0884886 -0.90040225
000100 a6 49 c4 3f d1 14 75 3f be 61 d0 3f 9f 14 a1 bf
       1.5334976 0.9573489 1.6279829 -1.2584418
000110 aa 6c 4e 3f 51 13 51 bf ab 0d 8c 3e 6b d8 ff bf
       0.8063456 -0.816701 0.27354178 -1.998792
000120 07 76 d7 3e af e1 35 3e d0 fc a9 bf 5a a2 d8 be
       0.42082235 0.17761873 -1.3280277 -0.42311364
000130 8a 22 b7 bf 4e 71 86 3f d9 db dd be bb 11 11 c0
       -1.4307415 1.0503328 -0.43331793 -2.2667072
000140 19 f1 95 bf c0 43 b8 3d db 9b cb bf c4 4f 20 bf
       -1.1714202 0.08997297 -1.5906938 -0.6262171
000150 a9 f5 9c 3f 8d 85 96 bd f3 04 ee 3d d2 cf db bf
       1.226247 -0.073496915 0.11622038 -1.7172797
000160 f6 70 28 c0 1d 57 da 3f 3f 44 29 be 47 2d 79 bf
       -2.6318946 1.7057835 -0.1652994 -0.9733471
000170 80 e5 45 40 64 37 8e bf a7 d3 df 3f 10 f3 9e c0
       3.0921326 -1.1110654 1.7486466 -4.9671707
000180 97 b3 e7 be f3 b9 a9 3f d8 66 6a 3f d8 88 3a bf
       -0.45254204 1.3259872 0.9156318 -0.72865057
000190 f6 6f ac be 0b 75 62 bf a2 fb 31 3f e5 4b a6 bf
       -0.3367917 -0.88459843 0.69524586 -1.2991911
0001a0 d3 0e 88 3e 06 c9 0d bf 98 d7 8d 3f d5 d8 54 be
       0.2657381 -0.5538486 1.1081419 -0.2078584
0001b0 53 d3 92 be e2 dc c2 3f 4c 4a 88 be 2b 85 ce be
       -0.28676853 1.5223658 -0.26619184 -0.40335974
0001c0 b8 3e e3 be f5 3a 46 3f 76 c7 96 3f 26 a0 99 be
       -0.44383788 0.7743371 1.1779621 -0.30004996
0001d0 7c 12 63 3e 07 e4 69 be 7e d1 62 bf f6 dc 39 3e
       0.2217502 -0.22840892 -0.8860091 0.18150696
0001e0 64 d2 d0 3e e1 2c 94 3e 26 5a d0 3c a3 99 30 bd
       0.40785515 0.2894049 0.025433611 -0.04311527
0001f0 b4 0a ab 3b e0 03 ae be 8d b0 56 3e cd 86 ac 3d
       0.005219782 -0.3398733 0.20965786 0.08424149
000200 cb b4 21 c0 c8 2e 23 bf 8f 14 fd be e7 06 03 3f
       -2.5266597 -0.6374326 -0.49429747 0.5118241
000210 65 74 c8 3f 4c 2e f3 3f 24 5a e3 3e b2 e5 e3 3f
       1.5660521 1.8998504 0.4440471 1.7804472
000220 62 ee 72 3f 43 af 52 c0 6f 5d 84 40 1a 52 86 bf
       0.94894993 -3.2919471 4.1364055 -1.0493805
000230 df 05 c2 bf 01 a6 d8 bf c4 f8 be be 2d 52 4a 3f
       -1.5158042 -1.692566 -0.37299168 0.7903164
000240 f0 31 b4 3f 3d 56 e0 bf 7f 01 b3 bf bc 48 d0 3f
       1.407774 -1.7526318 -1.3984832 1.6272197
000250 f3 39 b2 bf f5 e3 be 3f 1c b5 c3 bf 56 ca 35 3e
       -1.3923935 1.4913317 -1.5289645 0.17752966
000260 2a 47 cc bf ab d4 b0 3f 6d c0 f4 bf 63 64 4c c0
       -1.5959218 1.3814901 -1.9121224 -3.193627
000270 a0 44 bb 3f a0 c0 22 bf 53 66 a7 3f 8b 58 17 be
       1.4630318 -0.6357517 1.3078102 -0.1477987
000280 b4 54 19 bf 2d 30 3e 3f 26 26 06 3f 47 4c 2d bb
       -0.5989487 0.7429226 0.5240196 -0.002644317
000290 f2 88 37 c0 84 da fc bf 79 c3 2f 3f a5 12 82 bf
       -2.8677335 -1.9754186 0.6865764 -1.016194
0002a0 2a e4 98 bf 38 ec 42 3f 20 89 81 bf 46 3e 76 3d
       -1.194463 0.7614169 -1.0119972 0.060117982
0002b0 86 21 a1 3f 75 4e f9 bf d1 e1 b3 3f ec f8 2f bf
       1.2588356 -1.9477068 1.4053289 -0.687392
0002c0 a3 ec ca 3e a3 a5 e8 3e 47 cd b2 3f d3 94 92 bb
       0.39633664 0.4543887 1.3968896 -0.0044733076
0002d0 61 e6 cf bf c4 da db bf f4 43 01 c0 50 47 31 3f
       -1.6242181 -1.7176137 -2.0197725 0.6924944
0002e0 a4 83 ac 40 4a 02 9a c0 10 e6 bf c0 0c 3a c6 40
       5.3910694 -4.8127794 -5.996834 6.194586
0002f0 05 db 2c c0 be 10 73 40 50 43 43 c0 f3 8b 49 41
       -2.700868 3.7978969 -3.0509834 12.596667
000300 35 bc c8 3f 1e de d7 3e 57 3f 0f 3f 05 d6 58 3f
       1.5682436 0.4216165 0.55956024 0.8470157
000310 35 ca f9 be c9 6a 8c be f1 1a 64 bf f3 db b3 bf
       -0.48787084 -0.2742522 -0.8910361 -1.4051498
000320 61 64 a1 bf 82 91 7e 3f fd 94 da 3f ae 18 3e bf
       -1.2608758 0.9944078 1.7076718 -0.7425641
000330 70 40 92 3e f0 32 14 c0 51 e3 92 3f 57 18 22 3f
       0.28564787 -2.315609 1.1475621 0.6331839
000340 b9 2f 0b bf 10 32 97 bf ec 92 6c 3f bb a5 32 3e
       -0.54369694 -1.1812153 0.92411685 0.17446034
000350 76 c2 af 3e b5 45 c6 3b f6 28 8d be 74 f4 5a bf
       0.3432805 0.00605079 -0.27570313 -0.85529256
000360 ec 3d cb 3e 75 51 97 3f 49 1e 55 3e 48 34 0a 40
       0.3969568 1.1821734 0.20812334 2.159441
000370 c1 bf b0 be 38 0a 33 bb da 4b 31 3e 78 9c 24 bf
       -0.34521297 -0.0027319323 0.17314091 -0.6430125
000380 e3 f3 f3 3e ea 98 0e 3f 2d c6 ff be 41 f5 c3 3e
       0.47647008 0.5570208 -0.49955884 0.3827305
000390 80 e7 7a bf 6a f0 ef 3e ec c0 36 bf d0 ad 28 bf
       -0.9800949 0.4686311 -0.71388125 -0.65890217
0003a0 3a 29 24 3e e8 27 0a bf 97 d8 e2 3f b3 4e 81 3f
       0.16031352 -0.5396714 1.7722348 1.0102142
0003b0 0f 34 d7 be 84 74 10 3f 51 fc 2c bf 13 b8 de bd
       -0.42031905 0.5642779 -0.67572504 -0.10874953
0003c0 e6 46 a9 bf 73 40 fc 3e 51 7a 9c be f2 44 d8 bd
       -1.3224761 0.4926792 -0.3056207 -0.10560025
0003d0 f5 70 50 3f bb 30 49 bf 1e cf 85 bf b6 f6 a3 bf
       0.8142236 -0.7858998 -1.0453832 -1.2809665
0003e0 6e 23 d6 3f 0b d3 e7 be 66 46 c6 bc 17 24 c1 3f
       1.6729562 -0.452782 -0.02420349 1.5089139
0003f0 c9 92 90 bf 7b a5 36 3f d4 c6 61 bf 2c f2 80 3f
       -1.1294795 0.71346253 -0.8819401 1.0073905

l_lstm.bias_ih_l1 f4 [32]
000000 cb 9c 39 bf c9 1c 24 bf a6 fa 98 bf 32 98 87 bf
       -0.7250487 -0.6410642 -1.1951492 -1.0593321
000010 f4 b2 17 3e 75 0e 7b be a6 99 24 bf 3a d3 02 3f
       0.14814359 -0.24517234 -0.6429695 0.51103556
000020 98 ce 77 be c5 9f 03 be a4 de 84 3f 65 7e 01 3f
       -0.24199903 -0.12853916 1.0380445 0.5058349
000030 ff 6d ee be 49 05 a4 3e 69 1e cf be 10 f5 0f bf
       -0.46568295 0.32035282 -0.4045289 -0.5623331
000040 48 72 7a be 60 32 08 3e 47 ff 9c 3e 96 d0 d7 be
       -0.24457657 0.13300467 0.3066351 -0.42151326
000050 1a 82 37 3e e6 84 8a be f4 23 39 3d df fe 2c bf
       0.17920724 -0.27054518 0.045200303 -0.675764
000060 31 ae c4 bd 22 5e 74 bf 60 35 9e 3e e9 c0 88 be
       -0.09603537 -0.95456135 0.30900097 -0.2670968
000070 3f 0d ed be f7 cf 91 bd 96 37 0b bf e6 8e 46 bf
       -0.46299168 -0.07119744 -0.5438169 -0.77561796

l_lstm.bias_hh_l1 f4 [32]
000000 28 c9 c0 be 00 f7 71 bf ee 5f 75 bf 67 60 81 bf
       -0.3765347 -0.9451752 -0.958495 -1.0107545
000010 7d a1 ba be 82 5c fe be a8 06 11 bf 08 11 11 3f
       -0.3645133 -0.49679953 -0.5665078 0.5666661
000020 23 45 f2 3d e9 8c dd be 4e 7d 4e 3f d9 49 53 3f
       0.11829593 -0.43271568 0.8065995 0.8253456
000030 1e 0e b0 be e5 0d 80 be 50 59 03 bf 81 56 22 bf
       -0.3438577 -0.250106 -0.51308155 -0.63413244
000040 1b 6a 97 be 69 ff 2c 3e 2a 05 a1 3e cb 7c da 3b
       -0.2957314 0.16894306 0.31449252 0.0066677085
000050 b5 da 9b 3e 4a d7 93 be 2f d9 cd 3e 8b fa fd be
       0.30440298 -0.2887519 0.4020476 -0.49605212
000060 11 29 5e be a5 9d e6 be 32 73 0a bd 80 c7 2b bf
       -0.21695353 -0.45042148 -0.033801265 -0.6710129
000070 aa 42 65 be 09 17 fc be 0d f5 a8 3d 3c b6 80 bf
       -0.22388712 -0.49236324 0.08249865 -1.0055614

l_linear.weight f4 [1, 8]
000000 57 5b cf be 28 04 c8 3e 24 08 c1 3e 41 77 01 bf
       -0.40499374 0.3906567 0.37701523 -0.5057259
000010 6e a0 cd 3e d8 70 c2 be 07 8b d2 3e 1c 1d 1c bf
       0.4016146 -0.37976718 0.41121694 -0.6098192
