data/datasets/tx_travis_county_neighborhood/resstock-amy2018-2021-release-1-102188.pth (torch, 8966 bytes, 9 tensors)

l_lstm.weight_ih_l0 f4 [32, 13]
000000 46 92 6e be 0d 45 31 3f 06 18 14 be b9 53 1f bd
       -0.23297986 0.6924599 -0.14462289 -0.038898204
000010 21 42 8c 3f 13 35 f5 40 bf a2 1e 40 a2 56 3b 41
       1.0957681 7.662729 2.4786832 11.708651
000020 6c 4e 99 bf 54 e9 c8 bf 0a 8c c0 be 7c e5 32 3d
       -1.1977057 -1.5696206 -0.3760684 0.043675885
000030 48 dc 79 3f 80 59 5b bf 60 e1 95 bf c2 95 a7 3e
       0.9760175 -0.8568344 -1.1709404 0.32731444
000040 07 6e 10 bf 83 2c 68 bf 89 05 20 bc ec a1 d7 c0
       -0.5641789 -0.9069292 -0.009766945 -6.738516
000050 cd 30 0a 3f e6 50 57 3f e7 87 69 3f 2f d2 f5 3e
       0.53980714 0.84107816 0.91222996 0.4801192
000060 c5 48 95 3f 8d 65 5d c0 64 5d a7 3c fe 46 d0 bc
       1.1662832 -3.4593232 0.020430274 -0.025424477
000070 f6 94 1a be ee f6 62 3d 34 e6 25 3e 40 ad 7e bd
       -0.15095887 0.05541127 0.16201097 -0.062176943
000080 21 b2 2d be 58 05 93 3e 68 55 da 3e 77 40 1d bb
       -0.16962482 0.28715014 0.42643285 -0.0023994723
000090 68 1e ec bc c1 bd 68 be 05 83 0f c0 a6 27 bd 3e
       -0.028823093 -0.22728635 -2.2423718 0.36944312
0000a0 24 94 ff be 4a 2b ce bd 23 aa a4 3d c6 9c 05 bf
       -0.4991771 -0.100668505 0.080402635 -0.5219234
0000b0 43 d0 1b bf 33 d8 3d c0 31 84 89 40 5b ec 56 3e
       -0.6086466 -2.9663208 4.2973866 0.209886
0000c0 12 49 e1 3e 70 b2 2b be 1d 3b 6a 3e 23 d4 04 c0
       0.4400106 -0.16767287 0.22874112 -2.0754478
0000d0 ad 7a f6 be 19 31 0a bf 28 2b 2f be 94 62 e2 3d
       -0.4814047 -0.5398117 -0.17106307 0.110539585
0000e0 f7 4f 39 3f 88 04 09 bf a9 8f 26 c1 7b 59 2a c0
       0.7238764 -0.5352254 -10.410073 -2.6617115
0000f0 83 e7 eb be 8d 14 67 3f 1d 2c 83 3f c4 50 98 3e
       -0.46075067 0.90265733 1.0247837 0.2974912
000100 5d a8 49 be 99 92 8d 3e e3 81 2b 3e d6 a5 f5 bd
       -0.19693132 0.27650908 0.16748767 -0.11994521
000110 17 4f 69 be 26 84 b2 be 9b c1 55 3e 68 35 7e be
       -0.22784077 -0.34866446 0.20874636 -0.2482506
000120 af 36 e0 bf 35 e7 05 be b0 cc 0c bd 6e ba 61 be
       -1.7516688 -0.1307648 -0.034374893 -0.22043774
000130 ac 6e b6 be 2d 92 07 40 62 95 4b 3e 76 3e 5c bf
       -0.3563131 2.1182969 0.19881204 -0.8603281
000140 56 06 6d be e9 af 67 3d c9 76 c7 bf 92 c5 c4 3f
       -0.23146948 0.056564245 -1.5583125 1.5372794
000150 65 9d dd 3e 38 0a 0f 41 b1 af ad 3f 1d a5 67 40
       0.43284145 8.939995 1.3569242 3.6194527
000160 ab a3 29 be 11 33 5f 3f 11 f1 bd 3e fb 08 23 bf
       -0.1656634 0.87187296 0.37097982 -0.6368558
000170 e7 58 99 bf 53 3e c3 be 95 3e 56 bd 6b 37 4a bc
       -1.1980256 -0.38133487 -0.052305777 -0.012342314
000180 53 7d 4f 3f 74 8d b9 c0 88 20 e2 3f ca 71 4a bf
       0.81050605 -5.798517 1.7666178 -0.7907988
000190 c0 8a 3e bf b6 8b d6 3f 9f b6 a1 3d 29 d0 f8 3c
       -0.74430466 1.6761386 0.0789616 0.030372696
0001a0 d6 a2 0b bf 3b b6 cc bf 52 83 27 c0 15 1b 6a 3f
       -0.5454534 -1.5993112 -2.6173902 0.91447574
0001b0 37 cc 37 40 36 ac 39 c0 0d 48 47 3f a6 4f 3e c0
       2.8718393 -2.901136 0.77844316 -2.9736114
0001c0 ae e3 6e c0 78 4d 09 c0 ed 7e 33 3e 63 a9 a1 3f
       -3.7326465 -2.1453533 0.17528887 1.2629818
0001d0 b8 aa 4d be 46 c3 b6 3e 3a 8e 97 3d 55 bb 69 bd
       -0.20084655 0.35695857 0.074001744 -0.05706342
0001e0 ee 54 a1 3d 3e ab eb 3f 5d 30 a8 be d0 9c 1c 40
       0.07877527 1.8411634 -0.32849398 2.447071
0001f0 b6 f7 68 c1 2c 11 a3 3d 63 22 99 bf ea d8 12 3e
       -14.560476 0.0796226 -1.1963619 0.14340559
000200 3c 0a 33 bf 73 00 2a bf 63 bc e5 bb 8f 90 d7 bd
       -0.6993749 -0.66406935 -0.007010983 -0.10525619
000210 5f 52 c5 3d 71 45 8b bd bc b8 89 bd 93 b4 6e 3e
       0.09634852 -0.06800354 -0.067246884 0.23311071
000220 f1 64 e4 3d ae da 88 bd 28 f4 15 bf 91 33 6b be
       0.111520655 -0.06682335 -0.5857568 -0.2296889
000230 b9 bd 88 be 32 68 eb bb fd 01 02 c0 58 ae ca 3e
       -0.26707247 -0.007184052 -2.0313714 0.3958614
000240 58 b1 80 3f b5 aa 85 be 99 79 ee 3e 13 37 50 3e
       1.0054121 -0.26106802 0.46577147 0.20333509
000250 a8 68 a3 be ae 0f aa c0 45 72 ac 3f 66 30 d0 bf
       -0.31915784 -5.314414 1.3472372 -1.626477
000260 cc 59 a7 bf 84 53 52 bf bb d4 5a 3e 94 e2 09 c0
       -1.3074279 -0.82158685 0.21370213 -2.1544542
000270 76 8a 33 3f 1e 5c 15 3f 16 1b a0 3d 31 3d 44 bf
       0.7013315 0.58343685 0.07817666 -0.7665587
000280 08 ab 85 bf f4 91 1b bf c3 75 4a bf 97 83 bc c0
       -1.044282 -0.6076958 -0.7908594 -5.891063
000290 ae 21 81 3f f4 5f 44 3d de c4 59 3f e7 3b 81 be
       1.0088403 0.04794307 0.8506602 -0.25241014
0002a0 8c a3 85 3f 8b ec c8 bd 1b 1d 67 3e c6 12 db 3c
       1.0440536 -0.09810742 0.22569697 0.02674235
0002b0 cb f5 2a 3e 1b cd c8 3e 5b 82 31 3d 4c 2a e6 3e
       0.16695325 0.39218983 0.043337207 0.44954145
0002c0 a7 4a c5 bf 24 b7 9a 3e 4e d8 a4 3d 26 b6 ec 3e
       -1.5413407 0.3021785 0.08049069 0.46232718
0002d0 c1 d9 c0 3d 2e 8e ec 3f 78 3d c1 3e 40 0b b7 3e
       0.09416533 1.848089 0.3774221 0.3575077
0002e0 f1 1b 30 3d 14 32 cd 3e cc 80 79 3f 3c 5d 41 3e
       0.042995397 0.4007727 0.97462153 0.18883222
0002f0 37 4f b9 c1 e1 b7 5d c1 7a 52 b3 be 1c 61 1f 3e
       -23.16368 -13.857392 -0.35023862 0.15564388
000300 da 70 80 3e 6a 4f bb 3e 34 c0 bf 3f f8 a7 94 3f
       0.250861 0.36584026 1.4980531 1.161376
000310 31 45 ed be 77 de 32 3f 50 8c dc bd 16 97 a1 bf
       -0.4634185 0.69870704 -0.1076895 -1.2624233
000320 3b 7f d9 3f b3 b8 f9 c0 19 e7 c1 40 9e 31 c9 be
       1.6991953 -7.8037963 6.05946 -0.39295667
000330 c5 75 f3 3f 71 92 2c 3f b0 bd 9e 3d 17 75 0f bd
       1.9020315 0.6741095 0.07751024 -0.035023775
000340 84 f3 b9 bd 6e d0 2a 3d 0d 98 cd 3d fc 8a ab bc
       -0.0907965 0.04170268 0.10038767 -0.020940296
000350 06 91 ac 3e 30 a0 ec 3e e2 48 9e be fc 04 20 c0
       0.33704394 0.46215963 -0.3091498 -2.5003042
000360 57 2f 78 bf 27 73 4d 3e 69 85 10 bf 98 ef 0b 3d
       -0.96947235 0.20063458 -0.5645357 0.03416404
000370 05 43 d3 bf a4 c5 f5 be 3c 20 d8 be 78 4b 6e 3c
       -1.6504828 -0.4800235 -0.42212093 0.01454436
000380 d7 89 92 3e fa d2 83 3d 35 1e 9f be 17 1a 02 40
       0.28620788 0.06436725 -0.31077734 2.0328424
000390 68 c3 48 3e 6e 56 a2 be 64 ac c5 bd 59 1a ab bf
       0.19605792 -0.31706566 -0.096520215 -1.3367416
0003a0 d2 45 8c 3e 1d 07 d4 3f e5 19 89 3d 7a 96 06 3f
       0.2739702 1.6564671 0.06694392 0.5257336
0003b0 cf 92 52 bf ea ab 47 bd 6e bf aa 3f fa 62 56 3f
       -0.8225526 -0.048747934 1.333967 0.83744776
0003c0 ca d4 a5 3f d1 b6 e8 bf 28 bf f1 3f b6 58 12 be
       1.2955563 -1.8180791 1.8886461 -0.14291653
0003d0 5d 25 ac 3d 76 ea 38 3f d1 45 b6 bf 92 4a 7b 3e
       0.08405564 0.7223276 -1.4240056 0.24540165
0003e0 69 a4 a8 3e dc 68 87 bb ac 55 a2 3e ca bb e4 be
       0.32937935 -0.0041323733 0.31705987 -0.44674522
0003f0 cb 4d e3 bd ac 05 fd 3f a8 b2 39 c1 f2 c6 14 3c
       -0.11098822 1.9767356 -11.606117 0.009080635

l_lstm.weight_hh_l0 f4 [32, 8]
000000 33 89 b9 3d 9b b5 91 3c 9e a5 83 bf 87 96 94 3f
       0.09059372 0.017786792 -1.0284917 1.1608437
000010 07 d1 62 40 df f6 0c bf 8b 92 06 3f 29 fe fc be
       3.544008 -0.55064195 0.52567357 -0.4941266
000020 fd 3c 9f c0 26 5f 1a 40 a5 60 05 bd 19 07 28 40
       -4.976195 2.4120574 -0.03256287 2.6254332
000030 38 dd 34 c1 f3 dd 2f 40 39 44 07 c1 6c 16 bd bf
       -11.3040085 2.7479217 -8.454156 -1.4772468
000040 d1 77 fa 3e a4 5b 44 3f fe ec 77 3f cf 6f 58 bf
       0.48919538 0.7670233 0.96845996 -0.84545606
000050 c2 21 8b bd 4d 7c 15 bd c9 c4 3a 3f c2 db 16 3f
       -0.06793548 -0.036495496 0.7295652 0.58929074
000060 f0 03 72 c0 f7 5f 69 3f 2c db 49 be b0 45 2d 3f
       -3.7814903 0.91162056 -0.19712514 0.6768446
000070 3e 29 44 3e c2 b7 e5 bc a6 7d 66 3f 8b 6d 4b bf
       0.19156358 -0.028041724 0.90035474 -0.79464024
000080 4d 69 87 be 50 ef 2d be 62 1d 68 bf 84 bb d2 3f
       -0.26447526 -0.16985822 -0.90669835 1.6463475
000090 84 3c 88 3d bb a0 b7 3f d7 4c 49 bf 18 3b e7 bd
       0.066521674 1.4345926 -0.78632873 -0.11290568
0000a0 2c 2b 2a 3e 48 8b 72 bf 23 59 6d bf 5a 19 2f 3f
       0.16618031 -0.94743776 -0.92714137 0.6839806
0000b0 22 2c 0e 3e 30 50 36 bf 17 df 20 be 22 27 5b be
       0.13884023 -0.71216106 -0.15710102 -0.21401647
0000c0 90 eb 27 40 42 b9 7c c0 a9 5b 42 3f 56 4e 9e bf
       2.6237526 -3.9488072 0.7592111 -1.2367656
0000d0 cb 7a fe 3f 00 86 97 3f fa e0 99 3f c6 74 16 3f
       1.9881223 1.1837769 1.2021782 0.5877193
0000e0 60 9a 2a 3e d7 20 fb 3f b9 2d cb bf 33 79 8f 40
       0.16660452 1.9619397 -1.5873328 4.483545
0000f0 14 37 0c 40 e9 d4 21 40 ca a2 bb 3e 88 0a 96 c0
       2.1908617 2.52862 0.36647636 -4.6887856
000100 54 44 06 c0 69 2b 5d 40 14 eb 0a 3e 67 c9 8a 3f
       -2.0979204 3.4557745 0.13566238 1.0842713
000110 6d 72 be 3f 22 7f 0f be 1f 00 25 bf 58 1e 19 bf
       1.487867 -0.14013341 -0.6445331 -0.59811926
000120 ed 98 17 bf 3c bf cd 3f 10 9d c6 3f 65 17 4f c0
       -0.5921772 1.6073985 1.5516682 -3.235803
000130 7a 9d a4 3f 84 9c 9f bf dd a9 89 be f2 7b 54 3f
       1.2860558 -1.246964 -0.26887408 0.83001626
000140 59 c1 e3 3e 6f 0b 13 3f 6f 1e 50 3f 18 cb 58 be
       0.4448345 0.5743932 0.8129644 -0.21171224
000150 f8 11 67 bf 08 13 98 bd fa a5 7a 3f a0 a6 dd 3e
       -0.90261793 -0.07425505 0.9790951 0.43291187
000160 7d 5e 9f bf 13 95 56 3f cf ef 6e 3c 71 3f db bd
       -1.245071 0.8382122 0.014583542 -0.1070546
000170 c1 e8 00 c0 3a 54 9b 3d 06 01 13 bb 05 11 96 bf
       -2.0142062 0.07584424 -0.002243103 -1.1723944
000180 88 ff 07 c0 a2 15 70 3f 18 62 18 c0 c4 1e 1d 3f
       -2.1249714 0.9378301 -2.3809872 0.6137507
000190 31 61 f6 3d 68 7a de be 21 e1 c0 bd 17 ff 0b 3d
       0.120302565 -0.43452764 -0.0941794 0.03417882
0001a0 c9 bf 6c 3e 9e 7a c5 bf 21 60 86 bf 08 3f 5f 3f
       0.23120035 -1.5428045 -1.0498086 0.87205553
0001b0 f5 f0 c2 3e 75 53 24 be e2 86 2a bf 7c 6b ac be
       0.3807446 -0.16047461 -0.66612065 -0.33675754
0001c0 2d a5 1f 40 0c 23 78 bf 9a 85 06 c0 d5 b2 4e bf
       2.4944565 -0.9692848 -2.1019044 -0.80741626
0001d0 be 74 12 3f 2d ca d1 be ed 4a 90 3e 75 12 6e 3e
       0.57209384 -0.4097456 0.28182164 0.23249228
0001e0 06 ab bd bd 18 37 9c 40 ca fd e4 bf 8c 0d 50 c0
       -0.09261136 4.8817253 -1.788995 -3.2508268
0001f0 22 7a 5a 3f 40 72 1f bf 1c 89 13 3f b9 a5 c0 bf
       0.8534261 -0.62283707 0.5763109 -1.5050575
000200 27 2d fe bf 73 35 71 3f 35 c3 fb 3e bf 5d 2e bf
       -1.9857529 0.9422218 0.4917237 -0.68111795
000210 3f 07 78 bf 98 56 69 be 12 55 58 3f e1 13 05 bd
       -0.96886057 -0.22786939 0.84504807 -0.03248966
000220 6b af d6 3f 24 46 86 bf 1e 4e 56 bf 80 8e 93 be
       1.6772283 -1.0490155 -0.8371295 -0.28819656
000230 25 0c a0 40 5b 02 39 3f 1d f8 c5 40 99 eb 3c 40
       5.0014825 0.7226922 6.1865373 2.9518797
000240 75 fc e4 be 26 48 04 c0 9f 17 8f 3f 48 12 cb bd
       -0.4472386 -2.0669036 1.1179084 -0.09915596
000250 a5 e1 10 bf 79 a3 ac 3f 86 a8 01 3f 6b e8 85 3f
       -0.56594306 1.3487388 0.5064777 1.0461553
000260 f8 e0 dd 3f 79 22 0f 3a 48 2c 29 bf 28 a5 61 3f
       1.733428 0.0005460154 -0.6608319 0.88142633
000270 f9 30 68 3f 4e 04 00 bf e5 7e 74 bf 06 d6 9f 3b
       0.90699726 -0.5000657 -0.95506126 0.0048778085
000280 e5 df f0 be c7 ee 31 3f e6 dd 68 3f d6 29 0b be
       -0.47045818 0.6950497 0.9096359 -0.13590178
000290 19 8f 37 bf ee 7a 27 3f aa 7d 0a 3f e1 b2 f5 3e
       -0.71702725 0.6542195 0.54098 0.47988036
0002a0 fb a0 c6 3e 9c 9e d9 3d 3a e2 29 bf 00 57 ac 3e
       0.38794693 0.106259555 -0.6636082 0.33660126
0002b0 c7 65 1e 3f e5 47 d3 3d c4 9e a8 be d8 87 9f bf
       0.6187405 0.10316447 -0.3293363 -1.2463331
0002c0 86 2c 9a be 85 3d 9e bf b0 b9 3b bf a1 5d a3 3e
       -0.30112094 -1.2362524 -0.7333021 0.3190737
0002d0 7f c3 83 be 41 6c 26 3f fb 5c b9 bf 51 16 7a bf
       -0.2573509 0.6500893 -1.44815 -0.976903
0002e0 21 d9 91 40 09 06 96 c0 ba ff 91 3e fe 2a f9 be
       4.557755 -4.6882367 0.28515416 -0.48665613
0002f0 e3 dd fd bf 44 ff 1d be 2f 6b f9 3e 62 b4 30 bf
       -1.983334 -0.15429407 0.48714587 -0.6902524
000300 f3 eb d7 3f 3d d9 c2 3f fe 9c 25 3e 14 67 4d 3f
       1.6868881 1.5222546 0.16173169 0.8023541
000310 68 59 cd 3f af 46 9c 3e 90 80 41 3e 46 62 b4 be
       1.604291 0.30522677 0.18896699 -0.35231227
000320 37 bb aa 3f 7a 48 b5 3e dd d6 68 3f 77 b8 5c be
       1.3338383 0.35406858 0.90952855 -0.21554743
000330 d6 2b 35 3f e7 9e f7 be 4d 3f 37 be c8 7d 2e 40
       0.70770013 -0.4836342 -0.17895241 2.726427
000340 bf f1 a2 3e 0e 22 c1 3e 16 74 07 3f 8c 21 12 bf
       0.31825063 0.37721294 0.5291151 -0.5708244
000350 62 21 c5 be cb 52 80 bd 75 7c 3f 3f 57 dd a5 3e
       -0.38502032 -0.062657915 0.7479928 0.3239543
000360 e4 ab a4 3f d6 24 9f 3e 2c c5 c2 3d e4 27 4c be
       1.2864957 0.3108279 0.09510264 -0.19937092
000370 e8 5b 24 40 09 5b 20 3f 58 b0 09 40 98 0e 30 3d
       2.5681095 0.6263891 2.1513882 0.042982668
000380 63 75 08 3f 7a 02 ba 3f ca 87 c9 3e 81 89 74 3f
       0.5330412 1.4532006 0.3936141 0.95522314
000390 af 4f 58 3f 3d ac 12 be 18 b5 ef bf 2e 8c aa bf
       0.8449659 -0.14323516 -1.872714 -1.332403
0003a0 f7 f8 ea 3e 99 ce 37 3f af 00 66 bf 9e 58 24 3d
       0.4589307 0.7179962 -0.89844793 0.040123574
0003b0 c2 96 4c bf 60 4d 36 bf 00 97 07 3e 2e 0a fd be
       -0.7991754 -0.71211815 0.13241196 -0.4942183
0003c0 d9 a7 b0 3f be 9f 44 3f 4c 40 33 3f 07 6a 81 bf
       1.3801223 0.7680625 0.70019984 -1.0110482
0003d0 d9 36 8a 40 eb 7e 5f 3f df 8d 2c 40 41 ca 38 3f
       4.3191953 0.87303036 2.6961591 0.72183615
0003e0 8a 04 6e bf da f9 85 3f eb 57 bb bf 77 5e 5c bf
       -0.92975676 1.0466874 -1.4636205 -0.8608164
0003f0 94 3c 20 c0 66 09 b2 3f 8e f5 90 bf 00 ab 8c bf
       -2.5036974 1.3909118 -1.1324937 -1.0989685

l_lstm.bias_ih_l0 f4 [32]
000000 2a bc fb be 0f 76 37 3f 25 a2 66 3e 8c e0 d6 3e
       -0.49166995 0.7166452 0.2252279 0.4196819
000010 96 12 14 3f e5 c0 5e bf 48 03 20 be e8 69 9e be
       0.5784086 -0.87013084 -0.15626252 -0.30940175
000020 40 76 da be 74 17 a9 3e 64 93 3b 3f 8f 81 0b 3f
       -0.42668343 0.33025706 0.73271775 0.54494566
000030 5a 98 8d bf 01 13 63 be 12 93 0e bf b0 8a 68 bf
       -1.1062119 -0.22175218 -0.5569316 -0.9083662
000040 c3 00 e5 3c 72 aa d3 be e5 b6 56 3f 5c 3d 3c bf
       0.027954465 -0.41340977 0.83872825 -0.73531127
000050 c6 c3 42 3e 35 f0 07 3c 16 ab 01 3e a1 cf 6b 3f
       0.19019994 0.008297016 0.1266292 0.9211369
000060 fe 49 14 bf 8b ec c9 bd 5d 5a 0b 3f 01 e9 03 be
       -0.57925403 -0.0985957 0.5443476 -0.12881853
000070 08 42 0d 3f 99 bc bf be 68 b1 89 be f3 da 3c bf
       0.5517888 -0.37448576 -0.26893163 -0.7377159

l_lstm.bias_hh_l0 f4 [32]
000000 38 73 f5 be 9b c3 40 3f 59 c0 a7 3e f3 9a 6e be
       -0.47939467 0.7529847 0.32763937 -0.23301296
000010 67 b2 da 3e b4 72 4b bf 69 08 cf 3c fc 7c a3 be
       0.42714235 -0.794719 0.025272565 -0.31931293
000020 d1 88 48 bf 1c 36 31 3f 1f 07 bc 3e c1 53 02 3f
       -0.78333765 0.6922319 0.36724183 0.5090905
000030 28 7d 26 bf 14 2a 55 be 35 59 43 bf 69 6d 31 bf
       -0.65034723 -0.20816833 -0.76307994 -0.6930757
000040 1d f7 dc 3e 79 3a 27 3e 17 14 89 3f a2 69 6b bf
       0.43157282 0.163309 1.0709256 -0.9195806
000050 54 10 44 3e f6 d3 91 bc eb 73 fd be 06 ab 55 3f
       0.19146854 -0.017801266 -0.495025 0.83464086
000060 9f 2c 4f bf 15 43 04 bf af c1 63 bd 5f 30 b6 be
       -0.8092746 -0.5166486 -0.055604633 -0.3558378
000070 8b 03 be 3e 4f 6f 81 be 8c 6b 9c be 27 1d a4 be
       0.37112078 -0.25280234 -0.30550802 -0.3205349

l_lstm.weight_ih_l1 f4 [32, 8]
000000 40 c3 3a c0 11 e9 11 bf f6 ae 47 bf ce 3e 98 be
       -2.918167 -0.56996256 -0.78001344 -0.29735416
000010 42 ff 2e 3e b3 81 94 be 66 bf c2 3e d5 fd 0e 3f
       0.1708956 -0.29005203 0.3803665 0.55856067
000020 14 a2 bb bf 68 9d 05 be 6a 93 2b bf 63 b3 ba bf
       -1.4658837 -0.13048327 -0.6702181 -1.4585994
000030 9a 2f 47 3f e1 30 8b bf 7e 09 6e bf 4d 73 0c 3f
       0.7780701 -1.0874292 -0.92983234 0.54863435
000040 75 56 c1 bf 06 08 82 be 7e d9 81 bf 67 ca 34 be
       -1.510451 -0.25396746 -1.0144498 -0.17655335
000050 23 02 b9 bc fc c9 e2 be 58 d2 ff 3e 8f 44 10 3f
       -0.022584027 -0.44294727 0.49965167 0.5635461
000060 f5 0b 25 bf 75 b2 bd bf 2a b3 35 3e d5 cd ec bf
       -0.6447137 -1.4820086 0.17744127 -1.8500315
000070 45 e2 52 3f 17 c7 a8 be 2e da c3 bf e5 6c c8 3f
       0.8237651 -0.32964393 -1.5300958 1.5658232
000080 d9 d9 36 be d4 e1 76 bf 13 f9 2c 3e 2d 38 a2 bf
       -0.1785654 -0.96438336 0.1689189 -1.2673393
000090 13 a4 09 bf bd 8b 35 bf 96 34 9e bf d6 a6 37 3f
       -0.5376598 -0.7091635 -1.2359798 0.71738946
0000a0 3f a5 a8 bf f7 41 f5 3e a5 22 52 be e4 ac 40 bd
       -1.3175429 0.4790189 -0.20521028 -0.04703988
0000b0 b9 fe 7d 3f a8 7e bf be 4d 47 33 bf 0e 21 78 bd
       0.992168 -0.3740132 -0.7003067 -0.0605784
0000c0 c7 cb a6 3e 9c 4a d1 3d 02 b6 5e be ff b8 97 3d
       0.32577345 0.10219309 -0.21749118 0.07408332
0000d0 eb cb 07 3e 38 1f 04 3f a5 dc 89 3f 98 60 01 bf
       0.13261382 0.51610136 1.077046 -0.50538015
0000e0 31 70 0a c0 1f 2d b5 bf 8b 92 4a bf 44 1e 02 3f
       -2.1630976 -1.4154395 -0.79129857 0.5082743
0000f0 a9 52 52 3f 9b f1 8d be 00 ac 8e bf 62 f9 eb 3e
       0.8215738 -0.27723393 -1.114624 0.460887
000100 a8 44 85 be 68 cb 9f bf e6 9b 97 3d de 51 0d 3f
       -0.26028943 -1.248395 0.07402782 0.55203044
000110 19 5d a3 bf 0e 20 c3 3e a7 24 fe 3e c0 37 c2 be
       -1.2762786 0.38110393 0.4963734 -0.3793316
000120 c0 45 d3 bf 98 c4 cb bf 21 44 4e 3f 9b 15 af bf
       -1.6505661 -1.5919371 0.80572706 -1.3678468
000130 fc a0 53 bd 94 29 c7 3f 46 e6 ba 3f 0a 18 a3 3f
       -0.0516672 1.5559564 1.4601524 1.2741711
000140 32 97 99 3f 3f af 22 40 6c e0 b1 be cf c1 c2 3f
       1.1999266 2.5419462 -0.34741533 1.5215396
000150 c4 0f c3 bf 6f ee 4e 3e 54 33 af 3e 0d fb 64 bf
       -1.5239186 0.20208143 0.34218848 -0.89445573
000160 04 52 47 40 de 6e 3e 3e af 82 ae 3f 64 77 c0 3e
       3.1143808 0.1859698 1.3633631 0.37591088
000170 98 10 df 3e 63 f6 50 bf 10 79 71 be 9a 0f e0 be
       0.43567348 -0.81625956 -0.23581338 -0.43761903
000180 a1 76 15 40 e2 d9 a8 bf fa a9 88 3f 34 d3 d3 3f
       2.3353655 -1.3191493 1.0676873 1.6548829
000190 5e 89 a7 bd c5 9a 61 bf 86 50 fc be 15 13 18 c0
       -0.081804976 -0.88126785 -0.49280185 -2.3761647
0001a0 e7 70 f1 3f 6f 9f 7d 40 2d de 1b c0 36 af bd 3f
       1.886258 3.962856 -2.4354355 1.4819095
0001b0 3a c0 a6 bf 41 f8 aa 3e f6 02 ca 3f 44 c5 70 be
       -1.3027413 0.33392528 1.5782154 -0.23512751
0001c0 35 ef ce bc fb b6 28 c0 bc d0 e7 3f a6 b2 8a 3f
       -0.025260547 -2.6361682 1.8110576 1.0835769
0001d0 2e b1 b6 bf 9b 41 c0 be b2 8e 4b bf a1 29 07 c0
       -1.4272821 -0.37550053 -0.7951461 -2.1119158
0001e0 c7 6a 99 bf e7 be 3a bc ca d5 aa be 01 40 fb 3e
       -1.1985711 -0.011398054 -0.33366233 0.4907227
0001f0 2f 26 c1 bf ee bb 30 3f 22 e4 65 3f a2 cf 31 3e
       -1.5089778 0.6903676 0.8980123 0.17364362
000200 06 fb 41 3f 4f 6c 20 bf a3 cf 26 3f 1f 64 56 3f
       0.75773656 -0.62665266 0.6516058 0.8374652
000210 6c a6 e2 3e 00 fb 4a be 54 03 ac bf b1 22 86 bf
       0.44267595 -0.19822311 -1.3438516 -1.0479337
000220 c6 e5 ea be bd 3b 66 3f 47 b0 85 bf 6f 5d 7e be
       -0.45878428 0.89934903 -1.044442 -0.2484033
000230 a2 4d 4c bf 35 cd 1d 3f b9 04 8e 3f 14 b5 34 3f
       -0.7980596 0.61641246 1.1095191 0.70588803
000240 82 dc 25 3e 91 ed 6b bf 45 26 8a 3f ee e9 71 3f
       0.16197398 -0.9215937 1.0792929 0.94497573
000250 5a 8c cf 3e c7 31 8f be b5 f5 5a bf 37 ae 49 bf
       0.40536767 -0.27967665 -0.8553117 -0.78781456
000260 b6 c5 44 3e 5a d3 72 bf 52 d2 21 3f 23 de 39 3f
       0.19216046 -0.94853747 0.6321155 0.7260458
000270 1e 49 5f 3f 0a df 5f bf 7f 75 93 bf fc 15 e5 be
       0.8722094 -0.87449706 -1.1520232 -0.44743335
000280 22 f4 85 bc 38 07 92 bf 7e d6 cb 3e 45 17 96 3f
       -0.016351763 -1.1408453 0.39812082 1.1725851
000290 27 7c c6 3e b7 20 f3 be 56 00 43 bf ec 42 51 bd
       0.38766596 -0.47485897 -0.7617239 -0.051089212
0002a0 a6 f3 9a bd 53 0f 5c 3f db 82 70 bf f4 f3 b8 bf
       -0.075660035 0.8596088 -0.9394967 -1.4449449
0002b0 a2 37 6c 3e 1b 3a 27 3f ec 9e e1 3e 7a 78 04 3f
       0.23068097 0.65323037 0.4406656 0.5174633
0002c0 75 69 20 3d b2 46 45 be d5 e7 2b 3f 00 51 6b 3f
       0.03916307 -0.1926525 0.6715062 0.9192047
0002d0 e6 e6 f8 be a1 a3 9a 3d 4d 5e 19 bf 14 c1 50 bf
       -0.48613662 0.07550741 -0.59909517 -0.81544614
0002e0 ce 93 96 3e 73 83 6b bf 2d 12 54 3f 5e f5 02 3f
       0.2940964 -0.9199745 0.82840234 0.5115565
0002f0 fe 49 05 3f 1c f0 65 be 82 3a 94 bf d9 55 02 bf
       0.5206603 -0.22454876 -1.1580355 -0.50912243
000300 58 73 8f be 96 db 2d bf a5 36 4b bf cf 10 e9 3f
       -0.28017688 -0.67913187 -0.79380256 1.8208255
000310 d0 4d 08 bf 19 57 85 be 28 be a3 3e 12 39 17 bf
       -0.5324373 -0.26043013 0.31981015 -0.5907146
000320 a8 f1 5b bf ea 92 57 bf 12 64 5d bd 9e 32 f1 be
       -0.85915613 -0.8420855 -0.054050513 -0.4710893
000330 bb 23 79 bf a0 64 65 3d e2 f0 46 be c4 4f c0 3e
       -0.97320145 0.056004167 -0.19427827 0.37560856
000340 68 3a 27 bf 72 56 2f be c1 aa d7 be e9 23 73 3e
       -0.65323496 -0.1712282 -0.42122462 0.23744167
000350 be 94 d8 be 8a 13 73 3d 1b d1 ee 3e 79 1f b7 3e
       -0.4230098 0.059344806 0.4664391 0.357662
000360 0e 9b 27 bd 84 67 3d bf 30 91 2a 3f 63 e0 b1 be
       -0.040919356 -0.7398608 0.6662779 -0.34741506
000370 54 69 8b 3f 24 7b 8a 3e f2 19 bb bf 48 84 cb 3f
       1.0891519 0.27047074 -1.4617293 1.5899744
000380 ee d0 2a 3f 64 03 5f 3f 89 a4 7c 3f 9d 67 87 3f
       0.6672505 0.8711455 0.9868856 1.0578495
000390 e6 e1 50 3f fc 3a 98 3d fd 97 2f bf ca 93 ea 3e
       0.81594694 0.074331254 -0.6859129 0.4581588
0003a0 77 96 84 3e 30 db 8b bf fd b1 16 3f 61 0a a0 be
       0.25896046 -1.0926266 0.5886534 -0.31257918
0003b0 f7 2a 02 bd 87 04 af 3e 3d 5d 70 be ea e7 4d 3f
       -0.031779256 0.34183142 -0.23473068 0.80432
0003c0 c0 c6 85 3f 51 35 b9 bf fe 0c 25 3c 32 a8 34 40
       1.0451279 -1.4469396 0.010073898 2.8227658
0003d0 02 e2 a1 be 5c 44 93 3e b0 48 b8 3f b2 fb 85 bf
       -0.31617743 0.28763092 1.4397182 -1.0467436
0003e0 1c b5 ba 3e d0 7b 3a be 0e 5e 35 3f de 7f 38 3f
       0.364663 -0.18211293 0.7084664 0.7207011
0003f0 7b a5 df bd 84 24 f2 3e 91 21 fa bc 4d 47 5f be
       -0.10920235 0.47293484 -0.030533584 -0.21804543

l_lstm.weight_hh_l1 f4 [32, 8]
000000 c3 1d eb 3f d9 d2 aa be 64 62 d5 3e 4b 3c 32 3f
       1.8368458 -0.3336399 0.4167663 0.6962325
000010 ff d9 1d 3f 72 73 91 be 01 19 b1 3d 8f ab 37 3f
       0.6166076 -0.2840839 0.08647347 0.7174615
000020 8f 59 07 bf 7f 0a c3 3e cc 23 76 bf 29 4e 78 bd
       -0.5287103 0.38093945 -0.9614837 -0.060621414
000030 ba 55 31 bc b6 07 38 3f 81 e3 a3 bf 62 13 a5 bc
       -0.010823661 0.71886766 -1.2803804 -0.020150844
000040 da 38 02 3f e7 a3 0f 3f a3 cc b5 3f 5f 69 d7 3e
       0.50868 0.5610947 1.4203075 0.4207258
000050 46 d2 e4 3e 75 91 1f bf da 7a a3 be 45 de fa 3d
       0.44691676 -0.62331325 -0.31929666 0.12249426
000060 74 40 e2 bf f5 25 a6 3f 4a e1 89 bf 61 a9 45 3e
       -1.767592 1.2980334 -1.0771878 0.19302894
000070 69 3e cd bf d6 a0 e2 3f 26 a7 f4 bf a4 0f 1c c0
       -1.6034671 1.7705333 -1.911351 -2.4384546
000080 57 06 a1 bf c3 bd af 3f 84 38 81 bf bd 8f 64 bf
       -1.258006 1.3729786 -1.0095372 -0.8928183
000090 11 a0 00 bf 80 ce 83 3f 3c 82 0e c0 b9 96 2f c0
       -0.5024424 1.0297394 -2.2266989 -2.7435744
0000a0 27 a6 42 3d d4 15 8e 3f 06 57 68 be 98 01 1f be
       0.047521736 1.1100411 -0.22689447 -0.15527952
0000b0 82 6c d0 3c f2 32 d8 bf 08 1a b8 be f0 ef 16 3e
       0.025442366 -1.6890547 -0.3595736 0.14739966
0000c0 29 4f 63 3f 9c 4c 89 3f 1a 99 ca 3e b6 fb 93 be
       0.88792664 1.0726504 0.39569932 -0.28902978
0000d0 81 f7 e6 bc c1 e3 14 3e e3 cf 02 40 22 50 2f bf
       -0.028194191 0.14540006 2.0439384 -0.6848165
0000e0 4a 1f bd 3d 20 49 3c 3f 34 c1 18 be df e1 01 3f
       0.092344835 0.7354908 -0.14917451 0.50735277
0000f0 70 78 48 3e 82 79 84 3e c8 1a 7b 39 cc a5 92 3f
       0.19577193 0.25873953 0.00023947202 1.1456847
000100 30 9f da 3f 61 c4 f1 be 89 60 07 3f f9 d5 83 3f
       1.707983 -0.47220138 0.52881676 1.0299674
000110 2d 39 00 3f 3d a9 c7 bd 6b 64 06 3e a9 16 04 3f
       0.50087243 -0.097490765 0.13124244 0.51597077
000120 e2 b8 9d be 8a 3e 9b be e8 43 29 be 30 b0 36 3f
       -0.30805117 -0.3032115 -0.1652981 0.7136259
000130 1d f8 5d 3f 99 51 25 be 0c 42 aa 3d a2 94 15 3e
       0.86706716 -0.16144408 0.08313379 0.1460748
000140 57 f7 bf 3e 13 20 38 3f 71 09 f4 3f 25 7c c4 3e
       0.37493393 0.7192394 1.9065381 0.38375965
000150 1d 47 e3 3d 43 d2 3b be 8f e0 95 3e b8 d5 5c be
       0.11097548 -0.18341927 0.29272887 -0.21565902
000160 52 9e 9d be 2b a1 8f bf 44 c5 82 3e c7 80 75 3f
       -0.3078485 -1.122106 0.25541127 0.95899624
000170 57 8e 9e 3e bd 98 10 bf 53 57 24 3f c6 e9 38 3f
       0.30967972 -0.5648306 0.64195746 0.7223171
000180 66 ee 01 bf 3c 92 a0 bf 75 75 1d bf 34 2a 14 3f
       -0.5075439 -1.2544627 -0.6150735 0.57876897
000190 7c fa 55 3f 79 ea 5b be 81 83 bb 3d 67 df aa 3f
       0.83585334 -0.21476163 0.09155942 1.3349427
0001a0 af 99 dc be 96 0e 12 40 7f 9c bf be 4e 02 5c bf
       -0.43086 2.2821403 -0.37424085 -0.85941017
0001b0 2c 6b 4a bf 80 54 c5 bf d1 c1 bf be a3 a7 99 be
       -0.7906978 -1.5416412 -0.37452558 -0.3001071
0001c0 fa 34 07 40 92 bd 9c bf ee a2 8d 3f 2d 16 de 3f
       2.1126084 -1.2245352 1.1065347 1.7350518
0001d0 6c 1e d0 3f 7a 94 aa bf b5 39 29 40 1d 22 c6 3f
       1.6259284 -1.3326561 2.6441472 1.547916
0001e0 17 09 96 bd 48 e4 94 3e d4 f5 4a 3e 59 a3 78 3f
       -0.073259525 0.29080415 0.19820338 0.9712425
0001f0 6b 4d 70 3f e8 63 bf 3e b9 cf 04 3f 7c 5d d1 3f
       0.9386813 0.3738091 0.5187946 1.6356654
000200 41 a2 09 c0 27 66 c0 bf 00 2b a2 be 41 60 05 bf
       -2.1505282 -1.5031174 -0.3167343 -0.52099997
000210 75 5a 41 3d 7a 6b 29 3f d6 77 d7 be 30 10 4d be
       0.047205407 0.6617962 -0.42083615 -0.20025706
000220 bf 1d b0 3f e1 d8 a4 bf a6 7a ac 3f 5b 27 bb 3f
       1.3759078 -1.2878686 1.3474929 1.4621385
000230 52 08 b9 3f 9d a5 be bf a7 dd b1 3f fa 6d a4 3f
       1.4455664 -1.4894291 1.3895768 1.2846062
000240 f9 54 be 3c f3 dd f5 bf c7 90 f8 bf ca b9 51 3d
       0.023233877 -1.9208359 -1.9419183 0.051202573
000250 a4 69 d7 be 68 e9 10 3f 01 16 95 bf 77 d9 8f 3e
       -0.42072785 0.5660615 -1.164734 0.280956
000260 0d 4e 61 bf 31 19 95 bf 90 a8 4e bf 5f b0 36 c0
       -0.8800972 -1.1648313 -0.80725956 -2.8545148
000270 c2 39 87 bf 93 ea 56 3f cb 12 94 bf 52 4f 7e bf
       -1.0564501 0.8395168 -1.1568235 -0.99339783
000280 00 84 4d bf cf 5f 20 c0 ec 63 a7 3e d0 db 4e 3e
       -0.8027954 -2.5058477 0.32693422 0.2020104
000290 13 38 5b c0 f4 2f fc bb 7f 04 94 bf e9 44 be be
       -3.4252975 -0.007696146 -1.1563872 -0.3716195
0002a0 1c 84 b8 bd a1 d3 2f 40 c2 ae 2c bf f1 d1 c4 3d
       -0.09009573 2.7472918 -0.6745416 0.09610356
0002b0 66 05 84 3e 5b 84 37 c0 9c 85 1e 3f 3e 46 82 bd
       0.2578537 -2.8674533 0.6192262 -0.06361054
0002c0 80 20 96 3d 2f 3b 53 c0 af b4 3e 3f 74 2e aa 3f
       0.07330418 -3.3004873 0.7449445 1.3295426
0002d0 7c 30 82 3f fb d9 cc be d8 09 83 c0 c9 57 82 3f
       1.0171046 -0.40010056 -4.0949516 1.018304
0002e0 75 7b d4 bd 27 4a c1 bf b6 31 36 bf d6 db d1 bd
       -0.1037511 -1.5100754 -0.711696 -0.102470085
0002f0 06 61 20 bf 7b 6a 81 3e 19 09 57 bf 07 9d 31 c0
       -0.62648046 0.2527655 -0.83998257 -2.7752092
000300 c1 c7 15 40 b5 7f 78 3e f5 91 39 3e 53 98 e8 3e
       2.340317 0.24267466 0.18122084 0.45428714
000310 10 d3 e5 3d 42 8f d6 be 78 a8 93 3e 56 b0 70 3d
       0.112218976 -0.41906172 0.2883947 0.058761917
000320 ad de 2f bf e7 cd e9 3e e9 4a e2 be f8 55 23 3f
       -0.6869915 0.45664904 -0.44197777 0.6380305
000330 f9 c4 2e 3d 9a b8 78 be 40 4f ad bf 15 ff 8f be
       0.042668317 -0.2428917 -1.353981 -0.281243
000340 0c 38 55 3e 37 df f1 3d 11 3c f5 3f 45 a0 9f 3e
       0.20822161 0.11810153 1.9158956 0.31176963
000350 77 32 d7 3e a7 9e 5d be b3 2f a3 bd 4c ad a4 3d
       0.4203069 -0.21642552 -0.07968082 0.08040866
000360 f9 42 d6 bf 76 2a 96 3f 77 72 a0 bf 95 3c ca 3e
       -1.6739188 1.1731708 -1.2534932 0.39499345
000370 64 63 fe bf e0 d7 d3 3f db 87 f6 bf c0 1c 11 c0
       -1.9874082 1.6550255 -1.926021 -2.2673798
000380 87 28 ad bf a8 e4 88 3f d3 a4 ac bf 45 ad f7 bf
       -1.3527993 1.069478 -1.34878 -1.9349753
000390 7e 65 b4 bf a0 3b b0 3f 16 15 fb bf ff 0e 16 c0
       -1.4093473 1.3768196 -1.961581 -2.3446653
0003a0 13 19 5d be 31 5e aa 3f 93 22 09 3f 41 45 23 bf
       -0.21591596 1.3309995 0.5356838 -0.6377755
0003b0 8c 07 6d bf d6 18 db bf 18 26 1d bf aa 64 8c be
       -0.9258964 -1.7116954 -0.6138625 -0.2742055
0003c0 b2 48 87 3f ec 64 80 3f 23 23 2f 3e b7 15 9c bf
       1.056906 1.0030799 0.17103247 -1.2194127
0003d0 dd 34 e9 be 91 c4 56 3e cb bb fc 3f 50 a3 b2 be
       -0.45548144 0.20973422 1.974481 -0.34890223
0003e0 fb ea b3 be a7 8c a8 3f 62 46 b2 3d 28 10 d5 bd
       -0.35140213 1.3167924 0.08704831 -0.10403472
0003f0 f3 53 7b bf 0e af 3f 3f 29 59 8d bf 0a ed 34 3f
       -0.9817497 0.7487649 -1.1042835 0.7067419

l_lstm.bias_ih_l1 f4 [32]
000000 4d be 13 bf 52 95 64 bf 25 41 33 bf 03 57 ef be
       -0.5771225 -0.89290345 -0.7002128 -0.46746072
000010 73 92 30 bf 43 22 15 bf 1c 33 1e 3d c2 5b 14 bf
       -0.68973464 -0.58255404 0.03862296 -0.5795251
000020 2e 4b 16 3f 85 7b d8 3f 60 48 82 be b0 b0 50 bd
       0.58708465 1.6912695 -0.25445843 -0.050949752
000030 97 ce 9c be 91 8e 2c bf c5 c4 1c be 50 e9 25 3f
       -0.30626366 -0.6740504 -0.15309437 0.6480913
000040 f6 d8 6c 3e 76 f1 23 be 95 5d 69 3d 8e 57 11 3e
       0.23129639 -0.16010079 0.056974012 0.14193556
000050 a1 38 93 3d d0 3c 60 be aa 84 04 bd 5e ad fa 3d
       0.071885355 -0.21898198 -0.03235308 0.122400984
000060 86 90 6e bf ed 76 f6 3d aa be 2e be 48 45 f7 be
       -0.93189275 0.12034402 -0.1706492 -0.48295045
000070 c1 ad f3 bd 94 63 2b 3f 8e 3e 3c bf 9d 86 80 3e
       -0.11898375 0.6694882 -0.7353295 0.25102702

l_lstm.bias_hh_l1 f4 [32]
000000 65 69 1a bf f5 4b 0a bf f8 62 87 be 24 f5 6e bf
       -0.6031707 -0.5402215 -0.26442695 -0.93342805
000010 b9 5e 32 bf 63 5a 3f bf 8c f4 0f bf 45 e6 94 bf
       -0.69675785 -0.74747294 -0.56232524 -1.1632773
000020 37 22 0f 3f 35 ec c4 3f 3b 34 b7 be 26 3d a4 3d
       0.5591158 1.5384585 -0.35782036 0.08019476
000030 73 33 c1 be c7 25 40 bf 81 3b be be 1f 14 89 3e
       -0.37734565 -0.75057644 -0.37154773 0.26773164
000040 41 92 29 be b4 0d 46 3e 22 14 15 be c4 5b 77 bd
       -0.16559698 0.19341165 -0.14558461 -0.06039025
000050 51 10 32 3c e5 24 89 3e 7e 8e 3b bd f0 ec 4f be
       0.010868148 0.2678596 -0.045790188 -0.20305228
000060 6d 0c 1d bf 79 8a 8a bd 30 30 4d be f7 dc 13 bc
       -0.61347085 -0.06764693 -0.20037913 -0.00902485
000070 53 bb bc be 2e 4f 5d 3f 08 4b 5a bf 76 1d aa 3e
       -0.36861667 0.86448944 -0.8527074 0.33225602

l_linear.weight f4 [1, 8]
000000 6d 24 db be 85 cb b4 3e e5 ec e8 be 9a e1 08 bf
       -0.42801228 0.35311523 -0.45493236 -0.5346924
000010 73 91 e9 be 3b 4b f8 3e ec 61 e1 be 09 c2 de be
       -0.4561878 0.48494896 -0.4402002 -0.43507412
