data/datasets/tx_travis_county_neighborhood/resstock-amy2018-2021-release-1-494842.pth (torch, 8966 bytes, 9 tensors)

l_lstm.weight_ih_l0 f4 [32, 13]
0	0x3effc6d7	0.4995639
1	0xbeac57b5	-0.33660665
2	0x3be121f4	0.0068705026
3	0x3e7f0695	0.24904855
4	0xbec64231	-0.38722375
5	0x3f1994db	0.5999276
6	0xc09b97a6	-4.862262
7	0x405b767e	3.4291072
8	0x3b08229c	0.0020772582
9	0xbe3fe0db	-0.1873812
10	0xbf09e034	-0.5385773
11	0xbe080d72	-0.13286379
12	0xbc566e6c	-0.01308785
13	0x3f0a7b09	0.54093987
14	0x3d7117df	0.058860656
15	0x3e97ff5e	0.29687017
16	0xbdc1fa21	-0.094715364
17	0x3e52294c	0.20523566
18	0xbf353b77	-0.7079386
19	0xc0612bb7	-3.5182931
20	0x4037eb0a	2.8737206
21	0x3f117409	0.5681768
22	0x3f2af235	0.6677583
23	0x4028119b	2.6260746
24	0x3d1942f2	0.03741736
25	0xbe9aaa2f	-0.30207965
26	0xbeb6cbd1	-0.35702375
27	0xbee0cb94	-0.43905318
28	0xbd7134dc	-0.0588883
29	0xbdcf7898	-0.10130423
30	0xbcf01422	-0.029306475
31	0xbd8a708a	-0.067597464
32	0xc0189dd0	-2.384632
33	0x3fda8785	1.7072607
34	0xbe1c9ea9	-0.15294899
35	0xbd24fd75	-0.040280778
36	0xbeb20a78	-0.34773612
37	0xbc85d566	-0.016337108
38	0xc0155484	-2.3332834
39	0x3f7a5b10	0.977952
40	0xbeb7f221	-0.35926917
41	0xbd25c167	-0.040467646
42	0x3d71292f	0.058877166
43	0xbf1b561d	-0.60678273
44	0x3c8139fe	0.015774723
45	0xbf13a433	-0.57672423
46	0x3f5eaa7b	0.8697888
47	0xbe64b7b0	-0.22335696
48	0xbdd83660	-0.10557246
49	0xbf1446e1	-0.5792065
50	0xbedf4ae3	-0.43611822
51	0xc03981b4	-2.8985415
52	0x3d25c807	0.040473964
53	0x3d9432b6	0.07236235
54	0x3e05e2ec	0.13074845
55	0xbef92df4	-0.48667872
56	0x3fbc4e39	1.4711372
57	0x3ed696d2	0.41911942
58	0xbe41d24d	-0.1892788
59	0x4038fa14	2.8902636
60	0xbf909dec	-1.1298194
61	0xc0238c07	-2.5554216
62	0xbf7caf56	-0.9870504
63	0x3f9054b1	1.1275846
64	0xbfe95041	-1.8227617
65	0xbe75f7df	-0.24020337
66	0x3f156ff4	0.5837395
67	0xbef788ef	-0.4834666
68	0x3d14ba00	0.036310196
69	0xbecef2de	-0.40419668
70	0xbf43f3c4	-0.7654383
71	0x3f04b053	0.5183155
72	0xc0bb1a46	-5.846957
73	0x3f9f8e0f	1.2465228
74	0x3d7b7121	0.061387185
75	0xbe8ccc13	-0.27499446
76	0xbe30fa46	-0.17282972
77	0xbf27c866	-0.6554016
78	0x3e852a48	0.2600882
79	0xbf13234e	-0.57475746
80	0x3da4609f	0.080262415
81	0x3bd299a2	0.006427006
82	0xbea106f2	-0.3145061
83	0x3f13bf69	0.57713944
84	0x403ba7d4	2.9321184
85	0xbe4425f1	-0.19155098
86	0xbb5a0fba	-0.0033273534
87	0x3ead29ff	0.33821103
88	0xbf81ebe1	-1.015011
89	0xbe3aec4c	-0.18254203
90	0x3f5e095b	0.86733025
91	0x3df180e1	0.1179216
92	0x3c18bb49	0.009321996
93	0x3d82ca6d	0.06386266
94	0x3d1aa973	0.037759256
95	0x3dd0b235	0.1019024
96	0x3ab9a5ae	0.0014163756
97	0xbe43dcd9	-0.19127215
98	0x3f28ac4a	0.6588789
99	0xbc83a528	-0.016069964
100	0x3cc974d8	0.024591848
101	0x3c80f21e	0.01574045
102	0xbc8f7a1b	-0.01751428
103	0x3f246a34	0.64224553
104	0x3e00f0cd	0.12591858
105	0x3f7da4f4	0.99079823
106	0xbe0d244f	-0.13783382
107	0xbe57b7ca	-0.21066204
108	0xbe354834	-0.17703325
109	0xbe0a7564	-0.13521343
110	0x3f54b949	0.8309522
111	0x3e86bbc8	0.2631514
112	0x3da787b0	0.08180177
113	0x3eed6bd6	0.46371335
114	0xbde99745	-0.114058055
115	0x3e8a99b4	0.2707039
116	0x3fe013b7	1.7506016
117	0x3f6ed6b4	0.9329636
118	0xbe472791	-0.19448687
119	0x3d788fab	0.060683887
120	0x3f639877	0.8890452
121	0xbf2c0ff4	-0.6721184
122	0xbfa28ac5	-1.2698599
123	0xbf8a1591	-1.0787832
124	0xc0c380ab	-6.1094565
125	0xbf2face7	-0.68623203
126	0xbf2f5bde	-0.68499553
127	0x3f87369a	1.0563538
128	0xbe6dc4d2	-0.23219612
129	0x3f76db42	0.9642831
130	0xbd5be052	-0.053680725
131	0x3d8c84ba	0.06861253
132	0x3d2f911d	0.042863
133	0x3db859d5	0.09001509
134	0x3e2566c8	0.16152489
135	0xbd7729f5	-0.060342748
136	0xc00a1ec8	-2.1581287
137	0x4063efd6	3.5615134
138	0xbdc5f5a8	-0.09665996
139	0x3ca1f93b	0.019772163
140	0x3ea3e5a2	0.32011133
141	0x3d8a2fe6	0.06747417
142	0xbfecfa52	-1.8513892
143	0x3e80f3be	0.2518596
144	0x3f643f2d	0.891589
145	0x3e694a1f	0.22782181
146	0xbe886cbd	-0.2664546
147	0x3f290645	0.6602519
148	0x3f07cb05	0.5304416
149	0x3f89da36	1.0769718
150	0xbf128ff0	-0.5725088
151	0xbe839c6b	-0.25705275
152	0xbf2758b2	-0.65369713
153	0x3f899b8e	1.0750597
154	0x3e4114fb	0.1885566
155	0xc01bc01b	-2.4336002
156	0xbf41a77f	-0.75646204
157	0xbf385ab7	-0.7201342
158	0x3e2963aa	0.16541925
159	0xbf1e105e	-0.61743724
160	0x3f44720b	0.76736516
161	0x3ff0d72f	1.8815669
162	0x3fa902f7	1.320403
163	0xbe8c4ee2	-0.27403933
164	0xbf7362bf	-0.9507255
165	0xc082296a	-4.0675554
166	0xbeb9ecd1	-0.3631349
167	0x3f947d34	1.1600709
168	0xbfb6c35e	-1.4278371
169	0x3da5cb9d	0.08095477
170	0x3e385647	0.18001662
171	0x3edc2f83	0.43005
172	0x3dfe5f69	0.12420542
173	0xbd3127b0	-0.04325074
174	0xbf8553c3	-1.0416187
175	0x400685bc	2.1019125
176	0xbf89bafd	-1.0760189
177	0xbe838458	-0.25686908
178	0xc0831131	-4.0958486
179	0xbfb89634	-1.4420838
180	0xbbb05dd4	-0.005382279
181	0xbef5c6ab	-0.48003134
182	0xbf34e95b	-0.7066857
183	0x3f78c73f	0.97179025
184	0x3cac64c2	0.021044139
185	0xbed2fe59	-0.41209677
186	0xbe85b475	-0.2611424
187	0x3cf9d28d	0.030495906
188	0x40752a3e	3.8307033
189	0xc1744cbd	-15.268735
190	0x3d985c86	0.074395224
191	0x3e81460a	0.25248748
192	0xbef31388	-0.4747584
193	0x3e27fba2	0.16404584
194	0x3ed25fd6	0.41088742
195	0x3e514445	0.20436199
196	0x3e92b3e4	0.2865287
197	0x3e00db1b	0.12583582
198	0x3d830d7e	0.06399058
199	0x3e94eda2	0.2908755
200	0x3e1b0a2c	0.15140599
201	0xbe513616	-0.20430788
202	0x4083a5b0	4.1139755
203	0x3e38a442	0.1803141
204	0x3e6ddc9e	0.2322869
205	0x3f1a47ae	0.60265625
206	0x3c381b69	0.011237004
207	0x3ff9d528	1.9518175
208	0xbd7db8f3	-0.06194396
209	0xbf88fd5f	-1.0702323
210	0xbd541b6b	-0.05178396
211	0x3e0776c5	0.132289
212	0xbe807821	-0.2509165
213	0x3e30859f	0.17238472
214	0xbfc4511b	-1.5337251
215	0x3f9e8798	1.238513
216	0x3c465719	0.012105727
217	0x3d392944	0.04520537
218	0x3f8cc955	1.0998942
219	0x3d25ce2c	0.040479824
220	0x3f430965	0.7618621
221	0xbedf5487	-0.43619177
222	0x3da35635	0.07975427
223	0xbcfc302b	-0.030784687
224	0xbe1b61cd	-0.15174027
225	0x3db8ce06	0.09023671
226	0xbdbc6494	-0.09198871
227	0xc0b870ec	-5.7637844
228	0xc1971158	-18.883469
229	0x3ca2522d	0.019814575
230	0xbd68e7d4	-0.056861714
231	0xbc005b21	-0.007834227
232	0x3d44c183	0.04803611
233	0xbed1402a	-0.40869266
234	0xbe091360	-0.13386297
235	0x3f39262b	0.72323865
236	0x3f176f73	0.59154433
237	0xbede2703	-0.4338914
238	0x3fb706b9	1.4298927
239	0xbe46e81d	-0.19424482
240	0x3fb6ecb1	1.4290982
241	0xbfb87ced	-1.4413124
242	0x3fca135f	1.5787162
243	0x3fc464af	1.5343226
244	0x3e072969	0.1319939
245	0x3f4589e3	0.77163523
246	0xbf41fd15	-0.757768
247	0x3e662546	0.22475156
248	0xbdd4e06b	-0.10394367
249	0x3df37763	0.118880056
250	0x3d890557	0.066904716
251	0xbe88fbe4	-0.26754677
252	0x3e64255f	0.22279881
253	0xbfbb33bf	-1.4625167
254	0x402f1a8d	2.7359955
255	0x3dd1817b	0.102297746

l_lstm.weight_hh_l0 f4 [32, 8]
0	0xc063c9de	-3.559196
1	0x408791f9	4.236569
2	0xbea3fcb7	-0.32028744
3	0xbf92664d	-1.143747
4	0xc0b2b449	-5.5845075
5	0x403f8369	2.9923956
6	0x3f343a3f	0.70401376
7	0x3f79753d	0.97444516
8	0xbedbdc48	-0.429415
9	0x40381032	2.8759885
10	0x3f921ecb	1.1415647
11	0xbf8d8f76	-1.1059406
12	0xc0655bd4	-3.5837297
13	0x3fd14e22	1.6351969
14	0x3e1680d4	0.14697582
15	0xbe651c73	-0.22374134
16	0x3ea07c61	0.31344894
17	0x3d6db6be	0.058035605
18	0x3eb35abe	0.35030168
19	0x3f6766a8	0.90391016
20	0x3e4724a5	0.19447573
21	0xbf38c39a	-0.72173464
22	0xbfae13c5	-1.3599783
23	0x3e930f85	0.28722778
24	0x3f130179	0.5742412
25	0xbfbf7deb	-1.4960302
26	0x3e92a659	0.28642538
27	0x3fc85eee	1.565397
28	0xbf2c429b	-0.6728913
29	0x3d934e5b	0.071926795
30	0xbfe6977b	-1.8014978
31	0x3f0180b8	0.50587034
32	0x3e79c838	0.24392784
33	0x401dc821	2.46534
34	0x3e472178	0.19446361
35	0x3fcc3b57	1.5955609
36	0xbf5d56d7	-0.8646063
37	0xbff13d1f	-1.8846778
38	0x409f8554	4.9850254
39	0xbfa3d0c0	-1.279808
40	0x3ffad781	1.9597017
41	0x408b8c5c	4.3608837
42	0xbf8c3812	-1.0954611
43	0x3fdf2e92	1.7436087
44	0x3f5c5522	0.860674
45	0xbf8202f0	-1.0157146
46	0xbd473d2e	-0.04864233
47	0x3f4c04de	0.79694927
48	0xc02a8cec	-2.6648512
49	0x40950a58	4.6575127
50	0xbfe11fcc	-1.7587829
51	0x40718ede	3.774345
52	0xc00f31c1	-2.2374117
53	0x40bdea96	5.934886
54	0xc008f183	-2.1397407
55	0xbfaf5637	-1.3698186
56	0x3f1e462a	0.6182581
57	0x402b3760	2.6752548
58	0x3f6716b3	0.9026901
59	0xbebe5c8f	-0.37179992
60	0xbe2dd2ed	-0.16974993
61	0x4007f682	2.1244206
62	0xc01159e2	-2.271111
63	0xbe9d2b21	-0.30696967
64	0xbedcb92a	-0.4311002
65	0xc0803a85	-4.0071435
66	0xbf0a309d	-0.5398043
67	0x403fa964	2.9947138
68	0x3eebb2f2	0.46034962
69	0xbf0e5b1a	-0.5560776
70	0xc07422bf	-3.8146207
71	0x3f44aad7	0.7682318
72	0x405fccea	3.496882
73	0xbf014377	-0.5049357
74	0xbd50b4a9	-0.05095354
75	0x3fd4f803	1.6638187
76	0x3fd98aff	1.6995543
77	0x4076c9b0	3.85606
78	0xbf27dd9a	-0.6557251
79	0xbfab8e3c	-1.3402781
80	0x3f596d2c	0.8493221
81	0x3f106039	0.56396824
82	0x3e8f231e	0.2795648
83	0x3fba48d6	1.4553478
84	0xbe0d25cb	-0.13783948
85	0xbf8244ae	-1.0177209
86	0xbf6766f0	-0.90391445
87	0x3f55c8cb	0.8350951
88	0x3f95ae12	1.1693747
89	0x3d8d1f8f	0.06890785
90	0x3e80f442	0.25186354
91	0x3f87e86a	1.0617802
92	0x3f19cdb8	0.60079527
93	0xbfd9cd24	-1.7015729
94	0xbf942285	-1.1573035
95	0xbe1ca3ec	-0.15296906
96	0xc0352e20	-2.8309402
97	0xc00634ea	-2.0969796
98	0x3f0fae91	0.5612574
99	0x3f662c8b	0.8991172
100	0xbf5a5807	-0.8529057
101	0x3f419cd9	0.75629956
102	0xbf0288af	-0.5098981
103	0xbfd6c8d9	-1.6780044
104	0xbf2528ca	-0.64515364
105	0xc0b5a2cc	-5.6761227
106	0x3fb3a3a5	1.4034315
107	0x4034b9bc	2.8238363
108	0xc0824951	-4.0714498
109	0xbf98a08f	-1.1923999
110	0xbfb7b0e8	-1.4350863
111	0x3fe89cfa	1.8172905
112	0x3f3db13d	0.7409857
113	0xbf98a91c	-1.1926608
114	0xbf888c8f	-1.0667895
115	0x3fc9246e	1.5714242
116	0x3f87761a	1.0582917
117	0xc063e33d	-3.5607445
118	0x3fc717c0	1.5554123
119	0xbfa08cbd	-1.254295
120	0xbe72db06	-0.23716363
121	0x3f3c655b	0.73592156
122	0x3e7dcd86	0.24785432
123	0xbf23f3f7	-0.64044136
124	0x3ebd4ac1	0.36971095
125	0x3e685f10	0.22692513
126	0x3e0f3afe	0.13987347
127	0xbe4575e1	-0.19283248
128	0xc02d695b	-2.7095554
129	0x401d20b4	2.455121
130	0x3f81f7fd	1.0153805
131	0x3f84bb6b	1.0369695
132	0x3f61aad1	0.8815127
133	0x400dbc53	2.2146194
134	0xbf0e63ba	-0.5562092
135	0x3e866ea4	0.26256287
136	0xbef3b63f	-0.4759998
137	0xbf9b41c0	-1.212944
138	0xbf3c13f2	-0.73467934
139	0x3e81b768	0.2533524
140	0x401bc9d8	2.4341946
141	0xbfd2c691	-1.6466848
142	0xbfa0752f	-1.2535762
143	0x3c206976	0.009790769
144	0x3eaacd06	0.33359545
145	0x3e15619d	0.14588018
146	0x3e8f56ed	0.27996007
147	0xbf9df49a	-1.2340271
148	0xbf2b9cc8	-0.67036104
149	0xbce6052c	-0.028078638
150	0x3f854132	1.0410521
151	0x3df52acd	0.11971054
152	0x3faf2033	1.3681701
153	0xbdd791d0	-0.105258584
154	0xbfc3ae28	-1.5287523
155	0xc02a1f18	-2.6581478
156	0xbf3ba3a0	-0.73296547
157	0x3f83cc70	1.0296764
158	0x3f3cf725	0.7381461
159	0x3fa04c14	1.2523217
160	0xbe082b87	-0.13297854
161	0xc0a9c463	-5.305223
162	0xbe18eb73	-0.14933567
163	0x3f8465ce	1.0343568
164	0xbfa97e2a	-1.3241627
165	0xbf5e506a	-0.8684145
166	0xbf8c4ea3	-1.0961498
167	0x3e915e56	0.28392285
168	0xbf83c7d7	-1.0295361
169	0xbf560faa	-0.8361765
170	0xbf0439bf	-0.51650614
171	0xc01d6a67	-2.4596193
172	0xbf69735f	-0.9119167
173	0xbfe7d285	-1.811112
174	0x3ff469ff	1.9094847
175	0xbd647245	-0.05577304
176	0xbfa78046	-1.3086021
177	0x400cf4f1	2.20245
178	0xbf725d93	-0.9467403
179	0xbf156956	-0.58363855
180	0x3f31974c	0.69371486
181	0x3ff5e094	1.9209161
182	0xbff71f95	-1.9306513
183	0xbe881f24	-0.26586258
184	0xbf2dc883	-0.6788408
185	0xbd8e51fd	-0.06949232
186	0xbf1854a3	-0.59504145
187	0xbe11e910	-0.14249063
188	0xbc18d121	-0.009327204
189	0xbf1420c8	-0.5786252
190	0x3ebbeed1	0.3670564
191	0xbf98dff5	-1.1943346
192	0xbf4c47d1	-0.79797083
193	0xbd9d6b38	-0.07686466
194	0x4065d4e4	3.5911188
195	0x3e4a09e5	0.19730337
196	0xbf97d3b0	-1.1861477
197	0xbfb7d590	-1.4362049
198	0x4002b5e1	2.042351
199	0x3fe025be	1.7511518
200	0x3f45645d	0.7710627
201	0x40300183	2.7500923
202	0x40019fb6	2.025373
203	0x3e012eec	0.12615556
204	0x40252e1d	2.5809395
205	0xbe363db3	-0.17796974
206	0xbfc9ab4d	-1.5755402
207	0xbe7231e8	-0.2365185
208	0x3ea97d6c	0.33103502
209	0xbf78602f	-0.97021765
210	0x3e1510b5	0.14557154
211	0x3f33b00b	0.70190495
212	0x3cf58189	0.029968994
213	0xbeb53045	-0.3538839
214	0x3f8fb5a5	1.1227309
215	0x3e2a1b1c	0.16611904
216	0xbe1649d5	-0.14676602
217	0xbf852653	-1.0402321
218	0xbea1aae5	-0.31575695
219	0x3faab87a	1.3337548
220	0x3f0168b7	0.5055041
221	0xbd1ec5be	-0.0387628
222	0xbf2619b0	-0.64882946
223	0xbdc06cbf	-0.09395742
224	0x3db72bd7	0.08943909
225	0xbf398117	-0.724626
226	0x3edbcbb6	0.42928857
227	0x3ecdfbf6	0.40231293
228	0xbf542b89	-0.8287893
229	0xbffeb002	-1.9897463
230	0x408dae27	4.427509
231	0x3f76bc9b	0.9638154
232	0x3ffcd9d0	1.9753971
233	0xbfa967d7	-1.3234814
234	0xc03c14d2	-2.9387708
235	0x3f801d9f	1.000904
236	0x402834aa	2.6282144
237	0xbebcc509	-0.36869076
238	0x3fde5f57	1.7372845
239	0xbd540b42	-0.05176855
240	0xc0321ee2	-2.783135
241	0xbef01104	-0.46887982
242	0x3ebcac68	0.36850286
243	0x40325a54	2.7867632
244	0xc00b1dcc	-2.1736937
245	0xbf85da4a	-1.0457242
246	0xbf05b77b	-0.52233094
247	0xbfe0acd2	-1.755274
248	0x3f175a0c	0.59121776
249	0xc087cdf8	-4.2438927
250	0x4045bb93	3.0895736
251	0xc03bc5dc	-2.9339514
252	0x3f9ca351	1.223734
253	0xbfcc0a9a	-1.5940735
254	0xc01fc068	-2.4961185
255	0x3fb01389	1.3755962

l_lstm.bias_ih_l0 f4 [32]
0	0xbf668529	-0.90046936
1	0xbf34cd48	-0.70625734
2	0xbcf35e89	-0.029708164
3	0xbe87a246	-0.26490992
4	0xbe688949	-0.2270862
5	0xbeefcc0d	-0.46835366
6	0xbea47c51	-0.32126096
7	0x3e41dfcd	0.1893303
8	0xbf0d0480	-0.5508499
9	0xbf0aa864	-0.54163194
10	0x3e99e79d	0.3005952
11	0x3ee6a8a1	0.4505053
12	0x3cac34f6	0.021021347
13	0xbdd8479d	-0.10560534
14	0x3f516c57	0.8180594
15	0x3eecd419	0.46255568
16	0xbe1dd45c	-0.1541304
17	0x3e57b7aa	0.21066156
18	0x3f46f5a7	0.77718586
19	0xbf0e3c18	-0.55560446
20	0x3f5b4d14	0.85664487
21	0xbddcdefe	-0.1078472
22	0x3d25d9f6	0.040491067
23	0xbd909c37	-0.070610456
24	0x3bea6335	0.0071529397
25	0xbf87b626	-1.0602462
26	0x3ed1cdc7	0.40977308
27	0x3ec3ad62	0.38218218
28	0xbee9ac9c	-0.45639503
29	0x3e0baf66	0.13641128
30	0x3f05d277	0.5227427
31	0xbe4e396a	-0.20139089

l_lstm.bias_hh_l0 f4 [32]
0	0xbf62c398	-0.885797
1	0xbf87b070	-1.060072
2	0xbd61610f	-0.055024203
3	0xbe97de45	-0.29661766
4	0x3def130f	0.11673557
5	0xbc78f3ce	-0.015194846
6	0xbf23d0ad	-0.6399029
7	0x3d554466	0.052067183
8	0xbeb9e234	-0.36305392
9	0xbf5a64cb	-0.8531005
10	0x3f0b4da8	0.5441537
11	0x3f130e3a	0.57443583
12	0x3ccbe10d	0.024887586
13	0xbcb738f9	-0.022366034
14	0x3ebae565	0.3650314
15	0x3e580b66	0.21098098
16	0xbc26e00c	-0.010185253
17	0x3f20bd3f	0.62788767
18	0x3f309cfe	0.6898955
19	0xbf4a8872	-0.7911445
20	0x3f105d47	0.5639233
21	0xbc648578	-0.013947837
22	0xbf0b425f	-0.5439815
23	0xbf068514	-0.5254681
24	0xbebc7b1f	-0.36812684
25	0xbf0a1654	-0.5394032
26	0x3efa721b	0.4891518
27	0x3d8b329c	0.06796762
28	0xbeed86fd	-0.4639205
29	0x3d8c1910	0.06840718
30	0x3d03178b	0.032004874
31	0x3de3c332	0.11121215

l_lstm.weight_ih_l1 f4 [32, 8]
0	0x3cb26a64	0.021779247
1	0xbef3911e	-0.47571653
2	0xbebc708c	-0.36804616
3	0xbf8b27f8	-1.0871572
4	0xbeb10909	-0.34577206
5	0xbcbeede4	-0.023306794
6	0x3e026ae0	0.12736082
7	0x3e98d0ff	0.2984695
8	0x3e8fad88	0.2806208
9	0xbfbd8d57	-1.4808758
10	0xbf6ff972	-0.9374
11	0xbeb4737d	-0.3524436
12	0xbf4c1f35	-0.7973512
13	0xbf3ead7e	-0.7448348
14	0x3e40a813	0.18814115
15	0x3eef2fec	0.4671625
16	0x3f20c4e6	0.62800443
17	0xbece5fb7	-0.403074
18	0xbe6d6980	-0.23184776
19	0xbf75f3f6	-0.9607538
20	0xbf90fc93	-1.132708
21	0xbf49e3f2	-0.7886344
22	0x3faf3671	1.3688489
23	0x3e84a010	0.25903368
24	0x3f3ec771	0.74523073
25	0xc012857f	-2.289398
26	0xbf93b8f4	-1.1540818
27	0x3ecfb1d5	0.40565363
28	0xc01624c2	-2.3459935
29	0xbe0ede52	-0.13951996
30	0x404bad0d	3.1824372
31	0xbc37bb9e	-0.011214165
32	0x3f221292	0.63309586
33	0xbfc77fc3	-1.5585865
34	0xbf711bf0	-0.94183254
35	0x3ed73fea	0.4204095
36	0x3f482be2	0.7819196
37	0xbe25edd7	-0.1620401
38	0x3f799a8c	0.97501445
39	0xbd56d55e	-0.052449577
40	0x3fa2769e	1.2692449
41	0xbf84f327	-1.0386704
42	0xbf56377d	-0.8367842
43	0xbfb6ddd0	-1.4286442
44	0xc06642e6	-3.5978332
45	0x3f2bb8eb	0.6707904
46	0x405ebfa1	3.480446
47	0x3eff9f50	0.49926233
48	0x3f15e36d	0.5855015
49	0xbf12d608	-0.57357836
50	0x3c85a4be	0.016313907
51	0xbfa6d45d	-1.3033558
52	0xbe8377b4	-0.25677264
53	0x3de2ce65	0.11074523
54	0x3ea16733	0.31524047
55	0xbd56e5e0	-0.05246532
56	0xbe0012d9	-0.1250719
57	0x3e781112	0.24225262
58	0xbeb349e0	-0.350173
59	0xbf2b1145	-0.66823226
60	0x3f0532bf	0.5203056
61	0xbda671fb	-0.08127209
62	0xbeff265a	-0.49833947
63	0x3f0c560d	0.54818803
64	0xbf2f6f4a	-0.6852919
65	0x400c435c	2.1916113
66	0xbe69ab40	-0.22819233
67	0x3e703f73	0.23461704
68	0xc009a005	-2.1503918
69	0xbed01ea2	-0.4064837
70	0xbf4b3860	-0.79382896
71	0xc00eaad4	-2.2291765
72	0xbe560344	-0.20899683
73	0x40632ce4	3.549615
74	0xbed9f67b	-0.42570862
75	0x3f439c04	0.76409936
76	0xbf0988da	-0.53724444
77	0xbd4ad5d9	-0.049520347
78	0xc0546b66	-3.319055
79	0xbe5ff9f9	-0.21872701
80	0xbf71cb6b	-0.94451016
81	0xbf23d8b6	-0.6400255
82	0xbe3837ba	-0.17990008
83	0xbe1aa432	-0.15101698
84	0x3ee6c1a0	0.450696
85	0xbea83dfc	-0.3285979
86	0xbfef094b	-1.8674711
87	0xbf4a8352	-0.7910663
88	0xbf23cc42	-0.6398355
89	0x40417e50	3.0233345
90	0xbf3df57f	-0.7420272
91	0x3f582cff	0.8444366
92	0x3f9f0c00	1.2425537
93	0x3f32966d	0.6976078
94	0xbf94185d	-1.1569935
95	0x3dc3acae	0.095544204
96	0x3f1e1c33	0.6176178
97	0x409237bf	4.569305
98	0x3eddb40a	0.4330142
99	0x3f0018db	0.50037926
100	0x3d9d51b1	0.07681597
101	0xbff187b0	-1.8869534
102	0xc01ab46b	-2.4172618
103	0xc04293b6	-3.0402656
104	0xbf3e7eb5	-0.7441209
105	0x3d8a376f	0.06748854
106	0x3e86d06d	0.2633089
107	0x3dd3e580	0.10346508
108	0x4017ebe3	2.3737724
109	0xbdf9c104	-0.12195018
110	0xbf849c9a	-1.0360291
111	0xbf08adea	-0.5339037
112	0x3f25f015	0.6481946
113	0x405e5bb3	3.4743469
114	0xbf92256c	-1.141767
115	0x3f39ba5f	0.72550005
116	0xbfb70c88	-1.4300699
117	0x3f88aead	1.0678307
118	0xbd67188c	-0.056419894
119	0x3f2e2c62	0.6803647
120	0x3c9285ee	0.017886128
121	0xc011245c	-2.2678442
122	0xbef5f56c	-0.48038805
123	0xbfbd72c9	-1.4800655
124	0xbfc4e092	-1.5381033
125	0x3ed519a8	0.41621137
126	0x3e2a8b21	0.16654636
127	0x3eb93bf9	0.36178568
128	0xbf33fc8a	-0.7030722
129	0x3e084d9c	0.13310856
130	0x3f06878b	0.5255057
131	0xbe5ed712	-0.2176173
132	0x3ef84194	0.48487532
133	0x3ee37ca0	0.4443102
134	0x3f083e23	0.53219813
135	0xbfa7963b	-1.3092722
136	0x3f3fdc9d	0.74946004
137	0xbdbecff4	-0.09317008
138	0xbe5c0ee3	-0.21490054
139	0x3fc1c0ca	1.513696
140	0xbed2632b	-0.41091284
141	0x3f6a5002	0.9152833
142	0xbf4f82a2	-0.81058705
143	0x3f985b28	1.1902819
144	0xbf885e39	-1.0653754
145	0x3d8c33a5	0.06845788
146	0x3cb25a16	0.021771472
147	0xbf1593a5	-0.5842841
148	0x3ba7b654	0.0051181708
149	0xbf076618	-0.5289016
150	0x3e72f856	0.23727545
151	0xbfb844f9	-1.4396049
152	0xbf8e876d	-1.1135079
153	0x3e92adf6	0.28648347
154	0x3f290924	0.6602957
155	0xbed51093	-0.41614208
156	0x3efaba9c	0.48970497
157	0xbf419cce	-0.7562989
158	0x3ed0142c	0.4064039
159	0xbf9e3329	-1.2359363
160	0x3f88df93	1.069323
161	0x3d4baf64	0.049727812
162	0xbe5dac4a	-0.21647754
163	0x3f07d655	0.5306142
164	0x3e166efc	0.14690775
165	0x3df0fb73	0.1176671
166	0xbebecb1e	-0.3726434
167	0x3fcb67f0	1.5891094
168	0x3f7bd75a	0.98375475
169	0xbbc1b0b0	-0.0059109554
170	0xbf02c104	-0.5107577
171	0x3f137e41	0.57614523
172	0xbcb97e9f	-0.022643385
173	0x3e234cde	0.15947291
174	0xbeb1dbc2	-0.34737974
175	0x3fd1a77c	1.6379237
176	0x3f4c817d	0.79885083
177	0xbd89134b	-0.06693133
178	0x3ddcb79a	0.10777207
179	0x3f5f94db	0.8733651
180	0xbed7c67c	-0.4214362
181	0xbce6207e	-0.028091665
182	0xbf0954bf	-0.5364494
183	0x3f96ee76	1.1791523
184	0xbecdb680	-0.401783
185	0xbda1c693	-0.07899203
186	0x3e671ef7	0.22570406
187	0xbf79c4b9	-0.975658
188	0x3f858437	1.0430974
189	0x3ea8cf0d	0.32970467
190	0x3f101bbe	0.5629233
191	0xbf9a50c0	-1.2055893
192	0xbe157c7a	-0.14598265
193	0xbf235139	-0.6379581
194	0xbebd5a4b	-0.3698295
195	0xbfb994e7	-1.4498566
196	0xbf0b39f9	-0.54385334
197	0x3f08a7e4	0.5338118
198	0xbe1d3355	-0.15351613
199	0x3da341b3	0.079715155
200	0x3eda0bba	0.42587072
201	0x3fbe7ae2	1.4881251
202	0xbf166e3b	-0.5876195
203	0xbf6c912d	-0.9240902
204	0xbeb5da3b	-0.3551806
205	0xbf6955da	-0.91146624
206	0x3d43d8ff	0.047814365
207	0x3f3a48a5	0.72767097
208	0x3f9773f7	1.1832265
209	0x3e597e65	0.21239622
210	0x3d3a2d9f	0.045453664
211	0xbf196105	-0.59913665
212	0xbe4a088e	-0.19729826
213	0xbeef172e	-0.46697372
214	0x3fac564b	1.3463835
215	0xbd88646b	-0.06659778
216	0xbd3efcd0	-0.04662782
217	0xbddaa588	-0.10676104
218	0xbdf076f4	-0.117414385
219	0x3a622200	0.0008626282
220	0xbe01e76a	-0.12685934
221	0xbf3b8104	-0.7324374
222	0xbe9929c6	-0.29914683
223	0x3e706ece	0.23479769
224	0xbe49f7ca	-0.1972343
225	0x3f91858f	1.1368884
226	0xbef68e97	-0.48155662
227	0xbf536a3d	-0.8258398
228	0xbf395099	-0.7238861
229	0xbea15858	-0.31512713
230	0xbe761532	-0.24031523
231	0x3ec66e2f	0.38755938
232	0x3f45b32b	0.77226514
233	0xbe5e4170	-0.2170465
234	0xbca8afaf	-0.020591585
235	0xbff62dfe	-1.9232786
236	0x3e586c32	0.21135023
237	0x3e657003	0.2240601
238	0x3ec35877	0.3815343
239	0x3f24ad41	0.64326864
240	0x3e02778e	0.12740919
241	0xbe913ed3	-0.28368244
242	0x3efce370	0.4939227
243	0xbfcc9509	-1.5982982
244	0xbf90cd92	-1.1312735
245	0xbe84690d	-0.25861397
246	0x3e742cbc	0.2384519
247	0x3ece3e0a	0.40281707
248	0xbd55a110	-0.052155554
249	0xbee866a5	-0.45390812
250	0xbf19b02f	-0.6003446
251	0xbf650b87	-0.89470714
252	0x3f1a2a69	0.6022096
253	0x3e0a4df8	0.13506305
254	0xbc290cc8	-0.010317989
255	0x3f1d3170	0.6140356

l_lstm.weight_hh_l1 f4 [32, 8]
0	0x3d932a59	0.071858115
1	0xbb07f8af	-0.0020747592
2	0xbd4f93a9	-0.05067793
3	0x3d91535a	0.07095976
4	0x3f026b19	0.5094467
5	0xbebac487	-0.36478063
6	0x3f2ee773	0.68321913
7	0xbf041c7a	-0.5160595
8	0xbde52e10	-0.11190426
9	0xbedb8318	-0.42873454
10	0xbed90654	-0.4238764
11	0xbef91614	-0.48649657
12	0xbe396bf3	-0.18107586
13	0x3f41e696	0.7574247
14	0x3e35d08b	0.17755334
15	0x3ce1e2f6	0.027574044
16	0x3f0505cc	0.5196197
17	0x3e9f4bbe	0.31112474
18	0x3f87228f	1.0557421
19	0xbb9da929	-0.004811425
20	0xbf86688b	-1.0500654
21	0x3f3d5ccc	0.7396972
22	0xbf4be293	-0.796426
23	0xbf0a620e	-0.5405587
24	0xbe993362	-0.29922014
25	0xbd0115a9	-0.031514797
26	0x3eb1e045	0.34741417
27	0x3f537a79	0.82608753
28	0xbe1c7753	-0.15279894
29	0xbe5242cc	-0.20533293
30	0x3e9ea923	0.30988416
31	0xbe9047ac	-0.2817968
32	0xbf30745c	-0.6892755
33	0x3fd1a2ff	1.6377867
34	0xbee6caa0	-0.45076466
35	0xbeab05bd	-0.33402815
36	0xbe679fe6	-0.2261959
37	0x3f06c5eb	0.5264575
38	0x3f499337	0.7874026
39	0xbf9ad56f	-1.2096385
40	0x3c88d583	0.016703373
41	0x3f04218f	0.51613706
42	0x3f2d8d65	0.67793876
43	0x3dda5011	0.10659803
44	0x3e93df87	0.28881475
45	0x3f5abd80	0.85445404
46	0xbf41e081	-0.7573319
47	0xbeb7021a	-0.3574379
48	0x3e98eb3a	0.29866964
49	0x3ef0570f	0.4694142
50	0xbee27427	-0.44229242
51	0xbc189811	-0.009313599
52	0xbf441432	-0.76593316
53	0x3f90b75b	1.1305956
54	0xbfab544b	-1.3385099
55	0xbe7d2ae8	-0.24723399
56	0xbe35a33a	-0.17738047
57	0x3d669071	0.056290094
58	0xbc3c2c82	-0.011485221
59	0x3dc3e19c	0.09564516
60	0xbf24f249	-0.644322
61	0x3f013b8f	0.50481504
62	0x3ea4448c	0.32083547
63	0x3f96be9a	1.1776917
64	0x3f0955bf	0.53646463
65	0xbe2dbc79	-0.16966428
66	0x3f5e770e	0.86900413
67	0x3eef768a	0.46770126
68	0xbf2d0b2a	-0.6759516
69	0xbfb38e8a	-1.4027874
70	0x3f15f65d	0.58579046
71	0x3f4fae30	0.81125164
72	0x3f61af6d	0.88158303
73	0xbfaed1df	-1.3657798
74	0x3f0fa606	0.56112707
75	0x3f46ff5d	0.77733403
76	0xbf688a83	-0.9083635
77	0xbee9aa05	-0.45637527
78	0xbf4da01b	-0.80322427
79	0x3ee6f10b	0.45105776
80	0x3e3c924b	0.18415181
81	0xbf2fb5bc	-0.6863668
82	0xbf19c23c	-0.60062003
83	0xbf00f4df	-0.50373644
84	0xbf0b4433	-0.5440094
85	0xbd507f1a	-0.050902463
86	0x3ea1c7b9	0.3159769
87	0x3f46e5fe	0.7769469
88	0xbebe026d	-0.37111226
89	0xbec56365	-0.38552395
90	0x3ea6a5c1	0.32548335
91	0xbe117912	-0.14206341
92	0xbe46a2ee	-0.1939809
93	0x3e9bb62a	0.30412418
94	0x3e6e5fed	0.2327878
95	0xbe83faef	-0.25777385
96	0x3ee4d447	0.44693205
97	0xbe352001	-0.1768799
98	0x3dd1efe7	0.10250836
99	0x3ee51ef4	0.44750178
100	0x3e5b8697	0.2143806
101	0xbff01c4d	-1.8758637
102	0x3f8d2217	1.1026028
103	0xbcb4aefe	-0.022056099
104	0x3e92d8aa	0.28680927
105	0xbea74c62	-0.32675463
106	0x3f0e75d1	0.55648524
107	0xbdc9af87	-0.09847932
108	0xbec3013a	-0.38086873
109	0xbe33984f	-0.1753857
110	0xbc8e8e7e	-0.01740193
111	0x3ed2c10f	0.41162917
112	0xbe78796f	-0.24265073
113	0x3eec8468	0.46194768
114	0xbfae57cc	-1.3620543
115	0x3e2cce0b	0.16875474
116	0x3dc941bc	0.09826991
117	0x3fdce642	1.7257769
118	0xbf467e9a	-0.7753693
119	0xbf377d46	-0.7167553
120	0x3e97d02c	0.2965101
121	0x3e55b839	0.20871057
122	0x3ec7c6aa	0.39018756
123	0x3ef8de71	0.4860721
124	0x3e42ec07	0.1903535
125	0x3dc674d4	0.09690252
126	0x3f2e9faf	0.6821241
127	0x3f26c860	0.651495
128	0xc0386d3d	-2.8816674
129	0x3f02abed	0.5104359
130	0x3f237ea0	0.6386509
131	0xbf73810c	-0.95118785
132	0x3e0a6975	0.13516791
133	0xbf46e7e5	-0.7769759
134	0xbd9e1dab	-0.077205025
135	0x3f6ef7a2	0.9334661
136	0x3f50214b	0.813008
137	0xc002f138	-2.0459728
138	0x3b8dd7fe	0.004328727
139	0xbf29512d	-0.6613949
140	0xbeb7d44e	-0.35904163
141	0x3f2da6f1	0.6783286
142	0xbe9466ca	-0.28984672
143	0x3f87d54f	1.0611972
144	0xbf49dbb8	-0.7885089
145	0x3ecc7685	0.39934173
146	0xbfdcb974	-1.7244096
147	0x3ebf7d3e	0.3740024
148	0x3f517efd	0.81834394
149	0xbc36667f	-0.011132835
150	0x3f750367	0.95708317
151	0xbf7a325a	-0.9773308
152	0xbef97afa	-0.48726636
153	0x3fb10e31	1.3832456
154	0xbf8e4b42	-1.1116717
155	0xbfd02dad	-1.6263939
156	0x3f9696c4	1.176476
157	0xbf2b71c3	-0.6697046
158	0x3f84d959	1.0378829
159	0xbf272f38	-0.65306425
160	0x3f97d159	1.1860763
161	0x3e119950	0.1421864
162	0xbf0542d6	-0.5205511
163	0xbf7a13f7	-0.97686714
164	0xc03de862	-2.9673085
165	0xbebd8639	-0.37016466
166	0xbdde17ff	-0.10844421
167	0x3fa1c7ba	1.2639077
168	0x3fbdccbc	1.4828105
169	0xbfb9b92a	-1.4509633
170	0x3f956661	1.1671869
171	0x3f39accc	0.7252929
172	0xbfb19490	-1.3873463
173	0xbf6691b2	-0.90066063
174	0xbfc57a6b	-1.5427984
175	0x3fbd3284	1.4781041
176	0x3f8c27e2	1.0949671
177	0x3eb662c3	0.35622224
178	0xbf8bc854	-1.092051
179	0xbeb1f15d	-0.34754458
180	0x3dbed895	0.093186535
181	0x3f2f8bb5	0.6857255
182	0xc018c41e	-2.38697
183	0x3f1a9796	0.6038755
184	0xbfe31530	-1.7740841
185	0xbbf3424c	-0.0074236747
186	0x3f70bf42	0.94041836
187	0xbf7a9962	-0.97890294
188	0xbf16806f	-0.58789724
189	0xbf7548b6	-0.95814073
190	0x3c0cc0fe	0.008590935
191	0xc0074b99	-2.113989
192	0x3ec1d6a1	0.3785906
193	0x3ef087d3	0.46978626
194	0x3ef4d500	0.47818756
195	0x3eb50537	0.3535554
196	0x3ee19647	0.44059965
197	0xbf1dc7cf	-0.6163301
198	0x3f7deb5f	0.9918727
199	0xbf3834d0	-0.71955585
200	0x3ef1bccd	0.47214356
201	0xbef054bb	-0.46939644
202	0xbf1164b7	-0.56794304
203	0xbe26ddcf	-0.16295551
204	0xbee909ae	-0.45515198
205	0x3e6b8e41	0.23003484
206	0xbdfe2a7a	-0.124104455
207	0x3d5b6cb5	0.053570468
208	0x3db05f9e	0.086119875
209	0x3f69fd68	0.9140229
210	0x3ead49d1	0.3384538
211	0xbeac1b1a	-0.33614427
212	0xbf09b33a	-0.53789103
213	0x3f38dba1	0.7221013
214	0xbe741222	-0.23835042
215	0xbf6e723c	-0.9314306
216	0x3de71141	0.11282588
217	0xbea450a3	-0.3209277
218	0x3e802269	0.25026253
219	0x3f660d55	0.89864093
220	0xbe376bd0	-0.17912221
221	0xbeb6b8ca	-0.35687858
222	0xbe864a9f	-0.26228806
223	0x3ecacc8f	0.3960919
224	0xbe9af37a	-0.30263883
225	0x3f61149c	0.8792207
226	0x3ded602f	0.11590611
227	0x3d38cff3	0.04512019
228	0xbf111a60	-0.5668087
229	0xbee7c7a3	-0.45269498
230	0x3fa515f7	1.2897328
231	0xbf0b2fc6	-0.5436977
232	0x3e7d83f9	0.24757375
233	0x3ea7a756	0.32744855
234	0x3f82b850	1.0212498
235	0x3f0e92eb	0.5569293
236	0xbf13b9d1	-0.5770541
237	0xbeb55363	-0.35415182
238	0xbe951e7e	-0.29124826
239	0xbe3cadf0	-0.18425727
240	0x3dcbb647	0.09946876
241	0x3efdcffd	0.49572745
242	0xbe055c9d	-0.1302361
243	0x3e9118e8	0.28339314
244	0xbeabb630	-0.33537436
245	0x3ec86bbd	0.39144698
246	0xbf58eac6	-0.84733236
247	0xbe567db9	-0.20946397
248	0x3e69a118	0.22815359
249	0x3ed58692	0.41704232
250	0x3f39f392	0.72637284
251	0xbe9daeba	-0.30797368
252	0xbef9928f	-0.48744628
253	0xbf1dabee	-0.6159047
254	0x3f0dfffd	0.5546873
255	0x3f4e08a9	0.80481964

l_lstm.bias_ih_l1 f4 [32]
0	0xbf1f0698	-0.62119436
1	0xbee7e481	-0.45291522
2	0xbf421e63	-0.75827616
3	0xbf2b4486	-0.66901433
4	0xbec0f3f5	-0.37686124
5	0xbf30363f	-0.6883277
6	0xbf0c3aa5	-0.54776984
7	0xbe61ffa1	-0.22070171
8	0xbf6345f3	-0.8877861
9	0xbf02fd52	-0.51167786
10	0xbf013fb1	-0.5048781
11	0x3ebeb42e	0.3724684
12	0xbea940b6	-0.33057183
13	0x3e808158	0.2509868
14	0xbf874ca0	-1.0570259
15	0xbfa95a30	-1.3230648
16	0x3e105037	0.140931
17	0x3d3c99bd	0.046045054
18	0x3e5523d6	0.20814452
19	0x3d8757dd	0.066085555
20	0x3d1df243	0.038561117
21	0x3db74e1d	0.08950446
22	0x3defde44	0.11712316
23	0xbe0ed547	-0.13948546
24	0xbf02dbc3	-0.5111658
25	0x3d56b155	0.05241521
26	0xbea10420	-0.3144846
27	0xbdbd5018	-0.09243792
28	0xbe82b7dc	-0.255309
29	0x3e6a003b	0.2285165
30	0xbe8330bc	-0.2562312
31	0xbe85e2b5	-0.26149526

l_lstm.bias_hh_l1 f4 [32]
0	0xbe8c6ae1	-0.27425292
1	0xbecfbd03	-0.40573892
2	0xbe709e42	-0.2349787
3	0xbea720a6	-0.32642096
4	0xbea65dc8	-0.32493424
5	0xbe78c793	-0.24294882
6	0xbf1a871b	-0.60362405
7	0xbe19d6cd	-0.15023346
8	0xbf54aca0	-0.83075905
9	0xbf06fa0a	-0.5272528
10	0xbf52b8c0	-0.82313156
11	0x3e8a0ad7	0.26961395
12	0xbf0f3fb1	-0.5595656
13	0x3cdc1686	0.026866209
14	0xbf89feb8	-1.0780859
15	0xbfc1394f	-1.5095614
16	0xbdd79b3a	-0.10527654
17	0xbde43ed1	-0.11144794
18	0xbd12ffe2	-0.03588856
19	0xbcec20f5	-0.028824309
20	0xbe083d47	-0.13304625
21	0xbe40568e	-0.18783018
22	0xbe923569	-0.28556374
23	0x3e5793b6	0.21052441
24	0x3c920c4c	0.01782813
25	0xbef150f6	-0.4713208
26	0xbc107460	-0.008816808
27	0xbeb072a8	-0.34462476
28	0xbd410bf9	-0.04713056
29	0xbed00f53	-0.4063669
30	0xbe1f3227	-0.15546475
31	0xbf0188ad	-0.50599176

l_linear.weight f4 [1, 8]
0	0xbee63b88	-0.44967294
1	0x3ef82279	0.484638
2	0xbefc24a2	-0.492467
3	0xbf041eae	-0.51609313
4	0x3f00acc1	0.502636
5	0x3f15faf9	0.5858608
6	0x3ef191b5	0.47181478
7	0xbedf7272	-0.43642002
