data/datasets/tx_travis_county_neighborhood/resstock-amy2018-2021-release-1-378790.pth (torch, 8966 bytes, 9 tensors)

l_lstm.weight_ih_l0 f4 [32, 13]
00000000: ab93 8ebf cf3e afbf 24de 14be 9e99 873e
00000010: 152d d73e 486e d6be bade b8c0 c17a 9040
00000020: 5e1e cebd adca adbe 0af9 3540 1f15 803e
00000030: f09d 063f d022 a9bb 1dcd 65bd b40a 93bd
00000040: e9ea de3d 502e d63e 4947 05bf fad6 79c0
00000050: 18b9 0cc0 5f41 b2bd 9935 38bf 19ee ad3f
00000060: e82d 95bd 3ecb 823f 521e 16bf 2ad3 5a3f
00000070: 123a 58bf 73ed f83e 1e0d 4ebe 41c9 cebe
00000080: fe43 4d3f 2b00 5c3f 597e 833d 7184 503f
00000090: 88e4 f73c eaff 013f 42f2 83bf 7ad1 9e3f
000000a0: f81f 2fbe 125d 05bf 7db3 0ebd 8b0a 2a3f
000000b0: c310 523e 4c61 b5bf 27b2 a740 029b e6bd
000000c0: 7113 b9bd f17d 6fbf eaa9 91bf c125 2a3f
000000d0: 4d11 563e 884e 6bbe 1fcb 52be 2132 1a3e
000000e0: 32c9 f7be 9966 87be 85c2 71c0 b912 02bf
000000f0: 27ef 233e 2802 b43f 838f 443f c03f 333f
00000100: 27c0 e8be 7853 f0be 1d47 45bf 8342 bd3e
00000110: 23ee 8f3c b0e0 9cbd 0445 e5bd 8c9c a93f
00000120: 10ce 57be 1131 9e3e 35e5 e43d 9090 7f3c
00000130: f759 093f d902 d7bf 914b 303e dcd9 a83e
00000140: ab1a ed3d 6000 d23d 3c59 b9bf 811c 833d
00000150: 9618 f1bf ef86 2541 398a 8fbf 423f 3b40
00000160: bd65 61bf 0482 8ebf 0ca1 d3be 6339 d73c
00000170: 825a 71be 8a45 113f 5e06 813f 6d64 cd3f
00000180: 650c 8a3f a91d ccbe 4c7f 193f 853f 963f
00000190: 6149 923f 750a 76bf 7cff 87bf 2211 953d
000001a0: 0f29 a7be a8dd 493e cc9a 0fbe 769c e83d
000001b0: 6021 ee3e 17eb b43e d5ae bbbf dcd0 b8c1
000001c0: b9a1 d2bc eccb b63e 924f 273f 858e 4c3e
000001d0: a5f2 5f3f dfc7 e13c d35f 72be 9af0 38be
000001e0: e177 42be 1f13 bfbe ce37 2bbf 31d2 1440
000001f0: 416d 5ec1 949e 37bf 473f e5be 2379 2ebe
00000200: c067 1d3f 66ba 803f 6077 f2bd edb5 073f
00000210: 82e1 b53e 6692 c63e 8474 2e3e 5f68 59bf
00000220: cff1 bac0 c7e6 0dc0 eaf1 86c0 d6a7 fabe
00000230: 9f10 84bf 2d62 20be f490 78bf 9e9e 9d3d
00000240: 55fe b0bd cbd1 833e 4f77 20bf 3f45 34be
00000250: 25ee 2c3f e770 a9be 9aa3 a6c0 ae23 f0be
00000260: 77a9 96be a086 81c0 5ffb e83a 16ca 3f3f
00000270: c927 adbf 2426 51bf acf5 883d 6213 31be
00000280: f192 163e bb24 213f c9dd 8c3d 2d33 5d40
00000290: 88a8 883f 911b 3fbf 690c d23f e006 183e
000002a0: 878f 1b3f e95b c23e baa2 3dbe 8850 14bf
000002b0: e947 cabd b7b4 783e 89bb 803f 327e 95c0
000002c0: b4cd 50c0 dfac 403f 91c7 143e c15a 923e
000002d0: 53a1 02bf 4440 9abf 8ce4 5440 3c0c bfbf
000002e0: 0842 36bf 41d5 6f3f cb93 16c0 1bb0 173f
000002f0: aff0 8d3f 2756 4a41 10b0 6540 ce5e db40
00000300: 85cc 933e 3d88 b1bd b1d8 c43e bfee aabd
00000310: 05ba 81be 0157 09be c8a8 a6bd 6c76 29be
00000320: 6891 babb 081f 09c1 30bb 413e 1574 73bf
00000330: 4515 89bd f5cc 03c0 4b3c 20bd f297 7bbe
00000340: b1c4 e3be 612b 4ebf 3aae 7dbe 7012 f23b
00000350: aaac 02be df8d 8a3e 4644 02c1 b0ad 2941
00000360: 3e53 d63e 14a6 5f3e 5a9a 4940 570f 6abd
00000370: e696 1abf 963f 47bd 02be 26bb 9253 ac3c
00000380: 6e4e 1abc c366 e23d 6dcc ad3d 3d79 3abe
00000390: 8b98 c6bf aa5f ddbd 46d4 503d a1e1 eb3e
000003a0: a111 a0bd 56ab 09c0 a0bb fbbd 7bae 263d
000003b0: fa7c c83d a046 f7bc 8fa5 04be aedc 9e3d
000003c0: 5ef5 f93d a6da 82bf 41ff a53e 0826 2a3e
000003d0: 9323 393e 516f afbb e36f f83f 7ee9 433e
000003e0: edbb a43e 87cb a6bd cf93 f03c c1bd 443e
000003f0: a20e 57be 8d16 f03f d0c4 d6bf 29c2 4abd
-1.1138815 -1.3691043 -0.14537865 0.26484388 0.42026582 -0.41881013 -5.7771883 4.5149846
-0.10064386 -0.33943692 2.8433251 0.25016114 0.52584743 -0.0051616207 -0.056103814 -0.07179776
0.10884649 0.4183221 -0.520619 -3.9037461 -2.1987972 -0.08703875 -0.71956784 1.3588287
-0.072841465 1.0218275 -0.58640015 0.8547846 -0.8446361 0.4861866 -0.20122191 -0.4038792
0.8018187 0.85937756 0.06420583 0.8145209 0.03026034 0.5078112 -1.0308306 1.2407677
-0.17102039 -0.5209514 -0.034839142 0.6642234 0.20514207 -1.4170318 5.240497 -0.11260034
-0.09036911 -0.93551546 -1.1379979 0.6646386 0.20905037 -0.22979176 -0.20585297 0.15058185
-0.48395687 -0.26445463 -3.7774975 -0.5080982 0.16009198 1.4063158 0.7678148 0.7001915
-0.454591 -0.46938682 -0.77061635 0.36964807 0.017569607 -0.07660043 -0.11194804 1.3250899
-0.210747 0.3089681 0.1117653 0.015598431 0.536529 -1.6797744 0.17216326 0.32978714
0.11577352 0.10253978 -1.4480357 0.06401921 -1.8835628 10.345443 -1.1214057 2.925736
-0.88045865 -1.1133428 -0.41333807 0.026272481 -0.23569682 0.56746733 1.0080068 1.6046273
1.0785033 -0.3986638 0.59959865 1.1738135 1.1428643 -0.96109706 -1.0624843 0.072786584
-0.32648513 0.19713461 -0.14023894 0.113579676 0.46509838 0.3533561 -1.466273 -23.101982
-0.025711881 0.35702455 0.6535579 0.19976242 0.8747962 0.027561126 -0.23669367 -0.18060532
-0.18991043 -0.37319276 -0.66882026 2.325329 -13.901673 -0.71726346 -0.4477484 -0.17038397
0.61486435 1.0056884 -0.11839175 0.5301197 0.3552361 0.38783568 0.17036635 -0.8492488
-5.8420177 -2.2172105 -4.2170305 -0.48956174 -1.0317572 -0.15662451 -0.9709618 0.076962695
-0.0864226 0.25745997 -0.6268205 -0.1760454 0.6755088 -0.3309395 -5.207471 -0.4690222
-0.29426166 -4.0476837 0.001777511 0.74917734 -1.3527766 -0.8169882 0.06687483 -0.1729255
0.14704491 0.6294667 0.0687824 3.4562485 1.0676432 -0.7465144 1.6410037 0.14846373
0.6076588 0.37960747 -0.18519107 -0.5793538 -0.09876997 0.24287687 1.0057231 -4.6716547
-3.2625551 0.7526378 0.14529254 0.28584865 -0.5102741 -1.2050862 3.3264494 -1.4925609
-0.71194506 0.93684775 -2.3527706 0.5925309 1.1089076 12.646033 3.588871 6.855323
0.28866974 -0.086685635 0.38446572 -0.083463185 -0.25337234 -0.13412096 -0.08137661 -0.1654908
-0.0056936033 -8.570076 0.18919063 -0.95099 -0.0669351 -2.0593846 -0.03912 -0.24569681
-0.44486 -0.8053494 -0.24773493 0.007387452 -0.12761179 0.27061364 -8.141668 10.604904
0.41860384 0.21840698 3.1500459 -0.057143535 -0.603865 -0.048644625 -0.0025442843 0.021035943
-0.009418113 0.110547565 0.08486257 -0.18210311 -1.5515302 -0.10809262 0.05098369 0.4607058
-0.078158624 -2.1510825 -0.12291646 0.04069374 0.097894624 -0.030185044 -0.1295378 0.07756935
0.12205003 -1.0222976 0.32421306 0.1661607 0.18079977 -0.005353846 1.9409145 0.19132039
0.32174626 -0.081442885 0.029367356 0.1921301 -0.21001676 1.8756882 -1.6778812 -0.04950157

l_lstm.weight_hh_l0 f4 [32, 8]
00000000: f363 8ac0 3753 913f 1034 ba3f 23be 69be
00000010: 1d36 53bf 8cbe b8bf fdfd 0a40 5f11 523f
00000020: 7cac 18bf 568e 0940 985b 65bf e4f6 8c3f
00000030: c73c b5bf b698 e1bd abfa e13e 2c51 df3e
00000040: 5cb0 d53f e9db c6be e7d9 f13f ef90 2bc0
00000050: bf4a 61c0 2d6b 0f3e d4e4 853f 09f0 8e40
00000060: 90e4 a940 9b6b 4f40 699f 0ec0 77c8 1b40
00000070: 416c a840 9f9a d5bf 3b8b 81c0 ba2c 993f
00000080: c910 95bf ec4e 6ebe e75a b4bf d013 c23f
00000090: cb1f 1740 a72b b8bf 4782 483f 830f 6f3f
000000a0: 5586 0b40 fd58 1fbf 83fb dfbf 1868 bcbf
000000b0: 4deb 40bf 8d9b 72bf 73ba 8e3d 66be d63f
000000c0: 4dcf 2740 a100 56c0 3441 b0bf cde8 a0bf
000000d0: fac7 813f 97d9 2640 c82a 13c0 ed03 9fbf
000000e0: 3479 1840 6b44 983f 60c7 9440 e6e0 4740
000000f0: a933 8940 2866 c6bf 0964 71c0 eb6c ee3f
00000100: 4182 07bf 8411 c13c b98f e93e 8819 abbf
00000110: c912 27c0 b778 9dbf a869 5940 2410 f13f
00000120: 3785 8cbf de12 26bf 4361 45bf 7297 71bf
00000130: 1148 0cc0 b9de 25bf acdf bebe 8ec5 bebf
00000140: 4534 4ec0 22a0 e7bd cd6f 5dbf 985a a23f
00000150: c302 bdbe f700 4d40 30c1 293e 8a38 8f3f
00000160: 7e07 86c0 9e08 cbc0 de33 81bf 9509 053f
00000170: 3e08 4d40 c665 593e 5e68 38bf 1b78 88c0
00000180: 0e61 8e3e b1e6 b6be b626 1fbf 7806 52c0
00000190: 7c31 ffbf e96a c3bf a2fb 4e40 567d ed3f
000001a0: 453b bcbf 8e49 83bf 2519 27bf ad33 5640
000001b0: caa2 db3f 1718 d5bf b7af 24bf 3299 e6bf
000001c0: 87bf ab3e 94e4 4fbf 1a1c ffbd a139 febe
000001d0: 22c8 3e40 57b1 d0bf 85f2 e8bf e1ee 98bf
000001e0: e366 b9bf 967f 0cbf 8999 4cc0 a1f3 33bf
000001f0: 69ca 83bd 19b3 993f f908 a9bf 8bc8 ddbe
00000200: 4a55 94bf c1ff 733f c3d9 bd3f 23d6 b7bf
00000210: d2c4 2b3e 1046 61c0 e81c a23f cea4 003e
00000220: 7a51 8c3e 9d84 9bbe 5c70 173f 8e5d b1be
00000230: 0056 0e3f b064 d4be 38b5 ebbd 021e 8fbe
00000240: f8f7 8fbe acc4 263f 3ce8 7fbf 56f6 1c3f
00000250: b04e 8e3d c8ff 54be b1c4 293f 75f3 14bf
00000260: 04c7 c03e 7657 bb3e 86d8 813e a5f3 48bf
00000270: 14fd a1be 3d7a c6bf 5d81 1b3c 255b 0abf
00000280: 30cd 243f 752a 203e eb63 37bf 2b89 0b3f
00000290: a207 33bf 7ab5 67bf 514d 2c3f 0226 5ebf
000002a0: 9a89 03bf b034 07c0 4812 65bd 1772 bebf
000002b0: e672 2b3f 6f39 08bf 826a 5f3f aa67 513f
000002c0: 059b 82bf 716f 02bf 261c b93f 3446 0b40
000002d0: e15d 49c0 2ce3 be3c d9b6 0741 7102 593e
000002e0: e68f 28bf c39c d63e 9a9b fb3d aa0f 873e
000002f0: 2ca2 13be 10cc 5dbf 893b bb3d a2f2 26bf
00000300: 2150 37bf 1d23 ffbe c5b3 d83e 09da 59bf
00000310: 8a71 4bbf dfc3 163f b840 b53f aa99 023f
00000320: 5634 9fbf 3630 0fc0 e4f0 a0bf 48d3 283f
00000330: f5b0 0a40 3551 3ec0 7652 9d3f 9de9 a33f
00000340: 8523 b53e b6f0 19bf 4529 b53f 0a26 0b40
00000350: a405 c43e f005 1c3f 4bee 3140 eb32 d33f
00000360: a654 0fbf 6241 02bf 6728 6e40 3786 023f
00000370: 7ca1 d3bf e5fe 7e40 b1c1 16c0 f1d0 c23f
00000380: 1387 09c0 48bf bbbe 502b e5bf ac5b b43e
00000390: cc21 ecbf f507 3140 9812 b6be 4314 96bf
000003a0: f1ff 2b40 2e6c 743f 58ae 5fbb adc5 91bf
000003b0: 0852 56be 04b5 bcbe bcc6 63bf 9418 e5bf
000003c0: daed 78bf c70c e2bf 7290 00be 1e88 563f
000003d0: e17f bf3f 1e47 0040 1bc2 3dbf 4939 e4bf
000003e0: 2cea ac40 9ae7 9bbe baa1 8a40 2895 a3be
000003f0: 17cf e8be 89a3 5c3e 5945 29c0 42bb 1140
-4.324701 1.135352 1.4547138 -0.22826438 -0.82504445 -1.443315 2.1717522 0.82057756
-0.5963819 2.1493125 -0.89592886 1.1012845 -1.4159173 -0.110154554 0.44136557 0.43616617
1.6694446 -0.38839653 1.8894624 -2.680721 -3.5201871 0.14005728 1.0460458 4.466801
5.3091507 3.2409427 -2.2284796 2.4341104 5.2632146 -1.6687812 -4.048246 1.1966774
-1.1645747 -0.23272294 -1.4090241 1.5162296 2.3613155 -1.4388322 0.7832379 0.93383044
2.180074 -0.6224516 -1.749863 -1.4719267 -0.7535904 -0.947686 0.06969156 1.6776855
2.6220276 -3.3437884 -1.3769898 -1.2571045 1.0139153 2.6070306 -2.2994862 -1.2423073
2.3823977 1.189588 4.649338 3.1231017 4.287556 -1.5499926 -3.7717307 1.8626989
-0.52933127 0.023567922 0.45617464 -1.3367167 -2.6105216 -1.2302464 3.3970737 1.8833051
-1.0978154 -0.6487254 -0.77101535 -0.9437171 -2.1918986 -0.6479297 -0.37280023 -1.4904039
-3.2219403 -0.1130984 -0.8649872 1.2683897 -0.3691617 3.203184 0.16577601 1.1189129
-4.1884146 -6.344802 -1.0093954 0.51967746 3.203628 0.2123023 -0.7203425 -4.2646613
0.27808422 -0.3572288 -0.62168443 -3.2816448 -1.9936976 -1.5267001 3.2341084 1.8553874
-1.4705588 -1.0256822 -0.6527274 3.346904 1.7159054 -1.6647977 -0.6433062 -1.8015501
0.3354456 -0.8120816 -0.12456532 -0.49653342 2.9809651 -1.630412 -1.8199011 -1.19479
-1.4484524 -0.5488218 -3.196871 -0.70293623 -0.06435091 1.2007781 -1.3205863 -0.43317065
-1.1588528 0.95312124 1.4832081 -1.4362224 0.167743 -3.5199013 1.2665071 0.12562868
0.27405912 -0.30374613 0.5915582 -0.3464169 0.55599976 -0.41483068 -0.11509174 -0.27952582
-0.28118873 0.6514385 -0.99963737 0.6131338 0.06948602 -0.20800698 0.6631575 -0.58183986
0.37651837 0.36590165 0.25360507 -0.7849677 -0.31638396 -1.5506054 0.009491292 -0.54045326
0.6437559 0.15641196 -0.7163684 0.54506177 -0.6993352 -0.90511286 0.67305475 -0.86776745
-0.5138184 -2.1125908 -0.055925637 -1.4878567 0.66972196 -0.53212637 0.87271893 0.81798804
-1.0203558 -0.50951296 1.4461715 2.1761599 -3.146355 0.023301683 8.482141 0.21192338
-0.6584457 0.41916475 0.12285538 0.26379138 -0.14417332 -0.866395 0.09142215 -0.6521398
-0.7160664 -0.49831477 0.42324653 -0.8509832 -0.7947012 0.58892626 1.4160376 0.5101572
-1.2437847 -2.2373176 -1.2573514 0.6594739 2.1670506 -2.9737065 1.229079 1.2805668
0.35378662 -0.6013292 1.415322 2.1741967 0.38285553 0.6094656 2.7801692 1.6499914
-0.5598854 -0.50881016 3.721216 0.50986046 -1.6533656 3.9843075 -2.355572 1.5220014
-2.1488693 -0.36669374 -1.7903843 0.3522619 -1.8447814 2.7661107 -0.3556106 -1.1724933
2.6874964 0.9547757 -0.0034131017 -1.1388451 -0.2092973 -0.36856854 -0.8897512 -1.7898126
-0.9723793 -1.7660149 -0.12555102 0.8380145 1.49609 2.0043406 -0.74124306 -1.7829982
5.4035854 -0.30450135 4.332242 -0.31949735 -0.45470497 0.21546759 -2.6448576 2.2770543

l_lstm.bias_ih_l0 f4 [32]
00000000: e268 f1be 70b4 56be c169 b33d 228a c43e
00000010: 729c 86bd 0daf 12be 96b5 083e 9de9 213f
00000020: f804 79bf 489a 7fbe 224b 053f 8ae4 3b3f
00000030: 4f25 5bbe 2a47 6cbe 130b 9a3f 36e0 af3d
00000040: 89e3 3cbe 1c41 243f 679e 10bf 65d2 ecbe
00000050: 2415 09bf 9900 ab3e bc59 ffbe 8dd5 f0be
00000060: edca 9abf 6939 103f a3f2 eabd 72ef ccbd
00000070: 9586 af3e e467 9cbe 8020 3bbe a648 2a3e
-0.47150332 -0.20967269 0.08760405 0.38386637 -0.06572808 -0.14324589 0.1335052 0.6324709
-0.97273207 -0.24961197 0.5206777 0.733956 -0.21400951 -0.23074022 1.203463 0.08587687
-0.18446173 0.6416185 -0.564917 -0.46254268 -0.53547883 0.33398893 -0.4987315 -0.47037926
-1.2093178 0.563376 -0.114720605 -0.10006608 0.34282365 -0.30548012 -0.18274117 0.16629276

l_lstm.bias_hh_l0 f4 [32]
00000000: 4cd3 03bf 0a5f 84be c5f6 3a3d 7b74 2d3f
00000010: c5bf 32be adf9 55bd 90a4 0c3f 6f09 c83e
00000020: 2068 7abf 96ff e3be b2ad e43e 3280 613f
00000030: 418b 0abf 4eb8 783e 9292 973f e4ad 11bd
00000040: f8ce 4cbe 5459 a63d ecbf c0be f304 f43d
00000050: 830f cfbe 390c 403f 176d 8dbe ed52 32bf
00000060: e6f0 a5bf 1851 4b3f 25d7 70be 77c7 1fbf
00000070: 6d38 87bc f6d4 4dbe 278b cbbe 0738 3b3e
-0.5149429 -0.2585376 0.045645494 0.6775586 -0.17455967 -0.052240063 0.549386 0.39069697
-0.9781513 -0.44530934 0.4466377 0.88086236 -0.54118735 0.24289057 1.1841605 -0.035566226
-0.20000827 0.08122507 -0.37646425 0.119150065 -0.40441522 0.7501865 -0.2762229 -0.69657785
-1.2964141 0.79420614 -0.23519571 -0.62413734 -0.016506398 -0.2010077 -0.39754602 0.18283091

l_lstm.weight_ih_l1 f4 [32, 8]
00000000: 7dbe ae3f 42ea 9e3e 4a48 d1be c73d 96bf
00000010: c317 49bf 0fbf f93d e10b 8f3f 1947 9ebe
00000020: 225d aa3d 7c38 8fbf 4818 13bd 7265 f5be
00000030: 6a75 ce3e 4d17 db3d 66f1 f43d e950 163f
00000040: 8495 cb3f 4ae0 503e 7e3f b9bf 18de 73bf
00000050: 6109 8cbf 04e7 e0be c761 0340 279b 47bf
00000060: 38e6 0cbe 6481 debe f94a f73d d9c3 9c3f
00000070: 53f5 acbe 1ef1 a33f 275a cd3f 99e8 5dbf
00000080: 0d90 6c3f eaf5 3c3d e5a6 8abe 90b6 57bf
00000090: 7fd8 a2be ea24 94be ddd7 093f 20e4 43bf
000000a0: 435b 7f3f 0f23 df3e bc6c 42bf 1d90 edbe
000000b0: 855d b4be 57d4 0f3e bfce 6f3f 169b 0dbf
000000c0: 913d 923f 50f2 343f 5a08 25bf 3597 c8be
000000d0: a7db be3e 4979 69bf 1363 b93f 31a6 83bf
000000e0: 2c9a 0dbe b6e7 7a3f 82db 06c0 3aeb 8d3f
000000f0: 21c5 54c0 86d3 1f3f 4fde 0440 4dbb 72c0
00000100: dac8 a6be a23a 48bf b22b d33f eb8d 6c3f
00000110: aa1c 8e3f c36d 0dbe a93b 23bf f489 e93e
00000120: 32fa 4ebe 2613 313f b3f5 813f d24c 0a40
00000130: 4fcd f63d 5677 6ebf 39b7 e1bf 98bd c3bd
00000140: 8c0f 0e3e 3a93 d6be 5a4d c03f 05a5 063f
00000150: 773f 013f b3cd 1fbe 5d78 3fbf 4e22 c63f
00000160: 0579 913e 1329 f83c b8ae ab3e 8d28 2fbf
00000170: 7680 f63e ba2b 2bbf d72b 1bbf 8900 a73f
00000180: e56a be3e dce6 43bf fdac d43f 2d58 5a3f
00000190: 3013 d93e b037 89bd d8e1 56bf d7fd a83f
000001a0: b070 7b3d 4a23 8fbf 8cf3 c83f 9e9f 9dbe
000001b0: f3f7 833f f3ed 693f b2b3 0fbf 561a cf3f
000001c0: 33dc 56be 87f4 7cbf a273 483f 6a76 173f
000001d0: 88fd 813e 770f cbbd 73f2 cebe 0e8c 953f
000001e0: c823 56be 3007 4cbe 7db5 aa3f 7247 89be
000001f0: ac7a 2d40 31ac fbbe 2fcc dbbf 7c8b fe3f
00000200: c5e3 433f c0b0 88bf f732 7c3e cdf8 02bf
00000210: 81b4 1d3f c5fc 043f 00ff 1e3f 9681 c33f
00000220: 940a 59bf 68c8 6c3f 45a0 84be 3857 763f
00000230: 0cd2 11bf 0409 f8bd 7b2a c5bd 44b3 58bf
00000240: 24a3 f0be 9ee3 963f f76c 3dbf 8ef3 c23e
00000250: b5d1 24bf b094 31bf 4d0a 8cbd 23a2 d8bf
00000260: 5d4e 7d3f 4034 38be 2223 cc3e 0baf 60bf
00000270: e4da 173e 77c5 e83e 3445 70be 38cc 10bd
00000280: e342 7b3f fab8 99bf f166 043f a913 25bf
00000290: 0f5d 2a3f d953 003f e3da 673e 3e09 b33f
000002a0: 9c0d 3bbf e0ab 953f b944 1dbf 537b 153f
000002b0: a2e0 1ebf db6e 17bf 8b9b f4bd f468 cebf
000002c0: 31b6 e73e 66b6 78bf 3ce5 ff3e e3d7 32bf
000002d0: 6321 e53e 14af 023f cd38 a0be 5740 ae3f
000002e0: f7ab 98bf 2c0d a23f 6dee 85bf ff5f 053f
000002f0: 49c7 81bf a7b2 96bf 9df3 0f3e b6c2 cabf
00000300: ad05 563d ba77 71be 4812 c8bc 1483 67bf
00000310: a5d0 5e3f 2ba1 0abf ea48 473f 3a4c 333b
00000320: 6701 943d 94e0 5fbb 3cb8 77be 2409 0abf
00000330: 1d51 613f f43a 6cbe 7a0b 063d 815b 263f
00000340: 9755 5d3f ccdf 87bf 365d cb3e f17f a73e
00000350: e9c7 243f 7393 61bf 71b8 973f 7f59 dc3d
00000360: 323d b9bd 0819 9abd 56fd 04bf 16f9 de3f
00000370: 98ef 80be 1c30 41bf 7123 433f 54eb 713f
00000380: 5b06 7e3e 3bcd 95be cdc9 b3be 66eb babe
00000390: 181d fc3e 2bb0 5bbf 7e8d 483d d4fa 5a3e
000003a0: aa8b 233f f834 613d 1742 d13d b143 a73e
000003b0: 8877 043f 1b05 a8bf d356 7f3f cef7 4e3f
000003c0: 26a6 e83e c6a4 ba3e c9ab 84be 8908 89be
000003d0: fe99 053f f0c6 a0bf 49a1 583f 650a 02bf
000003e0: db0d fa3f e27c 373f ed3a 03bf 9316 2f3f
000003f0: 3631 acbf 6ba4 13c0 d5d0 6b3f eff4 cbbf
1.3651882 0.310381 -0.40875465 -1.1737603 -0.7855188 0.12194645 1.11755 -0.30913618
0.08318545 -1.1189113 -0.03591183 -0.4792896 0.40323955 0.10697804 0.119601056 0.5871721
1.5905004 0.2039806 -1.4472501 -0.95260763 -1.0940362 -0.4392625 2.0528429 -0.7797112
-0.13759696 -0.43458092 0.12074847 1.2247268 -0.33780918 1.2807958 1.6043137 -0.8668304
0.92407304 0.04613296 -0.27080455 -0.84262943 -0.31805798 -0.28934413 0.53845006 -0.76519966
0.9974863 0.43581435 -0.75947165 -0.46399012 -0.352276 0.14045845 0.93674845 -0.5531477
1.1425039 0.7068224 -0.6446587 -0.39177862 0.37276956 -0.9120069 1.448336 -1.0285093
-0.13828343 0.9800981 -2.1071477 1.108741 -3.3245318 0.62432134 2.0760686 -3.792682
-0.32575113 -0.78214467 1.649771 0.9240405 1.1102498 -0.13811402 -0.6376291 0.45613062
-0.2021263 0.69169843 1.0153106 2.1609387 0.12050878 -0.9315084 -1.763404 -0.095576465
0.13873118 -0.419092 1.5023606 0.5259555 0.50487465 -0.15605812 -0.74793035 1.5479219
0.28412643 0.030293023 0.33531737 -0.6842125 0.48144883 -0.66863596 -0.6061377 1.3047038
0.3719093 -0.7652414 1.6615292 0.85290796 0.4239745 -0.06700075 -0.8393836 1.3202466
0.061386764 -1.1182644 1.5699325 -0.3078584 1.0310043 0.91378707 -0.5613357 1.6179912
-0.20982437 -0.9881062 0.7830144 0.5916506 0.25388741 -0.09915059 -0.4041935 1.1683366
-0.20912087 -0.19924617 1.3336636 -0.2681232 2.7106123 -0.4915481 -1.7171687 1.9886317
0.76519424 -1.067894 0.24628817 -0.5116089 0.6160355 0.51948196 0.6210785 1.5273921
-0.84781766 0.92493296 -0.25903526 0.96226835 -0.5696113 -0.121110946 -0.09627243 -0.8464854
-0.46999466 1.1788213 -0.7399439 0.38076442 -0.6438249 -0.69367504 -0.06837902 -1.692448
0.989477 -0.17988682 0.39870554 -0.87767094 0.14829594 0.45463154 -0.23463899 -0.03535101
0.98148936 -1.2009575 0.51719576 -0.64483124 0.66548246 0.5012794 0.22642092 1.3987195
-0.7306764 1.1693077 -0.6143299 0.583913 -0.6206151 -0.5915353 -0.1194373 -1.6125779
0.4525619 -0.9715332 0.4997958 -0.69860667 0.44752035 0.510484 -0.31293336 1.3613385
-1.192748 1.266027 -1.0463387 0.52099603 -1.0138942 -1.177327 0.14057775 -1.5840671
0.052251507 -0.23580828 -0.02442278 -0.90434384 0.87037116 -0.5415217 0.77845633 0.0027358667
0.0722683 -0.0034160959 -0.24191374 -0.539202 0.88014394 -0.23069364 0.03272579 0.64983374
0.86458725 -1.0615172 0.39719552 0.327148 0.6436754 -0.88115615 1.1853162 0.107592575
-0.09044875 -0.075243056 -0.5194906 1.7419765 -0.25182796 -0.75464034 0.76225954 0.9449971
0.24807112 -0.2925814 -0.351149 -0.3650772 0.49240947 -0.85815686 0.048963062 0.21384746
0.63884985 0.054982156 0.10217684 0.32668832 0.5174489 -1.3126558 0.9974186 0.8084687
0.4543926 0.36453837 -0.25912312 -0.26764324 0.521881 -1.2560711 0.846211 -0.5079711
1.9535478 0.7167493 -0.5126179 0.6839382 -1.3452518 -2.3069103 0.9211553 -1.5934123

l_lstm.weight_hh_l1 f4 [32, 8]
00000000: 3d65 97bf c3a7 413f 68ea 933e e470 29bf
00000010: 13bf 9ebf d78e 023f a969 9cbf fc8f 913f
00000020: aad4 ddbd ec1a ed3e 5760 73bf 1857 b3be
00000030: 4023 98be a3cf 0fbe ba25 95be ad25 423f
00000040: 468b 2f3e 3d3b ebbe a62a b9be 3ecc 673e
00000050: 0713 833e 2d93 32be 6824 14be c20d 963f
00000060: e12a 1f3f 2d2d 33bf 978e d3bf 5899 89be
00000070: b987 2b3e 3ceb 1cbf f8fc 9a3e 2d51 3f3e
00000080: b079 39be 839f 88bd 6802 6a3e 00c3 a4be
00000090: 2ab1 84bf d775 1a3e a4be 2cbf 3b12 083f
000000a0: e07d 3f3e ca9a 33bd 157e 393e 3c62 a2be
000000b0: b6fd 8bbd a9b1 493f bed3 e6bd c44d bb3f
000000c0: 85f1 a63e 095a b1be 1d41 02bf e023 d23e
000000d0: 45b8 4dbc 67e0 a8be 87f0 3abf d240 e63e
000000e0: c485 d93f 20d9 03c0 5fae 28bf 764f 1040
000000f0: c828 7a3f c9f1 afbf 8575 a73f 094d 12bf
00000100: 6f0d 0fbf d8e6 a7be 9b46 2d3e 9265 b1be
00000110: 4484 383d 42ca 093e 6e05 d0bd a7c8 843f
00000120: d451 30bf 9dee 8f3f d5fc 02bd d4b2 68bf
00000130: 1b0e 5dbf 6af2 1c3f 6b6d 34bf 1484 bf3f
00000140: 34b5 3a3e 034a 983e c37f 363f e499 32bf
00000150: 48cf 13bf 3532 3c3f 09a5 49bf ba43 f33f
00000160: 485b ddbe 7716 aa3e 9bf3 cebe ba91 05c0
00000170: f97a 12bf 1d7a 1c3f 3a55 2bbd bf8f 953f
00000180: 4ed3 213f f567 0abf 223e 02be f0a1 30be
00000190: edde 71bf f6ae 383d fc26 09be 329b 543f
000001a0: 4aa0 083f be8f 32be 6965 4c3f 6a79 b2bd
000001b0: c9c4 153c 53fc 5b3f 49ca 07bf a4fc 6e3f
000001c0: 2a01 0b3f 2ed5 a1be 4f26 e0be bf07 bbbe
000001d0: df69 0d3f a31b a8be 9361 02bf ef45 e63e
000001e0: 0099 bb3f 2211 92bf 71a9 87bf c310 683f
000001f0: da61 583f 867e c4bf 4482 533f 56f9 0e3f
00000200: 0fee f8bf c21b 4d3f 8fd4 85bf 622f 65bf
00000210: 58ea b6bf 6599 363f cc31 9dbf 944c 843f
00000220: 8326 1cbe 739e 01c0 5319 f53f 4ec7 3b3f
00000230: 9e2f 093f 3e5f 26be bf44 873f 6eb5 8bbe
00000240: 7159 e43f d522 d5bf c1ac 90bf 2355 e23f
00000250: e2c1 bb3f 09ba 94bf e8dc b43f ef7f a6bf
00000260: e0b6 bf3f 8413 02bf 6562 30c0 ffda 59c0
00000270: 5647 1d3f 866b 9ebe c4a9 eb3d 4c60 0d3e
00000280: 4978 b2be 5891 843f d982 34bf 7307 53bf
00000290: dadc fcbf 0a71 6e3f 8803 a2bf 905a 49bc
000002a0: 7aae 483f e753 c1bf 4a03 10bc 19cb 9f3f
000002b0: 1bc0 7c3f 6fd5 02c0 d0d5 8b3f fae9 5abf
000002c0: dc95 b73c 8d3b cc3e 315d 5bbf 337d 06bf
000002d0: 16ab 3ebf 40e6 843e 6848 f9bf ae71 67be
000002e0: 8bbf 273f a598 1fbf 68bc 30be 9802 ca3f
000002f0: ff1a 893f 094f 71bf 93f4 953f 8719 22c0
00000300: 3024 8abf 222c b03e 49c5 32bf fcae 8cbe
00000310: 1a37 34bf 29f1 473e 3c71 0bbf 0832 803f
00000320: ba08 853c fd1a f43e a3ea 4fbf 23e5 933d
00000330: ad8f 70be 869d 85bd 1177 e33e b512 df3e
00000340: 7cec 093f 03d2 5d3e 5b64 cebe d62e 5fbe
00000350: 470e 37bd 8675 54be 13cc af3d 664b c93f
00000360: e686 273e 2315 46be 940f 73bf 9c43 d7be
00000370: ca23 cabe e2f3 60be 4542 e73d 9545 91be
00000380: cac1 acbe 4bb9 af3d 53f0 363d b884 c03d
00000390: c918 5ebf eacd 4f3d 6efd e43d beb6 b43e
000003a0: 8447 e8be e762 1f3e c2d9 81be 502c 5fbe
000003b0: 9a15 aebe 4a26 843f f6fd 05bf 232a a33f
000003c0: 64b8 c13e 0719 d2be 2829 30be 3595 093f
000003d0: 22d9 b93d 5f94 92be d706 35bf dfad 833e
000003e0: 75d2 d63f c814 31c0 ec30 9fbf d979 1e40
000003f0: 3645 c53f 6900 c8bf dfed 9f3f 24c1 d5be
-1.182777 0.7564661 0.28889775 -0.6618788 -1.2402061 0.50999206 -1.2219745 1.1372066
-0.10831578 0.46309602 -0.9506888 -0.35027385 -0.29714394 -0.14044051 -0.29130346 0.7583874
0.17142972 -0.45943633 -0.3616535 0.22636506 0.25600454 -0.17438956 -0.14467013 1.1722949
0.62174803 -0.6999081 -1.652789 -0.26874804 0.16750993 -0.6129644 0.30271125 0.1868331
-0.18112826 -0.066710494 0.2285248 -0.32180023 -1.0366566 0.15084015 -0.67478395 0.5315282
0.18700361 -0.04384879 0.18114503 -0.31715572 -0.06835501 0.7878671 -0.11270855 1.4633107
0.3260614 -0.34639004 -0.50880605 0.41042995 -0.01255614 -0.32983705 -0.73023266 0.4497133
1.6993947 -2.0601273 -0.6589107 2.25485 0.9771848 -1.3745662 1.3082739 -0.57148796
-0.55879873 -0.32793307 0.16921465 -0.34647804 0.045048013 0.13456061 -0.10157286 1.0373734
-0.6887486 1.1244694 -0.0319794 -0.9089787 -0.8634965 0.61307395 -0.7047946 1.4962182
0.18233186 0.29743966 0.712887 -0.6976607 -0.5773816 0.7351411 -0.7876745 1.9005044
-0.43233705 0.33220264 -0.4042023 -2.0870194 -0.5721889 0.6112383 -0.041829325 1.1684493
0.6321305 -0.54064876 -0.12719014 -0.17249274 -0.9448078 0.04508873 -0.13393778 0.8304931
0.5336958 -0.17437646 0.7984224 -0.08714564 0.0091411555 0.8593189 -0.5304304 0.9335425
0.5429865 -0.31607956 -0.43779227 -0.36529347 0.5523967 -0.32833585 -0.50930136 0.4497523
1.4656067 -1.1411479 -1.0598584 0.90650576 0.8452431 -1.5351112 0.82620645 0.55849206
-1.944765 0.8012048 -1.0455493 -0.89525425 -1.4290266 0.7132781 -1.2280822 1.033587
-0.15249066 -2.025296 1.9148353 0.7335099 0.53588283 -0.1624727 1.0567855 -0.27286857
1.7839795 -1.6651255 -1.130272 1.7682232 1.4668543 -1.1619273 1.4129915 -1.3007792
1.4977684 -0.5081103 -2.7560055 -3.4039915 0.61436975 -0.3094141 0.115069896 0.13806266
-0.34857395 1.0356855 -0.7051216 -0.8243324 -1.9754899 0.93141234 -1.2657328 -0.012289658
0.7839123 -1.510373 -0.008789847 1.2483855 0.9873063 -2.044277 1.0924625 -0.8551327
0.022410326 0.39889184 -0.85689074 -0.5253479 -0.74479806 0.25956917 -1.9475222 -0.22601959
0.65526646 -0.6234229 -0.17259371 1.5782042 1.0711364 -0.94261223 1.1715263 -2.532808
-1.0792294 0.3440867 -0.69832283 -0.27477252 -0.7039658 0.19525589 -0.54469657 1.0015268
0.016239513 0.4767684 -0.812174 0.07221439 -0.23492308 -0.06524186 0.44426778 0.4356896
0.5387647 0.21662144 -0.4031094 -0.2179521 -0.04469135 -0.20747957 0.08583846 1.5726135
0.16360053 -0.19344 -0.94945645 -0.4204377 -0.3948043 -0.21968034 0.11291937 -0.283734
-0.337416 0.08580264 0.044662785 0.09400314 -0.8675657 0.050733484 0.111811504 0.3529567
-0.45367062 0.15565072 -0.2536145 -0.21794248 -0.34000856 1.0324185 -0.5234064 1.2747234
0.3783599 -0.4103472 -0.172032 0.53743297 0.09074618 -0.28628823 -0.7071356 0.2571859
1.6782976 -2.7668934 -1.2436805 2.476187 1.5411747 -1.5625125 1.2494467 -0.41748917

l_lstm.bias_ih_l1 f4 [32]
00000000: ed0e 2cbf 8e07 4ebf 4be1 94bf a7c2 0abf
00000010: 944e 74bf f4ad 0abf 9357 21bf 921a 9abf
00000020: 9ff6 f23e 76a6 423e bd42 a63f 7090 a7be
00000030: 82ba 64bc cbed 223f e5e5 a6be 111c 08be
00000040: 231f 41bd 6d4d 723d 2f10 35be 5a56 0abe
00000050: eb81 3bbe 35f2 643d 9b2d 87be a820 9f3e
00000060: 73b6 883c 50b5 42be 0d30 7dbc ea21 143e
00000070: 3436 e6be 21d5 12bf a4c6 4cbe 7073 943e
-0.67210275 -0.8048028 -1.1631254 -0.54203266 -0.954324 -0.5417168 -0.6302425 -1.2039359
0.47453782 0.19008812 1.2989117 -0.32727385 -0.013960483 0.63644093 -0.3259727 -0.13291956
-0.047148835 0.05915587 -0.17681955 -0.13509503 -0.18311279 0.05589505 -0.26401982 0.31079602
0.016688561 -0.19014478 -0.015453351 0.14466062 -0.4496323 -0.5735646 -0.1999765 0.28994322

l_lstm.bias_hh_l1 f4 [32]
00000000: ca8b 4bbf 4614 58bf c099 31bf 00e2 4fbf
00000010: df26 10bf bcc7 7dbf a15d 48bf 4093 8abf
00000020: b2f3 fb3e 17b9 82bd 0995 573f 3ab0 97be
00000030: b310 523e cb37 cd3e c552 0fbf 08fc d63e
00000040: d3a2 a0bd b2fc a43d fa21 ab3e 04d6 a13d
00000050: fb47 6c3d d789 d43d a553 b73d e600 09be
00000060: 3686 0abf 643e 29bf 3139 afbe 7320 34be
00000070: 0379 9f3d 0182 00bf 4f25 cdbe 26df cf3e
-0.79510176 -0.84405935 -0.6937523 -0.81204224 -0.5630931 -0.99132895 -0.78267866 -1.0826187
0.49209362 -0.06382959 0.84211785 -0.29626638 0.20514183 0.4008163 -0.5598567 0.4198916
-0.07843556 0.0805601 0.3342436 0.07902148 0.057685833 0.10377853 0.08951501 -0.13379249
-0.5411104 -0.66110826 -0.3422332 -0.17590503 0.07786753 -0.5019837 -0.40067527 0.40599936

l_linear.weight f4 [1, 8]
00000000: c8ca dd3e e23a d3be 2329 e0be b099 d43e
00000010: 856e e23e 81c6 f5be 8e08 d23e 7753 08bf
0.43318772 -0.41255862 -0.43781385 0.41523504 0.44224945 -0.4800301 0.41022152 -0.5325236
