data/datasets/tx_travis_county_neighborhood/resstock-amy2018-2021-release-1-358693.pth (torch, 8966 bytes, 9 tensors)

l_lstm.weight_ih_l0 f4 [32, 13]
0	0xbd96d7c0	-0.0736537
1	0x3aca7a79	0.0015447877
2	0xbd850fe1	-0.06497169
3	0xbdee76e4	-0.1164377
4	0xbc553304	-0.013012651
5	0x3d7fa7c1	0.062415842
6	0xbd3b0bcd	-0.04566555
7	0x3f9f0890	1.2424488
8	0x3d0c0ed8	0.034193844
9	0x3e362ec6	0.1779128
10	0xbc7c7e09	-0.0154109085
11	0x3d9a292d	0.07527385
12	0xc014f955	-2.327718
13	0x3d79da5f	0.06099927
14	0xbfd8ae06	-1.6928108
15	0xbf02e961	-0.5113736
16	0xbe8f5802	-0.27996832
17	0x40716370	3.7716942
18	0xbdb4a44b	-0.08820399
19	0x40542ae4	3.3151178
20	0x3fa77c8e	1.3084886
21	0xbfed883f	-1.8557204
22	0x3fb7b8d5	1.4353281
23	0x3f0b2e73	0.5436775
24	0x3f31d324	0.694628
25	0xbfa66310	-1.2998981
26	0xbd034636	-0.03204938
27	0xbdee5f3d	-0.11639259
28	0xbe23e99a	-0.1600708
29	0x3dc578ab	0.09642156
30	0xbdf73e85	-0.120724715
31	0xbee09ab1	-0.4386802
32	0xc001c247	-2.0274827
33	0x3f9d8950	1.230753
34	0xbf693e79	-0.9111095
35	0xbf2a6f42	-0.66576016
36	0xbebf0020	-0.37304783
37	0x3dadc93b	0.08485647
38	0xbff01df2	-1.8759139
39	0xbe86bf5f	-0.2631788
40	0xbfd27b6c	-1.6443915
41	0xbe1c779d	-0.15280004
42	0xbe16922a	-0.14704195
43	0x3f6ec6a1	0.93271834
44	0xbf469402	-0.7756959
45	0xc12aef40	-10.683411
46	0x3ff752b0	1.9322109
47	0x3ea67ff8	0.32519507
48	0x3e79da13	0.24399595
49	0x4002080d	2.0317414
50	0xbcb50f35	-0.022101978
51	0x3f08df14	0.5346539
52	0xbf06e317	-0.5269026
53	0xbe84c68d	-0.25932732
54	0x3e9de461	0.30838302
55	0x3e616163	0.22009806
56	0x3d495ecd	0.049162675
57	0x3f7574e7	0.95881504
58	0xbfa00db3	-1.2504181
59	0x40bf0427	5.969257
60	0xbcc6d1ec	-0.02427002
61	0xbf5cf5ce	-0.8631257
62	0x3f21f1a7	0.6325936
63	0x3ecad64d	0.39616624
64	0x3f9edf44	1.2411885
65	0xbee4ad66	-0.44663543
66	0xbd95aa18	-0.073078334
67	0x3f2795ed	0.65463144
68	0xbe1d1d84	-0.1534329
69	0x3eceea09	0.4041293
70	0xbf364208	-0.71194506
71	0xbfdeabb6	-1.7396152
72	0x405079d2	3.2574353
73	0x402c84b9	2.6956007
74	0x3fcc21e9	1.5947849
75	0x3f064c9f	0.52460665
76	0x3f28ceed	0.65940744
77	0xbf9d2fb2	-1.228018
78	0xbf0ef00f	-0.5583505
79	0x3e855b32	0.2604614
80	0xbde5ca49	-0.112202235
81	0xbd170541	-0.036870245
82	0x3fc18ff2	1.5122054
83	0xbe7f9f9e	-0.24963233
84	0xbb9bfd60	-0.0047604293
85	0x400e9ada	2.2282014
86	0xbe2d8a01	-0.16947176
87	0x3d1726a5	0.03690209
88	0xbde65a9e	-0.112477526
89	0xbebcc23a	-0.36866933
90	0x3f85c71a	1.0451386
91	0xbec6505b	-0.3873318
92	0x3e70046b	0.23439185
93	0xbe880ca2	-0.26572138
94	0x3e55de4d	0.20885582
95	0xbf544a4d	-0.82925874
96	0x3e5e9c6d	0.21739359
97	0x3fc7c62d	1.5607353
98	0x40f0f3fb	7.529783
99	0x3fb32d13	1.399813
100	0xbef1b050	-0.47204828
101	0xbdbcade6	-0.09212856
102	0xbf4d09e5	-0.8009322
103	0xbfcd4996	-1.6038082
104	0xbe9a049e	-0.30081648
105	0xbe377a02	-0.17917636
106	0x3d3bda32	0.045862384
107	0x3e22c079	0.15893735
108	0xbd4611ee	-0.048356943
109	0xbcc6c9db	-0.024266174
110	0xbf35a5d1	-0.7095614
111	0x3f914b41	1.1351091
112	0x3e14f29d	0.14545675
113	0x3db9e61b	0.09077092
114	0x3e718a12	0.23587826
115	0xbdaa39fa	-0.083118394
116	0xc00b3e92	-2.175694
117	0xbfd84e80	-1.6898956
118	0xbfc2da27	-1.5222825
119	0x3f26ab31	0.6510497
120	0x3f96af18	1.1772184
121	0x3fbf7df8	1.4960318
122	0xbf8ac52b	-1.0841421
123	0xc0973225	-4.724871
124	0xbfe9d1b0	-1.8267117
125	0x400da3bb	2.2131183
126	0x3e4696d3	0.19393472
127	0x3eb16dec	0.34654176
128	0x3c00f7a3	0.007871541
129	0xbf9d48ac	-1.2287803
130	0x3e25447f	0.1613941
131	0xbda76d73	-0.08175173
132	0x3dc708c7	0.09718471
133	0xbdbc97e0	-0.09208655
134	0x3f3793ed	0.7171009
135	0x3de094b3	0.10965862
136	0x3ee5242b	0.44754156
137	0x3c9f625a	0.019456077
138	0xbec6198c	-0.38691366
139	0x3f76164e	0.96127784
140	0x3f4f48bd	0.80970365
141	0xbe10c287	-0.14136706
142	0xbfeabed7	-1.833949
143	0x3e8d7c98	0.2763412
144	0x3f74acd3	0.9557621
145	0x3dafeea9	0.08590443
146	0x3ee682ec	0.4502176
147	0x3f9e0898	1.2346373
148	0xbefab071	-0.4896274
149	0xc10d5dd9	-8.835412
150	0x40182950	2.3775215
151	0xbec87145	-0.39148918
152	0xbf0d0b0d	-0.5509499
153	0x3e52855a	0.20558682
154	0x3ef134a9	0.4711049
155	0x3f8829d3	1.0637764
156	0xbefa83bb	-0.48928627
157	0xbf82601e	-1.0185583
158	0xbe80f01d	-0.25183192
159	0xbe4c7dd5	-0.19969876
160	0x3f3f6b70	0.7477331
161	0x3f510ca3	0.8165991
162	0x3f8df286	1.1089637
163	0xbf7f7ec9	-0.99802834
164	0xbf334ecc	-0.7004211
165	0xbf0e8386	-0.5566944
166	0x3f8e0395	1.1094843
167	0xbe3230b6	-0.17401394
168	0x3f643dde	0.891569
169	0x3f00d286	0.50321233
170	0xbe8c24d3	-0.27371845
171	0xbf1170e4	-0.5681288
172	0xbedfe4ff	-0.43729398
173	0xbfaaf5ff	-1.3356322
174	0xbf95a852	-1.1691992
175	0x3fd40878	1.6565084
176	0xc0e0898f	-7.016792
177	0x3f6abe71	0.9169684
178	0x3faa8ded	1.3324562
179	0x3f7780de	0.9668101
180	0xbfbe0ebb	-1.4848245
181	0xbfaa3a16	-1.3298976
182	0x3e98f8c4	0.29877293
183	0x3f5714d8	0.8401618
184	0x3e214288	0.15748036
185	0xbd9d646a	-0.07685168
186	0xbe0902bc	-0.1337995
187	0x3f6f97cf	0.93591017
188	0x402a76c7	2.6634996
189	0xbc0cc1c7	-0.008591122
190	0x3f3ba76a	0.7330233
191	0x3f1f3d48	0.6220288
192	0xbb8c1e85	-0.004276099
193	0x3e23bc3a	0.15989771
194	0x3f8afb3b	1.085792
195	0xbe32829c	-0.17432636
196	0xbf98f4cd	-1.1949707
197	0x3f913403	1.1343998
198	0xbf5f92ad	-0.87333184
199	0x3e430244	0.19043833
200	0x3f34febf	0.7070121
201	0xc0cb279b	-6.3485847
202	0xc1202c75	-10.010854
203	0x3dde957a	0.10868354
204	0x3f6e3cba	0.9306141
205	0x3c8516b3	0.016246175
206	0x3f09af8e	0.537835
207	0xbf91801e	-1.1367223
208	0x3ebf398f	0.373486
209	0xbf5a6c26	-0.8532127
210	0x3f47252f	0.7779111
211	0xbfa6f5df	-1.3043784
212	0xbf247f09	-0.6425634
213	0xbf46d2b6	-0.7766527
214	0xc012d11a	-2.2940125
215	0xc0d4a477	-6.6450763
216	0x3e82904a	0.2550071
217	0xbff106a6	-1.8830154
218	0xbf707bb7	-0.93938774
219	0xbfca9efa	-1.5829766
220	0x3f5559e7	0.83340305
221	0xbeb29127	-0.34876367
222	0xbd8ded99	-0.06930084
223	0x3e11e3c1	0.14247037
224	0x3adcc4cc	0.0016843318
225	0xbec2f2e6	-0.38075942
226	0x3e698203	0.22803502
227	0x3ffdd68c	1.98311
228	0x408ef425	4.467303
229	0x3ddfb9e5	0.109241284
230	0x3c0e2515	0.008675833
231	0x3fcfd40b	1.6236585
232	0xbd2995f9	-0.04140279
233	0xbfda849f	-1.7071723
234	0x3eed9330	0.46401358
235	0x3f8b7324	1.0894513
236	0x3f8e0b65	1.1097227
237	0xbd9da861	-0.07698131
238	0xbe871b27	-0.26387903
239	0x3fd3b159	1.6538497
240	0xbf936d47	-1.1517724
241	0xc103e857	-8.244224
242	0xbf90ac2c	-1.1302543
243	0xbfdfe0d4	-1.7490487
244	0xbf8a5bd3	-1.0809273
245	0x3f246bc3	0.6422693
246	0xbe62ab5c	-0.22135681
247	0xbecd4168	-0.40088964
248	0xbecc84e2	-0.39945132
249	0x3da6b50c	0.08140001
250	0x3e0708d8	0.13186967
251	0xbfd61a14	-1.6726708
252	0x3fd725f6	1.680846
253	0xc0f0873e	-7.516509
254	0x41604d18	14.018822
255	0x3eeaec7b	0.45883545

l_lstm.weight_hh_l0 f4 [32, 8]
0	0xbe3854c9	-0.18001093
1	0x3b58a0b0	0.0033054762
2	0x3ed8943d	0.42300597
3	0x3e880cdc	0.2657231
4	0x3eeeb702	0.46624
5	0x3dcecbe5	0.100974835
6	0xbe3e586f	-0.18588422
7	0xbe2c3182	-0.1681576
8	0xbf182042	-0.5942422
9	0xbf2b63e2	-0.66949284
10	0x3f20f459	0.62872845
11	0xbf0c5ec9	-0.5483213
12	0x3fe679f5	1.8005968
13	0x3e25c5df	0.16188763
14	0x3fce1375	1.6099688
15	0x3fb73637	1.431342
16	0xbea7e0c3	-0.32788667
17	0xbea1ac2e	-0.31576675
18	0x3e0719a2	0.13193372
19	0x3fcab29f	1.5835761
20	0x3da2bf97	0.07946699
21	0x3f00ddba	0.5033833
22	0xbf2f79c3	-0.6854517
23	0x3f63551f	0.8880176
24	0x3fa042b5	1.2520357
25	0x402c8f57	2.6962488
26	0xbf94409e	-1.158222
27	0xbfe10d1c	-1.7582126
28	0xbf17763a	-0.59164774
29	0xc020db35	-2.5133793
30	0xbe77c9d7	-0.2419809
31	0x402e4caf	2.7234304
32	0x3f5479e8	0.82998514
33	0xbfb8cdc4	-1.4437795
34	0xbf68e4e6	-0.9097427
35	0xbef3bf78	-0.47607017
36	0xc02e8d92	-2.7273908
37	0xbd89c02c	-0.06726107
38	0xbf0e4ff5	-0.55590755
39	0xc0047af3	-2.0700042
40	0xbf143708	-0.5789647
41	0xbf44d8c4	-0.7689326
42	0xbf63d68d	-0.88999254
43	0xbfc97c85	-1.5741125
44	0x3f3cb4a8	0.7371316
45	0x3e6d2336	0.23157963
46	0x3f7b1b33	0.9808838
47	0x3ec424e8	0.38309407
48	0x3e6ab448	0.22920334
49	0x403d2418	2.955328
50	0x40093e09	2.1444113
51	0x400a4cd0	2.1609383
52	0x3ea4d2e2	0.3219214
53	0xc096c0ee	-4.711051
54	0xbe808cab	-0.2510732
55	0xbfb4a1e6	-1.4111907
56	0xbf1df81f	-0.6170673
57	0xc0bc3eb7	-5.8826556
58	0x40721b0e	3.7829013
59	0x3dde7d32	0.10863723
60	0xc0092810	-2.1430702
61	0xbf1bc156	-0.6084188
62	0xbede7e60	-0.4345579
63	0x40542825	3.3149502
64	0xbf3d7a72	-0.7401496
65	0x3e5476d1	0.2074845
66	0x3ef90bae	0.48641723
67	0x3f310ab0	0.6915693
68	0x3f41ebab	0.75750226
69	0xbe373a06	-0.17893228
70	0x3f0de5ec	0.5542896
71	0x3f2d98ee	0.6781148
72	0xbf26250f	-0.64900297
73	0x3f24ac22	0.64325154
74	0x3f94d81f	1.1628455
75	0xbfb9163e	-1.4459913
76	0x3fa1a8f8	1.262969
77	0xbf322bbd	-0.6959799
78	0x3f81d374	1.0142655
79	0x40409859	3.0092986
80	0xbf893d22	-1.0721781
81	0x3f83d57c	1.0299525
82	0x3ee2dab2	0.44307476
83	0x3fc2c964	1.521771
84	0x3fa2368f	1.26729
85	0xbef22b23	-0.47298536
86	0x3eb031f8	0.34413123
87	0x40041552	2.0638013
88	0x4009e120	2.1543655
89	0xbfad2045	-1.3525473
90	0x3f24dbca	0.6439787
91	0x3f64ced4	0.89378095
92	0x3f7d1f0b	0.9887549
93	0x3fe43207	1.7827767
94	0x3f44b7fe	0.7684325
95	0xc0383f32	-2.8788571
96	0x3eacdaab	0.3376058
97	0x404ddaad	3.216472
98	0x3f343730	0.7039671
99	0xbf9475d9	-1.1598464
100	0xc019eb93	-2.4050033
101	0xbf2a58e4	-0.66541886
102	0xbfe7a656	-1.8097637
103	0xc063b33c	-3.5578146
104	0x3e1b1677	0.15145288
105	0xbf2e7f7a	-0.68163264
106	0xbfbca9a9	-1.4739276
107	0xbfd068b2	-1.628195
108	0x3df2a1e1	0.11847282
109	0xbed91505	-0.4239885
110	0x3e98828b	0.29787096
111	0xbe0a8716	-0.13528094
112	0x3e8b1ec5	0.27171913
113	0xbe7e4d6a	-0.24834219
114	0x3e5ea406	0.21742257
115	0xbe3132d4	-0.17304546
116	0xbeda60a8	-0.42651868
117	0x3ec6f4c5	0.3885862
118	0xbc29b6ad	-0.010358495
119	0xbf0bb816	-0.5457777
120	0xbfbf9cc1	-1.4969712
121	0xbf9352f7	-1.1509694
122	0x3e83f2aa	0.25771075
123	0xbfd3e43f	-1.655403
124	0x4074ec78	3.826933
125	0x3f8803b0	1.0626125
126	0xc00dc19b	-2.2149417
127	0xbff573eb	-1.9176
128	0x3e96c5cb	0.2944778
129	0xbe70a89f	-0.23501824
130	0xbe87f744	-0.26555836
131	0xbfe39db5	-1.7782503
132	0xc03dec93	-2.9675643
133	0x3f030ac8	0.51188326
134	0x3cc542fd	0.024079794
135	0xbf78c5e0	-0.97176933
136	0x3dfc9c42	0.12334491
137	0x3f82a86c	1.0207648
138	0x3f9ff5c2	1.2496874
139	0x3f8081f0	1.0039654
140	0x3f87e82f	1.0617732
141	0x3f779dcf	0.9672517
142	0x3e8e2704	0.27764142
143	0xbe71e816	-0.2362369
144	0xbdf8e216	-0.121524975
145	0x3ea2cdd8	0.3179767
146	0x3fbbe742	1.4679949
147	0x3f83c46f	1.0294322
148	0xbefecb18	-0.49764323
149	0x3ec7efce	0.39050144
150	0x3ed599d0	0.41718912
151	0x40076263	2.11538
152	0xbd51a57b	-0.051183205
153	0xbf381cd3	-0.7191898
154	0xc009c3a2	-2.1525655
155	0xbfae7887	-1.3630532
156	0x402b562a	2.677134
157	0xbfa23565	-1.2672545
158	0xbf473fe0	-0.7783184
159	0xbd37881e	-0.044807546
160	0x3e86f533	0.26358947
161	0xbf825194	-1.0181146
162	0x3ee14ce6	0.4400398
163	0x3e938cbc	0.2881831
164	0xbfd33f97	-1.6503781
165	0x3e929d5e	0.28635687
166	0x3e24a4dc	0.16078514
167	0xbf6e01b7	-0.92971367
168	0x3eeb61ed	0.4597315
169	0xbfaf3d9f	-1.369068
170	0xbf8a754a	-1.0817044
171	0xbf9375b7	-1.1520299
172	0xbfd18721	-1.6369363
173	0xbf55bed0	-0.8349428
174	0x3f5bf4aa	0.859202
175	0x3ff85c62	1.9403193
176	0x3f3349f6	0.7003473
177	0xbf1a7397	-0.60332626
178	0x3e85b975	0.26118055
179	0xbf1f91ac	-0.6233165
180	0xbee6b645	-0.45060936
181	0x3eda89c2	0.42683226
182	0xbf9792b7	-1.1841649
183	0xbf013e2d	-0.504855
184	0x3f0c0bd4	0.5470555
185	0x3f8cf4fb	1.1012262
186	0xbfc5dbb1	-1.545767
187	0x3f4ddc9e	0.8041476
188	0x3fd01978	1.6257772
189	0x4005da95	2.0914662
190	0xbedff542	-0.43741804
191	0xc01f5ef7	-2.4901712
192	0xbec39064	-0.381961
193	0xbdc4b56e	-0.096049175
194	0x3f35217f	0.70754236
195	0x3e1312b7	0.14362608
196	0xbe9c3052	-0.30505615
197	0xbe52e81c	-0.20596355
198	0x3f2e0bc0	0.6798668
199	0x3e271175	0.16315253
200	0x3e7aab1d	0.24479337
201	0x3e69fc7e	0.22850224
202	0x405183a4	3.2736597
203	0xbeda0ba1	-0.42586997
204	0x3d9280fe	0.071535096
205	0x3fac1593	1.3444084
206	0x3ebfa777	0.37432453
207	0x3e11aab4	0.14225274
208	0xbedb026d	-0.42775288
209	0xbf1ff597	-0.62484115
210	0xbecc6d9c	-0.39927375
211	0x3e6c5874	0.23080617
212	0x3cd2ae6e	0.02571794
213	0x3f0c7300	0.54862976
214	0xbf280f9d	-0.65648824
215	0x3f322d98	0.6960082
216	0x40456ef3	3.0848968
217	0x3f1cce06	0.61251867
218	0xbeb4c8a9	-0.35309342
219	0xbec8989e	-0.39178938
220	0xbf8a89e5	-1.0823332
221	0xbf839a34	-1.0281434
222	0x3f1d0c1a	0.6134659
223	0xbf0b8a81	-0.54508215
224	0xbe7f1840	-0.24911594
225	0x3f4dd2fc	0.8040006
226	0x3cffef96	0.031242173
227	0xbe8c32a3	-0.27382383
228	0x3e97cb3f	0.29647252
229	0x401e69d1	2.4752085
230	0xbf1781ed	-0.59182626
231	0x3f866d71	1.0502149
232	0xbe93401b	-0.28759846
233	0xbd5a8074	-0.05334516
234	0x3ef0b4ee	0.47013038
235	0xc009334e	-2.1437564
236	0x3efd935d	0.49526492
237	0x3f918cd7	1.1371106
238	0xbdfc157a	-0.12308784
239	0x3b61ce73	0.0034455329
240	0xbfa56cca	-1.2923825
241	0x3caef5b5	0.021357397
242	0x3f4f2a93	0.8092434
243	0x3f3614c2	0.71125424
244	0x3d9ff9f6	0.07811348
245	0x3fa34558	1.2755537
246	0xbde645b7	-0.11243766
247	0xc09abd15	-4.8355813
248	0xbf6ac75e	-0.9171046
249	0xbf3185f6	-0.69345033
250	0x401f0fd5	2.4853413
251	0x404ebac0	3.2301483
252	0xbf08e876	-0.5347971
253	0xbfc7fbea	-1.5623753
254	0x3f4cdcbd	0.8002432
255	0xbf0bf4ba	-0.546703

l_lstm.bias_ih_l0 f4 [32]
0	0x3dcda545	0.10041288
1	0xbe8b66ca	-0.2722686
2	0xbdbf0736	-0.09327547
3	0xbf2da482	-0.67829144
4	0xbed7b40f	-0.4212956
5	0x3ecc5a36	0.39912575
6	0xbe5fba85	-0.21848495
7	0xbf571239	-0.8401218
8	0x3f4714ae	0.7776593
9	0x3e856946	0.2605688
10	0x3e8b2b6f	0.27181575
11	0xbddf873d	-0.109144665
12	0x3e096f7c	0.13421434
13	0x3e09698f	0.13419174
14	0xbe07c584	-0.1325894
15	0x3f201470	0.62531185
16	0xbf009d48	-0.5023999
17	0x3db2f120	0.08737397
18	0x3f645350	0.89189625
19	0x3f09266b	0.53574246
20	0xbd81006a	-0.06298907
21	0xbebdf171	-0.37098268
22	0xbe518f42	-0.20464805
23	0x3f29f468	0.6638856
24	0x3db544d0	0.088510156
25	0xbdfa4104	-0.12219432
26	0x3df7e736	0.12104647
27	0xbf92012f	-1.1406611
28	0xbe36f7f8	-0.1786803
29	0xbcb13bbf	-0.021634934
30	0x3f44e7da	0.7691628
31	0xbf177e89	-0.5917745

l_lstm.bias_hh_l0 f4 [32]
0	0x3de59012	0.1120912
1	0xbb18cf54	-0.0023316937
2	0x3e6a1770	0.22860503
3	0xbed3abc7	-0.41341993
4	0xbf31053a	-0.691486
5	0x3e9eb5cf	0.30998084
6	0xbe7e7377	-0.24848734
7	0xbec01ced	-0.3752207
8	0x3e893138	0.26795363
9	0xbe26a5c5	-0.16274174
10	0x3f406691	0.75156504
11	0xbe5e12f0	-0.21686912
12	0xbdd4114c	-0.103548616
13	0x3e7ae006	0.2449952
14	0x3df86055	0.12127749
15	0x3f2e1a57	0.6800894
16	0xbf5ad61d	-0.8548296
17	0x3e4b9122	0.19879583
18	0x3f1280b1	0.5722762
19	0x3f068067	0.52539676
20	0xbdd9196b	-0.10600551
21	0x3d7e7e88	0.06213239
22	0xbe3f9fe7	-0.18713342
23	0x3ddc9a72	0.107716456
24	0x3f008699	0.5020538
25	0xbef0ca7c	-0.47029483
26	0x3d92e923	0.071733736
27	0xbf5e2ee8	-0.86790323
28	0xbe90e7f1	-0.28301957
29	0x3e428140	0.18994617
30	0x3f100bec	0.5626819
31	0xbf15db1b	-0.58537453

l_lstm.weight_ih_l1 f4 [32, 8]
0	0x3f634953	0.8878376
1	0xbf22fba4	-0.63665223
2	0xbe89b74d	-0.2689766
3	0x3deda53a	0.1160378
4	0x3f074e52	0.5285388
5	0x3fe74053	1.8066505
6	0xbeacc647	-0.33745024
7	0xbf7c1b6a	-0.9847933
8	0x3f894a5b	1.0725816
9	0xbea48bb1	-0.32137826
10	0xbf190674	-0.5977547
11	0x3ea7f1cb	0.3280166
12	0x3e8b19b3	0.27168044
13	0x3fa951e1	1.3228112
14	0xbeee1700	-0.46501923
15	0xbf9d1677	-1.2272481
16	0x3f3a9264	0.72879624
17	0xbf1ff039	-0.62475926
18	0x3e559d40	0.20860767
19	0xbdf5f7ea	-0.120101765
20	0xbe90e9bf	-0.28303334
21	0x3f6c5560	0.9231777
22	0x3de743ea	0.112922505
23	0xbf92942c	-1.1451468
24	0x3f09ad47	0.53780025
25	0xbf79dd0c	-0.97602916
26	0xbeb7e671	-0.35918
27	0xbe8aab7a	-0.2708395
28	0xbe51933f	-0.20466326
29	0x3feb23e1	1.8370324
30	0xbf2da48c	-0.67829204
31	0xbf87c715	-1.060763
32	0xbed2bfe2	-0.4116202
33	0xbfa526de	-1.2902486
34	0x3ef70f65	0.48253933
35	0xbd9789e4	-0.073993474
36	0xbf8b4310	-1.0879841
37	0x3f19e262	0.6011106
38	0xbfa18f61	-1.2621881
39	0xbef83fef	-0.48486277
40	0x3f351e33	0.70749205
41	0xbf0b8056	-0.544927
42	0xbe8ef26f	-0.27919337
43	0x3e1355a6	0.14388141
44	0xbdbb85b3	-0.091563605
45	0x3ff08809	1.8791515
46	0xbf49fcc3	-0.7890131
47	0xbf752a7e	-0.9576796
48	0x3f484278	0.78226423
49	0xbf26958e	-0.6507195
50	0xbf8a06f8	-1.0783377
51	0x3f820766	1.0158508
52	0xbf36a19e	-0.7134036
53	0x40540a69	3.3131354
54	0xbfbc5fd1	-1.4716741
55	0xc05629b1	-3.3462946
56	0x3f0f19ce	0.5589875
57	0xbdcea455	-0.100899376
58	0xbf2bb64a	-0.67075026
59	0xbe035dda	-0.1282877
60	0x3eba8096	0.36426228
61	0x3f94318a	1.1577618
62	0x3f1092e4	0.5647414
63	0xbd3bfd11	-0.04589564
64	0x3eeb1359	0.459132
65	0x3bab4d1b	0.0052276975
66	0x3ecf887e	0.40533823
67	0x3eb10c7c	0.34579837
68	0xbe455754	-0.19271594
69	0xbf321f4b	-0.69579
70	0x3f003c81	0.5009232
71	0x3ef9cd2e	0.48789352
72	0x3f9b788c	1.2146163
73	0x3ea10861	0.31451705
74	0xbebfb06b	-0.37439284
75	0xbd64d650	-0.055868447
76	0x3d2ea482	0.042637356
77	0xbf2004e3	-0.62507457
78	0x3f3a965a	0.7288567
79	0x3fb14911	1.3850423
80	0x3f837c3e	1.0272291
81	0x3e51570a	0.20443359
82	0x3e7564f4	0.23964292
83	0x3f5efffd	0.8710936
84	0x3f0ec413	0.55767936
85	0xbec64af2	-0.38729054
86	0x3f8ae204	1.0850224
87	0x3f7390a9	0.9514261
88	0x3f4b76fb	0.79478425
89	0x3f1abdb1	0.60445696
90	0xbe28a3ea	-0.16468778
91	0x3e287f7f	0.16454886
92	0x3eb9e629	0.3630841
93	0xbfb7a9c0	-1.4348679
94	0x3f6ab3cb	0.9168059
95	0x3f8c65d1	1.0968572
96	0xbfad2682	-1.3527377
97	0x3f82f135	1.022986
98	0xbf2619cc	-0.6488311
99	0xc0a370f1	-5.107537
100	0x404ae30e	3.1701083
101	0xc099d226	-4.806903
102	0xc06b67e9	-3.6782172
103	0x3f650d3e	0.8947333
104	0x3fdf9a45	1.7468954
105	0x3f2306ab	0.6368205
106	0xbf654a21	-0.89566237
107	0x3ebcb05b	0.368533
108	0x3dcd3ce6	0.10021381
109	0xbf3ce88d	-0.73792344
110	0x3f9074c2	1.1285632
111	0x3fde5ab1	1.7371427
112	0x3f0ee6f8	0.5582118
113	0x3fb9a07b	1.45021
114	0x3fa1b884	1.2634435
115	0x3e07e6d8	0.13271654
116	0x3ef2e52c	0.4744047
117	0xc019ffe1	-2.4062426
118	0x3ec83196	0.3910033
119	0x40a3d186	5.1193266
120	0xbf190748	-0.59776735
121	0x3fc28bba	1.5198891
122	0x3ee37d5c	0.4443158
123	0xc0539a85	-3.3063061
124	0xbf7d6cc6	-0.989941
125	0xc00764dc	-2.115531
126	0xc003bd2c	-2.0584211
127	0x3d147c6f	0.03625148
128	0xbf5aafe1	-0.8542462
129	0xbecd3c84	-0.40085232
130	0x3f8bf17d	1.0933071
131	0xbf09cde6	-0.538298
132	0xbf174569	-0.59090286
133	0xbe94f78f	-0.29095122
134	0xbf89b799	-1.0759155
135	0xbf2a6b4f	-0.6656999
136	0xbf6985c4	-0.91219735
137	0xbead4a90	-0.3384595
138	0x3f639a7a	0.8890759
139	0xbf17fe07	-0.5937199
140	0xbf14c323	-0.58110255
141	0xbea96fb6	-0.3309304
142	0xbf81a049	-1.012704
143	0xbf040794	-0.51574063
144	0xbf2155f2	-0.6302177
145	0xbe833ea2	-0.25633723
146	0x3f775605	0.9661563
147	0xbf533ddc	-0.82516265
148	0xbf060240	-0.52347183
149	0x3d818acf	0.06325304
150	0xbf8ba9ec	-1.0911231
151	0xbf52a84d	-0.82288057
152	0x3f075295	0.52860385
153	0x3e9fe449	0.31228855
154	0xbf53614f	-0.82570356
155	0x3f55a52d	0.83455163
156	0x3ef5e730	0.48027945
157	0xbb823394	-0.0039734337
158	0x3f89ff20	1.0780983
159	0x3f3ac074	0.7294991
160	0xbf353ff1	-0.7080069
161	0xbdec1eda	-0.11529322
162	0x3f446444	0.76715493
163	0xbf9313ab	-1.1490377
164	0xbf554b01	-0.8331757
165	0xbef7d8de	-0.48407644
166	0xbf8e4872	-1.1115859
167	0xbe0e7ef6	-0.13915619
168	0xbf6fc76b	-0.9366366
169	0xbebbd27f	-0.36684033
170	0x3f558031	0.8339873
171	0xbf2f5f0c	-0.68504405
172	0xbf38ec2a	-0.7223536
173	0xbe8c3651	-0.2738519
174	0xbf82417f	-1.0176238
175	0xbf382933	-0.71937865
176	0x3f97b362	1.1851618
177	0x3e9dc066	0.3081085
178	0xbf274b0c	-0.6534889
179	0x3f270892	0.6524745
180	0x3f52c601	0.8233338
181	0x3e214b12	0.15751293
182	0x3f9885eb	1.1915869
183	0x3f1686ce	0.58799446
184	0xbf299886	-0.6624836
185	0xbe68c340	-0.22730732
186	0x3f0f2a7e	0.5592421
187	0xbf406538	-0.7515445
188	0xbf0865b6	-0.532802
189	0xbec0d3af	-0.37661502
190	0xbf72bedf	-0.94822496
191	0xbea3b6e5	-0.31975475
192	0x3f00a3a7	0.50249714
193	0xbe8eff5c	-0.279292
194	0x3e1f2aba	0.15543643
195	0x3deca308	0.11554533
196	0x3e3a79a3	0.18210463
197	0xbe1c7785	-0.15279968
198	0xbe16481e	-0.14675948
199	0xbee3abea	-0.44467098
200	0x3e57e528	0.2108351
201	0xbefe8970	-0.49714231
202	0xbea8dcdf	-0.3298101
203	0x3e9204b5	0.28519216
204	0x3ee8521d	0.45375147
205	0x3e4684d1	0.19386603
206	0xbdaf3915	-0.085558094
207	0xbe316238	-0.17322624
208	0x3f2d6d26	0.6774467
209	0xbe3f7ad3	-0.18699197
210	0x3eb36893	0.3504072
211	0xbe3e9120	-0.18610048
212	0xbf0246e4	-0.5088942
213	0x3e8958f8	0.2682569
214	0x3ea9b0a3	0.33142576
215	0xbef8b5d1	-0.48576215
216	0x3e98d7b2	0.29852062
217	0xbd35b4b8	-0.0443618
218	0xbe15d3d8	-0.14631593
219	0x3cfed628	0.031107977
220	0x3dceb59c	0.10093233
221	0x3e9933bc	0.29922283
222	0xbeb8789c	-0.36029518
223	0xbf09989b	-0.5374848
224	0xbf876ac0	-1.0579453
225	0xbf3d329d	-0.73905355
226	0x3f873fc2	1.0566332
227	0xbed835f8	-0.42228675
228	0xbf9079ac	-1.1287131
229	0xbfa99c23	-1.3250774
230	0xbf73f8b7	-0.95301384
231	0x3f591cac	0.84809375
232	0x3ec08390	0.37600374
233	0xbea7a5d3	-0.327437
234	0x3ec4fa0c	0.3847202
235	0xbe4fd401	-0.20295717
236	0x3de0b7f0	0.10972583
237	0x3d40d71f	0.047080155
238	0x3bf68019	0.0075225946
239	0xbed3ca98	-0.41365504
240	0xbf175d36	-0.59126604
241	0xc016bd2a	-2.3552957
242	0x40009a3d	2.009414
243	0x3f2ab91e	0.66688716
244	0xbf3eee2f	-0.7458219
245	0x40276679	2.6156294
246	0xbe99cdd7	-0.30039856
247	0xbe77d713	-0.24203138
248	0xbf80b1ac	-1.0054221
249	0x3eb716d4	0.35759604
250	0x3ce09140	0.02741301
251	0xbdfe8799	-0.12428207
252	0x3eb2a783	0.34893426
253	0xbfda7e4b	-1.7069792
254	0x3ecf1aad	0.4045004
255	0xbdb750f4	-0.089509875

l_lstm.weight_hh_l1 f4 [32, 8]
0	0x3f1ac0f9	0.604507
1	0x3d3aed42	0.045636423
2	0xbedb4d8b	-0.42832598
3	0x3e6bf77a	0.23043624
4	0x3f868d40	1.0511856
5	0xbeb188b4	-0.3467461
6	0x3f0e339c	0.555475
7	0xbd1deda6	-0.038556717
8	0x3e26019f	0.16211556
9	0x3ea9435a	0.33059198
10	0xbeb92624	-0.3616191
11	0xbd48d491	-0.049030844
12	0x3f526728	0.82188654
13	0x3e0730d0	0.13202214
14	0x3f0a54e7	0.540358
15	0xbebbb623	-0.36662397
16	0x3ed0170f	0.40642592
17	0x3f4edd84	0.80806756
18	0x3e849659	0.25895956
19	0xbef50d46	-0.4786169
20	0x3f77aa70	0.9674444
21	0x3f067dd7	0.52535766
22	0x3c9ff79f	0.019527255
23	0xbc9ac423	-0.018892353
24	0xbd791810	-0.060813963
25	0xbe2340c3	-0.15942673
26	0xbe47a0fc	-0.19495004
27	0xbed10cc9	-0.40830067
28	0x3f296e22	0.66183674
29	0xbf0c4cfe	-0.5480498
30	0x3f84c8bf	1.0373763
31	0x3f0ba474	0.5454781
32	0xc00c9985	-2.19687
33	0xbf88d291	-1.068926
34	0xc013fbd6	-2.3122458
35	0x4004142e	2.0637317
36	0xbe7bb3fb	-0.24580376
37	0xbfa0b28d	-1.2554489
38	0x3ecdd384	0.40200436
39	0xbf852e3b	-1.0404733
40	0x3e9b3f47	0.30321714
41	0xbef79543	-0.48356065
42	0xbd8560b0	-0.06512582
43	0x3e2f2b7d	0.17106433
44	0x3ec9fedb	0.39452252
45	0x3f62b8b5	0.8856309
46	0x3ef940ef	0.48682353
47	0xbe6ea195	-0.23303826
48	0xbfaaecb7	-1.335349
49	0xbfa32d82	-1.2748263
50	0xbff514a0	-1.9146919
51	0x3fdd2d13	1.727938
52	0xbdda548c	-0.10660657
53	0xbf8ea721	-1.1144754
54	0x400549ce	2.0826297
55	0xbf4043dc	-0.75103545
56	0xbfc74d5b	-1.5570482
57	0xbf06255d	-0.5240076
58	0xbf3305ef	-0.6993093
59	0x3f9e1653	1.2350563
60	0xbf2a962e	-0.66635406
61	0xbf2ab18c	-0.66677165
62	0x3f8799cf	1.0593814
63	0x3e895822	0.26825052
64	0x3f26cb2f	0.65153784
65	0xbebcde15	-0.36888185
66	0xbc1bb88e	-0.0095044505
67	0xbdb189bb	-0.08668848
68	0x3f357cac	0.7089336
69	0x3d9e2d5d	0.07723496
70	0x3ee76056	0.45190686
71	0xbdccc574	-0.09998599
72	0x3ed262bf	0.41090962
73	0x3ea2ee86	0.31822604
74	0x3e92fa4b	0.28706583
75	0xbe0ee549	-0.13954653
76	0x3f217019	0.6306167
77	0x3ea20929	0.31647614
78	0x3d3c3e3e	0.045957796
79	0xbec01513	-0.37516078
80	0xbe9c2dd5	-0.30503717
81	0x3db65d96	0.08904569
82	0x3ef02968	0.4690659
83	0xbc42c061	-0.011886687
84	0x3f013e89	0.50486046
85	0xbe4decfd	-0.20109935
86	0x3efcb4b7	0.49356624
87	0xbece55e5	-0.40299907
88	0xbe852ff9	-0.26013163
89	0xbdc6cd52	-0.097071305
90	0xbe2164d8	-0.15761125
91	0xbf82db0b	-1.0223097
92	0x3e2448fc	0.16043466
93	0xbec1fa22	-0.3788615
94	0x3f834269	1.0254642
95	0xbd3e7bdf	-0.04650485
96	0xbfad7b9b	-1.3553346
97	0x3f09ab0e	0.53776634
98	0xbf076b2f	-0.52897924
99	0x3eb76235	0.35817114
100	0xbedcead7	-0.4314792
101	0xbf3ddfc7	-0.7416958
102	0xc05d98a6	-3.462442
103	0x3e65cffa	0.22442618
104	0x3df65488	0.12027842
105	0xbe19181a	-0.149506
106	0xbe4b796f	-0.19870542
107	0xbe8a1630	-0.26970053
108	0x3e70152c	0.23445576
109	0x3f088994	0.5333493
110	0x3f37abec	0.71746707
111	0xbd965d5d	-0.073420264
112	0xbe9b7e2d	-0.30369702
113	0x3ef1f838	0.47259688
114	0x3e0b02db	0.13575308
115	0x3e5159a0	0.20444345
116	0x3fbe299b	1.4856447
117	0x3e253fea	0.16137663
118	0xc036fe93	-2.859288
119	0x3efdda8f	0.4958081
120	0x3efe7410	0.49697924
121	0x3f9464d7	1.1593274
122	0x3f10aaee	0.5651082
123	0xbe3f8a1e	-0.18705031
124	0x3ea9615d	0.33082095
125	0x3f1a89c9	0.60366493
126	0xbf779910	-0.9671793
127	0xbc1c6811	-0.009546296
128	0xbfeb3443	-1.8375324
129	0xbf07d00e	-0.5305184
130	0xbf80cb13	-1.0061973
131	0x3f11f1f3	0.5700981
132	0xbf4ad1a5	-0.7922614
133	0xbf3adb66	-0.72991025
134	0xbcf87982	-0.030331377
135	0xbfa48aa1	-1.2854806
136	0xbf991b91	-1.1961538
137	0xbf9c77b3	-1.2224029
138	0xbf254098	-0.6455169
139	0x3f5d3d84	0.8642199
140	0xbf3516c0	-0.7073784
141	0xbfae5370	-1.3619213
142	0x3ec17fd7	0.37792847
143	0xbfaca358	-1.3487349
144	0xbf2a2387	-0.6646046
145	0xbf6ebf34	-0.932605
146	0xbfbbce43	-1.4672321
147	0x3f7ce273	0.98783034
148	0xbf646527	-0.89216846
149	0xbf7e6302	-0.99369824
150	0x3cb7c1a8	0.02243121
151	0xbfa2bc16	-1.2713649
152	0x3f41c2a8	0.75687647
153	0x3ee310f8	0.44348884
154	0x3f576296	0.84134805
155	0xbfeb106e	-1.8364389
156	0x3f9af0d2	1.2104743
157	0x3f1bc174	0.6084206
158	0x3d7e23c6	0.062045835
159	0x3fc582c9	1.5430537
160	0xbf38676f	-0.7203283
161	0xbf0cbd57	-0.5497641
162	0xbecf0e45	-0.40440574
163	0xbee76e28	-0.4520123
164	0xc0754126	-3.8321013
165	0xbf61408a	-0.87989104
166	0x3dacfbc6	0.084464595
167	0xbe8008d8	-0.25006747
168	0xbf212c9f	-0.6295871
169	0xbea5cad7	-0.32381317
170	0xbf591645	-0.84799606
171	0x3f624d04	0.88398767
172	0xbf6d9126	-0.92799604
173	0xbfc12299	-1.5088683
174	0x3ecaa457	0.39578506
175	0xbf56aab1	-0.83854204
176	0x3fa7f484	1.3121495
177	0x3f5b6b08	0.8571019
178	0x3fa12335	1.2588869
179	0xbfb6a3e0	-1.4268761
180	0x3ff5986c	1.918714
181	0x3f906a87	1.128251
182	0xc0070985	-2.109956
183	0x3fa645f3	1.2990097
184	0x3ea27c0b	0.31735262
185	0x3d4553af	0.04817551
186	0x3d17c692	0.037054606
187	0xbf988a3e	-1.1917188
188	0xbf097585	-0.53694946
189	0xbf14f9d4	-0.5819371
190	0x3f35ee51	0.71066767
191	0xc01c1c6e	-2.4392352
192	0x3ed2e195	0.4118773
193	0xbe96232a	-0.29323703
194	0xbf007a6f	-0.5018682
195	0x3c25a0aa	0.010109106
196	0x3e15d8e4	0.14633518
197	0x3b2393d1	0.0024959932
198	0x3ddd83a0	0.10816121
199	0xbd77ee12	-0.060529776
200	0xbf0a1925	-0.5394462
201	0x3e62945f	0.22126912
202	0xbf0ab569	-0.5418306
203	0x3e64bee3	0.22338443
204	0x3e5f4ccc	0.2180664
205	0x3e00f57c	0.12593645
206	0xbe39a50b	-0.18129365
207	0xbf024e5a	-0.50900805
208	0x3e3f7e1a	0.18700448
209	0x3e3bc255	0.1833585
210	0x3f9083b1	1.1290189
211	0xbebf95e9	-0.3741906
212	0x3f4d9919	0.80311733
213	0x3e7ead88	0.24870884
214	0x3f0bbe27	0.54587024
215	0xbd8d3902	-0.06895639
216	0x3dd0b871	0.101914294
217	0xbe8df718	-0.2772758
218	0x3d023f7a	0.031798817
219	0xbf806471	-1.0030652
220	0x3e9da875	0.30792585
221	0xbe2d04c4	-0.16896349
222	0x3f63f4d9	0.8904548
223	0xbe21af74	-0.15789586
224	0xc0284d96	-2.6297355
225	0xbf5b17d5	-0.8558324
226	0xc0344b3d	-2.8170922
227	0x40056a74	2.0846224
228	0xbf3dd932	-0.7415954
229	0xbfd8d137	-1.6938847
230	0xbff33ca6	-1.9002883
231	0xbfca395b	-1.5798753
232	0xbec4a46b	-0.3840669
233	0xbe1dc40a	-0.15406814
234	0xbeed9760	-0.46404552
235	0xbe6f3164	-0.23358685
236	0x3f340208	0.703156
237	0x3f572809	0.84045464
238	0xbe1fbb08	-0.1559869
239	0xbe324ca4	-0.17412049
240	0xbf644c1a	-0.8917862
241	0xbf3ae0ba	-0.72999156
242	0xbfedb286	-1.8570106
243	0x3fb94421	1.4473916
244	0xbd15061c	-0.03638278
245	0xbf2dcaa2	-0.6788732
246	0x3e00af5b	0.12566893
247	0xbf078ee7	-0.52952427
248	0xbfd05b5a	-1.6277878
249	0xbef7147e	-0.48257822
250	0xbf9e778b	-1.2380232
251	0x3fc2f466	1.5230834
252	0xc01f5012	-2.489262
253	0xbf701912	-0.93788254
254	0xbea0bc24	-0.3139354
255	0xbec8303c	-0.390993

l_lstm.bias_ih_l1 f4 [32]
0	0xbf1ddf5a	-0.6166893
1	0xbee469a8	-0.4461186
2	0xbec35ecf	-0.3815827
3	0xbf409042	-0.7522012
4	0xbd41c154	-0.047303513
5	0xbefdd3fb	-0.4957579
6	0xbeb8928f	-0.36049315
7	0xbf8d8a42	-1.1057818
8	0x3e0ea752	0.13931015
9	0x3ba87839	0.005141285
10	0x3f0f0423	0.5586569
11	0x3ea0b1ed	0.31385747
12	0xbf166c91	-0.5875941
13	0xbe4919e3	-0.19638781
14	0xbd01a857	-0.031654682
15	0x3e3ae1bb	0.18250172
16	0xbdf5f836	-0.12010233
17	0xbe66f212	-0.2255328
18	0x3dae0679	0.08497328
19	0x3e994cb1	0.29941323
20	0x3e892b3d	0.267908
21	0x3cb31e93	0.021865165
22	0xbceba567	-0.028765393
23	0x3d85a43c	0.06525466
24	0xbdc4ffb4	-0.09619084
25	0x3e8d7f81	0.2763634
26	0xbeebb2e6	-0.46034926
27	0x3d6f2691	0.05838639
28	0xbf2c6860	-0.67346764
29	0x3dcbafff	0.09945678
30	0x3f33e068	0.7026429
31	0xbe38c47b	-0.18043701

l_lstm.bias_hh_l1 f4 [32]
0	0xbee50444	-0.44729817
1	0xbf6ce632	-0.9253875
2	0xbeb6086a	-0.35553294
3	0xbf392e06	-0.7233585
4	0xbe698343	-0.22803979
5	0xbf07e353	-0.53081244
6	0xbf1df73f	-0.6170539
7	0xbf48f4d3	-0.7849857
8	0xbe3ff4ca	-0.18745723
9	0x3e6de02d	0.23230048
10	0x3dc62458	0.09674901
11	0x3eaab79a	0.33343202
12	0xbf9b8ad0	-1.2151737
13	0xbeb42186	-0.35181826
14	0xbefa4f82	-0.48888785
15	0x3e9304de	0.2871465
16	0x3d36954c	0.044575974
17	0x3e0d4328	0.1379515
18	0xbda6f05d	-0.081513144
19	0xbeb709a0	-0.3574953
20	0xbea05eee	-0.31322426
21	0xbdcbe133	-0.09955063
22	0x3e1818ae	0.14853165
23	0xbdd9356d	-0.10605893
24	0xbe4019da	-0.18759862
25	0x3e9c4c3d	0.30526915
26	0xbf214276	-0.62992036
27	0xbe6870ba	-0.22699252
28	0xbf0d0780	-0.5508957
29	0x3dbf39ce	0.09337197
30	0x3e929c20	0.2863474
31	0xbdf33533	-0.11875381

l_linear.weight f4 [1, 8]
0	0xbef8e0ba	-0.48608953
1	0xbf024514	-0.50886655
2	0xbefebc73	-0.4975315
3	0x3ed9034d	0.4238533
4	0xbee90b52	-0.4551645
5	0xbeef5f96	-0.46752614
6	0x3f08736e	0.5330113
7	0xbed7bfe8	-0.421386
