data/datasets/vt_chittenden_county_neighborhood/resstock-amy2018-2021-release-1-546814.pth (torch, 8966 bytes, 9 tensors)

l_lstm.weight_ih_l0 f4 [32, 13]
000000 4b f8 a2 bc 5e af c4 3e 27 ce 60 bc 0b 02 29 bf
       -0.019893786 0.38415045 -0.013721026 -0.6601874
000010 2b 8d cd 3d fb 5e 56 40 11 66 5a 3f cb 7b 52 40
       0.10036691 3.3495471 0.8531199 3.2888057
000020 f7 91 1d bf 04 3a d1 3e 3c 2d 63 3e f5 75 a0 bd
       -0.6155085 0.40864575 0.22185224 -0.078349985
000030 66 e8 8a 3f 27 c2 fb 3e 67 9e 7b 3f 12 0c 83 3f
       1.0852172 0.49171564 0.9828858 1.0238059
000040 1f db 22 3f 70 f0 c8 3e 61 bf 44 3f ca 8a e2 3d
       0.636156 0.3924594 0.7685452 0.11061628
000050 56 1a 9a 3e 29 71 66 3f 97 d2 23 3f ed 6f 8f 3f
       0.30098218 0.9001642 0.6399321 1.1206032
000060 7b ea 0e 3f 2e 5a 54 3f 05 7d 99 bf af 6d cf 3f
       0.5582654 0.82950103 -1.1991278 1.6205348
000070 9e 41 a8 bf b2 dd 4c bf d5 9b d3 3f bc 7c ae 3e
       -1.3145025 -0.8002578 1.6531931 0.3407954
000080 7f 7c e6 bf 0a fd 75 c0 6d c3 e0 40 c8 f2 ba be
       -1.8006743 -3.8435693 7.0238557 -0.36513352
000090 d4 5b 28 3f 1d 7a 6a bf 87 fe 8f bd 69 af f7 bb
       0.6576512 -0.9159258 -0.07030969 -0.0075587523
0000a0 3a 2e fa 3b 72 b0 9f 3c ef 14 c7 3c 60 aa 0e bf
       0.007634905 0.019493315 0.024301974 -0.5572872
0000b0 97 bb 94 3f ad 7a 56 bf 07 59 01 bf 2a 91 89 be
       1.1619748 -0.8378094 -0.5052647 -0.26868564
0000c0 35 09 18 bf 98 a5 97 3e b3 e0 60 be ae 12 c3 bf
       -0.5938905 0.29618526 -0.21960716 -1.5240076
0000d0 70 8a 19 3e 2b 42 75 be 07 bb 9b be 56 e2 ba bd
       0.14994216 -0.23951022 -0.30416128 -0.091252014
0000e0 c8 20 de 3d 97 2f 57 3e 81 63 ec be 37 44 80 3f
       0.10846096 0.21014248 -0.46169665 1.0020818
0000f0 5f a6 9c 3e 0f 91 2d 3e 92 7e 9c 3e ef 38 70 be
       0.3059568 0.16949867 0.30565315 -0.23459218
000100 b1 4d ed 3f 9e 96 4f bf f2 a3 9c bf e8 1e 18 bc
       1.8539335 -0.810892 -1.2237532 -0.009284712
000110 2f 15 fb 3c 62 fd 20 3e b7 54 99 3e cd 72 bf bf
       0.03064975 0.15721658 0.29947445 -1.495691
000120 c9 ea 9c bf 6d b3 1d bf 12 92 1b bf cb 14 b7 bf
       -1.2259151 -0.61601907 -0.6076976 -1.430322
000130 05 0b 16 be 78 71 c1 3f ce 35 03 3f 5e ce 14 bf
       -0.14652641 1.5112753 0.51253974 -0.5812739
000140 81 a4 3e be 6f c3 8c be d1 d8 31 3d 83 60 7c 3f
       -0.18617441 -0.27492854 0.043419663 0.98584765
000150 f2 c7 1d c1 7b 3b 20 40 06 cc 88 3f 4a 20 9d 3f
       -9.861315 2.5036304 1.0687263 1.2275479
000160 27 54 39 3f d0 bc 4c bf b1 f8 3f 3f 20 4d 47 c0
       0.7239403 -0.79975605 0.7498885 -3.1140823
000170 ef 12 01 c0 bd 51 e9 3f 50 ac 5c 40 c6 b6 c7 3f
       -2.0167806 1.822807 3.4480171 1.5602653
000180 ee ae 68 3f fb 12 ca 3a 3d 88 b8 3f ae 74 86 bf
       0.9089192 0.0015417034 1.4416577 -1.0504358
000190 04 fb 6a 3e ff f0 8a bf 80 1f c5 3f 27 6d 04 bf
       0.22947317 -1.0854796 1.5400238 -0.51729053
0001a0 c0 9f 48 3f 69 26 b7 3e 0e 0f 4b be 29 7c 3f bf
       0.7836876 0.35771492 -0.19829962 -0.7479883
0001b0 a1 2b c0 3d cd 43 20 40 be fe 1b 40 31 fc 81 40
       0.093833216 2.5041382 2.4374232 4.062035
0001c0 63 df f4 be 32 3e 99 bd 1e 12 11 3d c8 62 ad 3f
       -0.4782668 -0.07482566 0.03541767 1.3545771
0001d0 51 ae 22 3f 08 e8 36 be 7c 1d 89 bf 53 03 13 40
       0.63547236 -0.1786195 -1.0712123 2.297078
0001e0 a3 1a 56 3f 24 3a 8e 40 e7 86 9d 3e 36 f9 23 c0
       0.83634394 4.4445972 0.30766985 -2.5620856
0001f0 79 db eb 3f 48 2d e7 be 19 01 0d bf 51 d6 26 bf
       1.8426353 -0.45151734 -0.550798 -0.6517077
000200 78 1c c8 3e d6 5c c3 be f5 c5 a4 bf 40 fc 31 be
       0.3908422 -0.38156766 -1.2872912 -0.17381382
000210 16 87 95 3e 86 7e a7 3f 2e 92 68 3f 78 8f 8a 3f
       0.29204625 1.3085487 0.9084805 1.0825033
000220 ac 2a 80 c0 08 e7 97 c0 fb c7 d4 3f a0 d9 0e bf
       -4.005209 -4.746952 1.6623529 -0.5580082
000230 c0 89 02 3e 37 89 5f be ac 1d 55 bf 32 51 9a 3e
       0.1274786 -0.21829687 -0.832484 0.30140072
000240 90 d7 2a be b2 28 e1 bc 4f c8 70 3d a2 9a 6e 3e
       -0.16683793 -0.027485225 0.05878478 0.23301175
000250 fa 35 87 3e 30 a9 1f c0 c4 a2 46 c1 1a a9 90 3d
       0.26408368 -2.4947014 -12.414738 0.070635036
000260 8e d1 79 3e ee b9 01 c0 74 9d a1 bd 4a 2e df bf
       0.24396345 -2.0269732 -0.0789136 -1.7436001
000270 a4 a4 70 be f3 9d 02 bd 92 ba 07 3e 19 d9 8d 3c
       -0.23500305 -0.031888913 0.13254765 0.017315434
000280 97 1f 7b bd 8d 50 00 bf 12 02 58 be 59 ee 2b 3e
       -0.061309423 -0.5012291 -0.2109454 0.16790141
000290 f8 23 15 bc e0 0b 0d be a2 37 cb 3e 91 79 a6 3d
       -0.009102814 -0.13774061 0.39690882 0.08128656
0002a0 76 b1 0a 40 60 3c 0a c0 d3 50 97 c0 7b 21 ad 3d
       2.1670814 -2.159935 -4.728616 0.084536515
0002b0 c8 6b 97 be 49 36 d0 be 86 38 ad be f5 dc ab 40
       -0.29574418 -0.40666416 -0.33832186 5.3707223
0002c0 7f 21 9f 40 3e b3 1e bf 99 25 8f 3f 0a e8 89 bf
       4.972839 -0.6199225 1.1183349 -1.0773938
0002d0 e2 b1 91 3c f5 8d 11 40 80 e4 0d 40 94 a7 9c 3f
       0.017785016 2.2742894 2.2170715 1.2238641
0002e0 ba 73 af 3e 41 fa 3c be f8 ec a2 be 6e 14 08 c0
       0.3426798 -0.1845484 -0.31821418 -2.126247
0002f0 58 e3 7e c0 66 ff 13 40 04 d5 8a bf 7c e0 08 c0
       -3.982626 2.3124633 -1.0846257 -2.1387014
000300 64 07 22 3f 03 44 aa 3f 17 86 03 3f 58 ae d2 3e
       0.6329253 1.3302006 0.5137648 0.4114864
000310 64 d6 0f 40 a8 82 4c 3f 94 63 76 be bf a2 fc 3e
       2.2474604 0.79886866 -0.24061424 0.49342915
000320 51 98 d8 3e 8f 75 a7 bf 84 6a 1b 40 03 6e 06 c0
       0.42303708 -1.3082751 2.4283762 -2.1004646
000330 12 12 90 3f 03 d6 a2 bf 6b bd 53 3f 59 96 a7 be
       1.1255515 -1.2721561 0.82710904 -0.32731894
000340 06 b0 ca 3e 76 e6 94 3e e8 e5 a7 bf 94 4e c4 bf
       0.3958742 0.29082078 -1.3117037 -1.533648
000350 cb 41 d9 be cf d4 96 c0 80 0b 1a 40 f8 c7 c9 c0
       -0.4243301 -4.7134776 2.406952 -6.3056602
000360 f3 c5 96 3d a5 3a 26 bc 8b be cf bf 68 c4 68 3e
       0.073619746 -0.010145818 -1.6230024 0.22731173
000370 3f b8 22 bf 8e c2 f6 3e 66 9f d0 3e 85 f2 66 3f
       -0.6356239 0.48195308 0.4074661 0.90213805
000380 ad d4 2a 3f 45 d2 76 3f 99 5b 6f 3f bf b0 f5 3d
       0.6673077 0.96414596 0.9349914 0.11996602
000390 29 3e c7 3d 04 5b 38 3f ca 2c 29 3f 1b 6d fe 3e
       0.09728653 0.7201388 0.6608397 0.49692616
0003a0 e4 55 21 3d c2 b9 82 3f 4f ad 78 bf d7 6c 12 3f
       0.039388552 1.0212939 -0.9713945 0.57197326
0003b0 e6 66 e9 40 d9 24 81 3f 9e 06 cf 3f 72 23 32 3d
       7.293811 1.008937 1.6173894 0.043490835
0003c0 9b d7 8a 3f 73 26 98 be 4c 5f 9c 40 fe a7 0e 40
       1.0847048 -0.29716834 4.886633 2.2290034
0003d0 0f af 46 bf d7 bd 27 3e 50 4a ea be 8c 6f b8 be
       -0.7761087 0.16381012 -0.4575982 -0.36022604
0003e0 ff a2 c4 be 0e e6 09 bc d6 2b 2c bc 5f 6f c5 3d
       -0.38405606 -0.008416666 -0.010508498 0.09640383
0003f0 70 30 8d bb 1b 6e 54 bf 95 ff 11 40 78 f7 07 bc
       -0.0043087527 -0.8298051 2.2812245 -0.008298747

l_lstm.weight_hh_l0 f4 [32, 8]
000000 95 e6 ea 3e 98 e0 65 bf 9f 7d 6a bf 39 7a 7f 3f
       0.45879045 -0.8979583 -0.9159793 0.9979587
000010 74 d4 0c 3f 9c 86 87 3f bd 04 52 3f ba 0a d6 3d
       0.5501168 1.0587955 0.8203848 0.10451265
000020 06 23 3d bf 1b de 44 3f 42 7b 7f 3f 61 89 49 be
       -0.73881567 0.76901406 0.9979745 -0.19681312
000030 7a e4 eb 3e 71 cf d9 3e 6a 9a 50 be 7b f2 7d be
       0.4607275 0.42541078 -0.20371404 -0.2479953
000040 bc 23 89 bf 2d ce 87 3f ae 34 e9 3f 8a 7d da 3e
       -1.071403 1.0609795 1.8219202 0.42673904
000050 dc b7 d9 3e c8 fa f2 bd 97 b9 65 3f d2 1e 1a bf
       0.42523086 -0.11864239 0.8973631 -0.6020328
000060 d9 a1 19 3f f4 49 94 be af 81 8c 40 9c d2 b5 bf
       0.60012585 -0.28962672 4.3908305 -1.4204898
000070 71 e7 f9 bf 48 ac 90 3f 3b 2f c1 3f 05 6f 8f be
       -1.9523755 1.1302576 1.5092539 -0.2801439
000080 53 13 62 3c 09 99 75 be 4c ae 14 bf db d0 00 bf
       0.013798553 -0.2398416 -0.58078456 -0.5031869
000090 bd 86 a0 3e 48 69 44 bf 72 d9 d6 3d 3c f0 16 3f
       0.31352797 -0.76723146 0.10490693 0.5896032
0000a0 73 5e 09 3f 7c 71 0c bf b0 ab 2e 3f 1f 33 39 3f
       0.53659743 -0.54860663 0.68230724 0.7234363
0000b0 4b a0 7d 3f c4 37 de be 86 de e0 3e ab 8b 73 3f
       0.9907271 -0.4340192 0.43919772 0.9513499
0000c0 78 b8 a9 3f dc 62 a9 3e 44 57 89 bf c5 b6 8c 40
       1.325942 0.33083236 -1.0729756 4.3973107
0000d0 c8 7b ea 3f 63 5e b8 c0 5f 7b 67 bf 1b 75 1e 3f
       1.8319025 -5.761522 -0.90422624 0.6189744
0000e0 90 88 f9 bf 48 f8 21 3f 05 78 73 3f 3e f0 d5 be
       -1.94948 0.6326947 0.9510501 -0.41784853
0000f0 9a 93 b4 3f 0c 6b 7e 40 f9 4a 19 3f a2 9e fe bf
       1.4107544 3.9752836 0.59880024 -1.9892161
000100 51 b4 8d 3e 2c 3f 49 bf 24 92 cf bf c7 01 cc 3e
       0.27676633 -0.7861202 -1.6216474 0.39845106
000110 c7 ef 30 3f 11 f0 4a bf ae 93 95 3f b6 92 a9 3f
       0.6911587 -0.7927256 1.1685693 1.3247898
000120 cf 74 2e c0 83 14 0e 3f e1 a4 c2 3f 37 fb 0f 3d
       -2.7258794 0.5550005 1.5206567 0.035151687
000130 df 32 85 3f 27 0a 8c 40 29 73 5b bf e0 33 98 bf
       1.040615 4.3762393 -0.85722595 -1.1890831
000140 55 49 47 bf 59 31 be 3e 7d d9 ce 3f 63 bf 60 3f
       -0.7784627 0.37147024 1.6160122 0.8779203
000150 13 89 56 3e aa 5b b9 be b3 4d 45 3f 6f 63 0e bf
       0.20950727 -0.36202747 0.77071685 -0.55620474
000160 3a 71 56 c0 13 2c 96 3d ed a0 13 3f 4f 56 d5 bb
       -3.3506608 0.07332625 0.5766743 -0.006510533
000170 26 3a 0f c0 9e ea 3a 3e 29 88 60 3e ed 96 0f be
       -2.237924 0.18253562 0.21926941 -0.14022417
000180 68 12 08 3f 97 56 d9 be c9 d9 04 be 9b 37 9d bf
       0.53153086 -0.42448875 -0.12973703 -1.2282594
000190 ff 84 4c 3e 68 b7 90 be 40 05 68 be f9 bb 7e 3e
       0.19972609 -0.28264928 -0.22658253 0.24876393
0001a0 c1 2d 0c bf 41 05 02 bf ea a6 bc 3f 8f 08 05 40
       -0.54757315 -0.50789267 1.4738438 2.0786474
0001b0 40 e0 53 be fb 08 1e bf c3 ec 17 40 9d 3b 17 3f
       -0.20691013 -0.61732453 2.3738258 0.5907534
0001c0 c8 dd 17 c0 33 bb 88 3e d3 33 d9 bf 28 d4 3c c0
       -2.3729115 0.26705322 -1.696894 -2.950449
0001d0 44 d0 52 3f d4 7e 35 c0 00 8d 5b be 30 80 85 bf
       0.8234904 -2.835866 -0.21440506 -1.0429745
0001e0 1e 54 1a bf 77 00 84 3f 3a 7c 20 39 0e e7 98 c0
       -0.602846 1.0312642 0.00015305067 -4.778205
0001f0 ef 29 ff bd 77 04 80 3f 1f 42 d0 3f cb de a4 bf
       -0.1245917 1.0001363 1.6270179 -1.2880491
000200 71 d4 dd 3e 40 2c 8b bd cf 8f 8d 3f 03 5f cf be
       0.43326142 -0.067955494 1.1059512 -0.40502176
000210 11 2b d8 bf dd 4a fe be eb 52 3e 40 2e 9c 86 bf
       -1.6888143 -0.4966649 2.973811 -1.0516412
000220 a7 fb da be b8 d4 2c 3f 2b 0a 51 3f ba 19 a6 bc
       -0.4277012 0.67512083 0.8165614 -0.02027594
000230 fe b0 11 3f 74 5b 22 3f 0d 76 71 be c4 71 3f bf
       0.56910694 0.63420796 -0.23580189 -0.7478297
000240 f6 50 d9 bf 88 f5 ab 3e a6 e3 cd bd 36 ff bf bf
       -1.6977832 0.33585763 -0.10053186 -1.4999759
000250 d6 2d 18 3f 66 14 12 40 7a 2b 4c 3c 46 e3 f9 be
       0.5944494 2.282495 0.0124615375 -0.48806208
000260 6e a4 bd 3e 0f 01 7d bf b8 15 7a 3d 7f c0 a3 bf
       0.37039512 -0.9882974 0.06105587 -1.279312
000270 51 8f 0a bf 85 95 dc be 46 0f 42 bf 4c 7b 55 3e
       -0.54124933 -0.43082824 -0.75804555 0.20847815
000280 f1 6f c2 bd 99 71 bd 3e 8f 15 24 3e d7 54 78 3f
       -0.094940074 0.3700073 0.16023849 0.97004455
000290 4b 23 19 be dc ba 37 3e bc 35 36 3f 64 6d 24 be
       -0.1495487 0.17942375 0.7117574 -0.16057354
0002a0 bc b9 93 3e bc 97 bf be b8 8f 8f be 81 23 d6 3f
       0.28852642 -0.37420452 -0.28039336 1.6729585
0002b0 54 85 81 3f 25 01 b3 bf 01 a9 fe be ef 60 35 3f
       1.0118814 -1.3984724 -0.49738315 0.70851034
0002c0 54 12 cb bd c3 35 dd 3e ca e5 69 bf 76 9e 92 3f
       -0.09915605 0.4320508 -0.91366255 1.1454608
0002d0 b0 e3 54 3f 84 33 db bd 71 3b 42 c0 9a 7c ea 3e
       0.83159924 -0.10703185 -3.034878 0.45798188
0002e0 60 2d ce 3f be fc 64 bf d6 12 33 bf fa 58 f2 3f
       1.6107597 -0.89448154 -0.69950616 1.8933403
0002f0 2c 3e c1 be 0b e9 97 be 9e 12 a9 3f d0 07 71 bf
       -0.37742746 -0.29669985 1.3208807 -0.94152546
000300 79 27 26 3f bd bc a9 bf 27 76 50 bf e0 cb 6c be
       0.6490398 -1.3260723 -0.81430286 -0.23124647
000310 da 2c 9a 3d 1d b6 30 bf 0f 81 b9 bd 12 dd 96 3f
       0.07528086 -0.6902788 -0.09057819 1.1786215
000320 6e 15 d7 3d 14 88 74 3e 01 a1 9b 3e 4e 02 bd 3e
       0.10502134 0.23880035 0.30396274 0.3691582
000330 a9 24 e2 3d 9c b3 b7 3e 95 19 5b 3d ee 1c 38 be
       0.110421486 0.3587922 0.053491194 -0.17979786
000340 97 cf 25 3e 39 0c 94 3e 1a 93 b6 be d8 53 a0 3f
       0.1619247 0.28915575 -0.35659105 1.2525587
000350 e1 75 33 3f eb 3a ba 3e 53 c4 62 3d 68 59 e1 3e
       0.70101744 0.36373076 0.05536301 0.44013524
000360 f6 69 bd bf 27 50 08 bf ce 8a 50 40 ba 56 17 c0
       -1.4797962 -0.532473 3.258472 -2.3646684
000370 27 eb c4 bf 73 46 5b 40 f1 2b 4d bf dc 60 ff bf
       -1.5384263 3.4261749 -0.80145174 -1.9951434
000380 e7 dc d4 be 8c 98 b6 be a7 f0 ab bf b0 d2 c3 bf
       -0.41574785 -0.3566326 -1.3432816 -1.5298672
000390 b8 de 5c be 0e ea 95 bd 99 93 7d bf cf d3 0e 3f
       -0.21569335 -0.07320033 -0.9905334 0.55791944
0003a0 2e b2 fa 3d b8 95 1d bf e7 bb a8 3d 12 fd a9 3d
       0.12241016 -0.6155658 0.082389645 0.083002225
0003b0 a2 b7 8e 3f df be 53 3f 88 66 b0 bf 64 eb 9a 3f
       1.114979 0.8271312 -1.378129 1.2103086
0003c0 bc b4 c3 3f d6 c3 09 c0 45 b8 7c 3e 9f c6 ae 3f
       1.5289531 -2.1525779 0.24679668 1.3654364
0003d0 20 9c 0a 3e c4 be 1e 40 c9 96 e6 3f 1e c1 0e 40
       0.1353612 2.4803934 1.8014766 2.230537
0003e0 6d 88 51 3e 35 46 e4 3e eb de f6 3e fc 13 f7 3e
       0.20462199 0.44584814 0.48216948 0.48257434
0003f0 e9 db 41 3f 1a f0 b4 3e dd 5a 2a 3e 57 88 c0 bc
       0.7572618 0.35339433 0.16636224 -0.023502512

l_lstm.bias_ih_l0 f4 [32]
000000 a1 85 40 bd 96 75 e4 3f 54 0c 47 3f 49 6f 13 3f
       -0.04700244 1.7848384 0.77753186 0.5759168
000010 5e b8 4d bf 7c 7e 03 bf 9e 92 68 bf 6d 19 1b 3f
       -0.80359447 -0.51364875 -0.9084872 0.6058567
000020 63 d3 1f bf 2a c4 85 3e 01 00 97 3e 92 45 a5 3e
       -0.62431926 0.26126224 0.2949219 0.3227964
000030 bd 11 4a be 1d f1 b4 bd 53 33 72 3e 42 21 c3 3e
       -0.19733329 -0.08835051 0.23652391 0.3811131
000040 81 ac 44 3d 46 23 84 3f 38 7b f9 3e db 7e e4 be
       0.048016075 1.0323265 0.4872682 -0.44628033
000050 09 1e dc 3e 94 bd 07 3d c8 25 5a 3e d1 d2 ba be
       0.42991665 0.03313978 0.21303475 -0.36488965
000060 77 58 7d bf 05 1b bb 3e ea cf 43 3e 59 7f 06 3f
       -0.9896311 0.36544052 0.19122282 0.5253807
000070 1c 92 46 be 37 8c 90 be c5 ef 44 bf c1 d3 5e be
       -0.19391674 -0.28231975 -0.7692836 -0.21760465

l_lstm.bias_hh_l0 f4 [32]
000000 24 c7 24 be 4d a2 c2 3f df 4a fe 3e 23 60 34 3f
       -0.16091591 1.520578 0.49666497 0.70459193
000010 cc 26 e7 be aa 25 c0 bd 1e f4 60 bf 76 7b ac 3e
       -0.45146787 -0.09382184 -0.87872493 0.33687943
000020 21 89 43 bf 16 a5 02 3e 03 a1 6b 3e 4a ad 3e 3d
       -0.7638112 0.12758288 0.2301064 0.04655198
000030 a1 78 2c bd dd 34 51 bd 75 8f 3b 3e bf 2a d2 3e
       -0.04210723 -0.051075805 0.18316443 0.41048238
000040 3e a8 a2 3e 68 be 2f 3f 5a d1 e6 3e c9 8a ab be
       0.31768984 0.6864991 0.45081598 -0.33504322
000050 b5 a7 e3 3e 1d 89 50 3c 70 28 a2 be 45 ad 10 be
       0.44463888 0.012728003 -0.31671476 -0.14128597
000060 51 7d 0b bf 6f 1f 9a 3e 83 65 f8 3a 8a fc 5c 3f
       -0.5448809 0.30102107 0.0018951151 0.86322844
000070 78 64 a1 3d c6 f4 44 be f6 47 6e be 1c 5d 75 be
       0.07880491 -0.19233999 -0.23269638 -0.239613

l_lstm.weight_ih_l1 f4 [32, 8]
000000 16 69 21 bf 75 1c 86 3f fd cd 5c 3e b8 1f 04 3e
       -0.63050973 1.0477434 0.21562953 0.12902725
000010 d1 af da 3d 46 a7 02 3e 6b 4b 33 3e bf ea 4a bf
       0.106780656 0.12759122 0.17509238 -0.79264444
000020 eb 3d 0c 3e d8 6c 50 3f 63 db 92 bf 22 1a bf bf
       0.13695495 0.8141608 -1.1473202 -1.492985
000030 ca 3a 5a bf 9b cb 90 40 32 97 a9 c0 a1 06 c7 3f
       -0.85245955 4.524854 -5.2997065 1.5548898
000040 8f 91 ae bf 0a 7d 3f 3d 56 04 99 bf f3 91 43 3d
       -1.3638171 0.046750106 -1.1954448 0.04774661
000050 94 64 77 bf 30 b5 0e 3e 6a 45 2b c0 bf 4c a3 3f
       -0.96637845 0.13936305 -2.6761117 1.2757796
000060 f4 6c a8 3f 30 7e 06 3f 4c 73 28 bf 9e 25 d4 bf
       1.315825 0.52536297 -0.6580093 -1.657398
000070 c8 23 01 bf 12 07 81 3f 3b b8 f7 be cc b7 00 3f
       -0.5044522 1.0080283 -0.48382744 0.5028045
000080 33 b0 77 3e 43 6b d0 3e ec 3c 0b c0 97 8b 10 40
       0.24188308 0.40706834 -2.1755934 2.25852
000090 d5 88 79 be 04 31 e3 bf a8 fe 7f 3e 94 8d 84 3f
       -0.24368604 -1.7749333 0.24999487 1.0355706
0000a0 6b eb 29 3e a5 4d e1 3f 40 d2 f5 be b4 f5 bf 40
       0.16593711 1.760182 -0.4801197 5.998743
0000b0 87 b6 45 3f 71 17 98 bf 09 a1 bb 3f e4 41 f2 bf
       0.7723164 -1.1882154 1.4658519 -1.8926358
0000c0 1e ce 8e 3f 65 f9 0d 3f 21 93 c4 3e 04 e6 05 c0
       1.1156652 0.5545867 0.383935 -2.092164
0000d0 05 e3 36 3f de dd 16 40 45 30 05 c0 5c b6 3e 3e
       0.71440154 2.3572917 -2.0810711 0.18624252
0000e0 b2 59 c1 3f 38 dd c8 3f 43 5b a7 bf c4 75 d7 3e
       1.5105498 1.5692511 -1.3074726 0.42082036
0000f0 30 fc ce 3f 7e ed 98 3d b0 34 8a be 4d 8b ce bd
       1.6170712 0.07467173 -0.26993322 -0.10085163
000100 a6 1c 0c 3d 4d 44 e0 bf c7 42 25 bf 65 6c 8c 40
       0.03420701 -1.7520844 -0.6455502 4.3882318
000110 8a 58 fb bf a4 d5 b3 bf 7b 47 25 40 78 bb 0d 40
       -1.9636395 -1.4049573 2.5824878 2.2145672
000120 9b 69 15 bc 2b 11 95 3f 59 6e 99 bf f1 14 b3 bf
       -0.009119417 1.1645864 -1.19868 -1.3990766
000130 f5 3b 2b 3e be 70 ab 3f 90 3f 03 3f e4 9a 4d 3f
       0.1672209 1.3393781 0.51268864 0.8031447
000140 f0 be e3 bf 2e dc 75 3e 05 f9 b1 bf e5 a9 b8 be
       -1.7792645 0.24009773 -1.390412 -0.3606712
000150 a6 5b 74 bf 53 1b 98 bf 46 eb 07 40 71 0c b3 3f
       -0.95452344 -1.1883339 2.123735 1.3988172
000160 4d 03 85 bf 1c 15 ca bf 35 83 ba bf b4 81 fb 3f
       -1.0391632 -1.5787692 -1.4571291 1.9648957
000170 24 05 2c c0 af 66 3a c0 03 42 b5 3f ef 5f 94 40
       -2.6878138 -2.9125173 1.416077 4.6367106
000180 cf 67 a7 bd 40 7c 2d 3f f6 9b 2d bf 17 8d d8 3e
       -0.08174097 0.67767715 -0.678161 0.42295143
000190 7f c5 55 3f e9 e6 4f be ba 0f d5 3f 6b d0 99 3f
       0.8350448 -0.20302929 1.6645424 1.2016729
0001a0 00 f5 9c be 50 cd 39 3e 16 d6 a1 bf 01 1e ee bf
       -0.3065567 0.18144727 -1.2643459 -1.8602906
0001b0 6b 71 1c bf ec ae 28 bf f4 99 17 40 6b a7 d9 be
       -0.6111056 -0.6589191 2.3687716 -0.42510542
0001c0 1e f4 fe 3f 85 45 09 bf 55 2b a3 bf 4a 75 5f be
       1.9918249 -0.53621703 -1.2747599 -0.21822086
0001d0 b9 e5 60 40 0c ae 4f 3d 5a fd e9 bf 5f c5 3e 3f
       3.5140212 0.050703093 -1.8280442 0.74519914
0001e0 bf 1b f3 bf 37 55 13 3d 26 9c 58 be 29 0b 14 c0
       -1.8992842 0.03596994 -0.21153316 -2.3131812
0001f0 fa f1 72 bf bf ae 89 3f aa 98 6b 3f e8 f7 34 bf
       -0.94900477 1.0756453 0.9202982 -0.70690775
000200 b7 40 b3 be d9 b1 6e 3e 52 82 fd be 5e 24 75 bf
       -0.3501031 0.23310031 -0.4951349 -0.95758617
000210 3b 23 03 bd 1c 5f 35 bf 28 e8 35 bf cd bf 91 3e
       -0.03201602 -0.7084825 -0.7105737 0.28466645
000220 15 ec 99 bf 66 c4 03 3e 77 f9 08 3f c3 e5 e5 3f
       -1.2025172 0.12867889 0.53505653 1.7960743
000230 23 c8 4c bf db 1d 35 bf 7b 19 38 3f 79 54 22 bf
       -0.79992884 -0.7074868 0.7191388 -0.63410145
000240 8b 85 03 3f c5 12 3d 3e 9f 9d 92 bf 2c fc 56 bf
       0.51375645 0.18464191 -1.1454352 -0.83978534
000250 b8 09 4c 3e 66 54 98 be 63 da 49 bf 29 79 23 be
       0.19925582 -0.2975189 -0.78848857 -0.15964188
000260 c1 5d 17 3f 2d 63 7c 3f a4 fb 9a bf 27 b7 9e be
       0.5912743 0.9858883 -1.2108045 -0.3099911
000270 ce 91 91 3f 95 2a c4 bf 10 68 7e bf 68 ce 2c 3e
       1.1372621 -1.5325495 -0.99377537 0.16875613
000280 de 2f 0c 3f 96 df 80 3e a0 34 d7 3d 85 3a c0 bf
       0.5476054 0.25170583 0.10508084 -1.5017859
000290 10 93 56 3e ef 9c db bd e1 c5 fe be 98 e9 21 be
       0.20954537 -0.10723292 -0.49760345 -0.15811765
0002a0 de 36 38 be 90 d2 c3 be f1 e2 2b 3f c4 d5 4b 40
       -0.1798968 -0.38246584 0.6714316 3.1849222
0002b0 30 04 86 bf 67 3c 28 3f cf 8a 62 3f 00 ad 33 be
       -1.0470028 0.65717167 0.88493055 -0.17546463
0002c0 82 53 40 3f de f3 3c 3f 9f a1 b8 be 11 e8 4d bf
       0.7512742 0.7380961 -0.36060807 -0.8043223
0002d0 2f 54 61 3f fa 33 7f bf 40 c0 83 bf 01 27 32 bf
       0.8801908 -0.99688685 -1.0293045 -0.69590765
0002e0 80 b8 d2 3e 8f d0 61 3f fa 63 c9 3e 64 c9 ac bf
       0.41156387 0.8820886 0.3933409 -1.349896
0002f0 72 b1 2c 3f 76 64 f8 be 07 cc 22 bf 91 95 45 bf
       0.6745826 -0.48514146 -0.6359257 -0.77181345
000300 46 c2 d9 bc 0c 3f 9b 3e ab a0 e4 3e 5e f6 47 3f
       -0.026581895 0.30321538 0.4465383 0.781103
000310 ae 87 a7 bf ff 52 99 3d b8 a4 f3 bc 46 4e c6 be
       -1.3088281 0.074865334 -0.02974163 -0.38731593
000320 52 3e c7 3f 8b 15 c2 3e c1 a6 36 be ae 8f 4e bf
       1.5565894 0.3790706 -0.17837049 -0.8068799
000330 eb 27 e9 3f a3 00 44 40 d5 89 d1 bf 92 a6 3f 3e
       1.8215307 3.0625389 -1.6370188 0.18715885
000340 10 9f 12 bf 0b 72 51 3f 7a df 33 3f 7b f9 22 bf
       -0.5727396 0.8181464 0.70262873 -0.63661927
000350 43 5b 2a c0 bb 0b f5 3f 9d 70 1d bf e7 8a 68 3e
       -2.6618202 1.9144205 -0.6149996 0.22709237
000360 a8 cd a6 3f 98 1c 50 3f 7b 5f 8f 3d 65 a3 24 c0
       1.3031511 0.8129363 0.07000633 -2.5724728
000370 08 f0 4a be c7 a6 35 3f c8 d3 0a 40 2d d9 bb 3e
       -0.19818127 0.7095761 2.169176 0.3668913
000380 e6 52 1e bf 5e 1a 77 3e de 65 73 bf fa 37 7f 3f
       -0.6184524 0.24131152 -0.9507731 0.9969479
000390 6a 30 c0 bf c5 36 b1 3d ee 27 53 3f 5c 49 8c 3f
       -1.5014775 0.086530246 0.824828 1.0959888
0003a0 8b eb 0d be ef ae 3e 3e 65 d8 27 bf 54 f8 3d 40
       -0.13859384 0.1862142 -0.65564567 2.9682817
0003b0 cc c5 90 3d 2b 66 ce be b6 e2 ab 3e 59 fe 6e bf
       0.07068977 -0.40312323 0.33571404 -0.93356854
0003c0 82 d0 45 3f cd cb 76 3e db fa 37 3f 92 18 30 c0
       0.7727128 0.24101181 0.7186715 -2.7514997
0003d0 68 10 21 3f 83 0b 05 40 cc 6f 02 c0 2a bc e6 bc
       0.6291566 2.0788276 -2.0380735 -0.028165895
0003e0 b2 f0 95 bf 43 6f 58 3f 6c 08 64 bf d3 ef 20 bf
       -1.1714079 0.8454477 -0.8907535 -0.6286594
0003f0 55 ef 08 bf 5e ce 37 3e 8d c6 d1 bf 03 c4 86 be
       -0.5349019 0.17949817 -1.6388718 -0.2632142

l_lstm.weight_hh_l1 f4 [32, 8]
000000 e2 11 13 3e 79 ca 9e bf 2a 0d 37 3f 0c 0e 35 3f
       0.1436229 -1.240554 0.7150446 0.7072456
000010 96 88 0e 3f 0f 04 00 40 0c 8d 5a 3f 3c ba 06 3f
       0.55677164 2.0002477 0.8537147 0.5262792
000020 eb 68 13 be 4e 98 9a bf 04 a4 a4 3f 9f 98 cb 3f
       -0.14395492 -1.207773 1.2862554 1.5905951
000030 1f a1 55 bd 74 1c 24 40 0b dc bc 3e ba 3c 51 be
       -0.05215561 2.5642366 0.3688663 -0.20433322
000040 64 75 5d be 2a 53 5f be 4a ec f1 bf 3b a8 d7 3f
       -0.21626812 -0.21809068 -1.8900235 1.6848215
000050 50 c7 c9 be ba 20 9d 3e fe 29 a7 40 a2 48 30 40
       -0.39409876 0.3068903 5.223876 2.7544332
000060 f2 3d b4 bd 43 8b ce 3e e7 e2 b7 bf 1c bf fc bf
       -0.08800878 0.40340623 -1.436612 -1.9745822
000070 ba 63 d3 3e 5e 1f 41 3f ea f7 e8 3d 3d b6 dd bd
       0.41287023 0.7543849 0.11375411 -0.10825775
000080 9a 79 a7 3e d3 58 8f bf b5 00 dd 3f 03 22 f2 3f
       0.32709962 -1.1198982 1.7265841 1.891663
000090 04 bb 4e bf 2e af 83 3e 61 7e 76 40 0a 61 2d 40
       -0.80754113 0.2571959 3.8514636 2.7090478
0000a0 0d cc c6 3f b0 25 6b c0 7b 74 f3 3f cd c7 9c 3f
       1.5531021 -3.6741753 1.9019922 1.2248474
0000b0 18 be e8 3f c0 d8 6b 3f 27 af 57 40 86 de 93 3f
       1.8183012 0.9212761 3.3700655 1.1552284
0000c0 01 c3 08 c0 1f eb d1 be 36 8b 8e bf 19 4b c3 bf
       -2.136902 -0.40999696 -1.1136234 -1.5257293
0000d0 51 37 32 bf 63 44 5e 40 44 2c b8 bf f0 bc 21 bf
       -0.69615656 3.472924 -1.4388509 -0.6317892
0000e0 c8 2a 15 c0 d0 a8 31 3e bb aa 6f bf 66 21 2f bf
       -2.3307362 0.17349553 -0.9361989 -0.68410337
0000f0 f2 02 c4 bf fc e7 1a bf 27 a7 02 be b5 dc cf bf
       -1.5313399 -0.6051023 -0.12759076 -1.623923
000100 4f 97 98 bf 60 73 3d 3f 7c f3 4e bd de 60 e0 3e
       -1.1921176 0.74004173 -0.050525174 0.43823904
000110 b3 c7 c1 bf bb 68 a9 be 2d 07 55 40 8d b6 b1 3d
       -1.5139068 -0.33087716 3.328563 0.08677397
000120 92 fc ed 3e 9e c8 1e c0 a5 39 21 40 f2 fe 41 40
       0.46481758 -2.4809947 2.5191433 3.0311856
000130 e8 56 d4 3f ee 96 04 40 fa f1 82 3e 32 1e e8 be
       1.6589022 2.071712 0.25575238 -0.45335537
000140 d4 e1 83 3f 6e 7f fe be b6 2a 0c bf f8 d0 cf 3f
       1.0303292 -0.49706596 -0.5475267 1.6235647
000150 c8 c3 85 3f 2d e9 25 c0 a1 f3 da 3f 6d b6 1f 3f
       1.0450373 -2.592357 1.71056 0.62387735
000160 5a 1c b7 3e a6 b8 23 40 e2 f3 b6 bf f9 2f cc 3e
       0.35763818 2.558145 -1.4293177 0.3988035
000170 6a 14 9b bf ce a9 4f c0 e6 76 23 40 f4 be 42 bf
       -1.2115605 -3.244739 2.554132 -0.7607262
000180 65 68 b5 3e ee a0 9d bf 94 2d a5 3f e8 36 0c 40
       0.3543121 -1.2314737 1.2904534 2.1908512
000190 0c 79 99 bd 28 b4 a7 3f 70 8d 6e 3f 69 24 80 3f
       -0.07493791 1.3101854 0.93184566 1.0011111
0001a0 2f 46 0f be 83 5b 36 c0 10 f6 3a bd a3 fb d7 3d
       -0.13991617 -2.8493354 -0.04564482 0.10546043
0001b0 fb 4d f0 3e 26 e3 9b be 3f 8d d8 3e a3 6f a8 bf
       0.46934494 -0.30446738 0.42295262 -1.3159069
0001c0 96 cd 66 be bd 32 0a 3d ca b8 8d bf b0 46 97 be
       -0.22539362 0.033739794 -1.1072018 -0.29546118
0001d0 ec ff 8a bf f9 5f e0 3f f3 7d ac be ac 03 0c 3f
       -1.0859351 1.7529289 -0.33689842 0.546931
0001e0 87 ec 11 bf 5c c6 5c bf 8d cd 20 bf 64 ed c5 3d
       -0.5700154 -0.8624017 -0.62813646 0.09664419
0001f0 12 ec a3 bf 61 25 23 40 f7 9f a2 3f 23 6d a6 be
       -1.2806418 2.5491564 1.2705067 -0.3250514
000200 d9 87 3c c0 23 5d ff 3c 4c fb e7 3f 8f de 93 be
       -2.9457915 0.03117234 1.8123565 -0.28880736
000210 65 74 90 be 83 cd ad bf bf ab bc 3f 16 9c e0 3f
       -0.28213802 -1.3578342 1.4739913 1.7547634
000220 de 20 ae bf 24 99 ff bf 87 3c 25 c0 65 48 0f 3f
       -1.360378 -1.996861 -2.5818193 0.5596984
000230 99 f8 42 c0 f6 3f 8f bf af 73 ce 3d 1c 40 21 c0
       -3.0464232 -1.1191394 0.10080659 -2.519538
000240 5e 94 b9 bf 0a 1b 33 3d 22 f3 5e c0 db 15 0b bf
       -1.4498403 0.04372696 -3.4835896 -0.54330224
000250 f1 a3 cc 3f ac d2 02 40 d3 be 3d 40 4f d1 31 40
       1.5987531 2.0441084 2.964772 2.7784002
000260 81 b5 05 be 33 72 05 be cd 77 8d 3f e6 a9 63 c0
       -0.1305752 -0.13031845 1.1052185 -3.5572448
000270 e2 53 86 3f 61 d0 86 3f e1 a2 0a bf 13 95 06 40
       1.0494349 1.0532342 -0.54154783 2.1028488
000280 87 40 53 bf d1 9f a4 3e 05 22 19 bf 94 5a e1 be
       -0.82520336 0.3215318 -0.59817535 -0.44014418
000290 df 7a f6 bf df 31 1d 3f 5a bd 0e 40 cd 51 4e 40
       -1.9256247 0.6140422 2.230307 3.2237427
0002a0 a7 15 25 40 91 1e c4 bf 86 56 d3 3f 53 e6 92 bf
       2.5794466 -1.5321828 1.651078 -1.1476539
0002b0 e2 5f e6 3f e7 e9 dc 3e b8 9b 2b 3f fa 98 86 3f
       1.7998011 0.43147203 0.6703448 1.0515435
0002c0 7f f4 a8 bf 9c 3c 06 3f ad 91 ad bf 7e d4 81 bf
       -1.3199614 0.5243623 -1.3560082 -1.0142972
0002d0 57 fa 5a bf 60 09 8a be 75 86 09 c0 4f a6 85 3e
       -0.8553824 -0.26960278 -2.1488316 0.26103446
0002e0 2c d3 84 bf aa d4 7a 3f bb e8 ae bf cd dd cb bf
       -1.0376945 0.9798075 -1.3664774 -1.5927063
0002f0 17 c0 9d bf 34 76 72 3f c0 93 bf bf a2 25 c5 bf
       -1.2324246 0.94711614 -1.4966965 -1.540211
000300 a9 c2 eb 3e f2 b8 df bf 49 8c bb 3f 88 5f 96 3f
       0.4604695 -1.7478316 1.4652187 1.1747904
000310 7f 34 da 3f d6 11 65 bf 01 56 01 40 02 b4 73 3f
       1.704727 -0.8948034 2.0208743 0.95196545
000320 ca d3 3d bf e7 47 7c 3f fd 95 9a bf e7 12 1b 3e
       -0.7415129 0.98547214 -1.2077023 0.1514393
000330 12 b3 95 bf 45 fb 53 3f 40 77 ba 3e 80 ac e4 3f
       -1.1695273 0.8280528 0.36419106 1.7865143
000340 b1 c9 f2 be c1 df 76 3f cc d2 00 c0 bb 38 be be
       -0.47419503 0.9643517 -2.012866 -0.37152657
000350 f4 76 9a be 67 27 1a be 87 5b 76 be 94 bf 89 be
       -0.3016888 -0.15054093 -0.24058352 -0.26903975
000360 61 4f 58 bd c4 89 12 3f e8 e5 0e c0 da 16 b7 bf
       -0.052810077 0.57241464 -2.2327824 -1.4303849
000370 16 64 1c bf 1f 69 3a bf c7 90 80 3e 6b a8 5a 3e
       -0.6109022 -0.7281665 0.25110456 0.21353309
000380 41 10 fb 3e 5d 7c 63 bf 66 05 54 bd d7 82 d8 3e
       0.49035838 -0.8886164 -0.05176296 0.42287323
000390 a8 9e 01 bf 79 12 68 bf 3e 58 c0 3e 7b 28 92 3e
       -0.50632715 -0.9065319 0.37567323 0.2854651
0003a0 dd 51 d5 3f 0b 86 8a c0 2d c7 62 3f bb 24 c6 3e
       1.6665608 -4.3288627 0.8858517 0.38699898
0003b0 04 58 1a 40 ae 1e db bf 12 b3 da bf ee 41 85 bf
       2.411622 -1.7118738 -1.7085898 -1.0410745
0003c0 51 01 08 c0 30 a5 8a be 15 56 95 bf 66 a6 73 bf
       -2.1250803 -0.27079153 -1.1666895 -0.9517578
0003d0 86 4f a1 bf e8 0a 29 40 28 75 9d bf 74 e9 92 3d
       -1.2602394 2.6412907 -1.2301378 0.07173434
0003e0 28 3c a4 bf 24 43 ee 3d 13 2b ad bf ed f0 be be
       -1.2830858 0.116339 -1.352877 -0.37293187
0003f0 7d 8b e6 bf 39 81 92 3f 61 12 c3 3f fb 30 34 be
       -1.8011318 1.1445686 1.5239984 -0.1759681

l_lstm.bias_ih_l1 f4 [32]
000000 37 14 b6 bd 69 86 c5 be 2c e3 c4 be 79 f8 a9 be
       -0.088905744 -0.3857911 -0.38454568 -0.33197382
000010 d9 7a 7d bf e9 cb d3 be 9d 5a 92 be b7 9a 02 bf
       -0.99015576 -0.4136651 -0.28584757 -0.51017326
000020 40 02 3e bf 09 1e 7b bd f7 da 08 be 3c 10 64 bf
       -0.74222183 -0.06130794 -0.13364778 -0.8908727
000030 51 f8 fd 3e 7a d8 f6 3c 6c 8c c6 bf df 5d 4d 3f
       0.49603513 0.030132521 -1.5511603 0.8022136
000040 1d 27 ba 3d be 80 6b be bc 3e c9 3c ef d3 af 3e
       0.090894915 -0.2299833 0.024566047 0.3434138
000050 03 ab 98 3e e9 d8 92 bc d6 87 8a 3e 51 df d5 bc
       0.29817972 -0.017925696 0.2705676 -0.026107462
000060 f1 1b 18 bf 58 b6 74 bf b9 16 2c bf fa 22 d7 be
       -0.59417635 -0.95590734 -0.6722217 -0.42018872
000070 5e 13 1a bf 8d 51 54 bf bf 49 01 bf 1b 8b 2e bd
       -0.601858 -0.82936937 -0.5050315 -0.04261313

l_lstm.bias_hh_l1 f4 [32]
000000 7f ac 3c bf 45 7e a3 be 51 89 1d bf a6 c3 57 be
       -0.7370071 -0.31932274 -0.61537653 -0.21070728
000010 0c 2b 10 bf bb 49 f2 be 05 c8 27 be 5f e9 cb be
       -0.56315684 -0.47321877 -0.16384895 -0.39826486
000020 b6 2d 13 bf 35 f2 bf 3e 29 ec 97 3c 0f f8 35 bf
       -0.57491624 0.37489477 0.018545227 -0.7108163
000030 14 7d d9 3e 11 90 63 3e 1d f7 e5 bf e7 ca f9 3e
       0.4247824 0.22222926 -1.7966038 0.48787615
000040 ba 55 e4 bd 53 10 ef bd 87 af 10 3e 9d 95 30 3d
       -0.111491635 -0.116730355 0.14129458 0.043111432
000050 21 40 8f be b3 9f 82 be cb f8 dc bd 7e 90 56 bd
       -0.27978614 -0.25512466 -0.10789641 -0.052383892
000060 29 ea 3a bf 22 5c 75 bf 97 7d 3f bf 56 1d 55 bf
       -0.7301355 -0.9584371 -0.7480101 -0.8324789
000070 55 9d dd bd 9f d4 38 bf b8 a4 d6 be 7b 1f 0c be
       -0.10821024 -0.72199434 -0.41922545 -0.13683884

l_linear.weight f4 [1, 8]
000000 92 5a be be 2b a6 a0 3e a0 15 aa be 9f c6 c6 be
       -0.37178475 0.31376776 -0.33219624 -0.3882341
000010 96 75 c1 be 83 d1 8f 3e 9e b4 14 bf 41 42 dc be
       -0.37785023 0.28089532 -0.580881 -0.43019298
