citylearn/data/datasets/tx_travis_county_neighborhood/resstock-amy2018-2021-release-1-304920.pth (torch, 8966 bytes, 9 tensors)

l_lstm.weight_ih_l0 f4 [32, 13]
-1.737185 0.45926115 1.5412132 -0.7289039 0.6861151 -0.1681502 -1.83649 0.6055141
-0.66955477 2.1357641 0.24735126 1.0779773 -0.5994486 2.007326 1.3191975 -0.46333054
0.10218872 0.06499422 -0.66342914 0.93915194 -5.2689924 -0.014061702 -0.1692183 -2.0653908
1.049687 0.090219155 -0.7585171 0.28397462 -0.019943697 -0.11454305 -0.21601647 -0.4188902
2.258879 2.883049 -0.39479193 0.17073776 0.06585819 -0.16969381 -1.8328928 0.49668914
0.53997505 -0.5593786 -0.21122777 -0.015479126 -0.062169377 4.7599993 3.7094433 0.12574483
-0.20821378 -3.4044352 -0.43644997 0.3200547 -0.16511743 -0.862339 -0.19360493 -0.9523707
0.5443647 0.66216403 5.530177 -1.7968338 -1.4043703 -2.0163245 0.85532117 0.60805345
-0.73220134 1.1721773 1.9894205 -0.12235063 2.1668293 0.6476322 -1.5191772 2.5307796
-2.7428427 4.3681 -1.3727119 0.29886392 0.36387545 -2.4910147 0.96512455 3.3307018
0.7992296 -0.5341029 -0.41530764 1.8098228 -3.4628475 1.4550701 1.6967164 1.2758723
1.0660648 -0.14140138 -0.3037444 0.33541194 0.30321014 0.016096702 0.08900626 -0.23873545
1.594711 -9.534911 4.940137 0.44708398 1.0257035 1.125922 -0.14617333 -0.9808154
0.14008778 1.0998226 -2.207807 -0.22666794 0.3960401 -0.64385045 -1.4076997 -0.82067794
0.28018725 0.2600065 0.8791089 2.5099764 0.0052266065 -0.91853184 -1.8077109 1.7114617
-0.69745713 -0.19751978 1.2331544 -3.8954036 0.0017305872 -0.30104393 -0.6749394 -0.29779688
-1.5388259 1.7924328 -0.31842884 -0.55822486 -0.10229535 0.30664894 1.678678 -0.77036417
3.6679251 1.0859956 1.0170357 2.9149227 1.0321842 -0.4649317 -1.2942452 -1.4595951
-1.6616353 0.040135738 0.7121885 0.3726015 0.3415164 2.5442653 -2.3866172 0.055924106
0.5032133 -0.6700107 0.14736332 0.44951275 -0.21183431 -0.70160586 0.83532226 0.8598906
-0.8381893 -0.26242676 6.3868656 0.25427583 -1.4405799 1.086465 1.3354996 -0.35790956
-0.641043 -0.94125277 -1.6332717 0.31316662 -0.95642513 1.7502272 -0.2145374 -3.6678026
-0.65477675 1.2698827 2.6660216 2.3173728 -0.3832272 -0.4606112 0.1506203 -0.3692347
-0.34623855 0.21463662 0.4217606 -0.8347952 -0.9773121 -6.0511127 -0.20973653 -0.25474095
0.80044925 0.03407526 -1.4096322 0.42359 0.54279953 0.16727617 0.021304358 -0.31694898
0.19065182 -7.3426623 -7.304108 -0.1551612 0.028575277 -1.0820866 0.15978734 1.4202747
0.10116199 -0.66034317 -0.6505977 0.3501306 -0.09545585 -1.9589107 -0.3896889 -0.333948
-2.1137094 0.16619661 -0.6683061 -0.16982397 0.75708413 -0.62737566 -0.07028578 -0.09287893
-0.023345808 -0.23777615 -0.33679342 10.240005 -0.805349 0.0970151 0.2734723 1.5682123
-0.06205696 2.2061198 1.350362 0.1647232 0.71241 1.3474059 -0.051148992 0.17710279
4.5098467 1.1169366 -0.7932288 -0.062959634 0.703778 -0.08617464 -0.9144784 0.36703473
0.6173026 -0.015815137 -0.13132167 -0.007685311 0.15979609 3.5484037 1.1885976 0.14729233
00000000: 145c debf 4724 eb3e 7946 c53f 7299 3abf
00000010: 3da5 2f3f 912f 2cbe 1b12 ebbf f902 1b3f
00000020: f167 2bbf 5cb0 0840 a649 7d3e 29fb 893f
00000030: 7775 19bf 0778 0040 77db a83f a939 edbe
00000040: 5248 d13d b11b 853d 7ed6 29bf 436c 703f
00000050: 969b a8c0 0e63 66bc 9047 2dbe 5d2f 04c0
00000060: 255c 863f d2c4 b83d 2d2e 42bf 1f65 913e
00000070: f760 a3bc 8c95 eabd 6c33 5dbe c778 d6be
00000080: 7991 1040 e083 3840 2b22 cabe e1d5 2e3e
00000090: a9e0 863d 37c4 2dbe 3b9c eabf 0a4e fe3e
000000a0: ce3b 0a3f 7033 0fbf 184c 58be 299c 7dbc
000000b0: 51a5 7ebd ea51 9840 8567 6d40 41c3 003e
000000c0: fe35 55be 44e2 59c0 5f76 dfbe 36de a33e
000000d0: 8b14 29be 40c2 5cbf 5f40 46be 91ce 73bf
000000e0: 7c5b 0b3f 9583 293f 36f7 b040 a6fe e5bf
000000f0: 68c2 b3bf 760b 01c0 54f6 5a3f 64a9 1b3f
00000100: 8c71 3bbf e809 963f 55a5 fe3f f892 fabd
00000110: 55ad 0a40 39cb 253f 6674 c2bf 4bf8 2140
00000120: bc8a 2fc0 7ac7 8b40 06b5 afbf b104 993e
00000130: e24d ba3e c96c 1fc0 6712 773f 382a 5540
00000140: 509a 4c3f f8ba 08bf 34a3 d4be 46a8 e73f
00000150: 4b9f 5dc0 bd3f ba3f 012e d93f c94f a33f
00000160: d074 883f 86cb 10be 6384 9bbe 1dbb ab3e
00000170: 5c3e 9b3e 3bdd 833c ea48 b63d 1177 74be
00000180: 7d1f cc3f ff8e 18c1 9a15 9e40 31e8 e43e
00000190: 414a 833f 361e 903f 76ae 15be b816 7bbf
000001a0: 2c73 0f3e fdc6 8c3f b64c 0dc0 a41b 68be
000001b0: c5c5 ca3e 62d3 24bf 812f b4bf f317 52bf
000001c0: b474 8f3e 921f 853e 480d 613f 74a3 2040
000001d0: f443 ab3b e724 6bbf 1263 e7bf 2d11 db3f
000001e0: 8d8c 32bf a042 4abe 01d8 9d3f 4b4e 79c0
000001f0: dfd4 e23a 6e22 9abe d4c8 2cbf d578 98be
00000200: 3ff8 c4bf 706e e53f 1b09 a3be d3e7 0ebf
00000210: 3980 d1bd 1701 9d3e ecde d63f 9636 45bf
00000220: 49bf 6a40 e701 8b3f 3a2e 823f 188e 3a40
00000230: 9d1e 843f 870b eebe d4a9 a5bf 03d4 babf
00000240: 77b0 d4bf 5f65 243d fc51 363f a0c5 be3e
00000250: 3ddb ae3e 3ed5 2240 56be 18c0 ad10 653d
00000260: 96d2 003f d285 2bbf 69e6 163e 8926 e63e
00000270: 18eb 58be 719c 33bf aed7 553f ca21 5c3f
00000280: 9393 56bf cd5c 86be 3461 cc40 7130 823e
00000290: ec64 b8bf 4911 8b3f a7f1 aa3f ec3f b7be
000002a0: 651b 24bf f1f5 70bf 0c0f d1bf 6057 a03e
000002b0: 47d8 74bf 7207 e03f b1af 5bbe 47bd 6ac0
000002c0: 739f 27bf 848b a23f 19a0 2a40 d64f 1440
000002d0: 5b36 c4be 3bd5 ebbe 353c 1a3e 550c bdbe
000002e0: 2e46 b1be b4c9 5b3e 01f1 d73e 23b5 55bf
000002f0: 2031 7abf b7a2 c1c0 2cc5 56be 686d 82be
00000300: 3eea 4c3f 8092 0b3d d46e b4bf cae0 d83e
00000310: e9f4 0a3f 724a 2b3e 7a86 ae3c 2347 a2be
00000320: 3b3a 433e 17f7 eac0 41bb e9c0 94e2 1ebe
00000330: b316 ea3c d081 8abf 4b9f 233e 90cb b53f
00000340: 042e cf3d 400c 29bf 928d 26bf 5144 b33e
00000350: 5b7e c3bd 96bd fabf 4e85 c7be 3bfb aabe
00000360: 0447 07c0 722f 2a3e 1c16 2bbf 56e6 2dbe
00000370: 44d0 413f b19b 20bf fef1 8fbd 4f37 bebd
00000380: b53f bfbc 977b 73be 3070 acbe 0fd7 2341
00000390: 5a2b 4ebf daaf c63d 9004 8c3e 2ebb c83f
000003a0: 702f 7ebd 1131 0d40 a9d8 ac3f 33ad 283e
000003b0: 8060 363f cc77 ac3f 9b81 51bd 6f5a 353e
000003c0: aa50 9040 c7f7 8e3f 0b11 4bbf fbf0 80bd
000003d0: cc2a 343f 547c b0bd 421b 6abf faeb bb3e
000003e0: 8b07 1e3f bf8e 81bc 3079 06be 10d5 fbbb
000003f0: 96a1 233e 0c19 6340 f723 983f cdd3 163e

l_lstm.weight_hh_l0 f4 [32, 8]
-2.509093 -2.994573 3.1723802 -0.14243636 -1.436271 0.5021647 -0.39612347 1.1243776
2.2249513 -7.817966 -2.2810266 -3.2745578 4.2846746 4.5126123 -1.1935284 -2.071074
0.07331543 0.24587709 -0.311841 2.358531 0.28801394 -0.11549604 1.213383 -2.1108587
-1.6930885 -0.80777216 -0.34928593 -1.3879709 -1.6555518 2.5394514 -0.80702716 3.4822176
-0.09546888 -0.45113388 -0.32241932 0.4608911 0.73446876 -1.2416342 -1.8949225 1.0513698
1.8944 -2.4268668 0.66839516 -3.093394 4.293191 8.485412 11.355489 -3.3960667
-0.20509861 2.7427795 0.41198006 4.7823224 1.23711 2.1231272 -3.5039482 1.3167363
0.35590127 1.4311677 4.1115212 0.3403291 1.3647346 -8.843005 -2.206887 1.005533
-0.69528276 1.4118074 2.489488 -2.129703 0.3201777 0.10540055 -2.873175 -0.9192433
1.0271327 1.9681284 -1.8919898 -4.5608172 0.54018253 -2.5171316 -4.3075576 -1.0892527
0.19448687 -3.4159613 -0.6465929 2.9931931 0.027689902 -0.07550763 -0.24496166 -0.7082826
-0.2585005 1.8399141 0.30217505 0.98357505 -1.6603812 5.5939574 0.4287117 -4.4148874
-0.89710236 1.106233 0.6983761 1.0522939 -0.4353407 -2.3146806 -0.098507494 3.664577
0.90121335 3.5015514 -0.7295545 1.470055 0.385616 -2.3652525 3.6988635 0.4119199
0.68176365 -0.49485365 -0.9206361 -1.1067421 0.5645433 -0.92968625 -0.093584545 -0.26995662
-0.6527773 1.6676437 -2.9603658 -0.33666998 -2.1487665 -4.0925026 -0.42335197 -0.7908483
1.5231334 -0.22205523 -2.3252034 -0.3026305 2.082005 0.8898226 0.14372629 -0.43881723
-0.23100631 -1.5000069 0.72093713 2.6937006 -1.5979216 -1.9263625 -0.5067812 -1.3350757
-0.11104459 -2.1561308 0.09176213 0.546864 -0.5419599 0.30707183 0.57822496 0.26103333
-1.2816 -1.7068511 0.3357185 -2.59372 -1.3459966 -2.0749288 -0.32134598 0.42186618
0.9617226 2.5041878 -0.14478873 -2.9613504 1.754964 0.04545363 0.27721357 -0.26205656
-1.3074632 -1.0340557 1.7047857 -1.4109205 0.94541234 -2.5186548 -2.5621543 2.5505216
-0.6516972 0.33063537 0.17913276 -0.5131841 -0.5330319 0.0884622 -0.28070942 0.864913
-0.420249 0.3448449 0.3797329 -0.0045441827 0.39457944 -0.21680056 -0.047026668 -1.25452
0.4885863 -0.22519495 -1.0325313 -0.19470914 0.045867473 -0.22613165 0.14695881 0.03055863
0.03855822 0.6938401 0.062325824 -4.691587 2.616018 1.2966919 1.6488472 -6.284539
1.1006778 0.47603676 -1.1668296 2.4353912 1.0737008 -0.9467974 -1.9573984 -0.9951636
-0.7545616 0.41271088 -2.06529 -0.826582 -0.26154813 3.599844 1.0180088 -1.3593373
0.32455584 -1.6429863 -1.368681 0.15957576 0.90769786 1.4757555 -0.19728956 0.37684065
2.4469533 0.6010125 0.9597957 -2.1971853 1.7821013 0.44945702 0.5688642 0.73755246
0.27434474 1.7588665 3.0539594 -1.4820896 0.16463481 -5.8956866 1.5137093 -1.199074
0.7643358 -1.473062 -1.0749553 -1.7889254 -0.46380454 1.6826222 0.3402712 0.5611892
00000000: fb94 20c0 16a7 3fc0 4708 4b40 d6da 11be
00000010: bad7 b7bf de8d 003f b2d0 cabe 9beb 8f3f
00000020: 9a65 0e40 c72c fac0 57fc 11c0 5b92 51c0
00000030: 0e1c 8940 5267 9040 8ac5 98bf 7a8c 04c0
00000040: 6626 963d 34c7 7b3e a0a9 9fbe 2cf2 1640
00000050: 9076 933e 3089 ecbd 2250 9b3f 4f18 07c0
00000060: 20b7 d8bf 28ca 4ebf 9bd5 b2be 08a9 b1bf
00000070: 1fe9 d3bf 5f86 2240 5599 4ebf a7dc 5e40
00000080: 3085 c3bd 05fb e6be 2514 a5be ebf9 eb3e
00000090: 2506 3c3f dfed 9ebf d28c f2bf 4993 863f
000000a0: b37b f23f c951 1bc0 f21b 2b3f 2bfa 45c0
000000b0: d261 8940 3fc4 0741 15b0 3541 2859 59c0
000000c0: 5f05 52be b389 2f40 0def d23e c908 9940
000000d0: 9f59 9e3f 51e1 0740 b040 60c0 d18a a83f
000000e0: b138 b63e 8130 b73f 9591 8340 9e3f ae3e
000000f0: a0af ae3f f37c 0dc1 a33d 0dc0 4eb5 803f
00000100: 0dfe 31bf 1bb6 b43f c553 1f40 0e4d 08c0
00000110: 55ee a33e 3edc d73d 19e2 37c0 8753 6bbf
00000120: 1679 833f a2eb fb3f b92c f2bf 37f2 91c0
00000130: 6749 0a3f af18 21c0 83d7 89c0 a26c 8bbf
00000140: 9127 473e 1c9f 5ac0 1d87 25bf 7a90 3f40
00000150: efd5 e23c bfa3 9abd 3bd7 7abe 0252 35bf
00000160: 2d5a 84be 4e82 eb3f b0b6 9a3e 93cb 7b3f
00000170: 5f87 d4bf b301 b340 1a80 db3e c246 8dc0
00000180: 80a8 65bf 0b99 8d3f c7c8 323f 91b1 863f
00000190: fae4 debe ba23 14c0 4cbe c9bd 6e88 6a40
000001a0: ebb5 663f 6b19 6040 15c4 3abf c32a bc3f
000001b0: 766f c53e 4c60 17c0 2eba 6c40 2ae7 d23e
000001c0: 1088 2e3f 755d fdbe cfae 6bbf baa9 8dbf
000001d0: e985 103f ebff 6dbf 41a9 bfbd c137 8abe
000001e0: 6a1c 27bf 5975 d53f a276 3dc0 0260 acbe
000001f0: 6485 09c0 c8f5 82c0 97c1 d8be 0975 4abf
00000200: 09f6 c23f 7262 63be 22d0 14c0 63f2 9abe
00000210: 923f 0540 6acb 633f fc2c 133e a7ac e0be
00000220: eb8c 6cbe 3a00 c0bf 568f 383f 9765 2c40
00000230: b288 ccbf 0c93 f6bf 6abc 01bf c3e3 aabf
00000240: 596b e3bd 0cfe 09c0 c9ed bb3d 47ff 0b3f
00000250: e2bd 0abf 8538 9d3e 8d06 143f 29a6 853e
00000260: 780b a4bf 197a dabf 4ce3 ab3e 82ff 25c0
00000270: 9e49 acbf a2cb 04c0 7687 a4be d8fe d73e
00000280: 7433 763f 9d44 2040 7f43 14be c486 3dc0
00000290: a9a2 e03f 962d 3a3d f0ee 8d3e 472c 86be
000002a0: f45a a7bf f05b 84bf 6b36 da3f 0b99 b4bf
000002b0: 8b06 723f a431 21c0 56fa 23c0 bf3b 2340
000002c0: a1d5 26bf 0a49 a93e 946e 373e 0860 03bf
000002d0: c774 08bf ab2b b53d 25b9 8fbe f06a 5d3f
000002e0: e02a d7be 838f b03e 5a6c c23e 5ee7 94bb
000002f0: 5106 ca3e f700 5ebe 099f 40bd 1d94 a0bf
00000300: fc27 fa3e 8199 66be fc29 84bf d561 47be
00000310: 88df 3b3d 0e8f 67be 5f7c 163e 1856 fa3c
00000320: 39ef 1d3d 819f 313f 5d49 7f3d 7b21 96c0
00000330: d76c 2740 00fa a53f 6d0d d33f f21a c9c0
00000340: 03e3 8c3f 17bb f33e ac5a 95bf 73dd 1b40
00000350: 076f 893f 5061 72bf 088c fabf 0bc3 7ebf
00000360: f32a 41bf d74e d33e b62d 04c0 e19a 53bf
00000370: a3e9 85be d863 6640 1d4e 823f c4fe adbf
00000380: 2f2c a63e 604d d2bf f030 afbf d467 233e
00000390: e35e 683f 8ee5 bc3f 4606 4abe 42f1 c03e
000003a0: e29a 1c40 f5db 193f 2cb5 753f af9e 0cc0
000003b0: e51b e43f 3b1f e63e 16a1 113f 3dd0 3c3f
000003c0: ea76 8c3e 8a22 e13f 1274 4340 1db5 bdbf
000003d0: 0796 283e 77a9 bcc0 3ac1 c13f 427b 99bf
000003e0: 83ab 433f 4c8d bcbf 2398 89bf 82fb e4bf
000003f0: ca77 edbe 2a60 d73f 0738 ae3e 18aa 0f3f

l_lstm.bias_ih_l0 f4 [32]
0.23805983 -0.8414679 0.15282518 -0.404055 0.08236983 -0.6871504 0.387834 0.41432548
0.5387234 0.5069555 0.3282659 0.87025046 0.3138722 -0.26526573 -0.71383494 0.67792034
-0.24657121 -0.56868184 0.42363396 0.22891071 -0.73921025 0.06266157 0.25548494 -0.32338628
0.34045893 0.30233833 -0.04242643 -0.39581424 0.0016175255 -0.44354093 0.50544065 0.29823947
00000000: f5c5 733e 716a 57bf 347e 1c3e 4ce0 cebe
00000010: 83b1 a83d 17e9 2fbf 2e92 c63e 7822 d43e
00000020: c7e9 093f d6c7 013f 7812 a83e bcc8 5e3f
00000030: dbb3 a03e e9d0 87be e3bd 36bf 308c 2d3f
00000040: 2a7d 7cbe 2295 11bf 8de6 d83e 9267 6a3e
00000050: e23c 3dbf b654 803d ecce 823e e392 a5be
00000060: a250 ae3e 17cc 9a3e 56c7 2dbd 2aa8 cabe
00000070: 2603 d43a cc17 e3be 8f64 013f d8b2 983e

l_lstm.bias_hh_l0 f4 [32]
0.43934697 -0.9017443 0.090721875 -0.23172937 -0.08372816 -0.8513696 0.25847748 0.03204384
0.7897942 0.10661853 0.48953563 0.58960575 0.4692739 0.22263345 -0.18925118 0.15739119
0.046789013 -0.6659551 0.07773347 -0.008799245 -0.73177135 0.5300116 0.60607797 -0.7282235
0.29386172 0.3211562 -0.30952448 -0.6092439 -0.24366976 -0.81724745 0.45602074 0.08645663
00000000: 16f2 e03e b7d8 66bf 64cc b93d 774a 6dbe
00000010: ab79 abbd 5cf3 59bf 2957 843e 6740 033d
00000020: f42f 4a3f d15a da3d 6aa4 fa3e 67f0 163f
00000030: ab44 f03e 06fa 633e 10cb 41be 282b 213e
00000040: d6a5 3f3d 097c 2abf ba32 9f3d b52a 10bc
00000050: 5e55 3bbf d7ae 073f ed27 1b3f db6c 3abf
00000060: 0b75 963e 966e a43e fe79 9ebe 69f7 1bbf
00000070: 9184 79be 2137 51bf 8d7b e93e 2c10 b13d

l_lstm.weight_ih_l1 f4 [32, 8]
-1.2650185 -3.596138 1.1512433 0.120957926 -0.56868875 -0.4833031 0.57246375 0.72889686
-0.7369329 -1.2699087 -0.06739016 1.7311668 0.015973235 2.2047849 -0.19628365 0.3424318
0.40556672 1.0113579 -0.21420561 0.28373623 0.14529942 0.18072642 0.7155935 -0.47283626
0.21763588 -0.29761153 -0.71917474 0.6328301 0.19969213 1.5711356 1.3260984 -0.9894541
-0.91682905 -0.87408745 0.5407981 0.38858306 0.10724628 0.7948457 0.74578357 0.19049661
0.33879897 -3.724274 0.23850949 -0.45260364 2.6578922 1.7773778 2.7705483 -1.5719669
-1.0602281 -2.3687356 0.3577364 0.11723188 -0.22460158 0.7903034 -0.08383588 0.6182744
-0.57571447 -4.423487 -1.9971112 0.12505731 1.1712499 2.4876294 -1.3805562 0.6847082
-0.4342723 1.0155984 0.19410172 0.110056 -0.25756472 -1.0696628 0.56412894 0.03292477
-0.32378566 1.1767267 0.39042738 -0.38509065 -0.27810583 1.6203121 -1.6516055 1.5499797
0.7479576 -2.5282722 -1.1185309 -0.618171 -0.5646093 1.4591972 -1.4963697 2.4582703
-0.016836643 1.5226985 -1.7778682 -2.9358804 -0.28414637 -0.11951356 -2.7020607 1.5866528
-0.8849876 1.2133026 1.327928 -0.20437989 -0.9853976 1.4485532 -0.373766 -0.06639236
0.5762377 5.571259 -0.35634986 -1.1894275 1.2088603 -0.5923305 -0.5308271 0.5592567
-0.34926412 2.3516219 0.027425475 -1.0526339 0.07367464 -0.3016286 -0.8318249 0.79166293
-0.20169728 2.4333613 0.11862957 0.034314793 1.6034164 -2.1356049 2.0547805 -0.70742464
0.15106207 -0.17540632 -0.6690032 -0.8130095 -0.4481595 -0.040697306 -1.4710234 1.1414822
0.13516165 0.6614599 -0.624719 -0.76716036 -0.584967 0.08341886 -1.1653869 1.0923251
0.90177983 -0.6103878 1.4490094 0.6958443 0.74053377 0.20370328 0.46208155 0.21614975
-0.202178 -0.22390604 0.23486632 0.6760684 0.42608398 -0.14038384 1.3281368 -1.2007767
-0.37356633 -0.6121289 0.21321018 0.74460065 0.4298379 -0.010161274 1.5119925 -1.1381735
0.5860252 0.49532992 0.96905035 1.1768041 0.52539957 -0.1764311 0.95828956 -0.9309147
-0.03546699 0.30208912 -0.3105045 -0.73464894 -0.46814984 0.09399228 -1.1807925 1.0452265
-0.97935355 -0.27799657 -0.0044544484 -0.54893416 -0.7646134 0.31987077 -0.5043541 0.46249816
0.26287767 -1.2415149 -0.6141606 0.71795034 0.26042712 -1.2383344 0.17220333 -0.2042963
0.08689837 -0.6030517 0.9043768 -0.88802624 0.10090361 1.062154 -1.3191763 0.72334915
1.3530793 2.4002461 -0.016151655 -0.9388559 0.9561504 -1.8602071 -0.3095304 -0.10594529
0.07369406 -1.3956909 0.32925114 -0.5313784 0.48552313 1.5067619 -0.12623517 -0.30983868
1.2882111 -0.27856877 -0.5832312 -0.8220138 0.69531363 -0.63059497 -0.2537088 -0.009749211
0.3907689 1.5059613 1.8836418 -1.2498729 2.1082563 -0.72411543 -0.93065643 -0.9309675
-0.25285456 0.08134382 -0.28180584 -0.1803998 -0.17119274 -0.8472441 -0.47601962 0.42539176
0.33668905 1.6906416 0.0432144 0.77467483 0.9166889 -0.5949933 -0.11453584 0.50667614
00000000: 20ec a1bf 2027 66c0 f15b 933f cab8 f73d
00000010: 9695 11bf 8173 f7be fc8c 123f fc98 3a3f
00000020: a2a7 3cbf 5e8c a2bf da03 8abd e096 dd3f
00000030: 4dda 823c 321b 0d40 95fe 48be 3953 af3e
00000040: 71a6 cf3e 2d74 813f b758 5bbe e045 913e
00000050: 5fc9 143e 5910 393e 2331 373f 9817 f2be
00000060: f1db 5e3e 8a60 98be d61b 38bf 2701 223f
00000070: 187c 4c3e f91a c93f 98bd a93f dd4c 7dbf
00000080: 4fb5 6abf 32c4 5fbf bf71 0a3f 5cf4 c63e
00000090: f0a3 db3d 027b 4b3f aceb 3e3f 8b11 433e
000000a0: 0f77 ad3e 815a 6ec0 d53b 743e aabb e7be
000000b0: e81a 2a40 1e81 e33f aa50 3140 3636 c9bf
000000c0: 8eb5 87bf 5d99 17c0 3a29 b73e 4517 f03d
000000d0: f5fd 65be 5351 4a3f 25b2 abbd 3b47 1e3f
000000e0: 0662 13bf 358d 8dc0 57a1 ffbf 060f 003e
000000f0: 84eb 953f 5235 1f40 11b6 b0bf 0949 2f3f
00000100: f058 debe 21ff 813f 9ac2 463e 0a65 e13d
00000110: 86df 83be b6ea 88bf c16a 103f 20dc 063d
00000120: 3cc7 a5be fb9e 963f 19e6 c73e 9a2a c5be
00000130: e363 8ebe 6366 cf3f cf67 d3bf bc65 c63f
00000140: 267a 3f3f 36cf 21c0 052c 8fbf 7440 1ebf
00000150: 3c8a 10bf f9c6 ba3f 0b89 bfbf 4d54 1d40
00000160: 00ed 89bc c9e7 c23f 2f91 e3bf 77e5 3bc0
00000170: a27b 91be 86c3 f4bd 90ee 2cc0 7017 cb3f
00000180: 8c8e 62bf 804d 9b3f 8bf9 a93f f648 51be
00000190: 0443 7cbf 316a b93f 425e bfbe b8f8 87bd
000001a0: 5084 133f c147 b240 7d73 b6be 293f 98bf
000001b0: efbb 9a3f f9a2 17bf 49e4 07bf 722b 0f3f
000001c0: bfd2 b2be f980 1640 64ab e03c b5bc 86bf
000001d0: bbe2 963d 106f 9abe 7af2 54bf 6caa 4a3f
000001e0: bb89 4ebe 31bc 1b40 0ff4 f23d ab8d 0c3d
000001f0: c03c cd3f c0ad 08c0 8681 0340 c819 35bf
00000200: 04b0 1a3e b79d 33be cb43 2bbf 6421 50bf
00000210: 2975 e5be 38b2 26bd 7f4a bcbf 171c 923f
00000220: d167 0a3e 7055 293f 96ed 1fbf 9f64 44bf
00000230: 66c0 15bf 82d7 aa3d 662b 95bf 4fd1 8b3f
00000240: 0bdb 663f 6042 1cbf 2479 b93f da22 323f
00000250: 9f93 3d3f 9897 503e f495 ec3e 5c56 5d3e
00000260: c007 4fbe a047 65be cc80 703e d212 2d3f
00000270: ae27 da3e c8c0 0fbe 6300 aa3f 0db3 99bf
00000280: 1644 bfbe 7bb4 1cbf c553 5a3e 269e 3e3f
00000290: b713 dc3e 797b 26bc f888 c13f abaf 91bf
000002a0: bf05 163f e29b fd3e af13 783f 84a1 963f
000002b0: 9680 063f 5baa 34be 7752 753f 6d50 6ebf
000002c0: d645 11bd 6dab 9a3e 72fa 9ebe f411 3cbf
000002d0: 56b1 efbe 067f c03d 3524 97bf fbc9 853f
000002e0: eab6 7abf 9155 8ebe 9ff6 91bb f386 0cbf
000002f0: b4bd 43bf 1ac6 a33e 5a1d 01bf 8fcc ec3e
00000300: e797 863e f6e9 9ebf a139 1dbf 98cb 373f
00000310: b456 853e be81 9ebf 1256 303e 0d33 51be
00000320: c6f7 b13d 9961 1abf 3d85 673f b055 63bf
00000330: 8da6 ce3d aaf4 873f c5da a8bf 692d 393f
00000340: b431 ad3f a29d 1940 7a50 84bc dc58 70bf
00000350: 46c6 743f 441b eebf c57a 9ebe d8f9 d8bd
00000360: e9ec 963d 00a6 b2bf 9b93 a83e 6a08 08bf
00000370: 7d96 f83e 93dd c03f cb43 01be 2da3 9ebe
00000380: 1ae4 a43f 91a0 8ebe a44e 15bf 7f6f 52bf
00000390: 1300 323f ac6e 21bf 1fe6 81be 28bb 1fbc
000003a0: dc12 c83e 57c3 c03f 2d1b f13f d6fb 9fbf
000003b0: aced 0640 a15f 39bf 803f 6ebf e353 6ebf
000003c0: 2776 81be 9797 a63d db48 90be baba 38be
000003d0: 264d 2fbe fde4 58bf d8b8 f3be f3cc d93e
000003e0: 8262 ac3e f266 d83f 9501 313d 1751 463f
000003f0: 20ac 6a3f 7b51 18bf c491 eabd 87b5 013f

l_lstm.weight_hh_l1 f4 [32, 8]
-1.358433 1.275791 -0.35128817 -0.500489 -0.22899309 0.08013284 -0.34427062 -0.43449694
-1.0716012 -0.26511115 0.59392047 1.1369811 0.3781728 1.2041796 -0.83035547 -1.5087528
0.01486886 0.91234887 1.0874748 -0.09182706 0.17404275 1.1387502 0.1402232 -0.49000487
-0.7714688 0.44112745 -0.5161696 0.26110524 -0.38658082 0.3421027 -0.029756198 -0.6718527
-0.7102972 1.9979984 -1.1786842 -0.26418847 -0.6757722 0.07843826 0.08156183 0.14523835
-0.4616418 4.0270104 -1.6979617 -1.140739 -2.427623 1.1701925 0.030480748 0.3066105
-1.5662123 -0.33170804 1.0745567 0.73296165 0.4453886 0.98287266 -1.3560752 -0.85208446
-0.40034586 0.9642803 -0.7940414 0.27598923 0.30188504 0.6105996 -0.26618394 -0.51704746
0.22016723 -0.30035466 0.10578211 0.13305117 0.33308202 -0.061590996 0.7634642 0.60460716
-0.51543725 -0.2701377 0.48963472 0.5509059 0.3935545 0.4857432 -0.33458298 -0.27661702
1.1227965 0.41597393 1.074284 -0.31150243 -0.47224995 0.24414723 0.5177752 0.58896935
0.51250255 0.715232 -0.34079754 0.049425792 -0.22216058 -0.16406731 0.7509957 0.70639604
-0.5635279 0.793823 -0.64208657 0.34073162 -0.103141814 0.38133192 -0.045622565 0.23402068
0.17849769 2.6298263 -2.4067855 -0.20950638 0.5323093 0.33221436 1.1169173 1.625907
-0.42055798 0.4940682 0.27969468 0.29874894 0.7693937 0.032559127 0.16802263 0.13492107
-0.84582466 -0.09278601 0.86674947 1.0835564 2.1661792 1.2188165 -0.86685133 -0.2305333
-1.636705 -1.1550505 1.2263054 0.922994 0.35896638 1.0806433 -1.3122712 -1.7204473
0.23641014 -1.1715263 0.6738885 0.5699639 -0.7838275 0.44662037 -0.37404618 -0.07584092
-1.0989251 -1.3368514 -2.6686373 1.0217983 1.9368739 -0.12098522 -1.3666703 -1.8660339
0.5034363 0.8752248 -0.6051175 -2.0909986 0.28312153 -1.4505608 0.7816146 0.6504244
0.92927134 1.3656313 -1.6557105 -1.4592044 -1.583494 -1.3737917 1.3590643 1.5395067
-0.27738228 0.17458877 -0.3924969 -0.24636371 0.98400843 -3.8685505 -0.25581428 -0.39267716
0.078876294 -0.72546786 1.3718449 0.64249367 -0.37974358 0.6636926 -2.1237986 -1.1581717
1.4682256 -0.21007454 0.4487705 -0.53294563 -2.4177544 0.6173939 0.8105768 -3.5261316
0.05460314 1.2441441 -0.28457582 -0.07812955 -0.082978606 0.30708972 0.73446345 0.044960942
-0.8597793 -0.9958876 1.2636949 1.0812613 1.058143 1.6718774 -0.99665564 -0.9889668
0.32843623 0.3583933 1.5914214 0.7015195 0.2209935 1.6208395 0.13452546 -0.44486335
-0.25003994 0.88659996 0.059867 0.7030764 -0.38518354 0.49233034 -0.053539395 -0.095673434
-0.53811556 0.9050897 -0.20011672 -0.14786226 -0.09774914 0.1926187 0.31657574 -0.0659904
-0.016619347 3.0092146 -1.8194624 -0.50898015 -1.4399251 2.7543123 0.52880585 -0.565273
-0.4443416 0.020144675 0.68868005 0.8062839 0.34575814 0.43013966 -0.68867373 -0.45206037
-0.19595374 1.6377474 -0.94582915 0.46317744 0.26186335 0.5412919 0.2684913 -0.4592696
00000000: 22e1 adbf 1f4d a33f 0bdc b3be 0c20 00bf
00000010: 2a7d 6abe b01c a43d 3d44 b0be 6276 debe
00000020: 3a2a 89bf a6bc 87be 2c0b 183f 9988 913f
00000030: de9f c13e 8f22 9a3f 2d92 54bf d01e c1bf
00000040: 859c 733c b28f 693f 6032 8b3f d30f bcbd
00000050: 4338 323e 91c2 913f ac96 0f3e ebe1 fabe
00000060: fb7e 45bf 75db e13e b123 04bf 96af 853e
00000070: eced c5be 1628 af3e 45c3 f3bc 8afe 2bbf
00000080: 0ad6 35bf 69be ff3f 20df 96bf b643 87be
00000090: 68ff 2cbf 3da4 a03d e409 a73d 5db9 143e
000000a0: 505c ecbe 45dd 8040 cf56 d9bf bc03 92bf
000000b0: 2d5e 1bc0 dec8 953f c3b2 f93c 0dfc 9c3e
000000c0: a579 c8bf a3d5 a9be 138b 893f 60a3 3b3f
000000d0: f909 e43e 8b9d 7b3f df93 adbf 3522 5abf
000000e0: 22fa ccbe 13db 763f 4c46 4bbf 764e 8d3e
000000f0: ad90 9a3e 4150 1c3f 4349 88be 395d 04bf
00000100: 8573 613e 16c8 99be 4aa4 d83d 913e 083e
00000110: ba89 aa3e d746 7cbd 6472 433f 89c7 1a3f
00000120: b2f3 03bf 7d4f 8abe 67b1 fa3e 2b08 0d3f
00000130: fa7f c93e 55b3 f83e 764e abbe bfa0 8dbe
00000140: ccb7 8f3f 89fa d43e 2382 893f 3f7d 9fbe
00000150: bfca f1be bb01 7a3e ea8c 043f b2c6 163f
00000160: 5e33 033f 7219 373f 047d aebe b372 4a3d
00000170: 107e 63be 4301 28be 4141 403f 5fd6 343f
00000180: 5d43 10bf fc37 4b3f c95f 24bf 6074 ae3e
00000190: 043c d3bd f03d c33e bade 3abd 1ea3 6f3e
000001a0: 19c8 363e 134f 2840 c608 1ac0 d788 56be
000001b0: 6c45 083f 0018 aa3e 25f7 8e3f b81d d03f
000001c0: 6053 d7be 82f6 fc3e 2434 8f3e 9ff5 983e
000001d0: fcf6 443f b85c 053d 200e 2c3e c028 0a3e
000001e0: f787 58bf 9706 bebd 4be3 5d3f fab1 8a3f
000001f0: aea2 0a40 2e02 9c3f f8e9 5dbf ec10 6cbe
00000200: 8d7f d1bf b2d8 93bf 93f7 9c3f 5649 6c3f
00000210: 71ca b73e 8552 8a3f 81f8 a7bf 9e37 dcbf
00000220: 8015 723e 93f4 95bf f583 2c3f 27e9 113f
00000230: eba8 48bf 6dab e43e fb82 bfbe 7c52 9bbd
00000240: 94a9 8cbf f21d abbf f4ca 2ac0 49ca 823f
00000250: 7ceb f73f 19c7 f7bd 0def aebf 33da eebf
00000260: 34e1 003f bc0e 603f fbe8 1abf ecd2 05c0
00000270: 4ef5 903e faab b9bf e517 483f 3782 263f
00000280: bae4 6d3f 02cd ae3f 52ee d3bf 36c7 babf
00000290: eeaf cabf 68d8 afbf d2f5 ad3f 8e0e c53f
000002a0: 0d05 8ebe 66c7 323e 5bf5 c8be c546 7cbe
000002b0: fae7 7b3f 5596 77c0 17fa 82be fb0c c9be
000002c0: e589 a13d 43b8 39bf 9d98 af3f 777a 243f
000002d0: c06d c2be c2e7 293f 51ec 07c0 f83e 94bf
000002e0: d1ee bb3f c81d 57be 3fc5 e53e 206f 08bf
000002f0: 7dbc 1ac0 870d 1e3f f681 4f3f 24ac 61c0
00000300: 8ba7 5f3d 1d40 9f3f ecb3 91be 6302 a0bd
00000310: b0f0 a9bd dd3a 9d3e cc05 3c3f f728 383d
00000320: 7f1a 5cbf 7df2 7ebf c1c0 a13f c566 8a3f
00000330: 3b71 873f 1400 d63f d324 7fbf ee2c 7dbf
00000340: cb28 a83e 547f b73e b2b3 cb3f c896 333f
00000350: 1f4c 623e ab77 cf3f 0bc1 093e 21c5 e3be
00000360: 3c05 80be 37f8 623f 1937 753d d1fc 333f
00000370: c736 c5be b912 fc3e 204c 5bbd 6ff0 c3bd
00000380: f1c1 09bf f5b3 673f 66eb 4cbe 3469 17be
00000390: b330 c8bd d63d 453e 3716 a23e fa25 87bd
000003a0: 4c25 88bc f996 4040 25e4 e8bf 864c 02bf
000003b0: 774f b8bf a746 3040 d25f 073f bbb5 10bf
000003c0: be80 e3be 7206 a53c 564d 303f 9f68 4e3f
000003d0: 3607 b13e 443b dc3e ec4c 30bf 7574 e7be
000003e0: 19a8 48be b5a1 d13f dc21 72bf 9825 ed3e
000003f0: f412 863e 1b92 0a3f b177 893e 6325 ebbe

l_lstm.bias_ih_l1 f4 [32]
-0.7069246 -0.80880153 -0.38414493 -0.5776129 -0.67649657 -1.0395358 -0.7348484 -0.68792164
0.69133747 0.34367558 -0.94713527 0.2250775 1.5377303 0.16223875 1.0544299 0.11120563
0.010450815 -0.23900266 -0.13656723 0.26590472 0.020750608 0.13864008 0.08907488 0.008961088
-0.17067729 -0.6751804 0.13850805 0.047314953 -0.45042303 1.0852675 -0.27676117 -0.02030006
00000000: 03f9 34bf 9e0d 4fbf a5ae c4be 70de 13bf
00000010: e12e 2dbf 820f 85bf 061f 3cbf a21b 30bf
00000020: 7efb 303f 3ff6 af3e 7577 72bf b77a 663e
00000030: 59d4 c43f ea21 263e 8ff7 863f c7bf e33d
00000040: e539 2b3c 1dbd 74be 48d8 0bbe aa24 883e
00000050: 2efd a93c aaf7 0d3e e46c b63d 87d1 123c
00000060: 07c6 2ebe 9fd8 2cbf 0ed5 0d3e 53cd 413d
00000070: d99d e6be 0cea 8a3f a4b3 8dbe 504c a6bc

l_lstm.bias_hh_l1 f4 [32]
-0.9073342 -1.0608827 -0.45770907 -1.1439807 -0.96672887 -0.74944127 -1.1198485 -0.74803394
0.7086341 0.12136761 -0.65701425 0.23637877 1.3250705 -0.05952253 0.46425182 0.13719435
-0.05982325 0.1396554 0.33608726 -0.17873098 0.025314264 -0.008074181 -0.20110078 -0.32417136
-0.09086803 -0.704143 0.006890314 -0.21247177 -0.44824106 0.4622038 -0.7523288 0.021682374
00000000: 0e47 68bf 01cb 87bf d858 eabe f66d 92bf
00000010: 8b7b 77bf 62db 3fbf 3257 8fbf 277f 3fbf
00000020: 0b69 353f 958f f83d 1632 28bf 470d 723e
00000030: e99b a93f e5cd 73bd 6ab2 ed3e ad7c 0c3e
00000040: 3909 75bd d301 0f3e a113 ac3e 4105 37be
00000050: dc5f cf3c 9249 04bc 5ded 4dbe caf9 a5be
00000060: 0519 babd b742 34bf 25c8 e13b 3392 59be
00000070: da7f e5be faa5 ec3e 9f98 40bf 3c9f b13c

l_linear.weight f4 [1, 8]
0.43376118 0.44415486 -0.43402028 -0.49301234 -0.5184536 -0.41793212 0.43143803 0.4376852
00000000: f215 de3e 4468 e33e e837 debe 1d6c fcbe
00000010: 60b9 04bf 33fb d5be 72e5 dc3e 4618 e03e
