citylearn/data/datasets/tx_travis_county_neighborhood/resstock-amy2018-2021-release-1-276878.pth (torch, 8966 bytes, 9 tensors)

l_lstm.weight_ih_l0 f4 [32, 13]
-1.1250459 0.34281802 0.23518847 -0.037502024 -2.1606045 0.3920879 -7.693434 -4.4900603
3.5228393 2.927767 -0.11578968 0.3342975 -0.20835005 -0.04978695 -0.4640652 0.85556394
-0.2632599 -0.13196373 -1.0705655 -4.3120894 23.658276 0.90065074 -0.6317342 0.16045772
-0.42705813 0.26167572 -0.6984204 -0.3748384 -0.16402198 -0.14222176 -0.3562017 -0.27946377
-0.999278 1.3083887 -0.26807088 -0.78691137 -0.7481235 -0.16326994 -2.1477218 0.1440503
0.13523589 0.14831157 -0.18208237 1.0908871 -1.7965494 1.1353039 6.014609 1.5957133
2.0608008 -0.8307651 0.7940699 -2.3703847 -0.39809716 1.0962168 -0.05419729 -0.15158664
0.32078013 0.3144277 0.8053663 1.7912853 -0.03220224 -0.49763846 0.24875809 -0.23563585
0.6005709 0.8110079 0.85276115 -0.16992274 0.06591513 0.1040601 -0.3513023 -0.93683994
-2.7683976 0.43462187 -0.5296073 -0.8775847 -0.006238259 1.4436237 0.47990516 -0.58606684
0.18234393 0.0018114406 -1.1306263 0.3662894 -1.4658201 5.299343 0.30458274 0.2576603
-0.58614016 -0.1724405 0.16561961 -0.21815513 -0.25866634 0.06596081 0.17778786 -0.15937588
0.18112466 -0.34310448 -0.1973377 -0.020871334 -0.040613882 0.017020462 -0.23643309 -2.2206683
-1.9010841 1.4164039 2.3451447 -1.3098243 -0.26464105 -4.2252364 -14.469883 8.341364
-1.4148896 -3.1239538 -0.16072683 -0.61821514 -1.2668171 -1.570617 -1.2821898 0.70150244
0.06443693 0.45995685 -0.39194474 1.6790297 -7.299411 0.25837132 0.8657542 0.030263513
0.3938671 1.6033751 0.11932619 0.006373936 0.14021431 -0.12533186 0.056010596 -0.1674994
-0.19772501 2.073191 -0.5685531 0.32568306 -0.24309736 -0.26813775 -2.0278704 -1.0068423
0.74118656 0.55996734 0.0574267 -0.3900961 1.1729449 5.266612 -9.255269 -1.1158807
-0.39566723 -0.6799526 0.20423153 -1.2453113 0.85365725 -0.27896333 -0.053837303 0.12975417
0.35829663 0.14253405 -3.1159275 2.6269975 0.048480462 0.34054145 1.2172155 0.36001542
1.401255 -0.030281542 0.6863806 -0.08182688 0.32412425 1.1851 -0.1361186 1.2639502
0.824595 0.061130192 0.5409159 0.7294396 0.40291443 1.6501498 0.95726657 0.082447626
-0.12448724 -0.2103416 -0.55209804 -0.2133157 -14.448749 -4.311717 0.122563764 0.10912766
0.2738692 0.06125869 -0.05679787 0.20134445 0.58168274 0.19775848 0.070968494 0.070768826
-0.1552622 -1.287793 -0.42093468 -0.18236506 -0.120018706 0.16335663 0.46197963 -2.274723
-0.10710185 0.36978492 -0.15666759 0.05789277 -0.8066093 0.08971423 7.157984 5.3813896
0.11621284 0.2840988 -0.5200007 -0.18009365 1.2954891 0.29952985 0.18077138 -0.27201003
0.025778549 -0.9700193 -2.5846355 0.028088555 -6.9245515 0.6394123 0.7437507 0.37001303
0.11031902 -1.2679482 0.70080274 0.15681927 -0.34565818 -0.053702936 0.7049815 -0.52304
0.6115286 -3.9649405 0.56001174 0.56797785 -0.7947239 1.1015975 -1.0784878 0.013243961
-0.078595795 -0.011227953 -0.04161985 0.11497679 -0.31155786 -0.94774127 -0.77051246 0.23410864
00000000: 8101 90bf d885 af3e 3fd5 703e b99b 19bd
00000010: 5847 0ac0 bfbf c83e 9c30 f6c0 93ae 8fc0
00000020: 3376 6140 8960 3b40 2423 edbd 0b29 ab3e
00000030: b759 55be 67ed 4bbd f499 edbe 3d06 5b3f
00000040: 00ca 86be 8021 07be 4a08 89bf a3fc 89c0
00000050: 2644 bd41 0c91 663f 55b9 21bf 074f 243e
00000060: 5da7 dabe 5cfa 853e aecb 32bf d2ea bfbe
00000070: 61f5 27be 95a2 11be 1260 b6be e015 8fbe
00000080: afd0 7fbf 4879 a73f 9640 89be 0673 49bf
00000090: 0685 3fbf 3c30 27be 4674 09c0 ec81 133e
000000a0: 477b 0a3e fdde 173e cd73 3abe 30a2 8b3f
000000b0: 55f5 e5bf a351 913f ad77 c040 5540 cc3f
000000c0: 29e4 0340 06ad 54bf 2a48 4b3f 62b4 17c0
000000d0: 64d3 cbbe d550 8c3f fafd 5dbd 8739 1bbe
000000e0: 4b3d a43e abfc a03e 7c2c 4e3f d648 e53f
000000f0: 7fe6 03bd 78ca febe 71ba 7e3e 864a 71be
00000100: 04bf 193f 379e 4f3f 8e4e 5a3f 3a00 2ebe
00000110: 83fe 863d 761d d53d e5dd b3be bed4 6fbf
00000120: 6d2d 31c0 c286 de3e 5894 07bf 64a9 60bf
00000130: 4f6a ccbb a9c8 b83f 21b6 f53e 7a08 16bf
00000140: 5eb8 3a3e dc6d ed3a 5db8 90bf 498a bb3e
00000150: fe9f bbbf 3894 a940 45f2 9b3e 0dec 833e
00000160: 480d 16bf 3e94 30be 3098 293e 0f64 5fbe
00000170: ea6f 84be 7616 873d 050e 363e 6e33 23be
00000180: be78 393e 64ab afbe e512 4abe 5cfa aabc
00000190: be5a 26bd 7f6e 8b3c 841b 72be 6e1f 0ec0
000001a0: b956 f3bf b94c b53f da16 1640 53a8 a7bf
000001b0: 087f 87be 2335 87c0 a484 67c1 3a76 0541
000001c0: 1a1b b5bf dcee 47c0 9395 24be 5943 1ebf
000001d0: 1027 a2bf fa09 c9bf cc1e a4bf aa95 333f
000001e0: 82f7 833d 777f eb3e fbac c8be 72ea d63f
000001f0: c694 e9c0 3f49 843e 11a2 5d3f 30eb f73c
00000200: f3a8 c93e 653b cd3f 4a61 f43d 73dc d03b
00000210: 5794 0f3e ff56 00be 5e6b 653d f684 2bbe
00000220: 6d78 4abe 29af 0440 b28c 11bf eebf a63e
00000230: 84ee 78be 5a49 89be a1c8 01c0 35e0 80bf
00000240: 67be 3d3f 055a 0f3f 4238 6b3d adba c7be
00000250: 0f23 963f 1688 a840 9515 14c1 2ed5 8ebf
00000260: e594 cabe 6011 2ebf 1222 513e 5c66 9fbf
00000270: 4889 5a3f 48d4 8ebe 8184 5cbd 47de 043e
00000280: a872 b73e 72f4 113e 5b6b 47c0 ba20 2840
00000290: 7393 463d 735b ae3e b8cd 9b3f f153 b83e
000002a0: 535c b33f ff10 f8bc a4b6 2f3f da94 a7bd
000002b0: 9df3 a53e 5bb1 973f ad62 0bbe 1fc9 a13f
000002c0: a818 533f a763 7a3d 7779 0a3f 8ebc 3a3f
000002d0: cd4a ce3e 1c38 d33f 6c0f 753f 4dda a83d
000002e0: 2bf3 febd ca63 57be 4c56 0dbf 6e6f 5abe
000002f0: 132e 67c1 96f9 89c0 b602 fb3d 537e df3d
00000300: 9538 8c3e 64ea 7a3d e2a4 68bd 3d2d 4e3e
00000310: 29e9 143f 3381 4a3e ee57 913d 3fef 903d
00000320: 0efd 1ebe 67d6 a4bf c084 d7be e8bd 3abe
00000330: 5ecc f5bd f646 273e 9888 ec3e 1095 11c0
00000340: 3758 dbbd 7354 bd3e 786d 20be f820 6d3d
00000350: f27d 4ebf 18bc b73d 340e e540 5834 ac40
00000360: ff00 ee3d 6675 913e c41e 05bf 786a 38be
00000370: 96d2 a53f fa5b 993e 221c 393e e644 8bbe
00000380: 892d d33c 2f53 78bf ab6a 25c0 f819 e63c
00000390: ed95 ddc0 86b0 233f 7266 3e3f 5972 bd3e
000003a0: f0ee e13d 204c a2bf cf67 333f 3b95 203e
000003b0: 1cfa b0be 9cf7 5bbd ab79 343f f3e5 05bf
000003c0: 238d 1c3f 96c1 7dc0 ee5c 0f3f ff66 113f
000003d0: 0773 4bbf 2601 8d3f e30b 8abf 33fd 583c
000003e0: d5f6 a0bd 73f5 37bc 9379 2abd f478 eb3d
000003f0: 8384 9fbe 2c9f 72bf 4e40 45bf 2dba 6f3e

l_lstm.weight_hh_l0 f4 [32, 8]
2.6032226 0.5933954 -1.6751286 2.5650396 -1.1576511 0.9984514 -0.2929949 -0.69501024
3.6574123 3.9424222 1.721965 -4.016699 -2.284754 -0.7012397 0.12656777 1.8567437
0.877708 0.2787804 0.33052224 0.096505545 0.31010857 -0.49411052 0.7895852 -0.018052744
-6.193339 -1.5803251 0.40188015 0.82426274 -1.5366435 0.37039196 -3.605217 0.3589893
-2.8415847 -1.7040396 -0.5841338 -2.9628394 0.29320297 -0.13271655 2.5407536 -1.6099192
-1.5938566 0.60563064 -2.0668848 0.56945163 0.33567333 0.08479484 0.65430516 -1.6035217
-5.1003346 1.9948611 -1.8237834 -1.4081095 -0.3574036 -0.93636966 0.45346534 0.86101264
-0.038133085 -0.66051716 0.9471846 -0.2773522 0.92744905 -0.25997132 0.5459077 0.4330397
-0.743518 -4.4046683 -0.0894035 -2.3267994 0.1520694 1.0866002 -0.40460557 3.729227
-0.50830704 3.7374206 -0.107173316 -1.8056793 -0.9602026 -1.7648088 0.012442937 1.2000381
0.9457895 0.29212928 0.13451411 0.70112294 -0.19816723 -0.9062545 0.5446923 0.061721675
-2.9975333 1.2305915 1.0462074 -1.0013628 -0.19239104 1.0678711 1.2059981 -0.020687416
0.9314703 0.3343016 -0.18731199 -0.2539967 -0.7542965 0.22353543 0.20207906 -1.4114449
-0.344937 -0.2551421 -0.6017792 0.34715104 0.60796875 -0.25214815 0.07648152 -0.36082172
0.65315396 1.2921784 2.179515 -1.2065384 -3.2074027 0.82041013 0.19553569 0.1873928
-1.9775765 0.30914584 0.6515255 0.32020602 0.7563763 -0.42276204 -0.08181666 0.09808534
-1.9081806 2.5118346 -0.06029933 0.081419066 -0.28231287 0.16205342 0.013055516 1.4861053
-1.1637751 -1.641454 0.3171115 -0.25062132 0.6443319 -0.16327825 -0.4136287 -0.3166911
4.981071 -2.8719666 0.9460921 -1.3992773 -0.043062516 -0.78853226 2.1035736 0.087097906
-1.2890683 -0.9732941 -0.18763652 -2.7384086 0.66451305 -1.1937172 -0.27324682 0.18111779
0.7816527 -0.16736616 -0.4694606 -0.76313907 -0.9041197 0.9019737 -0.104941286 -0.8270312
0.21721086 -0.25984198 0.77437985 0.43440446 0.37699878 -1.1620106 0.38591987 0.44210336
-0.12590198 0.42684993 -0.2814443 -0.43211374 -1.112587 0.8582624 -1.1437031 -0.37785763
0.08617517 -0.64950764 0.71316457 0.04587393 0.5431804 -0.45277393 0.6500863 0.27585676
-0.6765117 1.5971185 0.85262555 2.6390245 0.035709813 0.4290674 -1.9626848 -0.0014257708
-2.376268 0.6492675 1.4585965 0.30754068 0.9715237 0.85920435 1.9373106 -0.8969916
0.6179026 -0.18429087 -0.24181344 0.315072 -0.19342814 -0.48893875 0.36952662 -0.3374242
0.6738497 -0.40881035 0.31240913 1.2589647 0.16819133 -0.81807405 -0.27631253 0.39605942
-0.36481503 -0.17783691 1.3042586 -2.9724197 -0.014780906 -0.85013014 0.081064 1.5708094
2.736608 -3.3118923 0.14539686 2.3421087 0.68396634 -0.5389814 2.00787 -1.203819
-5.479385 2.4595401 -1.6650188 -6.8141966 2.0175443 -1.1301866 -2.8442612 -0.83375317
-0.7452524 -0.3036638 -0.2842502 0.61593044 0.31146416 -0.867565 0.49468088 -0.004463851
00000000: 339b 2640 c3e8 173f 9d6a d6bf 9c29 2440
00000010: e92d 94bf 839a 7f3f 6d03 96be 31ec 31bf
00000020: 0b13 6a40 a550 7c40 5969 dc3f cc88 80c0
00000030: 6939 12c0 7284 33bf fb9a 013e c7a9 ed3f
00000040: 79b1 603f 4ebc 8e3e 363a a93e b3a4 c53d
00000050: 8dc6 9e3e 0efc fcbe 4122 4a3f 59e3 93bc
00000060: d52f c6c0 1848 cabf 3cc3 cd3e e202 533f
00000070: bcb0 c4bf 04a4 bd3e e0bb 66c0 72cd b73e
00000080: 86dc 35c0 f81d dabf cb89 15bf 299f 3dc0
00000090: b31e 963e d9e6 07be b59b 2240 d511 cebf
000000a0: 7e03 ccbf 9c0a 1b3f d747 04c0 95c7 113f
000000b0: 60dd ab3e eba8 ad3d 8b80 273f 3340 cdbf
000000c0: f135 a3c0 9c57 ff3f bc71 e9bf ef3c b4bf
000000d0: 9bfd b6be ecb5 6fbf 9c2c e83e 536b 5c3f
000000e0: 7031 1cbd a717 29bf b17a 723f 1c01 8ebe
000000f0: 4d6d 6d3f f61a 85be 9bc0 0b3f 61b7 dd3e
00000100: 3257 3ebf 0bf3 8cc0 2f19 b7bd 48ea 14c0
00000110: 15b8 1b3e b715 8b3f 7628 cfbe a8ab 6e40
00000120: 6920 02bf e631 6f40 af7d dbbd 8020 e7bf
00000130: d6cf 75bf 41e5 e1bf 76dd 4b3c d99a 993f
00000140: 431f 723f f891 953e 11be 093e cb7c 333f
00000150: 5aec 4abe 4b00 68bf f470 0b3f decf 7c3d
00000160: 96d7 3fc0 0684 9d3f 20ea 853f a82c 80bf
00000170: 2802 45be 00b0 883f 255e 9a3f a878 a9bc
00000180: d674 6e3f 9429 ab3e b7ce 3fbe db0b 82be
00000190: 9319 41bf 79e6 643e d0ed 4e3e 3aaa b4bf
000001a0: 959b b0be fca1 82be 340e 1abf c8bd b13e
000001b0: d7a3 1b3f 9019 81be 58a2 9c3d a0bd b8be
000001c0: 1935 273f 1a66 a53f 2c7d 0b40 da6f 9abf
000001d0: 1646 4dc0 6606 523f 823a 483e e6e3 3f3e
000001e0: 3a21 fdbf 5d48 9e3e 60ca 263f 0bf2 a33e
000001f0: e1a1 413f 4474 d8be 7e8f a7bd f7e0 c83d
00000200: 433f f4bf e6c1 2040 6efc 76bd 0abf a63d
00000210: 508b 90be 55f1 253e cee6 553c b338 be3f
00000220: 95f6 94bf 2a1b d2bf 705c a23e 7051 80be
00000230: eff2 243f 6a32 27be 24c7 d3be 5625 a2be
00000240: ef64 9f40 4dce 37c0 1833 723f 851b b3bf
00000250: 5262 30bd 40dd 49bf f3a0 0640 6360 b23d
00000260: 3100 a5bf cd29 79bf ca23 40be 1642 2fc0
00000270: 871d 2a3f bacb 98bf 02e7 8bbe f176 393e
00000280: 641a 483f 0962 2bbe 245d f0be 155d 43bf
00000290: 6374 67bf c0e7 663f 75eb d6bd 51b8 53bf
000002a0: 866c 5e3e 020a 85be c23d 463f 436a de3e
000002b0: fc05 c13e c3bc 94bf 4a97 c53e 5f5b e23e
000002c0: 73ec 00be 138c da3e 7819 90be 033e ddbe
000002d0: 4069 8ebf 16b7 5b3f dd64 92bf 8e76 c1be
000002e0: 9c7c b03d 2246 26bf f491 363f 4de6 3b3d
000002f0: df0d 0b3f fcd1 e7be 0e6c 263f 193d 8d3e
00000300: df2f 2dbf 616e cc3f ab45 5a3f c7e5 2840
00000310: 7444 123d b9ae db3e 4139 fbbf eee0 baba
00000320: c614 18c0 6536 263f 4ab3 ba3f f975 9d3e
00000330: c7b5 783f d1f4 5b3f cbf9 f73f 3ea1 65bf
00000340: dd2e 1e3f bfb6 3cbe f19d 77be 1e51 a13e
00000350: 0712 46be 2e56 fabe 9832 bd3e ddc2 acbe
00000360: 6a81 2c3f 974f d1be 17f4 9f3e c125 a13f
00000370: 593a 2c3e 4d6d 51bf d678 8dbe 4dc8 ca3e
00000380: 09c9 babe e11a 36be f2f1 a63f 203c 3ec0
00000390: 9d2b 72bc 21a2 59bf e204 a63d 4810 c93f
000003a0: 9624 2f40 0bf6 53c0 eae2 143e 1ce5 1540
000003b0: 6b18 2f3f affa 09bf f180 0040 be16 9abf
000003c0: 1f57 afc0 1b69 1d40 561f d5bf e60d dac0
000003d0: 721f 0140 f4a9 90bf 6008 36c0 d970 55bf
000003e0: dcc8 3ebf d279 9bbe 3e89 91be 9ead 1d3f
000003f0: 3b78 9f3e bd18 5ebf d046 fd3e 7f45 92bb

l_lstm.bias_ih_l0 f4 [32]
0.09102757 -0.73178893 0.23161525 -0.118626334 -0.18202968 -0.96600837 0.5711376 0.43901622
0.0070960606 -0.5316474 0.47117868 0.6466043 0.042873297 -0.06373561 -0.023499781 0.58497167
-0.41029963 0.08694739 0.8239304 -0.51635 -0.10929944 0.15659578 -0.46987978 0.5655371
0.49751383 -0.4522082 0.483554 -0.03497387 0.7438086 0.19421884 0.4270393 0.397536
00000000: aa6c ba3d 8556 3bbf 8c2c 6d3e 5df2 f2bd
00000010: fd65 3abe 534c 77bf 1336 123f bcc6 e03e
00000020: 1286 e83b 0b1a 08bf 553e f13e dc87 253f
00000030: e99b 2f3d d187 82bd 9d82 c0bc b4c0 153f
00000040: cb12 d2be 7911 b23d 1aed 523f 832f 04bf
00000050: 63d8 dfbd a55a 203e 1594 f0be 0ac7 103f
00000060: 22ba fe3e d587 e7be 6494 f73e c340 0fbd
00000070: 3e6a 3e3f 4ee1 463e e5a4 da3e d789 cb3e

l_lstm.bias_hh_l0 f4 [32]
0.15108493 -0.45775384 0.027587552 0.17035463 -0.078530535 -1.0050449 0.3829243 0.2953002
0.023631169 -0.24253653 0.49703154 0.32555118 -0.42809445 -0.10004025 -0.12470881 0.39610943
-0.38788074 -0.17312877 0.50530005 -0.5939674 -0.40734747 0.29013744 -0.17013222 0.4810876
0.07554427 -0.9497971 -0.15612747 -0.4173275 0.39426762 0.20720594 0.47355 -0.14926058
00000000: 02b6 1a3e b65e eabe 4aff e13c 7271 2e3e
00000010: 9ed4 a0bd 50a5 80bf a70e c43e 9631 973e
00000020: 2796 c13c 7f5b 78be eb7a fe3e a5ae a63e
00000030: 322f dbbe e7e1 ccbd 5567 ffbd dbce ca3e
00000040: 4e98 c6be ab48 31be 585b 013f 3f0e 18bf
00000050: d98f d0be e58c 943e 2437 2ebe 1d51 f63e
00000060: f4b6 9a3d e725 73bf e1df 1fbe f3ab d5be
00000070: 72dd c93e cb2d 543e 2575 f23e c4d7 18be

l_lstm.weight_ih_l1 f4 [32, 8]
0.35816765 -0.44820935 -1.0412436 -1.1516887 -0.5083264 0.46081063 0.20045924 0.08712995
-1.230113 1.3210351 -1.0666867 0.08576503 -0.7461003 0.08771106 -1.0307999 0.26686868
0.30323786 0.92193294 0.00023042565 -0.33162385 -0.3951459 -0.57982266 -1.8462751 -0.67562956
-1.3250232 0.8605298 -1.8795612 -1.0610155 -0.062193796 -0.08438808 -0.70938003 1.3511256
-1.9339418 0.7393294 -0.6837271 -0.41269085 -0.762677 0.19166487 -0.98227906 1.4443889
-0.025998123 0.70294446 -1.1717767 -1.0825454 -0.74687475 -0.33790916 -1.2961975 -0.7702698
0.20157608 -0.52563435 -0.7484337 -0.55896217 -0.07813618 -0.5305787 0.62107575 -0.41162997
-0.34716448 1.465162 0.5090361 -0.5735951 -0.7120741 -0.3756523 1.199837 1.4888272
0.1240136 -0.029936088 0.67233366 -0.4510457 0.7856586 -0.7164265 0.2185547 -0.30181354
5.314826 0.9787446 0.054483596 1.0606669 -2.0952652 5.4340377 -0.86762625 0.26790428
1.6723766 -1.118244 1.6486944 0.17805344 0.54584944 0.043130547 -0.42247072 -0.14316529
0.78673357 -2.357231 -0.09854103 0.97708076 -0.7446702 -0.17151657 2.1165109 -3.383261
0.9565728 -0.845867 2.4481902 0.4296635 -0.5378627 1.1710577 -0.042198066 2.0044942
0.295213 0.051430404 0.22767591 0.46308646 1.3115144 -0.838388 1.5074443 -1.4354128
1.3388009 -0.5524932 2.6437309 -0.345188 -0.19417235 0.52513367 -0.64949685 0.7945069
-0.481887 -0.1293717 1.4624457 1.1122476 2.4374986 -1.2905343 -0.82783866 0.014698697
-0.026149824 0.37156194 0.6361648 -0.5395741 -1.1073533 1.1745746 -1.0224433 0.41588065
0.023704946 0.54995203 0.2054825 -1.1813143 -1.0483602 1.1826965 -0.77317256 0.7071656
0.30002138 0.30209342 -0.41908407 -0.86943436 -0.7313287 0.74916536 -0.67910475 0.22148405
0.24350478 -0.18545729 -1.0662935 0.13037552 0.40718132 -0.72511697 0.7156715 -0.06616505
-0.6967078 -0.42238545 0.3276617 0.9025158 0.7431153 -0.74635756 0.77928776 -0.16814162
-0.23547475 -0.45609477 -0.65381175 0.9127973 0.919057 -0.9177228 1.0033075 -0.98355913
-0.22623523 -0.5379366 -0.49240425 0.68875813 0.7568461 -0.7762238 0.77115804 -0.39336553
0.94511634 -0.16740154 0.24943118 -1.7299945 -1.1317111 0.88777333 -1.583814 0.8214621
1.0417467 -0.16392894 -0.19811565 0.082060546 -0.06188769 0.10889278 0.7140693 -0.34317753
-0.21893258 0.6204164 -1.2446918 -0.3411329 -0.996015 0.23959647 -0.39088172 0.47816253
-0.47640824 -0.06305832 0.31456625 -0.5498888 0.2724274 -0.1652856 0.030541973 0.5511404
-2.5101542 0.41233426 -0.9764655 -1.775846 0.51087177 0.20475513 -0.1784171 2.2729545
-0.31892422 0.70583415 -0.61366385 -0.19405818 -0.5375366 0.35092 0.025365636 1.4251057
-0.7239987 0.73614013 -1.1867023 -0.8797577 -0.24421784 -0.52288556 0.33307773 -0.63129115
-0.07836679 0.030824108 -0.0077115153 -0.42245814 0.058835976 -0.6305292 1.3010851 0.37790915
0.00057627726 -0.45751673 -1.647808 -2.0582585 1.1948102 -0.3787948 -0.3326989 -1.14745
00000000: c061 b73e b27b e5be 7847 85bf 896a 93bf
00000010: ae21 02bf 5fef eb3e 3045 4d3e 3071 b23d
00000020: 5874 9dbf ae17 a93f 3189 88bf 93a5 af3d
00000030: 6e00 3fbf dba1 b33d 40f1 83bf 03a3 883e
00000040: fe41 9b3e cc03 6c3f 6a9e 7139 9aca a9be
00000050: 9050 cabe 426f 14bf be52 ecbf 0ff6 2cbf
00000060: 5c9a a9bf ae4b 5c3f 7695 f0bf 5bcf 87bf
00000070: ecbe 7ebd a8d3 acbd ee99 35bf aff1 ac3f
00000080: 688b f7bf b144 3d3f bd08 2fbf 374c d3be
00000090: cd3e 43bf cc43 443e a476 7bbf bce1 b83f
000000a0: 04fa d4bc 2bf4 333f c7fc 95bf d990 8abf
000000b0: 2f33 3fbf 6e02 adbe cde9 a5bf 6730 45bf
000000c0: f669 4e3e f98f 06bf 5a99 3fbf 2518 0fbf
000000d0: dd05 a0bd 01d4 07bf d2fe 1e3f 2ac1 d2be
000000e0: 8bbf b1be 6e8a bb3f 3150 023f 21d7 12bf
000000f0: 7d4a 36bf 8055 c0be 4294 993f e491 be3f
00000100: d8fa fd3d 873c f5bc 0f1e 2c3f 76ef e6be
00000110: ec20 493f ba67 37bf cecc 5f3e 4e87 9abe
00000120: 0e13 aa40 028f 7a3f 312a 5f3d efc3 873f
00000130: d318 06c0 a3e3 ad40 c11c 5ebf c02a 893e
00000140: 7010 d63f 9f22 8fbf 6b08 d33f a453 363e
00000150: cabc 0b3f a8a9 303d 154e d8be ec99 12be
00000160: 5f67 493f dfdc 16c0 e1cf c9bd f721 7a3f
00000170: b5a2 3ebf 0aa2 2fbe ea74 0740 5987 58c0
00000180: f4e1 743f bd8a 58bf 26af 1c40 dbfc db3e
00000190: 5fb1 09bf 38e5 953f e1d7 2cbd a249 0040
000001a0: 2926 973e b0a8 523d e023 693e ab19 ed3e
000001b0: b4df a73f 99a0 56bf eff3 c03f 9bbb b7bf
000001c0: d45d ab3f 3270 0dbf e332 2940 7bbc b0be
000001d0: 1ed5 46be 296f 063f 6d45 26bf ce64 4b3f
000001e0: e5b9 f6be 047a 04be 6c31 bb3f 215e 8e3f
000001f0: faff 1b40 3a30 a5bf 3ced 53bf ced2 703c
00000200: 2838 d6bc 5e3d be3e b2db 223f 8721 0abf
00000210: c1bd 8dbf 7658 963f 6cdf 82bf 4fee d43e
00000220: e030 c23c a8c9 0c3f 016a 523e 4f35 97bf
00000230: ab30 86bf 9962 973f a3ee 45bf ce08 353f
00000240: 679c 993e fdab 9a3e 3092 d6be 4093 5ebf
00000250: 5c38 3bbf 4dc9 3f3f cfd9 2dbf b7cc 623e
00000260: 5159 793e 84e8 3dbe 4e7c 88bf 2981 053e
00000270: 127a d03e 44a1 39bf 3f36 373f 8b81 87bd
00000280: 715b 32bf e842 d8be 46c3 a73e 470b 673f
00000290: ce3c 3e3f 4a11 3fbf 677f 473f 512d 2cbe
000002a0: 4b20 71be 4185 e9be 3560 27bf 15ad 693f
000002b0: 5247 6b3f e2ef 6abf 616c 803f 88ca 7bbf
000002c0: 35aa 67be 37b6 09bf 691c fcbe 7452 303f
000002d0: aac0 413f 9ab6 46bf 9d6a 453f 3567 c9be
000002e0: 25f3 713f 4f6b 2bbe e36a 7f3e 7670 ddbf
000002f0: e9db 90bf 1d45 633f 6bba cabf 574b 523f
00000300: f557 853f fddc 27be d4de 4abe 5c0f a83d
00000310: f27d 7dbd 2e03 df3d 3fcd 363f f7b4 afbe
00000320: dd2f 60be 9cd3 1e3f 1052 9fbf f9a8 aebe
00000330: d7fa 7ebf c758 753e a621 c8be b8d1 f43e
00000340: c8eb f3be b824 81bd d40e a13e 83c5 0cbf
00000350: 9b7b 8b3e a140 29be 2933 fa3c 8a17 0d3f
00000360: 5ea6 20c0 7a1d d33e a5f9 79bf ec4e e3bf
00000370: 7ec8 023f 54ab 513e f9b2 36be 1678 1140
00000380: 094a a3be 8cb1 343f 1319 1dbf 30b7 46be
00000390: 009c 09bf c9ab b33e 98cb cf3c dd69 b63f
000003a0: fb57 39bf ae73 3c3f dce5 97bf cd37 61bf
000003b0: 3e14 7abe d4db 05bf 2a89 aa3e 4c9c 21bf
000003c0: c57e a0bd d782 fc3c e1b0 fcbb 6f4c d8be
000003d0: fefd 703d 5d6a 21bf f589 a63f 4f7d c13e
000003e0: 5011 173a a23f eabe 5feb d2bf 82ba 03c0
000003f0: 8aef 983f 64f1 c1be 8357 aabe a4df 92bf

l_lstm.weight_hh_l1 f4 [32, 8]
0.52937585 0.17750321 0.048352487 0.04432611 0.37174127 0.967572 0.26814336 -1.2219864
-1.1284287 -0.5069363 -1.2318466 1.7288499 1.0601299 2.4819167 1.3284414 -2.4592786
-0.47717357 -1.0312403 1.2394118 0.1708941 0.3203264 1.5059953 0.18101501 -1.0813704
-0.95912504 -0.5481443 -0.62665987 -1.4774225 0.8861481 1.4477139 0.5344808 -0.57396054
-1.1935273 -1.790391 -1.6669438 0.91069955 -0.5347797 1.841941 0.96994096 -2.3388257
-0.32706597 -0.4624696 -0.20481052 0.20156163 0.22353469 1.2923869 -0.096321456 -0.90537107
-0.4151914 -0.60228014 -0.43172348 -0.40242645 0.5162745 1.3075181 -1.10131 -1.3830209
1.1276096 0.22875887 0.5864799 -0.57926786 -0.70911306 0.86128193 -0.71402675 -0.5674994
1.2576354 0.85602266 0.40152586 -0.32386932 -0.32739854 -0.29302418 -0.32298914 -0.027378753
-0.09257519 -0.2597572 0.018162439 0.6704045 -0.5156302 -1.4472171 0.59411204 -0.4367095
-0.21824712 0.036261573 1.9283175 -0.34534097 -1.0019189 0.7112776 0.20407741 -0.13079815
-0.5932368 0.9324502 0.095203914 -2.1061556 -0.9641403 -0.16963072 0.6272285 0.19264445
1.0949457 0.23977363 0.06639703 -0.60842764 -0.93598914 -1.1552564 0.68105114 -1.3869839
0.6521688 0.65186447 -0.013694491 -0.2613746 -0.6929088 -0.70666796 -0.35241607 -0.41508722
1.2427887 1.5386316 0.69443995 -1.311949 -1.1311635 -0.958203 -0.7662878 -0.692521
-0.81570405 -0.3277265 -0.8035058 0.90345556 -0.16968398 0.9051237 0.66032225 -0.69681376
-1.8030814 -0.82105374 -1.8621274 1.4208457 1.8316677 0.16394806 1.9477656 -1.4954643
0.03591241 -2.1280217 -0.574662 0.8969736 0.5127444 -0.03275248 0.52761775 -0.55691206
2.703626 -0.37766373 -3.2954679 0.80044675 0.89459383 0.14566714 0.22403653 -0.24863501
-0.8576481 -0.16602051 0.0247401 -4.224846 0.56409985 1.6360949 1.1960384 -0.89105606
-1.9434464 0.43456894 -1.1893884 -1.1144408 -3.2646813 -0.63265985 0.5633443 -0.2409865
0.90364295 1.354192 1.0213389 -1.3039416 -1.1448425 -1.5684944 -1.0611682 0.98257077
-2.2340202 -1.0240809 -0.29919842 -1.0245128 0.11898022 -0.26764837 -2.5911543 0.4144326
1.0949636 1.0757525 0.095028274 0.6436253 -0.34717268 0.4174754 -0.07660452 -1.082009
1.3211132 0.39134818 0.026418604 -0.24306127 -0.6795043 0.5721688 -0.0007135898 -0.22170927
-0.5134697 0.26858684 -1.1801234 1.2664667 0.71466625 1.5520227 1.2181945 -2.5457737
-0.2877052 0.6927458 1.866225 0.27016768 -0.85961425 0.22764257 -0.6578876 -0.6926787
-0.4011365 0.15388843 -0.7058581 -1.7514488 0.41640642 1.4804775 0.52732456 -0.5489709
-1.1439084 -0.46743378 -1.6937847 1.0696985 -0.48605227 0.7509764 1.4525102 -1.7403152
-0.41642904 0.8758921 0.09533997 -0.5812657 -0.4437477 -0.10236837 -0.11828345 -0.67762095
-0.10768649 0.60392094 -0.06564456 0.021603476 -0.49498346 0.657536 -1.4757355 -0.9254443
0.020691242 0.42720214 0.84037834 -0.807692 -1.2558211 0.65296704 -1.1514565 0.7873955
00000000: 2d85 073f 67c3 353e 420d 463d 4c8f 353d
00000010: df54 be3e ccb2 773f 164a 893e 0d6a 9cbf
00000020: 5a70 90bf 94c6 01bf 26ad 9dbf f44a dd3f
00000030: 56b2 873f b9d7 1e40 5e0a aa3f d264 1dc0
00000040: 1850 f4be afff 83bf 0ca5 9e3f ddfe 2e3e
00000050: d201 a43e 74c4 c03f 005c 393e 586a 8abf
00000060: 3889 75bf 2f53 0cbf c86c 20bf 2e1c bdbf
00000070: 9ada 623f b04e b93f bcd3 083f 14ef 12bf
00000080: 81c5 98bf 882b e5bf 6a5e d5bf 9b23 693f
00000090: 53e7 08bf b9c4 eb3f 0d4e 783f 52af 15c0
000000a0: 3175 a7be d1c8 ecbe d9b9 51be 2c66 4e3e
000000b0: 47e6 643e ef6c a53f 2f44 c5bd 66c6 67bf
000000c0: f893 d4be 082f 1abf dc0a ddbe d70a cebe
000000d0: 912a 043f c15c a73f baf7 8cbf d406 b1bf
000000e0: 8355 903f c43f 6a3e 8c23 163f e64a 14bf
000000f0: 6f88 35bf f97c 5c3f 75ca 36bf a447 11bf
00000100: 32fa a03f 4d24 5b3f cc94 cd3e 33d2 a5be
00000110: c8a0 a7be 4407 96be d55e a5be 6849 e0bc
00000120: 1098 bdbd e5fe 84be 65c9 943c a19f 2b3f
00000130: 5700 04bf 693e b9bf ba17 183f 6398 dfbe
00000140: 2c7c 5fbe 0487 143d 1cd3 f63f 88d0 b0be
00000150: e13e 80bf 4a16 363f abf9 503e f3ef 05be
00000160: 5ede 17bf 0eb5 6e3f 45fa c23d 41cb 06c0
00000170: e6d1 76bf adb3 2dbe 0c92 203f 9644 453e
00000180: 2e27 8c3f 3887 753e 2bfb 873d eac1 1bbf
00000190: fc9c 6fbf 71df 93bf 5e59 2e3f b088 b1bf
000001a0: 89f4 263f 97e0 263f dc5e 60bc e4d2 85be
000001b0: 7962 31bf 31e8 34bf e16f b4be 5086 d4be
000001c0: b313 9f3f e1f1 c43f d1c6 313f f2ed a7bf
000001d0: f7c9 90bf cb4c 75bf 702b 44bf 0e49 31bf
000001e0: fbd1 50bf c5cb a7be 8eb2 4dbf dd48 673f
000001f0: a3c1 2dbe 30b6 673f e10a 293f 6362 32bf
00000200: 5fcb e6bf 9430 52bf 315a eebf 46de b53f
00000210: 1674 ea3f 00e2 273e 6250 f93f 606b bfbf
00000220: e418 133d 8231 08c0 0d1d 13bf 10a0 653f
00000230: 3843 033f 7727 06bd f511 073f ca91 0ebf
00000240: 3508 2d40 245d c1be f2e8 52c0 14ea 4c3f
00000250: 1a04 653f c429 153e d569 653e 2d9a 7ebe
00000260: d38e 5bbf 4801 2abe c0ab ca3c f031 87c0
00000270: d968 103f 8f6b d13f c917 993f 401c 64bf
00000280: dac2 f8bf d27f de3e e13d 98bf ffa5 8ebf
00000290: 8af0 50c0 fff5 21bf 5537 103f 2ac5 76be
000002a0: 2555 673f 2a56 ad3f 3cbb 823f 8fe7 a6bf
000002b0: 338a 92bf 6dc4 c8bf 5cd4 87bf c289 7b3f
000002c0: 30fa 0ec0 1515 83bf 8930 99be 3c23 83bf
000002d0: e7ab f33d 3509 89be 79d5 25c0 8230 d43e
000002e0: c427 8c3f 42b2 893f 2f9e c23d a1c4 243f
000002f0: 9ec0 b1be 56bf d53e d5e2 9cbd 457f 8abf
00000300: 3d1a a93f ca5e c83e d46b d83c 0ee5 78be
00000310: fef3 2dbf a879 123f 3310 3bba c107 63be
00000320: c072 03bf 3784 893e 490e 97bf 951b a23f
00000330: 5ef4 363f aea8 c63f cced 9b3f f5ed 22c0
00000340: 194e 93be ca57 313f 76e0 ee3f 6b53 8a3e
00000350: ae0f 5cbf 221b 693e 526b 28bf 6453 31bf
00000360: c361 cdbe ee94 1d3e 1eb3 34bf 792f e0bf
00000370: 3933 d53e 4980 bd3f befe 063f 5b89 0cbf
00000380: 976b 92bf 7b53 efbe f0cd d8bf e1eb 883f
00000390: d8db f8be fd3f 403f dbeb b93f a6c2 debf
000003a0: 3036 d5be 773a 603f 9a41 c33d d4cd 14bf
000003b0: e632 e3be 82a6 d1bd 983e f2bd 9178 2dbf
000003c0: bc8a dcbd 909a 1a3f a870 86bd c6f9 b03c
000003d0: 796e fdbe 4754 283f e7e4 bcbf ebe9 6cbf
000003e0: ae80 a93c 3dba da3e 0923 573f e7c4 4ebf
000003f0: bfbe a0bf d928 273f ed62 93bf c092 493f

l_lstm.bias_ih_l1 f4 [32]
-0.7180279 -0.16772734 -0.8564346 -0.7661952 -0.5902142 -0.56346154 -0.36296365 -0.41005832
1.0491058 0.074002974 0.39350623 -1.2432196 -0.5233071 0.54523623 -0.4884781 0.0627657
0.33323553 0.18134859 -0.009205208 -0.2771467 0.017111026 0.19511962 -0.07833526 0.15564522
-0.38733175 -0.43915167 -0.5283842 0.15492822 -0.5340948 0.13381818 -0.62979305 -0.9555242
00000000: add0 37bf b7c0 2bbe 4c3f 5bbf 5e25 44bf
00000010: 4718 17bf 043f 10bf 5fd6 b9be 2af3 d1be
00000020: 1949 863f df8e 973d a679 c93e d221 9fbf
00000030: 74f7 05bf 9a94 0b3f cd19 fabe 4e8b 803d
00000040: d99d aa3e 72b3 393e 71d1 16bc 2ce6 8dbe
00000050: 6c2c 8c3c 70cd 473e 3d6e a0bd 7661 1f3e
00000060: 5950 c6be 7dd8 e0be 3044 07bf 81a5 1e3e
00000070: 70ba 08bf a207 093e 1e3a 21bf 3c9d 74bf

l_lstm.bias_hh_l1 f4 [32]
-0.5730389 -0.1713315 -0.51527697 -0.74193746 -0.617168 -0.56590885 -0.6767837 -0.22737135
1.2976766 -0.53950864 0.39791197 -1.5246454 0.0153034935 0.86463726 -0.09294565 0.01690247
-0.18226887 -0.030723885 0.14743352 0.19340625 -0.20047946 -0.26836562 -0.049774457 -0.07574941
-0.31645817 -0.64138323 -0.6309907 0.28647313 -0.46690333 0.23412408 -0.47122285 -1.2213322
00000000: adb2 12bf 8671 2fbe 31e9 03bf 9def 3dbf
00000010: b9fe 1dbf 67df 10bf b241 2dbf 09d4 68be
00000020: 441a a63f 3d1d 0abf 1ebb cb3e 9527 c3bf
00000030: 81bb 7a3c de58 5d3f 4a5a bebd 0c77 8a3c
00000040: b1a4 3abe a8b0 fbbc d0f8 163e 4a0c 463e
00000050: 7d4a 4dbe 3867 89be 4de0 4bbd 8222 9bbd
00000060: ce06 a2be b131 24bf 9b88 21bf 9bac 923e
00000070: f40d efbe 39be 6f3e 1f44 f1be 9d54 9cbf

l_linear.weight f4 [1, 8]
-0.4888768 -0.44886938 -0.41132984 0.43023726 0.4262656 0.4089217 0.44263735 -0.5089769
00000000: 0f4e fabe 35d2 e5be d399 d2be 0f48 dc3e
00000010: 7c3f da3e 2f5e d13e 5da1 e23e 4f4c 02bf
