citylearn/data/datasets/tx_travis_county_neighborhood/resstock-amy2018-2021-release-1-449318.pth (torch, 8966 bytes, 9 tensors)

l_lstm.weight_ih_l0 f4 [32, 13]
000000 a5 ce e6 bb c6 db 96 bf 8c 11 3c 3e 7a b1 45 bf
       -0.007043677 -1.178582 0.18366069 -0.7722393
000010 8f 76 d5 bf 2c 7f 24 bf cd 7c 52 c0 a1 31 99 3f
       -1.6676806 -0.6425655 -3.2888672 1.196827
000020 1f 4b 38 3f f9 7e 8a be 0d aa cd 3f 4c 84 81 3e
       0.71989626 -0.27049997 1.606752 0.25296247
000030 af a2 f5 bd 30 d8 a9 bd 86 5e 45 be a4 6d c3 be
       -0.1199392 -0.082931876 -0.19274339 -0.38169587
000040 72 ad c1 be a6 ce 84 3e 02 66 80 3a 5c cb fc bf
       -0.3782764 0.2593891 0.0009796026 -1.974956
000050 75 50 fb bf 02 cb c2 be 36 6e 96 bd 74 37 ba be
       -1.9633929 -0.38045508 -0.0734524 -0.36370432
000060 b1 d0 ac be b2 03 d1 3f 12 fc 97 be 8d 14 c5 bd
       -0.3375297 1.6329253 -0.29684502 -0.096230604
000070 8a 09 9c bd 02 d8 cb be 65 74 05 3e 38 19 17 be
       -0.07619007 -0.39813238 0.13032682 -0.14755714
000080 a7 ac 12 c0 55 6d 3b bf 57 14 d0 be 19 3a 4d bf
       -2.2917879 -0.732137 -0.40640518 -0.80166775
000090 94 8b c4 be 68 00 b8 be d5 b9 b1 bf 18 a6 14 40
       -0.3838774 -0.3593781 -1.3884836 2.3226376
0000a0 73 1c 1e bf e1 03 95 3d ed f3 be 3e f4 09 34 bf
       -0.6176216 0.072761305 0.37295476 -0.7032769
0000b0 20 cd d3 bf 04 47 6c c0 2c b2 85 c0 5e 6e de bf
       -1.6546974 -3.6918344 -4.1779995 -1.7377431
0000c0 15 d9 64 c0 f7 73 47 3f df ca 10 3f c6 d8 22 bf
       -3.5757496 0.77911323 0.56559557 -0.6361202
0000d0 7a 2d 84 3e 1f 11 8a 3e 57 00 d7 bc ca 49 d4 3e
       0.25815946 0.26966187 -0.02624528 0.41462547
0000e0 a3 bd a7 3e 7c d3 4b 3e 07 67 69 c0 14 cb 19 40
       0.3276187 0.19904894 -3.6469133 2.40302
0000f0 bc 59 38 3e 30 3d 8c ba 0b dc ca be be 35 95 bd
       0.18002981 -0.0010699388 -0.39621004 -0.07285641
000100 f1 91 9e bb 3e c9 8a 3f 3c 99 25 40 c1 76 5b be
       -0.004839175 1.0842664 2.5874777 -0.2143202
000110 d5 f3 99 be e0 17 3b bf 0b 6c a3 3f 81 56 e6 bf
       -0.30068842 -0.73083305 1.2767347 -1.7995149
000120 71 4c 90 40 9d 4a d3 3e 29 f8 6a 3f 72 77 85 3f
       4.509331 0.41267863 0.9178491 1.0427077
000130 a8 c5 d7 be 2d 7c a3 3e 81 b9 26 3f 27 d6 00 bf
       -0.42142987 0.31930676 0.65126806 -0.5032677
000140 e2 9f 53 3f 8a a4 8a 3e 83 20 a5 3e 03 d1 0b bf
       0.82665837 0.27078658 0.32251367 -0.546158
000150 66 c4 bc be 0a ad 20 c0 e9 e1 89 be 0f 01 a1 bd
       -0.3686859 -2.5105615 -0.26930168 -0.0786153
000160 58 4e a9 c0 11 eb be 3e cd d1 31 3f fc ec d6 3e
       -5.2908134 0.37288716 0.69460756 0.4197768
000170 bb 0b 2a 40 6e 0c ca 3f b3 33 c3 bd 9a 76 13 3f
       2.656966 1.5785043 -0.09531345 0.57602847
000180 31 2b 54 3f c9 72 a3 c0 04 80 0e c0 95 82 71 3e
       0.82878405 -5.107762 -2.2265635 0.2358497
000190 43 a8 7d 3e 80 b6 7e 3e 81 48 35 3f a1 29 04 be
       0.24771218 0.24874306 0.7081376 -0.12906505
0001a0 5d 5a 15 c1 de c9 bc 3f d6 3f e1 be 05 f8 de 3c
       -9.334561 1.4749105 -0.43994015 0.027217874
0001b0 9e 8f 78 3e 51 b4 02 c0 c0 6c 1c bf f6 59 88 c1
       0.24273536 -2.0422556 -0.6110344 -17.043926
0001c0 ff 4f 2d 40 91 73 b0 bf 60 1f 1a 3f 95 67 db bd
       2.7080076 -1.3785268 0.60204124 -0.10713116
0001d0 77 bc 3c bd 30 94 8f be d4 61 1d 3f b3 b4 6a 3e
       -0.04607817 -0.28042746 0.614774 0.22920494
0001e0 d6 65 1a 3e 34 12 35 3f f4 fc 1d 3e ac 1a 1b 3f
       0.1507791 0.707309 0.15428525 0.60587573
0001f0 b6 dc 21 c0 d8 67 b5 bc 18 a3 5d 3e 66 0e 91 3e
       -2.5290961 -0.022144243 0.21644247 0.28331298
000200 31 13 01 3f cf b7 0e 40 76 06 00 3f 2b ce eb bf
       0.5041991 2.2299688 0.5000986 -1.8422292
000210 63 e4 25 bf 12 19 93 3e 84 64 2d be aa 0c 1b c1
       -0.64801615 0.28730065 -0.16932875 -9.690592
000220 f9 db 17 40 e5 bd e2 bc 37 bb b2 3e e3 6a c4 3f
       2.372801 -0.02767844 0.3490846 1.5345119
000230 11 51 91 be dc d4 78 3f 53 18 be bf ba 95 91 be
       -0.2838216 0.971998 -1.4851173 -0.28434545
000240 5e 2b c9 bf cf 2f e1 be a4 2e 25 3f 90 66 ac bf
       -1.571636 -0.43981788 0.6452429 -1.34688
000250 24 4d 83 bf 6e 08 46 40 78 6c 23 c0 62 48 f6 c0
       -1.0257916 3.0942645 -2.5534954 -7.696336
000260 5a e8 e1 c0 19 98 bf 3e ec 44 0d 3a 8f 0d 60 bf
       -7.059613 0.3742073 0.00053889933 -0.8752069
000270 51 27 84 3d 7c 5a ff 3f da 7a 66 be 60 8d 3a 3d
       0.064528115 1.9949489 -0.22507802 0.045544982
000280 53 bc 56 3e 36 48 5e be b2 7b 49 c0 61 79 e0 c0
       0.20970277 -0.21707234 -3.1481748 -7.0148168
000290 72 da cb 3e f0 ea b8 3e af 40 c7 3f 8d 73 b3 be
       0.39815098 0.36116743 1.5566615 -0.35049096
0002a0 f5 b0 1b 3f 52 7b 2d be bb da 56 bf 6b 65 98 3e
       0.6081689 -0.16941574 -0.83927506 0.29764876
0002b0 ec e7 41 bd 51 09 13 bf 45 37 aa be 0e 5c 07 bf
       -0.04734032 -0.5743609 -0.33245292 -0.5287484
0002c0 99 55 c7 c1 de a1 48 be 14 c0 02 be 35 33 f5 3e
       -24.916796 -0.19592997 -0.12768584 0.4789063
0002d0 76 7f 9e 3e 1f 98 26 3f c1 1e 73 3f 43 2b 08 40
       0.3095662 0.6507587 0.949688 2.1276405
0002e0 44 35 8b bd ba 55 88 bf ab 04 c4 3e 01 29 29 3f
       -0.06797269 -1.0651162 0.3828481 0.6607819
0002f0 f1 5a 91 3f 7e ec 8d 3f 4d bc e7 3e aa 5f 7f bf
       1.1355878 1.1087797 0.4526085 -0.99755347
000300 dc 69 d6 bf 22 cd 58 bf fa 99 71 3f 2f d9 e4 bd
       -1.6751056 -0.8468801 0.94375575 -0.11174237
000310 79 5d 58 3d 05 d4 d9 be 63 d2 1b 3f 05 86 ad be
       0.052823517 -0.4254457 0.608679 -0.3389131
000320 7b 12 fe bf eb c1 30 40 55 e3 89 c0 f1 0e 2b bf
       -1.984939 2.7618358 -4.3090005 -0.66819674
000330 64 86 05 3d 83 e3 2f bf e0 ec 30 3f 84 f6 e1 be
       0.032598868 -0.6870653 0.6911144 -0.4413339
000340 2a 7f 2d bf e4 fb 16 bf d0 eb f4 3e 8a fa a5 3e
       -0.6777216 -0.58978105 0.4783616 0.3241771
000350 cf 77 80 bf 01 05 d4 bd 79 b9 5e 3f cc a4 0c 40
       -1.0036563 -0.10352517 0.8700176 2.1975584
000360 1d b6 94 3e 8e f9 8c be 85 4b ed 3f cf 6f b1 3d
       0.2904519 -0.27534145 1.8538672 0.08663904
000370 d6 11 e0 bf 9b a4 ee 3d 73 68 2a 3e 49 a5 2f bc
       -1.7505443 0.1165249 0.16641407 -0.010720559
000380 f6 7c 93 be 3a 4d 64 bc db 52 93 bd 80 2d bd be
       -0.28806275 -0.013934428 -0.07193538 -0.36948776
000390 0e 14 8d bf d0 9a 33 3e 30 38 f6 3d 2c 80 b8 3e
       -1.1021745 0.17539525 0.12022436 0.36035287
0003a0 b4 4f 94 bb 58 ff ea 3f 12 4f a5 be d2 d5 92 3e
       -0.004526103 1.8359175 -0.32286888 0.28678757
0003b0 2a 6e 16 be 4a 52 d7 be 21 48 4a 3f 05 f6 06 40
       -0.14690462 -0.4205497 0.7901631 2.1087658
0003c0 32 bc 56 c0 f1 78 b6 bf ac f4 06 bd 07 a4 16 bc
       -3.3552365 -1.4255658 -0.03294818 -0.009194381
0003d0 41 eb 3b bf a7 18 49 3b b8 b5 c6 3f b8 47 fc 3d
       -0.73405844 0.003068486 1.5524206 0.12318367
0003e0 d4 fc bf 3e e5 fa 98 3b c6 09 5d be b7 46 d2 be
       0.3749758 0.004668581 -0.2158576 -0.41069576
0003f0 9c dd 43 bf 35 ba 92 3f 5c 86 55 40 54 6e 7b be
       -0.76510024 1.1463076 3.3363256 -0.24553806

l_lstm.weight_hh_l0 f4 [32, 8]
000000 7f b1 e0 bf 0b 87 bc bf 14 46 1b 3f bb 19 c0 40
       -1.7554168 -1.4728712 0.60653806 6.003141
000010 40 e4 ee 3e e3 1d b0 bf 0a ca 3f 3e b4 0b 0a bd
       0.46658516 -1.3759121 0.18729416 -0.033702567
000020 3f 91 a3 40 3a 33 8f bf 35 0b 02 3f 97 4a 01 3f
       5.11148 -1.1187508 0.5079835 0.5050444
000030 81 36 96 be 3a d9 c6 3d ce 8d 0f c0 f6 e1 ba be
       -0.29338458 0.097094014 -2.24303 -0.3650052
000040 56 d5 4b 3f 20 a1 c2 bd 3f dc eb 3e 4f 64 73 bf
       0.796224 -0.095033884 0.46066472 -0.95074934
000050 00 87 b2 be 23 a5 84 3e e8 10 ab bf 4b 9b 25 3f
       -0.34868622 0.2590724 -1.3364534 0.64690083
000060 c2 c5 48 bf c3 88 31 3e 98 58 07 c1 65 98 c8 3e
       -0.78426754 0.17337327 -8.459129 0.39178768
000070 0e 69 d6 3f 34 23 5e bd a3 09 9a 3f 04 3d cb 3d
       1.675081 -0.05423279 1.2034191 0.09923747
000080 7f be f8 3f 92 c6 ac 3f bd 57 94 bf de 33 f6 3e
       1.9433135 1.3498099 -1.1589276 0.48086447
000090 e0 72 34 3f 6d ba 04 bf 8d 1a 06 3e 33 af 81 3f
       0.70487785 -0.51846963 0.13096066 1.0131592
0000a0 e6 5c 7c 40 84 6b dc 3f 19 b3 14 c0 82 2a 22 c1
       3.94317 1.7220311 -2.3234313 -10.135378
0000b0 c0 57 d3 bf c0 5c 59 3f 85 a1 5f c0 11 40 e0 be
       -1.6511154 0.8490715 -3.4942334 -0.4379888
0000c0 54 a1 79 c0 e8 ed 1e 3f aa 6a 31 40 29 d8 c9 3f
       -3.9004717 0.62081766 2.7721353 1.5769092
0000d0 04 bd dc bf 5b f1 2a c0 90 e4 5c 40 5e 93 3e 3e
       -1.7245183 -2.6709812 3.4514503 0.18610904
0000e0 b4 9c 70 c0 e4 94 65 3f f1 ef 90 40 2e 84 bc bf
       -3.7595644 0.89680314 4.5292897 -1.4727838
0000f0 7b 06 f5 3f 52 37 29 be 18 c9 8f c0 50 e4 99 3d
       1.9142603 -0.1652501 -4.4932976 0.0751425
000100 fe 0e 0a c0 28 2e 9e be b9 26 08 bf 85 fe 85 3f
       -2.157165 -0.3089459 -0.53184086 1.0468298
000110 16 f9 1f bf 71 dd 71 3e 78 24 81 40 fb 4e 96 3e
       -0.6248945 0.2361963 4.0357018 0.29357132
000120 79 7d c1 bf ab 50 86 3e 51 90 ac bf e2 44 ed 3f
       -1.5116416 0.2623342 -1.3481542 1.8536646
000130 e5 89 3e 3f 87 43 db be 9c 78 9e be 1c 79 68 be
       0.7442916 -0.42824957 -0.30951393 -0.2270245
000140 09 a1 88 40 b5 86 df 3f ae dd 2e 3f 4a f9 9f c0
       4.2696576 1.7462984 0.68307006 -4.999181
000150 3f da c2 3f 7b 54 3a bf a1 66 0d c0 37 1b 9b bf
       1.5222853 -0.72785157 -2.209389 -1.211768
000160 3f 8d dc 40 c8 f6 63 bf 03 7e 93 c0 6e 4e 4a 3f
       6.892242 -0.89048433 -4.6091323 0.79025924
000170 1f a7 98 40 47 75 f0 3f f4 24 30 c0 20 d4 a7 40
       4.7704005 1.878579 -2.7522554 5.244644
000180 86 c8 a2 40 b6 c3 80 bf ad e7 6d 40 5f 8c 2b 3f
       5.086978 -1.0059726 3.7172654 0.67011064
000190 3a e1 85 bc b0 96 8e 3d e1 09 b5 3e bf 0e 01 c0
       -0.016342748 0.06962335 0.353591 -2.016525
0001a0 87 6b 03 bf 66 ec 82 bf 78 e1 e2 3f af 64 da 3f
       -0.5133595 -1.0228393 1.7725058 1.7061976
0001b0 2b cf 55 3f d7 c4 37 3f 4b 14 45 40 98 17 96 3f
       0.8351924 0.7178473 3.0793636 1.172595
0001c0 28 91 5b 40 4f d2 da bf 18 33 ac bf 90 7a 31 3f
       3.4307346 -1.7095431 -1.3453093 0.6932764
0001d0 38 12 31 40 15 60 6a 3f c6 53 2d 40 ae 8a db 3e
       2.766737 0.9155286 2.7082381 0.42879242
0001e0 68 e4 93 bf 23 09 85 bf 64 39 a5 3f 3e 0c 6b 3f
       -1.1554079 -1.0393413 1.2908139 0.91815555
0001f0 ed e8 7f 3e 11 6f 11 3f a4 38 48 40 3b e6 11 be
       0.24991198 0.568101 3.128457 -0.14247982
000200 23 79 b9 3e 52 e2 43 3d 1e 60 b1 3f b5 18 07 c0
       0.36225232 0.047823258 1.3857458 -2.110883
000210 2e e4 3a 3f 83 86 c5 3f 12 72 b5 3e 03 10 44 3f
       0.73004425 1.5431675 0.3543859 0.7658693
000220 70 a9 ca 3f e1 40 86 bf c6 b6 0e 3e bc aa 82 bf
       1.5832958 -1.048855 0.1393691 -1.0208354
000230 c4 30 2a bd 06 81 13 be 6b 47 3d bf 30 47 5b bf
       -0.041550413 -0.14404687 -0.739371 -0.856555
000240 3c 71 b9 be 9a 6d 6a bf 80 18 b9 bf 7e 93 94 be
       -0.36219203 -0.9157349 -1.4460602 -0.29018778
000250 2e 8b c0 be e8 41 85 3f 0a 67 18 c0 20 49 18 bf
       -0.37606186 1.0410738 -2.381289 -0.5948658
000260 43 fd ab 3f 8f 24 f5 be 38 63 a6 3f bf 7f b9 bf
       1.3436664 -0.47879454 1.2999029 -1.449211
000270 01 3d 82 bf 9b c4 b0 bd 55 43 c8 3d fc 07 a0 3f
       -1.0174867 -0.086312495 0.097784676 1.2502437
000280 5b 5e 83 bf 73 49 a6 bf 5f c1 7a bf 2b ff a2 3e
       -1.026317 -1.2991165 -0.9795131 0.31835303
000290 21 a1 af bf 91 57 c3 3f db 07 28 be 57 7d 8f bf
       -1.3721048 1.5261098 -0.16409247 -1.1210126
0002a0 9e 8b da 3e f8 e6 31 3f b9 0b 28 bf cc 70 56 be
       0.42684644 0.69493055 -0.6564289 -0.20941466
0002b0 f4 66 19 bf 89 71 2d bf 63 13 3e 3f d3 04 9e 3e
       -0.5992272 -0.67751366 0.7424833 0.30863056
0002c0 84 f5 9c bf 84 0b 37 be ba c1 9b be 6f af 6a 3f
       -1.2262425 -0.17875487 -0.3042124 0.9167394
0002d0 0b ae 8f bf c6 27 41 3f 91 89 36 c0 11 7d 85 bf
       -1.1224989 0.75451314 -2.8521464 -1.0428792
0002e0 ab 4f 84 3e 82 af 91 3d 68 72 18 bf 11 10 07 3d
       0.25842032 0.071135536 -0.5954957 0.032974306
0002f0 10 39 fb be 78 d2 79 be bb 78 0b 3f 6f 12 f9 be
       -0.49066973 -0.24396694 0.54481095 -0.48646876
000300 df 4e 17 c0 70 8f ad c0 60 57 48 40 9c a8 d6 3f
       -2.364189 -5.4237595 3.130333 1.6770205
000310 80 2f 92 40 cc 84 ea 3f d8 9a 96 40 a8 8b 02 40
       4.5682983 1.8321776 4.706402 2.039774
000320 38 be d5 bf 6c 0e b8 3d 49 c5 90 40 f8 bc 03 40
       -1.6698675 0.08987126 4.5240827 2.0584087
000330 a9 a5 fb 3e 6a e6 09 bf f3 ae 0c bf 9e 19 57 3e
       0.49149826 -0.5386721 -0.5495445 0.21005866
000340 40 3c 65 c0 a7 45 2b bd 78 d1 3a 40 0c b8 74 40
       -3.5818024 -0.041814473 2.919035 3.8237333
000350 12 ed 80 be 1e 9a 12 3f 53 0f 4f c0 b3 30 00 bd
       -0.2518087 0.57266414 -3.2353103 -0.031296443
000360 06 0c 43 c0 39 1a de 3e 63 06 b4 bf be 31 a9 3f
       -3.0476089 0.4337938 -1.4064449 1.3218305
000370 a1 66 3e 3f 1d 03 b0 bf 74 a0 52 c0 d3 12 27 c0
       0.7437535 -1.375095 -3.2910433 -2.610524
000380 d0 0f ec 3f e0 10 35 bf fe f9 bd be 73 de 9a 3e
       1.8442326 -0.70728874 -0.3710479 0.3024784
000390 af 81 94 3f e5 51 19 3f a1 2c 6e 40 5a 91 33 3f
       1.1602076 0.59890586 3.721474 0.70143664
0003a0 a5 90 55 c0 c6 29 82 3f d5 96 ec 3b 70 57 b3 3f
       -3.3369534 1.0168998 0.007220129 1.4011059
0003b0 65 c4 88 bf ed 0c 65 bf b1 8a 6c 3f be 48 60 3f
       -1.0684935 -0.8947285 0.92399126 0.87610996
0003c0 c4 a8 13 bf 64 ab 34 c0 97 2b 07 c0 1a 7f 94 40
       -0.5767939 -2.8229609 -2.1120355 4.6405153
0003d0 ce 75 24 3f 0c 6a cd be 16 20 7a 40 43 d9 d6 be
       0.64242256 -0.4011997 3.9082084 -0.41962633
0003e0 45 21 04 c0 78 19 47 be 4e 6c 6d 40 9a 43 57 40
       -2.0645306 -0.1944331 3.7097354 3.363501
0003f0 1b 03 0f 3f 1c f8 14 bf 1b 29 19 c0 ee 21 a0 3e
       0.55864114 -0.58191085 -2.3931339 0.31275886

l_lstm.bias_ih_l0 f4 [32]
000000 8d ba 0b be ae 1c e6 be 6a 2b 69 be 64 a0 fb 3e
       -0.13645382 -0.44943756 -0.22770467 0.49145806
000010 1f 96 3d bf d7 98 59 be ac e1 1a bf c3 9f d0 3e
       -0.7405719 -0.2124971 -0.605006 0.4074689
000020 96 e0 c3 3e fe e0 07 bd 90 de 97 3e b0 45 42 3f
       0.38257283 -0.033173554 0.2966199 0.75887585
000030 ab fc 98 bc f6 98 1c bf e8 db 00 3f f8 86 df be
       -0.018675169 -0.611709 0.5033555 -0.4365766
000040 74 ed e4 3d 00 1c 2c be 75 6b 3d bf f5 b9 9a be
       0.11178103 -0.16807556 -0.7399209 -0.3022
000050 91 74 e7 bd b4 ee a4 3e aa 44 a5 be 27 fd 01 3f
       -0.1130153 0.32213366 -0.3227895 0.50776905
000060 30 37 1a 3e b2 22 e0 3d 2d fb ef 3e 61 8b 48 3e
       0.15060115 0.109441176 0.4687132 0.19584419
000070 09 83 8d 3e 00 e1 dc 3e 26 1b 7b be 56 a2 3a 3f
       0.27639034 0.4314041 -0.24522075 0.72903955

l_lstm.bias_hh_l0 f4 [32]
000000 e7 1f 0b bf d9 92 56 bf 86 3b 54 be 0c 15 d5 bd
       -0.54345554 -0.8381782 -0.20725831 -0.10404405
000010 ed 99 5d bf b7 d4 28 bf 3c 85 ba be 14 42 01 3f
       -0.86563 -0.6594958 -0.36429775 0.5049145
000020 21 eb 93 3d 9d 91 97 3d a7 69 47 be 8f 17 30 3f
       0.07222582 0.074008204 -0.19473897 0.6878595
000030 6b 6a 37 3c 7f 63 e2 be 7a 39 e9 3e 5b 0c ca be
       0.011194806 -0.44216534 0.45551664 -0.3946255
000040 63 a9 b1 3e b9 85 1d bf f1 2a 24 bf 15 b9 57 3e
       0.34699544 -0.6153217 -0.64128023 0.21066697
000050 ba 62 fb be 8f c1 87 3e f1 ed b2 bd c8 9a 23 3f
       -0.4909876 0.2651486 -0.0873679 0.6390805
000060 35 ef 0b 3e b0 b5 b9 be 30 85 2a 3f 01 14 be 3e
       0.13665469 -0.3627143 0.6660948 0.37124637
000070 fa 69 ec 3e 31 69 5f 3e d1 61 91 be 74 c2 7a 3f
       0.46174604 0.21817471 -0.2839494 0.9795296

l_lstm.weight_ih_l1 f4 [32, 8]
000000 1a f5 af 3f 4c c0 0c 3f 18 fe 90 be 68 e8 fc bf
       1.3746674 0.5498092 -0.28318858 -1.9758425
000010 91 76 36 be ae 19 ff 3e ce 6e c2 bf 6f 6f 80 be
       -0.17818667 0.4982428 -1.5190065 -0.25085017
000020 bf b5 5c 3f a1 ad a8 3d 2b 1c 3d 3e 41 c1 bb bf
       0.8621482 0.08236242 0.18467776 -1.4668351
000030 8f c5 57 3e 32 26 c6 3e a9 03 3a 3c 58 d9 6a 3d
       0.21071456 0.38701016 0.011353412 0.05733618
000040 e1 6b 21 bc 79 2c 65 3e b5 8f aa 3d 08 62 11 3f
       -0.0098523805 0.22380246 0.08328191 0.5679021
000050 27 99 d3 bc 7d aa 1a bf 60 08 aa be 99 a3 f4 be
       -0.025829865 -0.60416394 -0.33209515 -0.47781065
000060 90 e2 aa 3f c5 6d 88 be 80 71 77 bf 18 69 0b 40
       1.3350391 -0.26646248 -0.9665756 2.1782894
000070 9f 11 29 bf 82 39 a1 3f 74 74 ad be f7 c5 9a 3f
       -0.6604251 1.2595675 -0.3387791 1.2091664
000080 00 f5 d7 3e fb 52 ff 3c 45 04 9f be c6 24 79 3e
       0.42179108 0.031167498 -0.31057945 0.24330434
000090 0c c5 0c c0 d3 64 ca 3f 8d ae 60 bf 6b 8f 9c 3f
       -2.1995268 1.5812019 -0.87766343 1.2231268
0000a0 4d 42 3a 3e c4 aa 69 3e ad 68 61 bd bf aa 88 3f
       0.18189354 0.22819048 -0.055031467 1.0677108
0000b0 5d c1 18 3f aa 8e 67 3f e2 b6 bf bd c4 5b 10 bf
       0.5967005 0.90452063 -0.09361054 -0.56390023
0000c0 d3 84 c9 3f e3 cf 8f bd a3 81 02 c0 f3 08 0f c0
       1.574366 -0.07022073 -2.0391624 -2.2349212
0000d0 db f2 cd bf 80 bc a2 3f cc 2b a5 bf 41 18 3d 3f
       -1.6089739 1.2713776 -1.2903991 0.73865134
0000e0 ea 9b 0b 3f 17 42 e5 be fa 84 5b bf 57 e5 0c bf
       0.5453478 -0.44776985 -0.8574978 -0.55037445
0000f0 be 52 82 bf 2e d0 90 bd f4 81 8b bf 54 94 fa bd
       -1.0181501 -0.07070957 -1.0899034 -0.122353226
000100 2e a3 fd bd 05 07 6c 3f 21 0c b5 bf fb 45 fe be
       -0.1238464 0.9219821 -1.4144326 -0.49662766
000110 cb 49 3b 3e 2f 19 c2 bf cd da 10 be ed 21 41 bf
       0.18289869 -1.5163935 -0.14145966 -0.7544239
000120 a3 7a 9d bf a7 b4 a1 3f d2 96 75 3e 9c 7e a1 bd
       -1.2303051 1.2633256 0.23983315 -0.07885477
000130 fd 11 8f 3e 5b d4 12 c0 ad 00 c3 bd 10 7b bf bf
       0.2794341 -2.2942111 -0.09521613 -1.4959431
000140 13 b2 b3 bf 33 9b 66 bf 85 da 0f 3f 25 29 b5 3f
       -1.4038719 -0.90080565 0.5619281 1.4153181
000150 3b c7 50 3f f1 41 d1 bf d3 fa 17 bf 64 b9 10 3d
       0.81554 -1.6348249 -0.593671 0.035333052
000160 0f 12 13 bf 72 99 51 bf 5c b5 2b 3f 2a 5a 62 3e
       -0.5744943 -0.81874764 0.6707361 0.22104707
000170 67 7e 1b 40 de 0f 80 3f 47 5b 91 3f 96 32 b6 3f
       2.42959 1.0004842 1.1355981 1.4234188
000180 d8 fe 31 bf 48 fc 8b be c3 f0 9e 3f 42 1c c8 3e
       -0.69529486 -0.27340913 1.2417225 0.3908406
000190 1e ef 9b 3f 59 c7 13 bf 12 5b 05 3d 46 20 d3 3e
       1.2182348 -0.57726055 0.032557555 0.4123556
0001a0 28 18 eb 3f 11 d0 43 c0 09 e3 a9 be df 82 09 c0
       1.8366747 -3.0595744 -0.33181027 -2.1486127
0001b0 61 51 15 3f 24 6a 3d 40 f4 b2 35 3f 4c be 07 40
       0.583273 2.9596033 0.70976186 2.1209898
0001c0 13 b7 31 c0 f3 77 84 3e 1e d0 03 40 00 b7 ed 3f
       -2.776799 0.25872764 2.0595775 1.8571472
0001d0 bd 48 3a 3b 84 32 76 bf a2 22 aa bf 39 96 e6 bf
       0.0028424703 -0.9617083 -1.3291819 -1.8014594
0001e0 88 e5 28 c0 fe ab 09 3f 9f 18 95 3f d2 f0 17 3f
       -2.6390095 0.53778064 1.1648139 0.5935184
0001f0 9f 36 22 3f a8 a4 b2 bf 11 13 5c be b5 b7 db bf
       0.63364595 -1.3956499 -0.21491648 -1.7165438
000200 57 6a 06 be aa 63 49 bf 19 4a 7f be 80 a2 cc be
       -0.13126503 -0.786677 -0.2493061 -0.39967728
000210 f4 9b 33 3f a9 c8 87 3f 0f e7 a4 bf d8 7e 36 3f
       0.7015984 1.0608112 -1.2883013 0.712873
000220 78 1a d4 be a1 9f 32 bf fd 67 4b be bd 39 da 3e
       -0.41426444 -0.69774824 -0.19863887 0.42622176
000230 57 7c 4c 3f 40 e6 b7 3f d7 ad ce bf b6 b6 62 3f
       0.7987723 1.4367142 -1.6146802 0.88560045
000240 66 85 dc 3e d7 54 5f 3f 87 3e 42 be c2 0c 47 bc
       0.43070525 0.8723883 -0.18969165 -0.012149038
000250 4c f6 59 bf 4a 6b 7e bf 88 e0 9b 3f 1f ba b7 be
       -0.85141444 -0.9938246 1.2177896 -0.35884187
000260 ca df ad be b1 81 9b 3f b4 4f 52 bf d1 ea 3f be
       -0.339598 1.2148954 -0.8215287 -0.18741919
000270 71 c1 63 bf 0b 48 9c bf 07 bf c6 3f 08 85 c0 bf
       -0.88967043 -1.2209486 1.5527047 -1.5040598
000280 8e 1b 87 3e 15 bb 73 bf 4e 96 58 3f e0 18 a3 be
       0.2638821 -0.9520734 0.84604347 -0.31854916
000290 64 65 52 3f 6a b2 72 3f dd c6 7f bf b1 12 9e 3f
       0.8218596 0.9480349 -0.99912816 1.2349454
0002a0 b4 27 2b 3e bb 75 44 3f f6 a1 9f bf 44 62 fe be
       0.16714364 0.7674214 -1.2471302 -0.49684346
0002b0 bd e1 8a bf 76 98 4c bf d2 8a 65 3f 65 7d 05 bf
       -1.085014 -0.79920137 0.8966495 -0.5214446
0002c0 54 a3 d3 3d 6c b9 40 bf 7a c1 0e 3f 8c 00 8f be
       0.10333887 -0.7528293 0.5576397 -0.27930105
0002d0 0e dc 1f 3f 02 95 82 3f dc 52 87 bf 33 28 94 3f
       0.6244515 1.0201724 -1.0572162 1.1574768
0002e0 65 b1 35 3e e9 1c 4c 3f df 4c 4b be 74 61 b9 3e
       0.17743452 0.79731613 -0.19853543 0.36207163
0002f0 cb 98 3e bf 59 56 95 bf 30 5e 8a 3f 97 82 84 bf
       -0.74451894 -1.1666976 1.0809994 -1.0352353
000300 13 05 0d bf 7d e6 a5 3e b2 62 6c 3f 06 68 82 3d
       -0.5508587 0.3240241 0.923381 0.06367497
000310 29 7f 47 3e 65 0f a5 be e7 ae e9 be 34 5e 27 3e
       0.19482102 -0.32238308 -0.45641252 0.1634453
000320 95 99 c3 3d c0 d4 71 3e b3 5f 9a 3f fc 38 22 3e
       0.09550778 0.23616314 1.2060455 0.1584205
000330 15 d0 76 3d 56 1b 88 be 27 39 6a bd bd e9 84 be
       0.060257036 -0.26583356 -0.05718341 -0.25959578
000340 43 6a 78 3d 5a 94 91 3f c5 ba 13 3f b0 d3 79 bf
       0.060648214 1.1373398 0.5770686 -0.97588634
000350 4a 28 a1 be 10 b2 75 bf a6 77 dc be 64 50 9e 3c
       -0.3147605 -0.95974827 -0.43060035 0.019325443
000360 30 68 c5 be 43 34 8b 3d 88 b4 77 3f fb 2a ba bf
       -0.3855605 0.067970775 0.96759844 -1.4544367
000370 d3 a6 e4 bd bd 71 e7 3f d9 18 1a 3f f5 ff 0a bf
       -0.11164632 1.8081585 0.60194165 -0.5429681
000380 4e a4 fd be cc 7f 02 be 00 7f 90 3e eb 74 2c be
       -0.49539417 -0.12744063 0.28221893 -0.16841476
000390 0c 76 07 3e 76 33 27 3f 6a d3 45 bf 28 35 01 bd
       0.13228625 0.653129 -0.7727572 -0.031544834
0003a0 35 9d 19 bf c6 db 7c 3f d3 19 a0 be 87 b7 35 40
       -0.60005504 0.9877285 -0.31269702 2.8393266
0003b0 ce 32 b7 be 67 e8 86 3f 56 85 25 bf 15 7c 92 3e
       -0.35780948 1.0539674 -0.6465658 0.28610292
0003c0 4e ce a9 bf 71 47 82 3e 30 0e 3a bf ee d8 4d bf
       -1.3266084 0.2544513 -0.726779 -0.80409133
0003d0 d5 9f 6a bf e2 44 3f 3f f6 90 db bf 31 7a 64 bf
       -0.91650134 0.7471448 -1.7153614 -0.8924895
0003e0 0e 21 8c 3e 50 a7 54 3e 25 39 e8 3e 5e 61 92 bd
       0.2736897 0.2076695 0.45356098 -0.071474776
0003f0 e8 9f dc bd 48 23 29 bf 2f 69 6e 3d b5 1c c7 be
       -0.10772687 -0.6606946 0.05820578 -0.3888909

l_lstm.weight_hh_l1 f4 [32, 8]
000000 48 6c 9a 3e 31 57 07 3e 1a 5a 0e 3d 21 78 a8 bf
       0.30160737 0.13216855 0.034753896 -1.316166
000010 f5 15 6a 3f e8 3e a9 be 3a 11 64 bf 99 0a 67 3d
       0.91439754 -0.33055806 -0.89088786 0.05640659
000020 f4 bb c8 be 08 b5 2e 3f cd 21 9d 3e 19 4f a2 bf
       -0.39205897 0.6824498 0.3068985 -1.2680389
000030 ed 13 e0 3e c2 ca 3f be 61 11 90 be 1e e0 db be
       0.43765202 -0.1872969 -0.2813826 -0.42944425
000040 d5 47 21 3e fa 5b e0 bd 5e e4 3e 3e 5f 74 5a bf
       0.15750058 -0.10955043 0.18641803 -0.8533382
000050 5e 9a b6 bd 3e fb dd bc 9d db a2 bf f0 fe f1 3c
       -0.08916162 -0.02709734 -1.2723271 0.029540509
000060 f8 bf dc bf 4a 34 db bf f8 3d d9 3f 61 a5 0d bf
       -1.7246084 -1.7125332 1.6972036 -0.55330473
000070 85 fd 00 bf 16 e2 b2 3f 96 f4 ac bf 03 ba d0 3f
       -0.5038684 1.3975246 -1.3512142 1.6306766
000080 d8 8a c6 bf 18 82 c6 bf 21 f8 e4 3f cb 8f 87 be
       -1.5511122 -1.5508451 1.7888223 -0.26476893
000090 4b 32 ce be 54 10 84 3f a9 11 a8 bf ad 2c e0 3f
       -0.40272745 1.0317483 -1.313039 1.7513634
0000a0 f1 64 46 bf 3f 11 90 bf 85 ab c8 3f 3b 55 79 bf
       -0.77497774 -1.1255263 1.5677344 -0.97395676
0000b0 e4 7f 2e bf 2c f4 5a 3d 96 d5 00 c0 70 11 a9 3f
       -0.68163896 0.053455517 -2.0130363 1.3208447
0000c0 35 82 86 bf 91 05 27 bf 61 ca ac 3f d3 19 8a bf
       -1.0508486 -0.6524287 1.3499261 -1.0789131
0000d0 be ef cb 3c 19 b6 7c 3e ac 4c f6 bf 36 d9 9d 3f
       0.024894591 0.2467884 -1.9242148 1.2331913
0000e0 ee 64 c8 be 53 b0 8e bd b0 40 90 3e d9 63 ac bf
       -0.39139503 -0.06967225 0.28174353 -1.3467971
0000f0 aa 8c 5e 3f af 0e 89 3d f6 e2 e2 be b0 87 a7 be
       0.86933386 0.06692254 -0.44313782 -0.3272071
000100 6c 02 80 3f a8 30 17 3f b6 18 83 be a1 a5 17 bf
       1.0000739 0.5905862 -0.2560479 -0.59237105
000110 9b ab 61 3f 1f 8a 20 be 4a b1 93 be 9a a6 11 bf
       0.88152474 -0.15677689 -0.28846198 -0.5689484
000120 af 29 0f bf c2 37 f9 3e 07 e4 47 3e 3f eb 19 bf
       -0.5592298 0.48675352 0.1952058 -0.6012458
000130 77 c0 70 bd 20 39 0f 3e 48 fb 3a bf 4c 56 20 3e
       -0.0587773 0.13986635 -0.73039675 0.1565792
000140 56 53 94 3f 14 eb 7a 3f 41 97 f3 bf 6d bd 96 bf
       1.1587932 0.9801495 -1.9030534 -1.1776558
000150 b8 1d d9 3f a9 02 bd bf 7d da 0f 40 0e 81 b2 bf
       1.6962194 -1.4766437 2.2477105 -1.3945634
000160 f2 49 3e bf f2 03 50 bf 1c dd e8 3d fe 7e 94 3e
       -0.7433158 -0.8125602 0.11370298 0.29003137
000170 4b 92 a5 3e e7 bf c2 bd 75 e6 bc 3f dc 8a ca 3e
       0.32338175 -0.09509259 1.475783 0.39559066
000180 bd 86 e5 bd a1 18 4b be 19 bb 4c bf f5 ae 44 3d
       -0.1120734 -0.19833614 -0.7997299 0.048018415
000190 58 a4 52 3f 67 e4 f7 be de 6b c1 3f 32 dd 60 3e
       0.8228202 -0.48416445 1.5111043 0.2195938
0001a0 c0 ff 3b 3f 33 d9 40 bf 77 12 56 bf b9 50 f0 be
       0.7343712 -0.7533142 -0.83621925 -0.46936586
0001b0 10 d1 54 3f 3c c8 b1 3d 9b 32 3a 40 e9 6f c6 3d
       0.83131504 0.0868077 2.9093387 0.09689314
0001c0 37 c4 86 3e f3 7f 84 3f 00 13 b7 bf 64 c2 51 bf
       0.26321575 1.0351547 -1.4302673 -0.8193724
0001d0 65 0d 89 3f 02 0a ac bf 14 84 e0 3f 02 9a 46 bf
       1.0707213 -1.3440554 1.7540307 -0.7757875
0001e0 e7 e2 34 3e a0 c1 d6 3d 80 36 a2 be 9b 3a 5a bf
       0.17664681 0.1048615 -0.31682205 -0.85245675
0001f0 88 23 a7 3e 6e de 81 3d f6 38 46 be b5 6b 07 bf
       0.32644296 0.06341253 -0.19357666 -0.5289872
000200 f1 30 dd bf d8 c3 a5 bf 37 f4 95 3f 7e 1d e3 3e
       -1.7280561 -1.2950392 1.1715153 0.44358438
000210 8f 60 0f bf 61 62 59 3f ac 34 c3 3f ac ab 25 be
       -0.5600671 0.8491574 1.5250449 -0.16178769
000220 83 91 44 3e d5 35 dc bf 30 c8 2c 3f b2 93 92 be
       0.19196133 -1.7203928 0.6749296 -0.28628308
000230 78 48 21 3f 43 54 37 3f 56 19 11 3f 03 36 18 be
       0.63001204 0.7161295 0.56679285 -0.14864354
000240 77 6a 95 3c a1 3d 22 3f 15 4f 1f c0 6f bd 0b 3e
       0.018239243 0.6337529 -2.4892018 0.13646482
000250 d7 23 dc 3e 2d c4 55 bf 18 0e 21 bf a3 f5 5c 3d
       0.42996094 -0.83502465 -0.6291213 0.053945195
000260 d1 c1 57 3f ed 96 29 3f 18 69 70 bf a2 9f 5d bf
       0.84280115 0.6624592 -0.9391036 -0.86571705
000270 e4 05 36 3f 42 cb d6 bf 06 60 dc 3e 3a 5c 6e bf
       0.7110274 -1.6780779 0.4304201 -0.93109477
000280 2a ab 64 bf af 7c be bf f3 b5 6e 3f 58 37 58 3f
       -0.89323676 -1.48818 0.9324638 0.8445945
000290 fd cd 2f c0 64 a8 95 3f c7 1f ae be 95 0d 9c 3f
       -2.7469475 1.1692014 -0.3400862 1.2191645
0002a0 0f e4 42 be e1 40 5c 3e 24 9e 8f bf 5d a2 8f 3f
       -0.1903231 0.21509124 -1.1220136 1.1221424
0002b0 01 d1 fb 3e 48 0a 54 c0 81 16 43 bf 2b 06 06 bf
       0.49182895 -3.3131275 -0.76206213 -0.5235316
0002c0 84 82 d0 bf 6c 80 a6 bf 53 88 b9 3f e2 6a bf 3f
       -1.628983 -1.3007941 1.4494728 1.4954493
0002d0 07 0e c2 bf e6 5b b8 3f d3 6b 9c bf 37 6b 90 3f
       -1.5160531 1.4403045 -1.2220405 1.1282719
0002e0 bc 1f be 3f 55 90 b9 3f c9 0c 45 bf 2b d2 22 bf
       1.4853435 1.4497172 -0.76972634 -0.6360194
0002f0 e3 a0 3f 3f 53 40 27 bf c5 00 ad be ae 31 e9 bf
       0.7485487 -0.65332526 -0.3378965 -1.8218286
000300 b9 59 34 3f 35 f6 68 3e 9e 8b 78 be c1 9c 6e bf
       0.70449406 0.2275017 -0.2427201 -0.9320794
000310 d1 9c 69 3e 9f 2a 26 bf cc fb 0a 3e 25 86 01 bf
       0.22813727 -0.64908785 0.13572615 -0.50595313
000320 d0 90 23 3e 8a 94 ba 3f 8f ce 09 bf 41 ed 85 bf
       0.1597321 1.457658 -0.5383081 -1.0463029
000330 0d e3 6e 3f 7b a2 22 bf d1 97 c8 3e d3 80 3c bf
       0.933152 -0.63529176 0.39178327 -0.7363407
000340 8a 46 a1 be ab 82 ac bd 23 d3 13 be 1e 03 2a bf
       -0.3149913 -0.084233604 -0.14436011 -0.66411006
000350 52 b0 17 3f 52 50 0d bf 6b 26 b7 3e 3e 09 e7 3b
       0.5925342 -0.55200684 0.35771498 0.0070506623
000360 c5 68 e3 bf ef 52 00 c0 71 6b 9f 3f 10 28 c7 3e
       -1.7766348 -2.0050619 1.2454664 0.38897753
000370 82 d9 43 bf c8 d0 c4 3f e9 15 b7 bd 56 ca 92 3f
       -0.76503766 1.5376215 -0.08939726 1.1467998
000380 08 fb 53 be f0 cb 31 bf f8 b6 0e bd e4 7a b9 be
       -0.2070123 -0.6945181 -0.03484246 -0.3622657
000390 6b 1e d6 3e 42 3e 3a be 11 6c 52 3d c9 94 f9 3e
       0.41820082 -0.18187812 0.05137259 0.48746327
0003a0 2a fd 2e bf 2d 81 06 bf df eb ab 3f 70 53 ba bf
       -0.6835505 -0.52540857 1.3431357 -1.4556713
0003b0 a8 4d 2b bd e5 d1 9a be 3d ef 88 bf 95 a5 5f 3f
       -0.041822106 -0.30238262 -1.069801 0.87362033
0003c0 b2 78 95 be 17 a8 6d bd 74 82 93 3f bf 4b 92 bf
       -0.29193646 -0.05802163 1.1524186 -1.1429366
0003d0 75 ad ba 3e 8d 16 66 3e 4e 32 74 bf 63 f3 38 3e
       0.36460462 0.2246954 -0.9538926 0.18061595
0003e0 84 18 cf 3e be 97 e4 3e df fc bb be 5b e3 95 bf
       0.4044839 0.4464702 -0.36716363 -1.1710008
0003f0 86 01 1d 3f 69 77 23 bf 71 48 00 3f da bf 8c bf
       0.6133045 -0.6385408 0.50110537 -1.0996048

l_lstm.bias_ih_l1 f4 [32]
000000 f8 03 3c bf 48 1c 67 bf 3a 59 30 bf 4b 0e c6 be
       -0.73443556 -0.9027753 -0.6888615 -0.3868278
000010 f0 50 12 bf fd 12 e4 be c1 ff 26 bf ce 57 07 bf
       -0.5715475 -0.44545737 -0.65234 -0.52868354
000020 82 f5 8d 3e eb 3c a8 be de 81 09 bf 9a 6b 00 3e
       0.2772637 -0.32858977 -0.53713787 0.12541047
000030 25 cd 47 3e ac c4 04 bf ec c1 24 3f e2 5c a9 3e
       0.1951185 -0.518626 0.643584 0.33078676
000040 70 30 89 bc 1b cb f0 3d 7a 0a 86 be cc 10 f3 bd
       -0.01674673 0.11757489 -0.26179868 -0.11868438
000050 9f ae c2 3b 1a 5d 0c be 53 e3 8e 3e 91 82 08 be
       0.0059412266 -0.1370739 0.2790781 -0.13331057
000060 bb d4 76 bf d6 fb 07 bf 81 86 10 bf 37 3d 07 bf
       -0.9641835 -0.53118646 -0.56455237 -0.5282778
000070 5d 7b 28 bf 31 ab 14 be d0 4c e2 bc eb be 35 bf
       -0.6581324 -0.1451843 -0.027624518 -0.7099444

l_lstm.bias_hh_l1 f4 [32]
000000 b2 c7 c3 be 97 ad 5f bf 3e aa ed be 7a be 2a bf
       -0.38238293 -0.8737425 -0.46418947 -0.66696894
000010 0d 11 89 be 4b d3 0f bf 31 8b 0f bf 13 d9 4b bf
       -0.2677082 -0.5618178 -0.56071764 -0.79628104
000020 03 c0 6e 3c 18 33 a7 be 0a 93 05 bf 6c 35 15 3f
       0.014572146 -0.3265617 -0.5217749 0.5828464
000030 9b fa dc 3e c6 f7 ce be 1e b2 ef 3e fe 6f d1 3e
       0.43159947 -0.4042341 0.4681558 0.40905756
000040 74 7f 19 3e fe 49 36 3d c9 d5 09 3e 91 03 fe bd
       0.14990026 0.04450416 0.13460459 -0.12403024
000050 90 40 32 3e 09 31 02 bd 79 b0 c6 bd 1e d3 33 bd
       0.17407441 -0.031785045 -0.09701628 -0.04390251
000060 fb e2 23 bf 3e 12 8d be 6b 87 13 bf 47 c7 5c bf
       -0.6401822 -0.2755298 -0.57628506 -0.86241573
000070 2e d6 24 bf 47 41 99 be b8 21 81 bb 47 19 37 bf
       -0.6438931 -0.29932615 -0.003940787 -0.71522945

l_linear.weight f4 [1, 8]
000000 22 09 d6 be 48 49 e0 be ef 34 bd 3e 72 91 eb 3e
       -0.41803843 -0.4380591 0.36954448 0.46009403
000010 32 35 f4 be bb 26 c9 3e b7 7b d2 be de 4a e4 3e
       -0.47696835 0.39287362 -0.41110012 0.4458837
