citylearn/data/datasets/tx_travis_county_neighborhood/resstock-amy2018-2021-release-1-307803.pth (torch, 8966 bytes, 9 tensors)

l_lstm.weight_ih_l0 f4 [32, 13]
-0.9753621 -1.9433781 0.07017154 -0.21759729 -0.45047078 -0.711818 -5.950047 15.260648
1.240151 0.8269384 0.86190397 0.40627947 0.75555396 0.20829177 -0.23810348 0.09503617
-0.090634584 -0.40370584 -0.17124422 -0.4446869 1.4674622 -0.70020163 -1.1900252 -0.3812047
0.039077476 -2.17937 0.4551204 -0.0038837742 -0.10541298 -0.10749156 -0.35671967 -0.38904652
4.243953 1.8240643 -0.75013953 -1.4461524 -0.76723504 -0.45414948 0.70351946 -0.91750765
-0.5392749 0.08523721 -0.22377107 -1.8213308 -0.80242085 -2.465822 -0.46414134 0.6466346
0.35474536 0.41527918 -0.18248929 -1.0280257 0.19007555 0.23258333 -0.021399241 0.05596059
0.23600113 0.18779354 -0.4287125 -0.9541605 0.17412002 -0.074368596 0.13300137 -0.10740681
-0.9360952 0.841317 0.4508976 -0.11281796 -0.07716097 -0.29825696 -0.15932494 0.75607145
-4.4179506 -0.18729852 -0.069735385 -1.03357 0.22924978 -2.4462218 0.1313882 0.20511478
0.41236612 -0.3215573 -0.5800853 -0.9375778 3.1396384 1.5539408 -0.5406471 0.46370196
0.98932254 0.6709847 -1.2216675 -0.6384324 0.47060284 0.056763444 -0.20522115 -0.3253146
0.4724329 2.2250452 1.5514485 0.07097014 -0.7529997 -1.2040263 0.7208151 1.0591158
0.660247 0.56529224 0.3064462 0.37915188 -0.5907656 -0.7761976 -18.74792 -0.21645898
-1.1153442 -2.332957 -3.2359571 -0.053695433 1.4911283 0.3008556 0.18585216 0.027210962
0.23802257 -0.13852073 -0.36525324 -0.36770687 0.52356774 0.27749288 0.7871869 0.17918488
0.23349114 -2.0071468 -0.75301903 0.707487 0.040843923 -0.06446938 0.38902563 0.39877415
1.0927465 -0.031121798 1.0838553 1.1256374 0.12655853 0.27896622 1.5061349 0.9158459
-0.2715503 -0.30969504 0.03198945 0.5677088 -0.37488237 0.52499187 1.8133899 0.38736644
-1.8872979 0.45958802 0.14498575 -1.0716689 0.70460665 0.57625866 -0.07897648 -0.01574071
-0.33895525 -0.0555353 -3.001218 -5.180407 1.1494842 0.55981934 1.5603288 -0.10974745
1.1465706 0.4578164 0.29325968 0.24217226 0.17949872 0.4061646 -0.08630143 0.48247352
1.423802 -0.11913642 1.37536 1.1146638 -0.100690246 -0.8682179 -0.049814302 -0.2753009
0.26034454 -0.17711674 -0.19606031 0.15717281 0.74964404 -1.256267 -2.1689804 -1.3788573
0.18982743 0.3899674 -2.25604 0.2731619 0.86124647 -0.34984928 0.63995105 -0.34501925
0.32787618 0.767858 -4.388545 0.86460704 0.5040138 -0.20556255 -0.63105637 1.3466903
1.0967907 1.1270262 -0.07149634 -0.1306883 -0.059210535 -0.45366773 8.459685 -2.460402
-0.39075425 -0.42899632 -1.5859452 0.024243014 -0.21266226 0.049848475 -0.060401853 -0.012035722
-0.064654514 -0.23245361 -0.5302818 -0.45473045 -4.964483 -0.16685997 -1.7713475 -1.0034158
0.24391334 1.7532904 -0.31867543 -0.33820307 -0.00096816587 -0.013816777 0.5202797 -0.15619221
-2.8330235 1.699213 -0.54692715 0.022917451 1.4848619 0.009947506 0.86469316 -0.7050178
-0.073718354 -0.1601729 0.032896742 -0.15057714 0.12466132 0.47846806 -3.4148993 1.1077051
00000000: 55b1 79bf 9dc0 f8bf 19b6 8f3d d3d1 5ebe
00000010: 1ba4 e6be b439 36bf c966 bec0 9d2b 7441
00000020: 45bd 9e3f 3cb2 533f bda5 5c3f dd03 d03e
00000030: fc6b 413f 704a 553e 66d1 73be 53a2 c23d
00000040: a09e b9bd 88b2 cebe a55a 2fbe 00ae e3be
00000050: cdd5 bb3f 6a40 33bf bf52 98bf 432d c3be
00000060: b40f 203d cc7a 0bc0 8b05 e93e eb86 7ebb
00000070: c3e2 d7bd 8924 dcbd f6a3 b6be 1b31 c7be
00000080: 77ce 8740 f07a e93f 2509 40bf 861b b9bf
00000090: 8469 44bf 4886 e8be da19 343f c8e1 6abf
000000a0: eb0d 0abf d990 ae3d 3e24 65be 5e21 e9bf
000000b0: 746b 4dbf 07d0 1dc0 efa3 edbe d889 253f
000000c0: 2fa1 b53e 799f d43e 79de 3abe 5996 83bf
000000d0: 2aa3 423e 532a 6e3e 764d afbc ee36 653d
000000e0: 48aa 713e f34c 403e 3480 dbbe dd43 74bf
000000f0: 854c 323e 904e 98bd 8331 083e 1af8 dbbd
00000100: efa3 6fbf 8d60 573f 0ddc e63e 1a0d e7bd
00000110: 9206 9ebd 23b5 98be 1426 23be e68d 413f
00000120: da5f 8dc0 2fcb 3fbe 6dd1 8ebd 064c 84bf
00000130: 74c0 6a3e e68e 1cc0 a18a 063e 9c09 523e
00000140: a721 d33e 29a3 a4be 7880 14bf 1905 70bf
00000150: d6ef 4840 88e7 c63f d967 0abf 586a ed3e
00000160: 3e44 7d3f a7c5 2b3f 9a5f 9cbf 4e70 23bf
00000170: dbf2 f03e c980 683d 7e25 52be a38f a6be
00000180: bae2 f13e 2467 0e40 dd95 c63f cb58 913d
00000190: 97c4 40bf 891d 9abf 5787 383f 1b91 873f
000001a0: f305 293f feb6 103f 84e6 9c3e 3220 c23e
000001b0: 6a3c 17bf e3b4 46bf bdfb 95c1 6ca7 5dbe
000001c0: 99c3 8ebf 2b4f 15c0 ec19 4fc0 beef 5bbd
000001d0: 4bdd be3f bf09 9a3e 0750 3e3e 86e9 de3c
000001e0: 30bc 733e 61d8 0dbe 7902 bbbe 1344 bcbe
000001f0: 8908 063f 8c13 8e3e 1585 493f 3e7c 373e
00000200: 4d18 6f3e 1875 00c0 dbc5 40bf de1d 353f
00000210: f54b 273d 8608 84bd 5e2e c73e 202c cc3e
00000220: 1edf 8b3f 24f3 febc c5bb 8a3f e314 903f
00000230: 8f98 013e a9d4 8e3e 07c9 c03f e074 6a3f
00000240: a408 8bbe 5990 9ebe 5f07 033d 5d55 113f
00000250: 95f0 bfbe de65 063f 291d e83f e554 c63e
00000260: fa92 f1bf 1f4f eb3e 2577 143e 722c 89bf
00000270: 1a61 343f b085 133f 6cbe a1bd a9f2 80bc
00000280: 8b8b adbe fc78 63bd f513 40c0 e5c5 a5c0
00000290: 4c22 933f 5250 0f3f dbb8 c73f 45c3 e0bd
000002a0: d3c2 923f e966 ea3e 2226 963e 01fc 773e
000002b0: 83ce 373e cef4 cf3e cebe b0bd c506 f73e
000002c0: 253f b63f ccfd f3bd cc0b b03f 4ead 8e3f
000002d0: b036 cebd 8743 5ebf 150a 4cbd 3df4 8cbe
000002e0: e14b 853e 175e 35be 09c4 48be e9f1 203e
000002f0: ace8 3f3f 5bcd a0bf 93d0 0ac0 657e b0bf
00000300: 1f62 423e cfa9 c73e f662 10c0 e0db 8b3e
00000310: a67a 5c3f 721f b3be d5d3 233f 5da6 b0be
00000320: 63df a73e 5892 443f f66e 8cc0 e356 5d3f
00000330: 0c07 013f fd7e 52be e98c 21bf 5960 ac3f
00000340: a363 8c3f 6542 903f ac6c 92bd 27d3 05be
00000350: bf86 72bd 2347 e8be df5a 0741 3a77 1dc0
00000360: f110 c8be 68a5 dbbe 4100 cbbf 4999 c63c
00000370: 23c4 59be ea2d 4c3d ef67 77bd 7a31 45bc
00000380: 9669 84bd 5208 6ebe 8cc0 07bf 6ed2 e8be
00000390: 0bdd 9ec0 57dd 2abe 84bb e2bf ee6f 80bf
000003a0: 6bc4 793e d26b e03f 6d29 a3be f428 adbe
000003b0: 83cc 7dba c35f 62bc 0d31 053f daf0 1fbe
000003c0: 4250 35c0 d07f d93f 6b03 0cbf 61bd bb3c
000003d0: f40f be3f ddfa 223c 885c 5d3f 0c7c 34bf
000003e0: a6f9 96bd 5d04 24be bcbe 063d e530 1abe
000003f0: 6f4e ff3d c4f9 f43e b68d 5ac0 48c9 8d3f

l_lstm.weight_hh_l0 f4 [32, 8]
0.52430314 -0.42189944 0.2807671 5.433439 -0.46834245 -2.2735837 -0.5799991 1.355256
-1.3877808 -0.43211472 -0.22366959 -0.20373337 0.1871896 1.2797586 0.43732864 0.56762546
-2.548789 1.3595876 -0.6767991 3.281291 0.7353512 -1.1293277 -2.3656018 -1.7352965
-0.62253904 -1.3968215 -0.006473872 1.0389577 -2.799426 -1.3527519 -0.015911909 0.7251068
-3.436173 0.551117 0.57472724 1.6435615 0.2878229 0.2851322 -0.2075693 -2.1116703
-3.629258 0.48891968 3.902876 2.2938623 1.7282969 0.1287332 0.24339728 1.1073097
2.9858742 -0.5436621 0.4500767 1.2600676 -0.19737269 -1.5702261 0.53973556 2.9485347
-4.2040167 1.942604 -0.16391581 -7.9954834 0.37864736 1.4907376 0.30180052 -0.99790823
-0.35397324 -1.6749231 -3.4170034 -4.640745 2.6986961 1.6281338 -1.2585638 -1.5670446
-1.3267746 -0.3369339 0.69410324 -0.3012628 0.8391642 0.009218337 0.72603333 1.0262554
1.6029897 -0.06178532 0.30773914 -4.0066376 1.3251053 -1.272456 -1.6807181 0.13734277
-0.42412534 -0.9987072 0.39061683 -0.24191208 -1.6818864 -1.0259378 -0.4030997 4.7141867
-0.10097682 -0.22179815 -0.19174705 -3.8355794 0.72172767 0.016757209 0.83694565 -0.74238056
0.14850748 -0.30009627 1.3087825 0.9434329 0.9072184 0.2399622 0.4079416 -1.0417657
0.1665743 -0.015024711 0.11220647 -0.83251023 -0.1989962 -1.1099076 0.06809603 1.3460733
-2.280463 3.550134 -0.8657369 1.253736 -0.23097499 1.8564769 -2.0982537 1.1870663
1.2577735 -0.11001552 2.109976 -1.056951 1.152726 0.2706371 0.8259617 0.46559256
0.8698232 0.15675086 -0.8713884 -1.4302343 -0.46416324 -0.82955956 0.042884152 -1.4064255
1.4143282 0.71200496 -0.81083584 -1.4883127 -0.92147076 -2.4669828 -1.6521655 1.0882597
1.145317 1.4267076 -1.4228474 -4.0299163 -0.011717801 -2.7378118 0.13691308 0.5526727
0.17694272 0.47669756 -0.60940343 -0.6878415 -1.4848746 -0.057630043 -0.50751925 -0.792762
-0.53475064 -0.1488549 0.94371116 -0.39172885 0.8881618 -1.1748549 0.38740703 0.27736878
-2.188605 -1.5883566 1.5950456 -1.1181624 -0.20358759 0.82292676 3.709269 -1.96389
2.2701502 -0.8203875 0.18812062 -2.1207988 -0.47313026 -2.3134904 1.9501151 -3.0717735
0.4506047 -3.5111647 -0.27291152 -0.16369504 -1.2088592 -0.27610666 -0.18503371 1.6956389
1.5786226 0.017051484 0.6380918 0.41799852 0.75869566 -0.7045621 -0.069111586 -0.22019792
1.4965737 1.5222718 1.2184842 -0.04767491 1.8088325 -0.9865227 0.81477696 -2.90359
1.7422802 -2.0871212 1.4651729 -4.021329 -1.2673469 -0.50752485 0.17052169 2.7151694
-0.3790286 -2.738775 2.1696813 -1.412772 1.2786534 -4.3831205 2.3254197 0.41910583
-0.73022634 -2.2224522 1.7637222 -0.8600606 0.7788454 1.2401339 1.2439982 0.15688112
-0.055223178 0.122500405 0.27162966 -0.88372564 0.09738351 -1.0488377 -0.07857469 -0.7597306
2.7971663 3.5901656 -0.68220025 -1.0180651 1.2795597 2.0528536 -1.3863996 -3.655015
00000000: bb38 063f 3403 d8be b5c0 8f3e bbde ad40
00000010: 95ca efbe 6582 11c0 d27a 14bf 0779 ad3f
00000020: cda2 b1bf 243e ddbe a409 65be 7b9f 50be
00000030: a1ae 3f3e 21cf a33f 8ae9 df3e e74f 113f
00000040: 5c1f 23c0 f706 ae3f b542 2dbf ac00 5240
00000050: fa3f 3c3f cf8d 90bf 0566 17c0 321e debf
00000060: b85e 1fbf 0ccb b2bf c622 d4bb 91fc 843f
00000070: cc29 33c0 f926 adbf b159 82bc 99a0 393f
00000080: 42ea 5bc0 0116 0d3f 5321 133f 3960 d23f
00000090: 865d 933e d9fc 913e 0c8d 54be 9b25 07c0
000000a0: c345 68c0 ae53 fa3e b8c8 7940 a4ce 1240
000000b0: d538 dd3f a3d2 033e 233d 793e 53bc 8d3f
000000c0: 9018 3f40 702d 0bbf 7470 e63e e549 a13f
000000d0: 111c 4abe 2bfd c8bf 1c2c 0a3f cbb4 3c40
000000e0: 4e87 86c0 3fa7 f83f 8cd9 27be 00db ffc0
000000f0: 11de c13e 7dd0 be3f 9985 9a3e ea76 7fbf
00000100: fb3b b5be e163 d6bf 2fb0 5ac0 fc80 94c0
00000110: 70b7 2c40 b066 d03f 9e18 a1bf eb94 c8bf
00000120: c0d3 a9bf 9a82 acbe c0b0 313f 1e3f 9abe
00000130: 77d3 563f 8208 173c 52dd 393f 565c 833f
00000140: c42e cd3f 9b12 7dbd fc8f 9d3e 6036 80c0
00000150: 0d9d a93f d7df a2bf c521 d7bf 95a3 0c3e
00000160: f526 d9be 46ab 7fbf eefe c73e cdb7 77be
00000170: 0e48 d7bf ee51 83bf 1563 cebe 9eda 9640
00000180: efcc cebd 0e1f 63be 5759 44be 227a 75c0
00000190: 25c3 383f 6a46 893c 1242 563f a70c 3ebf
000001a0: 5812 183e 38a6 99be 2f86 a73f d284 713f
000001b0: 773f 683f a7b8 753e b9dd d03e 9458 85bf
000001c0: 7492 2a3e 352a 76bc 81cc e53d 641f 55bf
000001d0: a9c5 4bbe 7411 8ebf ee75 8b3d 214c ac3f
000001e0: 1bf3 11c0 6535 6340 efa0 5dbf 6c7a a03f
000001f0: b584 6cbe 09a1 ed3f ca49 06c0 caf1 973f
00000200: b9fe a03f d14f e1bd d909 0740 2c4a 87bf
00000210: 878c 933f f290 8a3e 3a72 533f 2662 ee3e
00000220: bcac 5e3f 4c83 203e 4f13 5fbf eb11 b7bf
00000230: cea6 edbe 045e 54bf 4ba7 2f3d c005 b4bf
00000240: b508 b53f f545 363f f092 4fbf 0881 bebf
00000250: 82e5 6bbf 0ce3 1dc0 297a d3bf 184c 8b3f
00000260: bf99 923f 5b9e b63f dd1f b6bf 13f5 80c0
00000270: 05fc 3fbc 4f38 2fc0 f132 0c3e f57b 0d3f
00000280: 7930 353e b411 f43e dd01 1cbf 6116 30bf
00000290: 5f10 bebf 7b0d 6cbd c8ec 01bf 73f2 4abf
000002a0: 6be5 08bf 6b6d 18be 0e97 713f af90 c8be
000002b0: 925e 633f a561 96bf 375a c63e 4803 8e3e
000002c0: 1b12 0cc0 454f cbbf 742a cc3f f21f 8fbf
000002d0: 4479 50be 54ab 523f aa64 6d40 bf60 fbbf
000002e0: 244a 1140 ea04 52bf b1a2 403e 2bbb 07c0
000002f0: 213e f2be 3a10 14c0 5f9d f93f f097 44c0
00000300: a9b5 e63e ecb6 60c0 0fbb 8bbe ac9f 27be
00000310: e6bb 9abf da5d 8dbe 7a79 3dbe b20a d93f
00000320: 4e10 ca3f 8eaf 8b3c fc59 233f e703 d63e
00000330: e139 423f 2f5e 34bf 608a 8dbd 907b 61be
00000340: ba8f bf3f cdd9 c23f 4af7 9b3f c446 43bd
00000350: d387 e73f c08c 7cbf 3995 503f 6bd4 39c0
00000360: 0a03 df3f 6593 05c0 c98a bb3f baae 80c0
00000370: 6c38 a2bf 26ed 01bf 3d9d 2e3e 56c5 2d40
00000380: 0910 c2be 1748 2fc0 0fdc 0a40 b7d5 b4bf
00000390: eaaa a33f 8642 8cc0 add3 1440 0a95 d63e
000003a0: 1df0 3abf a83c 0ec0 a6c1 e13f ee2c 5cbf
000003b0: 6a62 473f b5bc 9e3f 553b 9f3f 72a5 203e
000003c0: b331 62bd 7ee1 fa3d 0b13 8b3e d83b 62bf
000003d0: 0171 c73d 5040 86bf c4eb a0bd b47d 42bf
000003e0: c604 3340 46c5 6540 ada4 2ebf f54f 82bf
000003f0: 9dc8 a33f f461 0340 8b75 b1bf c4eb 69c0

l_lstm.bias_ih_l0 f4 [32]
0.33167818 0.21317184 -1.1725718 -0.013254364 -0.6384596 -0.13927604 0.59209484 -1.2285663
0.25123003 0.22248773 -0.3519432 0.3788028 0.6249935 0.54397 -0.14568958 0.23720919
-0.23297419 -0.14875057 -0.3066599 0.25566366 -0.17229097 0.47411132 0.9443931 -0.9174408
-1.1252046 0.29434022 -0.07426455 0.9581366 1.2408603 0.76268923 -0.22356692 0.4509985
00000000: b9d1 a93e b849 5a3e d516 96bf d528 59bc
00000010: 1772 23bf 619e 0ebe 8793 173f a941 9dbf
00000020: 39a1 803e d3d3 633e e631 b4be 71f2 c13e
00000030: 93ff 1f3f 9e41 0b3f a62f 15be f7e6 723e
00000040: c990 6ebe 1252 18be 8702 9dbe 59e6 823e
00000050: 0b6d 30be b8be f23e bfc3 713f 66dd 6abf
00000060: b406 90bf c3b3 963e 0318 98bd 7148 753f
00000070: 83d4 9e3f 9a3f 433f baee 64be 47e9 e63e

l_lstm.bias_hh_l0 f4 [32]
0.21611723 0.4684337 -1.192316 -0.06720999 -0.48229682 0.47901186 0.5857582 -1.3614806
0.29025576 0.743354 -0.5106248 0.15913522 1.1340655 0.9315011 -0.23749764 0.270635
-0.1323441 -0.673852 -0.073477484 0.34728375 -0.1014406 0.3996742 0.75679886 -0.38865536
-0.71203494 0.0880039 -0.13443546 0.56760395 1.3664 1.3213785 -0.2522256 0.5431539
00000000: d64d 5d3e 8bd6 ef3e d09d 98bf 64a5 89bd
00000010: 9cef f6be 0b41 f53e 40f4 153f ff44 aebf
00000020: 679c 943e 734c 3e3f 4fb8 02bf 58f4 223e
00000030: 0f29 913f db76 6e3f 9532 73be ac90 8a3e
00000040: 3685 07be 9181 2cbf 5d7b 96bd 2dcf b13e
00000050: 17c0 cfbd 19a2 cc3e 92bd 413f d6fd c6be
00000060: ec47 36bf 643b b43d 73a9 09be 7e4e 113f
00000070: 32e6 ae3f ee22 a93f b723 81be 220c 0b3f

l_lstm.weight_ih_l1 f4 [32, 8]
-0.6822192 0.23982319 0.31125927 -0.6811487 0.58029616 1.1270742 -0.0065783425 0.6723995
0.5265181 0.74918413 0.41769603 -1.2294793 -0.12957066 1.2168363 0.2825685 0.3662554
-0.76699 0.75242287 0.7093269 -1.932143 -0.133422 0.07549722 -0.9902287 0.49467495
-1.0198119 1.9311473 1.0031692 -2.797699 0.19644068 0.59512526 -1.3244612 -0.34567142
0.23178007 0.6671378 0.70912427 -0.89840686 0.29257405 0.60683125 0.4598848 0.9238991
0.58053094 -0.10010377 -0.33257684 0.6188481 -0.13776056 0.56792325 0.6683675 -0.54968125
0.68850523 -0.5009838 0.28791654 0.42919847 -0.01951465 1.1203547 0.5619338 -0.5661329
0.48669267 1.3263054 0.16447362 -2.5972157 0.016959371 0.92063105 -1.5624255 -0.09384119
0.083571665 2.9192214 -0.31121844 -1.9425629 0.6152666 -1.5438279 -1.0740675 1.1070904
-1.3121306 1.4737501 0.61183685 -0.109023884 1.0438764 -1.1371812 -0.8950616 0.7364832
-0.7325496 2.0257037 -0.7582032 5.1338263 0.4185136 -0.15913254 -1.5219584 -0.739747
-0.2041139 -0.5011937 1.9767994 -0.027301433 0.706282 -0.80992335 1.6056377 0.52351767
-0.46745613 1.7619953 -0.026829606 -0.6440528 0.38906023 -1.3807315 -0.5667153 0.9569117
3.148688 -0.40728962 -4.1205697 1.5567572 -3.0281048 0.42070484 1.3141986 1.5637023
1.0497544 -0.28551626 -2.9282904 1.5084478 -1.76446 1.0925425 2.03892 1.6371503
-1.3604807 -0.40603158 -6.873543 1.3549592 -1.889731 -0.14573751 0.6423967 -0.6328755
0.2768594 -0.4367425 -0.77075297 0.14693813 -0.88656205 0.8191351 0.45572656 -0.09807802
0.62799174 -0.86733574 -1.0574756 0.10263565 -1.0768148 0.7242209 0.7301928 -0.54847664
0.41871023 -1.0641465 -0.7888845 0.13101082 -1.2077246 1.1193819 0.59507895 -0.37164047
-0.23679027 0.8133183 0.97901887 0.11294626 0.9507316 -1.0350839 -0.4960245 0.5119721
-0.28990355 0.7665309 1.1457984 -0.18218143 1.1416402 -0.660849 -0.2998031 0.44671714
0.29457593 -0.22180498 -1.8872942 -0.02441047 -2.138877 0.55426216 -0.032934017 -1.9523025
-0.31865865 0.35296243 0.7212653 -0.19647129 1.298388 -0.6927146 -0.17499046 0.830219
-0.5614696 0.73844755 1.0462062 -0.14344908 1.3585305 -1.0162681 -0.46941498 0.5816786
-0.9491491 0.36730438 0.1159713 -0.38778865 0.45930085 0.35493973 0.06447097 0.6714405
-0.21641086 0.9724192 -0.16021475 -1.6035388 0.09428249 -0.20730856 -0.038679756 0.121546336
-0.56730753 0.22029804 0.42634052 -1.5822357 0.24719405 0.42451894 -0.082749784 0.57852274
-0.7482979 1.2672247 -0.29035679 0.10530643 0.4804038 -0.87643 -0.60874206 1.2955592
-0.046633977 0.6701866 0.13933659 -0.9143343 0.43847793 -0.38986427 -0.33922276 0.28184056
1.2250638 -0.21700959 -0.5267618 0.23635188 -0.2989895 0.60472995 1.2958341 -0.95821995
0.0010949795 -0.32251483 0.04643799 0.36036667 -0.0604126 1.0242002 1.6495898 -0.066985875
-0.58431935 0.023792855 0.14579384 -1.5287133 0.47850126 0.85422796 0.5506948 0.515805
00000000: eba5 2ebf 3694 753e 605d 9f3e c35f 2ebf
00000010: 4a8e 143f f843 903f 238f d7bb 6022 2c3f
00000020: e4c9 063f 88ca 3f3f 41dc d53e 945f 9dbf
00000030: 2cae 04be 4bc1 9b3f d2ac 903e d485 bb3e
00000040: 7559 44bf c99e 403f 7396 353f 7650 f7bf
00000050: c79f 08be 499e 9a3d a17f 7dbf 0946 fd3e
00000060: 3289 82bf d62f f73f d967 803f 800d 33c0
00000070: bf27 493e 215a 183f f287 a9bf d8fb b0be
00000080: c157 6d3e 8bc9 2a3f 2b89 353f fefd 65bf
00000090: 44cc 953e 4b59 1b3f 0576 eb3e a784 6c3f
000000a0: ad9d 143f 3503 cdbd 8347 aabe d46c 1e3f
000000b0: 1b11 0dbe 6b63 113f 221a 2b3f e9b7 0cbf
000000c0: e141 303f 7940 00bf cc69 933e e7bf db3e
000000d0: 30dd 9fbc c867 8f3f e5da 0f3f 16ee 10bf
000000e0: c82f f93e 60c4 a93f c66b 283e c838 26c0
000000f0: 61ee 8a3c 7aae 6b3f 8ffd c7bf cf2f c0bd
00000100: 9f27 ab3d 86d4 3a40 0658 9fbe e7a5 f8bf
00000110: 1d82 1d3f 279c c5bf 0b7b 89bf 23b5 8d3f
00000120: e5f3 a7bf d8a3 bc3f 57a1 1c3f ea47 dfbd
00000130: be9d 853f 278f 91bf c222 65bf 2a8a 3c3f
00000140: 5f88 3bbf 21a5 0140 9b19 42bf 4e48 a440
00000150: 6a47 d63e a4f3 22be 88cf c2bf 0f60 3dbf
00000160: 3c03 51be 3b4e 00bf c307 fd3f 41a7 dfbc
00000170: e6ce 343f 2357 4fbf 8985 cd3f 4105 063f
00000180: 6956 efbe 1089 e13f c3c9 dbbc a5e0 24bf
00000190: e732 c73e cfbb b0bf 4114 11bf 2af8 743f
000001a0: 1b84 4940 4488 d0be b5db 83c0 d243 c73f
000001b0: 78cc 41c0 a066 d73e a937 a83f 6627 c83f
000001c0: 5a5e 863f 302f 92be 1c69 3bc0 d114 c13f
000001d0: d3d9 e1bf 6fd8 8b3f aa7d 0240 248e d13f
000001e0: 3b24 aebf 5fe3 cfbe 10f4 dbc0 4e6f ad3f
000001f0: b5e2 f1bf 373c 15be 1c74 243f 2104 22bf
00000200: 84c0 8d3e b79c dfbe 1150 45bf f376 163e
00000210: bbf5 62bf d7b2 513f fe54 e93e 21dd c8bd
00000220: 11c4 203f b709 5ebf 5c5b 87bf a432 d23d
00000230: 11d5 89bf 8a66 393f eaed 3a3f f768 0cbf
00000240: 3061 d63e f435 88bf 56f4 49bf b327 063e
00000250: b896 9abf e847 8f3f 1857 183f a947 bebe
00000260: 2679 72be a135 503f fba0 7a3f 5e50 e73d
00000270: 2563 733f a17d 84bf ecf6 fdbe 9b10 033f
00000280: 3d6e 94be 5e3b 443f 86a9 923f c58d 3abe
00000290: 4421 923f 662d 29bf cb7f 99be 1cb8 e43e
000002a0: a8d2 963e d820 63be db92 f1bf 77f8 c7bc
000002b0: 5ce3 08c0 20e4 0d3f d2e5 06bd 0ce5 f9bf
000002c0: 3a27 a3be 7eb7 b43e d8a4 383f c52f 49be
000002d0: 9431 a63f be55 31bf b330 33be 3b89 543f
000002e0: 79bc 0fbf e60a 3d3f 16ea 853f 51e4 12be
000002f0: 54e4 ad3f 1315 82bf 2957 f0be e4e8 143f
00000300: 6ffb 72bf 520f bc3e 5c82 ed3d 3c8c c6be
00000310: 7b29 eb3e a9ba b53e 5b09 843d 86e3 2b3f
00000320: cf9a 5dbe 77f0 783f 560f 24be c240 cdbf
00000330: 2e17 c13d b248 54be aa6e 1ebd 49ed f83d
00000340: 113b 11bf cf95 613e 4e49 da3e b386 cabf
00000350: 7020 7d3e 8c5a d93e b878 a9bd 111a 143f
00000360: 7490 3fbf 6b34 a23f a5a9 94be e6aa d73d
00000370: 7df7 f53e b75d 60bf 85d6 1bbf e2d4 a53f
00000380: 4503 3fbd 5991 2b3f 40ae 0e3e d011 6abf
00000390: 2e80 e03e 4a9c c7be 9bae adbe 684d 903e
000003a0: e4ce 9c3f c337 5ebe dcd9 06bf 3a06 723e
000003b0: 2715 99be 95cf 1a3f e4dd a53f e74d 75bf
000003c0: 6a85 8f3a aa20 a5be c335 3e3d fb81 b83e
000003d0: 3473 77bd fe18 833f c225 d33f e42f 89bd
000003e0: f495 15bf 3ce9 c23c fb4a 153e e1ac c3bf
000003f0: 1efe f43e afae 5a3f 56fa 0c3f cc0b 043f

l_lstm.weight_hh_l1 f4 [32, 8]
1.1367168 0.15008014 -0.17885171 0.57840365 -0.4586038 1.0696354 -0.5648523 -0.37613028
-0.42711914 1.1368484 -0.18862042 0.9641701 0.30832455 0.7807046 -0.3569719 0.25035262
-0.23881999 -0.22638975 0.5290349 0.6977605 -0.07625607 0.9859335 -0.24887946 0.29880416
0.124988675 0.10177716 -0.18315205 -1.0273371 0.2913787 1.865161 -0.89477813 0.2758954
-0.7294546 -0.01672275 -0.285577 0.4837823 -0.38248706 1.2201093 -0.59391636 0.6581539
-1.5163302 -1.6920785 -0.13765639 2.1978757 1.6597261 0.23757342 1.4900153 -0.58062625
-1.4850341 -1.0564051 -0.32382247 1.6683797 1.0557795 -0.21866418 -1.7050257 -0.3239188
-1.2570157 -1.439954 -2.0249043 1.4055368 1.157749 1.2257724 -0.052384537 1.972018
1.6749079 0.16677983 -0.1968305 0.29842943 -0.6130407 0.9153726 -0.7211268 0.1711859
-0.21825832 1.5477082 -0.47829208 0.45012018 -0.22999537 0.76521343 -0.17256856 0.535015
0.70438576 0.80864555 1.8162494 0.2081555 -0.5808526 1.167465 -1.0789723 -1.0878081
-0.34622994 -0.3283632 -1.1451466 -0.09194274 0.38845605 0.51799756 -0.33809805 0.88389575
0.28410184 0.52966386 0.2932672 0.24571142 -1.4004029 0.7557683 -0.97735655 -0.126901
-0.23263434 -0.64878565 1.1538763 0.5936224 -0.207515 -0.4312724 -0.018265486 -1.5223922
-0.69630474 0.10481195 0.7854167 0.5461423 0.40627265 1.0159161 -1.0041537 -1.450173
-0.5213248 -0.34313422 3.2144504 1.5529993 -0.53061754 -0.9743099 -1.0145121 -3.7896242
-2.18942 0.10243881 0.13898546 -1.0972186 0.16816191 -0.58528525 0.53982466 -1.4400712
-1.0271516 -1.9473159 -0.20562482 -0.66949403 0.62617004 -0.18140922 0.3298094 -0.17985356
-1.2332951 -1.1359017 -1.6229943 0.9346874 1.2378961 -1.1490817 1.118115 0.02826714
1.2609824 1.4495214 0.32633066 -2.437111 -1.348817 1.2557466 -1.0086706 1.0328746
0.61024487 0.61577475 0.06835956 0.088749185 -2.1857166 0.706788 -0.7665631 0.25334233
-0.8872029 -1.1162817 0.0515463 -0.23442484 0.9162124 -2.0658984 0.7577884 0.18965465
0.1485163 0.7918522 0.72708434 0.78676325 -0.8029178 0.3286252 -3.8631988 0.35661265
1.5086526 1.4005686 1.1183062 -1.4679456 -1.4742906 1.0854266 -1.9236958 -1.6889522
1.0989193 0.33586672 0.17996165 0.728415 -0.2652334 1.5527152 -0.93589693 -0.52230036
0.71860486 1.6122147 0.20842686 0.22483286 -0.1506791 1.2659858 -0.7900011 -0.014176981
-0.48687413 -0.4927148 0.45336804 0.9292762 -0.039182894 1.1471739 -0.020031549 0.3137886
0.64452213 0.98025185 -0.1569271 -0.9996478 -0.60568374 2.0596151 -1.0383757 0.3797853
0.0749757 0.6371815 0.3258381 0.45816773 -1.3969337 1.1778423 -0.6943471 -0.31235883
-1.5672673 -1.6818254 -0.31490842 2.1173923 1.4635168 0.66834027 0.9630707 -0.15979157
-1.04086 -1.0063057 -0.3608353 1.5308595 1.2731586 -0.1837033 -1.9378351 0.5585734
-0.95712864 -0.90490377 -0.83193666 1.5428609 0.76776385 1.4134569 -0.2222159 0.36298692
00000000: f07f 913f 9cae 193e e724 37be 4312 143f
00000010: 1ece eabe d0e9 883f 299a 10bf 2694 c0be
00000020: 5caf dabe 4084 913f b625 41be dad3 763f
00000030: b7dc 9d3e 42dc 473f 05c5 b6be 382e 803e
00000040: 3a8d 74be b7d2 67be d56e 073f 6fa0 323f
00000050: 242c 9cbd 2366 7c3f 42da 7ebe dcfc 983e
00000060: 10fa ff3d 8b70 d03d 368c 3bbe c87f 83bf
00000070: 972f 953e 98bd ee3f 2e10 65bf 2942 8d3e
00000080: 89bd 3abf 26fe 88bc 2637 92be 50b2 f73e
00000090: 58d5 c3be 8b2c 9c3f e70a 18bf c67c 283f
000000a0: 1c17 c2bf 0796 d8bf ccf5 0cbe ffa9 0c40
000000b0: e871 d43f 7246 733e d2b8 be3f eca3 14bf
000000c0: 9915 bebf 4838 87bf 0fcc a5be 778d d53f
000000d0: c823 873f 81e9 5fbe 483e dabf afd8 a5be
000000e0: e4e5 a0bf 6a50 b8bf 0898 01c0 a1e8 b33f
000000f0: 1f31 943f 1ce6 9c3f 2b91 56bd 166b fc3f
00000100: 6263 d63f 55c8 2a3e ef8d 49be becb 983e
00000110: 3cf0 1cbf dc55 6a3f c49b 38bf 5b4b 2f3e
00000120: 1c7f 5fbe 4d1b c63f b3e2 f4be 2776 e63e
00000130: e883 6bbe 07e5 433f d0b5 30be bef6 083f
00000140: a052 343f 6503 4f3f dc7a e83f b726 553e
00000150: c2b2 14bf 7e6f 953f c41b 8abf 4c3d 8bbf
00000160: 0d45 b1be 391f a8be 2a94 92bf 7a4c bcbd
00000170: b6e3 c63e 7d9b 043f 301b adbe fe46 623f
00000180: cc75 913e 0d98 073f 1e27 963e c69b 7b3e
00000190: 6740 b3bf 087a 413f 0a34 7abf 56f2 01be
000001a0: b237 6ebe d116 26bf 38b2 933f a3f7 173f
000001b0: d07e 54be bccf dcbe 80a1 95bc bfdd c2bf
000001c0: 0741 32bf a6a7 d63d 1211 493f fbcf 0b3f
000001d0: f802 d03e 8a09 823f 1c88 80bf 459f b9bf
000001e0: 8b75 05bf 4aaf afbe 8eb9 4d40 aec8 c63f
000001f0: 8dd6 07bf 606c 79bf 88db 81bf 3489 72c0
00000200: 751f 0cc0 70cb d13d 3452 0e3e a971 8cbf
00000210: a332 2c3e 41d5 15bf f331 0a3f 4154 b8bf
00000220: b479 83bf a641 f9bf 508f 52be f663 2bbf
00000230: ae4c 203f 57c3 39be c7dc a83e 882b 38be
00000240: 9ddc 9dbf 3a65 91bf 47be cfbf ac47 6f3f
00000250: 6173 9e3f 1c15 93bf 641e 8f3f 7d90 e73c
00000260: df67 a13f eb89 b93f d014 a73e a0f9 1bc0
00000270: 09a6 acbf 4ebc a03f 1e1c 81bf 3c35 843f
00000280: 0239 1c3f 6aa3 1d3f 1900 8c3d 22c2 b53d
00000290: c8e2 0bc0 0ff0 343f 7b3d 44bf 16b6 813e
000002a0: bb1f 63bf 52e2 8ebf 3722 533d 110d 70be
000002b0: e58c 6a3f ae37 04c0 6cfe 413f d434 423e
000002c0: a814 183e d3b6 4a3f 3322 3a3f 5169 493f
000002d0: 058c 4dbf 9041 a83e a63e 77c0 ef95 b63e
000002e0: 871b c13f d545 b33f a824 8f3f a4e5 bbbf
000002f0: 8eb5 bcbf 42ef 8a3f aa3b f6bf 962f d8bf
00000300: 63a9 8c3f b9f6 ab3e de47 383e 6879 3a3f
00000310: accc 87be 5fbf c63f f196 6fbf 7ab5 05bf
00000320: 7df6 373f 0d5d ce3f da6d 553e 963a 663e
00000330: 9f4b 1abe d30b a23f 833d 4abf 9146 68bc
00000340: 9147 f9be 1d45 fcbe db1f e83e 0ce5 6d3f
00000350: 3e7e 20bd 98d6 923f 3419 a4bc e6a8 a03e
00000360: 67ff 243f c9f1 7a3f 7fb1 20be ebe8 7fbf
00000370: 170e 1bbf bcd0 0340 7fe9 84bf 3873 c23e
00000380: dc8c 993d 541e 233f 40d4 a63e f694 ea3e
00000390: b9ce b2bf 89c3 963f bbc0 31bf 7fed 9fbe
000003a0: 379c c8bf 0e46 d7bf ad3b a1be 5b83 0740
000003b0: 8554 bb3f 5918 2b3f cd8b 763f 67a0 23be
000003c0: e73a 85bf a0ce 80bf 68bf b8be 34f3 c33f
000003d0: dcf6 a23f b81c 3cbe fb0a f8bf abfe 0e3f
000003e0: 6206 75bf c6a7 67bf cdf9 54bf 777c c53f
000003f0: 2c8c 443f 28ec b43f 918c 63be 6cd9 b93e

l_lstm.bias_ih_l1 f4 [32]
-0.47030422 -0.072561935 -0.1115059 -0.85752976 0.18831718 -0.17412043 -0.68556494 -0.32635486
-0.9069491 0.110473506 -0.9111669 1.2951225 -0.64967024 -0.4192818 -1.2868826 -0.32480294
-0.16843113 -0.022171132 -0.047676355 0.115854025 0.011798203 0.122555494 -0.19175772 -0.19813526
-0.27616578 -0.6543134 0.07586435 -0.7832675 -0.59131116 -0.69562846 -0.24362767 0.64657676
00000000: b7cb f0be 5a9b 94bd 355d e4bd 1287 5bbf
00000010: 38d6 403e a04c 32be 2f81 2fbf fc17 a7be
00000020: d12d 68bf ef3f e23d 3c42 69bf 93c6 a53f
00000030: ca50 26bf 1bac d6be 92b8 a4bf 924c a6be
00000040: 3679 2cbe 3ca0 b5bc 4848 43bd e044 ed3d
00000050: 404d 413c 60fe fa3d 235c 44be f8e3 4abe
00000060: 9a65 8dbe 1581 27bf c55e 9b3d 3884 48bf
00000070: 2b60 17bf b514 32bf 8879 79be 0e86 253f

l_lstm.bias_hh_l1 f4 [32]
-0.3332531 -0.45692053 -0.3005141 -1.086558 -0.34224162 -0.62720853 -0.6178514 -0.13425219
-0.67794865 -0.32940227 -1.0212791 1.0065438 -0.71966815 -0.3856736 -0.9226223 -0.109269485
0.14084868 -0.04813688 -0.02639454 -0.0980842 0.00017551695 0.0031552867 0.114210494 0.21996363
-0.19071922 -0.50956863 0.14738688 -0.266424 -0.6267101 -0.7272714 -0.3835057 0.33073452
00000000: 26a0 aabe 7df1 e9be fcdc 99be 5514 8bbf
00000010: 4b3a afbe bd90 20bf 822b 1ebf 6879 09be
00000020: 0b8e 2dbf 6aa7 a8be 46b9 82bf 6dd6 803f
00000030: 2c3c 38bf 0377 c5be fa30 6cbf aec8 dfbd
00000040: a33a 103e 2d2b 45bd 5d39 d8bc 5ee0 c8bd
00000050: f90a 3839 edc8 4e3b 31e7 e93d 253e 613e
00000060: e64b 43be 1773 02bf 96ec 163e ba68 88be
00000070: 1370 20bf 752e 3abf dc5a c4be 0956 a93e

l_linear.weight f4 [1, 8]
-0.44981706 -0.47098112 -0.52525836 0.59689975 0.4951393 -0.5000006 0.512304 0.55141085
00000000: 6c4e e6be 7024 f1be 5577 06bf 6cce 183f
00000010: e682 fd3e 0a00 00bf 5b26 033f 4329 0d3f
