citylearn/data/datasets/tx_travis_county_neighborhood/resstock-amy2018-2021-release-1-50879.pth (torch, 8440 bytes, 9 tensors)

l_lstm.weight_ih_l0 f4 [32, 13]
0	0x3f432d40	0.7624092
1	0x40176bb2	2.3659482
2	0xbe96c02c	-0.2944349
3	0xbe3dbca9	-0.18529
4	0xbfb3afc6	-1.4038017
5	0xbf80385d	-1.0017201
6	0x3f83e0ab	1.0302938
7	0x40535fb6	3.3027167
8	0xbf2630a2	-0.6491796
9	0xbf15d79c	-0.5853212
10	0x3fb421e9	1.4072849
11	0x3e019526	0.12654552
12	0xbfa37ffa	-1.277343
13	0xbf77387c	-0.96570563
14	0xbe84949b	-0.25894627
15	0xc05bea80	-3.4361877
16	0x3ea860d9	0.3288639
17	0x3fde3f7a	1.7363122
18	0x3fcd19bd	1.602348
19	0x40b6e8c1	5.7159123
20	0x4032933e	2.790237
21	0x3fa7d41d	1.3111607
22	0xbf762c30	-0.96161175
23	0xbf6586e4	-0.8965895
24	0x3f95a9f7	1.1692494
25	0x3f58c9f6	0.8468317
26	0xbdbc3ebf	-0.09191655
27	0x3e549cb1	0.20762898
28	0x3d93370a	0.07188232
29	0xbecf46c2	-0.4048367
30	0x3e5df628	0.21675932
31	0x3e534ebd	0.20635505
32	0xbfc5e137	-1.5459355
33	0xc07b9f5c	-3.9316015
34	0x3f268330	0.65043926
35	0x3ecf1670	0.40446806
36	0x40138b56	2.3053794
37	0xbe9b3fa0	-0.3032198
38	0x3e129676	0.14315209
39	0xbf22b3fe	-0.63555896
40	0x3f194678	0.5987315
41	0xbebc8e01	-0.3682709
42	0x3d169ae8	0.036768824
43	0xbdaee9e5	-0.085407056
44	0xbd8e58e0	-0.06950545
45	0x3f8b359a	1.0875733
46	0xc00548c0	-2.0825653
47	0x3f170d2e	0.59004486
48	0xbc779c11	-0.015112893
49	0xbf1f9276	-0.62332857
50	0x3e47e7d9	0.19522037
51	0x3f4ff7bc	0.8123739
52	0xbf3b18ad	-0.7308453
53	0xc00e749b	-2.225867
54	0xbf2f8712	-0.68565476
55	0xbda61c93	-0.08110919
56	0xc030b38f	-2.7609594
57	0xbffad346	-1.9595726
58	0x40e75870	7.2295456
59	0x40012eab	2.0184734
60	0xbfb3de74	-1.4052262
61	0xbf5e0a4d	-0.8673447
62	0x3f7615fb	0.9612729
63	0xbe321cff	-0.17393874
64	0x3fe58b3f	1.793312
65	0xbd5622c4	-0.05227925
66	0xbe00b2f8	-0.12568271
67	0xbdfce566	-0.12348442
68	0xbdf13896	-0.11778371
69	0xbe79f8a1	-0.2441125
70	0x3c8a02f6	0.016847115
71	0xbfa29304	-1.2701116
72	0x3fa477e3	1.2849087
73	0xbf1057fc	-0.56384254
74	0xbe2a4cd9	-0.16630878
75	0xbe2a4254	-0.16626865
76	0xbdd2d84a	-0.1029516
77	0xc0243c9a	-2.5661988
78	0xbfcf7af5	-1.6209399
79	0x3fce852e	1.6134393
80	0xbf5d086c	-0.86340976
81	0x3f4401d5	0.76565295
82	0xbf0ba91e	-0.5455493
83	0x3fdf0551	1.7423497
84	0x3d2fa6e9	0.042883787
85	0x407b01c3	3.9219825
86	0xbff55f2d	-1.916967
87	0x3f6b169e	0.91831386
88	0x3e9e6d7f	0.30942914
89	0x3eaf56d3	0.3424593
90	0x3fa5399b	1.2908205
91	0x3c9bb64b	0.019007822
92	0x3f0840a5	0.5322364
93	0x3e482afd	0.19547649
94	0xbeb806a6	-0.35942572
95	0xbfc8fac6	-1.570153
96	0xbfb37cb8	-1.4022436
97	0xc0f0b491	-7.522042
98	0x3fa14e37	1.2601994
99	0x3f8106bd	1.0080181
100	0xbf8987e7	-1.0744599
101	0x40612ae0	3.518242
102	0xbc382a34	-0.011240531
103	0xbf17dd91	-0.5932246
104	0x3fbda025	1.4814497
105	0x3e9f847a	0.3115576
106	0x3f311ee3	0.69187754
107	0x3f0d4984	0.551903
108	0x3ff81e15	1.938418
109	0x3f1daa89	0.6158834
110	0xbe911f63	-0.2834426
111	0x3f299c19	0.6625381
112	0xc0a23faa	-5.0702715
113	0x3fc8a254	1.5674539
114	0xc051aa99	-3.2760375
115	0x3e5726af	0.2101085
116	0xc0737b60	-3.8044052
117	0xbf7486d3	-0.95518225
118	0xbe161311	-0.14655711
119	0xbf1ae35b	-0.60503167
120	0x4065d2d0	3.590992
121	0x3eaee6ab	0.3416036
122	0xc02e3437	-2.721937
123	0x3eb0b3fc	0.34512317
124	0xc093842f	-4.6098857
125	0xc10f15b7	-8.942801
126	0xc08616c6	-4.19028
127	0xc00a72e2	-2.163262
128	0x3fa4b86f	1.2868785
129	0xbf3ad76e	-0.7298497
130	0xbf1c507a	-0.610603
131	0xbf2c725b	-0.6736199
132	0x3e440858	0.19143808
133	0xbe354c1f	-0.17704819
134	0xbe97e6f0	-0.2966838
135	0xbe547765	-0.2074867
136	0xc11c4a5d	-9.768155
137	0xc09d3779	-4.9130216
138	0xbde37ae4	-0.11107424
139	0xbf0d0ca9	-0.5509744
140	0x3ea642bf	0.32472798
141	0x3e88a4a3	0.26688108
142	0x3f1b748f	0.6072473
143	0x3fbff003	1.4995121
144	0x3f8a3be3	1.0799526
145	0x3dd5977b	0.10429283
146	0xbed5e437	-0.41775677
147	0xbdc1aec7	-0.09457164
148	0x3f556386	0.83354986
149	0xc0fd46e8	-7.9149055
150	0xc0ceebee	-6.4663
151	0xbeca7551	-0.3954263
152	0xbeb7a509	-0.358681
153	0xc1221686	-10.130499
154	0xbe091b6e	-0.1338937
155	0x3f5a771a	0.85337985
156	0xbed22b00	-0.4104843
157	0x3e481f5c	0.19543213
158	0x3f337a48	0.7010846
159	0xbf8e4b51	-1.1116735
160	0x3f8b6d56	1.0892742
161	0x3f7f9eb5	0.9985154
162	0xc0cdc736	-6.4305677
163	0xc0b21de8	-5.5661507
164	0x3fa536f3	1.2907394
165	0x401ea009	2.4785178
166	0x3f6ae42d	0.9175442
167	0xbec36661	-0.38164046
168	0x3f014f8e	0.50512016
169	0x3e0b2657	0.13588844
170	0x3d9fa3ec	0.077949375
171	0x3e22daa3	0.15903716
172	0x3e4cc860	0.19998312
173	0x3ef7965b	0.483569
174	0x3d137512	0.03600032
175	0xbf21b0d2	-0.6316043
176	0x3f1de2bf	0.6167411
177	0x3e383a30	0.17990947
178	0xbc17a5c6	-0.009255832
179	0x3e60b7a5	0.21945055
180	0x3e1b002b	0.15136783
181	0xc004f7c1	-2.0776217
182	0x3eabe922	0.33576304
183	0x3e352352	0.17689255
184	0x3eab4b7a	0.33456022
185	0xbf640517	-0.89070266
186	0xbeb3373a	-0.35003072
187	0x3f6c232e	0.9224118
188	0x409f3b5c	4.975996
189	0xc037685a	-2.865744
190	0xbf1c3100	-0.6101227
191	0xbf8399ab	-1.0281271
192	0xbf2c65b9	-0.67342716
193	0xbf0a61d3	-0.5405552
194	0x3fd4e30f	1.6631793
195	0x3f12ec2d	0.57391626
196	0xc04dadd2	-3.2137341
197	0x3fbd573f	1.479225
198	0x3df9725a	0.12180014
199	0xc008711f	-2.1319044
200	0xc0499726	-3.1498504
201	0x410183b1	8.094651
202	0x4051ee8b	3.2801845
203	0xc113de5a	-9.241785
204	0xbf25e3a9	-0.64800507
205	0x3fc007fc	1.5002437
206	0xbf94df83	-1.163071
207	0x3e9723ec	0.29519594
208	0x3f04388f	0.516488
209	0x3dfe19c7	0.124072604
210	0x3ee26bad	0.44222775
211	0xbc7168a5	-0.014734422
212	0x3e8584cd	0.2607788
213	0x3e9b72c1	0.30360988
214	0x3f58c0a5	0.8466895
215	0x4084d9a6	4.1515684
216	0xbd3551ff	-0.04426765
217	0x3eade8b3	0.33966598
218	0x3fa96a59	1.323558
219	0xbe0ee229	-0.13953461
220	0xc0096092	-2.1465192
221	0x3f0e31c9	0.55544716
222	0x3ff08083	1.8789219
223	0x3ed19a57	0.40938064
224	0xbec18bf9	-0.37802103
225	0xc0435a46	-3.0523849
226	0xbdfcf130	-0.1235069
227	0x40079ede	2.1190715
228	0xbfa4bfe0	-1.2871056
229	0xbf5cbefb	-0.86228913
230	0xbfb5cd0c	-1.42032
231	0x3f62e7c6	0.8863491
232	0xbf182dc0	-0.5944481
233	0xbc07cbe4	-0.008288357
234	0xbcd0d6f9	-0.025493132
235	0xbc67f5b4	-0.014157701
236	0x3c251b0f	0.010077252
237	0xbcd09fbd	-0.025466794
238	0xbd323e6f	-0.043516573
239	0x3d356cb0	0.044293106
240	0x3ef9f3d7	0.48818848
241	0xbf4dc364	-0.8037627
242	0xbd8535da	-0.06504412
243	0xbd9d5c13	-0.076835774
244	0xbe04a3ea	-0.12953153
245	0x3b1c172d	0.0023817525
246	0xc01f3b26	-2.4879851
247	0x3e994a24	0.29939377
248	0x3f3c3090	0.735116
249	0xbde3b51e	-0.1111853
250	0x3c935401	0.017984392
251	0x3db3a72c	0.0877212
252	0xbdb27a48	-0.087147295
253	0x41004b43	8.018374
254	0xc0405710	-3.0053139
255	0x3d8821d0	0.06647074

l_lstm.weight_hh_l0 f4 [32, 8]
0	0xc04f54e9	-3.2395575
1	0x4035ac73	2.8386505
2	0x3ea2d1f5	0.3180081
3	0xc06db31a	-3.7140565
4	0xbfc99a9d	-1.5750309
5	0xbebc0611	-0.36723378
6	0xbfcf6d92	-1.6205313
7	0x3ebc2929	0.36750153
8	0xbf965b84	-1.1746678
9	0xc00c5ca6	-2.1931548
10	0xc044abf8	-3.0729961
11	0xbe09f789	-0.13473333
12	0xc02ee421	-2.732674
13	0xbda45706	-0.08024411
14	0x3f156a61	0.58365446
15	0xc0591e4f	-3.392475
16	0xbfee668b	-1.8625044
17	0x3eb35c13	0.35031185
18	0xbecb99c2	-0.39765745
19	0x3f4aafa6	0.7917427
20	0x3ef367d2	0.47540146
21	0x400b4a3e	2.1764064
22	0xbfa8426c	-1.314527
23	0x3f732ceb	0.94990414
24	0xbe2ef655	-0.17086156
25	0xbfb2983d	-1.395271
26	0x3f05eb91	0.5231257
27	0xbfa25ba3	-1.2684215
28	0x400a6c09	2.162844
29	0xbfddeb46	-1.7337425
30	0x3f8f77a6	1.1208389
31	0xc01876bf	-2.3822477
32	0x3ed994e2	0.424964
33	0x3ff6a24f	1.9268283
34	0x403afd7d	2.9217217
35	0xc0cc330b	-6.381231
36	0xbfdb36d6	-1.712611
37	0xbfebafb5	-1.8412997
38	0x40adb357	5.428142
39	0xbf37721d	-0.716585
40	0xbde17e73	-0.110104464
41	0x3dd2d878	0.102951944
42	0xbe1efad5	-0.15525372
43	0xbf856371	-1.0420972
44	0x3d8348fc	0.06410405
45	0x3ec07569	0.37589577
46	0xbd8a7a64	-0.067616254
47	0xbbe21078	-0.006898936
48	0x40047b89	2.07004
49	0x40e07dfa	7.015378
50	0x3f4302aa	0.7617594
51	0xbf9453a2	-1.1588023
52	0xc05e34e9	-3.4719794
53	0xbf5f528e	-0.87235343
54	0xbf43db4a	-0.76506484
55	0x3da791f9	0.08182139
56	0xbfbba79a	-1.4660523
57	0xc002d65e	-2.044334
58	0xbeb3352e	-0.3500151
59	0x3f239cc6	0.6391109
60	0xbe8f52ad	-0.27992764
61	0xbe8f7f72	-0.2802692
62	0xc0444796	-3.0668693
63	0xbfa50688	-1.2892618
64	0xbf331e0f	-0.6996774
65	0x40088217	2.13294
66	0x3f8a7e6b	1.081983
67	0x3fa28bdf	1.2698935
68	0x3f35b4c5	0.7097896
69	0xbeec5f45	-0.46166435
70	0xc0184416	-2.3791556
71	0xbfa2a9b4	-1.2708039
72	0x412361c7	10.211371
73	0x40a3c12e	5.1173315
74	0x3fa0bb2a	1.2557118
75	0xbfcecc33	-1.6156067
76	0x408b3167	4.3497806
77	0x3f3074bc	0.6892812
78	0xbfbd563a	-1.4791939
79	0x4102b9fa	8.170404
80	0xc016e52b	-2.3577373
81	0xc00241ec	-2.0352736
82	0xbf1e79f2	-0.61904824
83	0x3f56b933	0.8387634
84	0xbf86635d	-1.0499073
85	0xc0223cdf	-2.5349653
86	0x3da77534	0.081766516
87	0xbe9b75c9	-0.303633
88	0xbfc992bb	-1.5747904
89	0x402ed64f	2.7318304
90	0xbfae35ed	-1.3610207
91	0xbfadd2e5	-1.3579985
92	0xc0ae31bf	-5.4435725
93	0x3f5e6e4b	0.86887044
94	0x3f835afa	1.0262139
95	0x3f9e6b67	1.2376527
96	0xbf98b590	-1.1930408
97	0x40348efb	2.8212268
98	0x3e6d1f98	0.23156583
99	0xc016d282	-2.3565984
100	0x3da6a7bc	0.081374615
101	0x3f20994c	0.6273391
102	0x405ae62b	3.4202983
103	0xbf44512b	-0.7668635
104	0xbd6a94cd	-0.057270814
105	0x3ee6d555	0.45084634
106	0xbeff33bf	-0.49844167
107	0xbe20ca73	-0.15702228
108	0x3e8403db	0.2578419
109	0x3f18c844	0.5968058
110	0x3f24a527	0.643145
111	0x3ef6106d	0.48059407
112	0x3f3486f6	0.70518434
113	0xc078083e	-3.875503
114	0x3fc14a53	1.5100807
115	0x3f21413b	0.6299016
116	0xc0035e2c	-2.0526228
117	0xbe09b247	-0.13446914
118	0xbfae2bb8	-1.3607092
119	0x3f3ea815	0.7447522
120	0xc05a1359	-3.407431
121	0xc0fba9bb	-7.864469
122	0x3fe818e8	1.8132601
123	0x3dca71da	0.09884997
124	0xc0451b27	-3.0797822
125	0x3f4df7b1	0.8045607
126	0xbf2f7096	-0.6853117
127	0xbf61b780	-0.88170624
128	0xbfcc1d14	-1.5946374
129	0x402cca8a	2.699862
130	0x3fd4df45	1.6630636
131	0xbf93145a	-1.1490586
132	0x3fe1b768	1.7634096
133	0xbe7bc751	-0.24587752
134	0xc06fe6ee	-3.7484698
135	0xbf093c4a	-0.5360762
136	0xc09914e5	-4.7838006
137	0x3feb6c97	1.8392514
138	0x3e83b67e	0.25725168
139	0xbe95fab9	-0.2929285
140	0x3fbc4b73	1.4710525
141	0xbecb98e6	-0.3976509
142	0x3f1fa10e	0.62355125
143	0x3fbe5a4d	1.4871308
144	0xbe26af5a	-0.16277829
145	0xbda306b1	-0.07960261
146	0xbf119e46	-0.5688213
147	0xbef5242c	-0.4787916
148	0x3ef45093	0.47717723
149	0x3f074159	0.5283409
150	0x3da5a978	0.08088964
151	0x3ec559ae	0.38544983
152	0x3f655304	0.89579797
153	0xbfad2988	-1.3528299
154	0x3ed4c580	0.4155693
155	0x3dcf15cd	0.1011158
156	0x3f24f566	0.6443695
157	0xbe29c822	-0.16580251
158	0x3fa9a44b	1.3253263
159	0xbe012f59	-0.12615718
160	0x3e0c5e2c	0.13707799
161	0x3e77a472	0.24183825
162	0xbf519ba6	-0.81878126
163	0x3ed06d0f	0.40708205
164	0xc00aa92b	-2.1665752
165	0x3bf2c5c2	0.0074088285
166	0x3f9931ea	1.1968358
167	0x3fca0c29	1.5784961
168	0x3fb2a5c5	1.3956839
169	0x3ea004c4	0.31253636
170	0x3db18703	0.086683296
171	0x3f37be10	0.7177439
172	0x3efcb922	0.49359995
173	0x3f3416fe	0.70347583
174	0x3f78ec33	0.9723541
175	0x3f3f3b57	0.7469992
176	0x3f2c5b06	0.6732639
177	0x3eb59b56	0.35470074
178	0xc01da30b	-2.4630764
179	0x3cdf8399	0.02728443
180	0xc01c70a0	-2.444374
181	0xbe5e1107	-0.21686183
182	0xbf24d2b6	-0.6438402
183	0x40277bdd	2.616935
184	0xbe6dd3b0	-0.23225284
185	0x3d7713c6	0.06032159
186	0x3e39542f	0.1809852
187	0xbf85db9d	-1.0457646
188	0xbe266cf5	-0.16252501
189	0x3e884fcf	0.2662339
190	0x3ea40de2	0.32041842
191	0xbe9ca684	-0.3059579
192	0xc00cc4c9	-2.1995108
193	0x400ad6e6	2.1693664
194	0x3f94f255	1.1636454
195	0xbffaac0e	-1.9583757
196	0xbf86f585	-1.0543677
197	0xbe605702	-0.21908191
198	0xbeeb10f4	-0.45911372
199	0x3d171938	0.036889285
200	0xbebb4a45	-0.365801
201	0xbf8f16f4	-1.117888
202	0xbf82f5e2	-1.0231287
203	0x3f430bb9	0.7618976
204	0xc06c07cb	-3.6879756
205	0x3fa35565	1.2760435
206	0x40733140	3.799881
207	0x4068726b	3.6319835
208	0x3fe4aab0	1.786459
209	0x3f0063b8	0.5015216
210	0xbf81bcef	-1.0135783
211	0xc01cb47b	-2.4485157
212	0x3e3c5446	0.18391523
213	0x3fa8f04d	1.3198334
214	0xbfb9cffd	-1.4516598
215	0x405abbd9	3.4177153
216	0x3e36535e	0.1780524
217	0xbf32dbd8	-0.69866705
218	0xbf1cd7b9	-0.61266667
219	0xbfccae2b	-1.5990652
220	0xbe876c53	-0.26449832
221	0x3e852116	0.26001805
222	0x3f7975f5	0.97445613
223	0xc029eb71	-2.6549952
224	0xbf05a269	-0.52200943
225	0xbfd78438	-1.6837225
226	0xbfb24da8	-1.3929949
227	0x3ce8c31d	0.02841335
228	0xbf585065	-0.8449767
229	0x3f452366	0.7700714
230	0x3f40ed7b	0.75362366
231	0x40068780	2.1020203
232	0xbddf7604	-0.109111816
233	0x3f109f6a	0.56493247
234	0xbe4516e2	-0.1924701
235	0xbe9c1f91	-0.30492833
236	0x3e8eccbc	0.27890575
237	0xbdbe68a5	-0.09297303
238	0xbe3b2bb9	-0.18278398
239	0x3eecac08	0.46225
240	0xbeef1c0f	-0.46701095
241	0xbf121dca	-0.57076705
242	0x3bc8f278	0.00613242
243	0xbf2ae0f3	-0.66749495
244	0xc04772e2	-3.116387
245	0xbeaa30f9	-0.33240488
246	0xbe1da1f7	-0.15393816
247	0x3fb2a254	1.3955789
248	0xc0477cb5	-3.1169865
249	0x3ddfdbc9	0.109305926
250	0xbf1e9d64	-0.6195891
251	0xc03cefb7	-2.952131
252	0xc0387ea8	-2.8827305
253	0xbecc3e36	-0.39891213
254	0xc007e54e	-2.1233706
255	0x3f943b91	1.1580678

l_lstm.bias_ih_l0 f4 [32]
0	0x3e0161fc	0.12635034
1	0xbf916d32	-1.1361449
2	0x3f75425c	0.9580438
3	0x3d030f04	0.031996742
4	0x3d86a1ea	0.065738514
5	0x3eb5588a	0.35419112
6	0xbf020551	-0.5078936
7	0xbf119333	-0.56865233
8	0xbf95a9d8	-1.1692457
9	0xbf562f0b	-0.8366553
10	0xbf882549	-1.0636379
11	0x3f26c0bf	0.6513786
12	0x3f11ff75	0.5703042
13	0x3f3a0adc	0.7267282
14	0x3e80c771	0.25152162
15	0x3e6ee81b	0.23330729
16	0x3e29d08b	0.16583459
17	0x3f3454d4	0.7044194
18	0x3f1fe5f6	0.6246027
19	0x3ef8fdd9	0.4863117
20	0x3e5db9c3	0.21652894
21	0x3e8b23c9	0.2717574
22	0x3d27072a	0.040778317
23	0x3e18dec1	0.14928724
24	0xbedeb8ae	-0.43500274
25	0xbf7c60ac	-0.9858501
26	0x3f46115d	0.77370244
27	0x3e09d50c	0.13460177
28	0xbf90a73c	-1.1301036
29	0xbd812689	-0.06306178
30	0xbf2c68d5	-0.6734746
31	0xbf7e3892	-0.9930507

l_lstm.bias_hh_l0 f4 [32]
0	0xbd1ad678	-0.03780219
1	0xbf854bd7	-1.041377
2	0x3f278ca2	0.65448964
3	0x3e7cfc46	0.2470561
4	0x3e9d63b0	0.30740118
5	0x3e0efe89	0.13964285
6	0xbe36f3eb	-0.17866485
7	0xbe7758f4	-0.24155027
8	0xbf7d1147	-0.9885449
9	0xbf61caa7	-0.8819985
10	0xbf729319	-0.94755703
11	0x3f342691	0.7037135
12	0x3d9f0a29	0.0776561
13	0x3f0e1d81	0.5551377
14	0xbe27effd	-0.16400142
15	0xbd18c4cf	-0.037297066
16	0xbe26d01c	-0.16290325
17	0x3f107f55	0.56444293
18	0x3eb712f9	0.35756662
19	0x3ef53fbf	0.47900197
20	0x3da42654	0.08015123
21	0x3f20a4aa	0.6275126
22	0xbe00e0c2	-0.12585738
23	0x3e77ebdb	0.24211065
24	0xbec197f0	-0.37811232
25	0xbf8f1f5e	-1.1181448
26	0x3ee58dc2	0.44834715
27	0xbd174b18	-0.03693685
28	0xbf954dce	-1.1664369
29	0x3e981e1e	0.29710478
30	0xbf06626f	-0.5249395
31	0xbf209978	-0.62734175

l_lstm.weight_ih_l1 f4 [32, 8]
0	0xbff63ad8	-1.9236708
1	0x3fdcac05	1.7239996
2	0x3f0b21e8	0.5434861
3	0x3fc4979c	1.5358768
4	0x3d19cb09	0.037547145
5	0x3fdf4e7c	1.7445827
6	0xbf61e8aa	-0.8824564
7	0xc01e8de0	-2.4774094
8	0x3fcbd050	1.5922947
9	0x3fa84861	1.3147088
10	0xbc4dfaad	-0.012571973
11	0x3ebaffbd	0.36523238
12	0xbe915281	-0.28383258
13	0xbf512862	-0.81702244
14	0xbe9ed927	-0.3102505
15	0x3e2651b0	0.16242099
16	0x3f95e0cf	1.1709231
17	0xbf1be115	-0.6089032
18	0xbf35f6e2	-0.7107984
19	0x3fa8104f	1.3129977
20	0xbde88076	-0.11352627
21	0x3c06f4bf	0.008237063
22	0xbe4e31a5	-0.20136125
23	0xbf053076	-0.5202707
24	0x3f025f61	0.50926787
25	0x3f252abb	0.64518327
26	0x3f4bea9e	0.7965487
27	0x3e89ebb9	0.26937655
28	0xbe66bf93	-0.22534017
29	0xbf12ad07	-0.5729527
30	0xbf6c9d3b	-0.92427415
31	0x3f1aba6e	0.6044072
32	0x3fb35501	1.4010316
33	0x4060c2a1	3.5118792
34	0x3fa96ffc	1.32373
35	0xbdc7bb5b	-0.09752532
36	0xbeb0b817	-0.3451545
37	0x3be67687	0.0070331725
38	0xc01b5d29	-2.427561
39	0x3fc4ddb3	1.5380157
40	0x3f1b8790	0.60753727
41	0x3ede9872	0.43475682
42	0x3f8b74ce	1.0895021
43	0xbf551f91	-0.8325129
44	0x3e8f6c90	0.28012514
45	0xbe1716a1	-0.14754726
46	0xbeb5e140	-0.35523415
47	0x3f66b451	0.9011889
48	0x3fb20770	1.390852
49	0x3f9d2ca1	1.2279245
50	0xbeef39bb	-0.46723732
51	0x3fd8394a	1.6892483
52	0x3f3369b7	0.70083183
53	0x3fcbd5c1	1.5924608
54	0x3f90cc95	1.1312433
55	0xbf0b2af9	-0.54362446
56	0x3f147e46	0.5800518
57	0x3f8ae36b	1.0850652
58	0xbf41357c	-0.75472236
59	0x4004457d	2.0667412
60	0xbf2f7f59	-0.6855369
61	0xbf01da34	-0.50723577
62	0xbea1d506	-0.31607836
63	0x3fcd8d70	1.6058788
64	0xc08d0137	-4.4063983
65	0xc080bb5a	-4.02287
66	0xc01129d3	-2.2681777
67	0xc07b4a72	-3.9264188
68	0xbf1862bb	-0.5952565
69	0xbf3806f1	-0.7188559
70	0x3f542187	0.8286366
71	0x3f5b3c7f	0.85639185
72	0xbfcc0ed9	-1.5942031
73	0xbf794c38	-0.97381926
74	0xbfbb04d6	-1.4610851
75	0xbdbdf758	-0.09275693
76	0x3f2b892c	0.6700618
77	0xbf3ef9eb	-0.74600095
78	0x3e06ad42	0.1315203
79	0xbe394916	-0.18094286
80	0xc03ae96b	-2.9204967
81	0xc0121288	-2.282381
82	0xbff3ec7d	-1.9056545
83	0x3d3e6eb6	0.0464923
84	0x3eab85da	0.33500558
85	0xbf596bcd	-0.84930116
86	0x3f30e983	0.6910631
87	0x3e45fd9d	0.19335027
88	0xbcd0fc36	-0.025510889
89	0xbf879050	-1.0590916
90	0xbfc676c7	-1.5504998
91	0xbe26b8dc	-0.16281456
92	0x3ec54800	0.38531494
93	0xbf48110e	-0.78151023
94	0x3fabbf62	1.341778
95	0x3df69507	0.120401435
96	0xc079f21f	-3.905403
97	0xbf9f811b	-1.2461275
98	0x3fb61a0f	1.4226702
99	0x3fcea107	1.6142892
100	0xbd0df93b	-0.034661513
101	0x3f323081	0.6960526
102	0x3ff1a54d	1.8878571
103	0xbfe58fd0	-1.7934513
104	0x3f1f9a69	0.62344986
105	0x3f26dd0a	0.6518103
106	0xbfb3120c	-1.3989882
107	0x3e7ff7a6	0.24996814
108	0x3f354195	0.70803195
109	0x3eb58c27	0.3545849
110	0x3ecc37af	0.39886233
111	0xbeb8f102	-0.36121374
112	0xc05a0832	-3.4067502
113	0xc091ffea	-4.5624895
114	0xbff904a9	-1.9454547
115	0xc03d50c6	-2.958055
116	0xbefc31ff	-0.49256894
117	0xbf51fab9	-0.820232
118	0xbed13c76	-0.4086644
119	0xbf546622	-0.8296834
120	0x3e231cef	0.15929006
121	0xc01a6c4e	-2.4128604
122	0x40255654	2.583394
123	0x3f935de3	1.1513027
124	0x3f612176	0.8794168
125	0x3f12b79c	0.57311416
126	0x3f1178d2	0.5682498
127	0xc04667aa	-3.1000772
128	0x3ed4e25c	0.41578948
129	0x3fa7cbc4	1.3109059
130	0x3e3dc396	0.18531641
131	0x3d45e410	0.0483132
132	0xbee7f8e9	-0.4530709
133	0x3fb8fa16	1.445132
134	0x3e1825c1	0.14858152
135	0xbf54d8a7	-0.83143085
136	0xbea00ab0	-0.31258154
137	0xbe2a65fe	-0.1664047
138	0xbfb8efb6	-1.4448154
139	0xbf71149a	-0.9417206
140	0x3f06b7b3	0.5262405
141	0xbf49b5bd	-0.78792936
142	0x3e128a54	0.1431058
143	0x3f3ba3b3	0.7329666
144	0x3f1fbe9e	0.62400234
145	0x3ecc01fe	0.3984527
146	0x3fa3ef24	1.2807355
147	0x3f66b927	0.9012627
148	0xbefa70c5	-0.4891416
149	0x3f583bbd	0.84466153
150	0xbea1187f	-0.31464002
151	0xbf7b3936	-0.9813417
152	0xbe96110d	-0.29309884
153	0xbd3a37a0	-0.045463204
154	0xbfcf65ff	-1.6203002
155	0xbf3cd00f	-0.7375497
156	0x3f42c070	0.76074886
157	0xbf82d5c5	-1.0221487
158	0x3e96f916	0.29486912
159	0x3e9d39d7	0.3070819
160	0xbe87e56e	-0.26542228
161	0x3f46784d	0.77527314
162	0xbfdd237e	-1.7276456
163	0xbf1a4db5	-0.6027482
164	0x3e25d9f5	0.16196425
165	0xbf5c1566	-0.8597015
166	0xbf488d0a	-0.7834021
167	0x3f02f4aa	0.5115458
168	0x3e50cb80	0.20390129
169	0xbeabcf63	-0.3355666
170	0x3fd239d5	1.6423899
171	0x3f1099af	0.564845
172	0xbf1e72e2	-0.6189405
173	0x3f84ad83	1.0365452
174	0xbdf70b47	-0.12062698
175	0xbee961ad	-0.45582333
176	0x3e65a236	0.2242516
177	0xbf71e341	-0.94487387
178	0xbef3df60	-0.4763136
179	0xbebf18e0	-0.37323666
180	0x3f5f70d2	0.87281525
181	0xbf9904ab	-1.195455
182	0x3f85dbc4	1.0457692
183	0x3f8d08c9	1.1018306
184	0xbc241219	-0.01001408
185	0xbef55d0b	-0.4792255
186	0xbf8d9b74	-1.1063066
187	0xbf397cae	-0.7245587
188	0x3f712099	0.94190365
189	0xbf7118b7	-0.94178337
190	0x3f6918e1	0.9105359
191	0x3ed93337	0.42421886
192	0xbf283aa8	-0.657145
193	0xbfd3c80e	-1.6545427
194	0x3df296d5	0.11845175
195	0xbf329941	-0.69765097
196	0xbeacd3c5	-0.33755317
197	0x40167e45	2.3514569
198	0xbe46c4e6	-0.19411048
199	0xbffbe5dd	-1.9679524
200	0xbdb07026	-0.086151406
201	0xbf0badd8	-0.5456214
202	0xbe8748c5	-0.26422706
203	0xbe6f47bd	-0.2336721
204	0xbd4753d9	-0.048663948
205	0xbc3bb7a8	-0.011457361
206	0xbecb2dd4	-0.39683402
207	0xbdfa9ffb	-0.12237545
208	0x3f0eccbb	0.55781144
209	0xbf9cb9b3	-1.2244171
210	0xbf8ad94d	-1.0847565
211	0xbf76648f	-0.9624719
212	0xbe3ef2ec	-0.18647355
213	0xbeabe3b1	-0.33572152
214	0xbe509cb2	-0.20372275
215	0xbed28a77	-0.41121265
216	0x3fc56d7c	1.5424037
217	0x3c83e340	0.016099572
218	0xbdb72953	-0.08943429
219	0x3ee5ffe5	0.44921795
220	0xbee8e7ff	-0.454895
221	0x3c6ffe4f	0.014648034
222	0xbe06fb35	-0.13181765
223	0x3f36854b	0.7129714
224	0xbf1bdf37	-0.60887474
225	0xbe9a2d1e	-0.30112547
226	0x3e8746c7	0.26421186
227	0xbea59513	-0.32340297
228	0xbf78ff9a	-0.9726502
229	0x3ee5a069	0.44848946
230	0xbfcae491	-1.5851003
231	0x3d616492	0.055027552
232	0x406d05a8	3.7034702
233	0x3ff21d59	1.8915206
234	0xbf427961	-0.7596646
235	0xbcca215e	-0.024674114
236	0x3d278522	0.04089845
237	0x3ee95ebb	0.45580086
238	0x3ee8f490	0.45499086
239	0x3ebed3f6	0.37271088
240	0x3e21f31f	0.158154
241	0x3f0089b7	0.50210136
242	0xbf860cf8	-1.0472708
243	0xbe657374	-0.22407323
244	0xbe1b0a99	-0.15140761
245	0x3fea7ae2	1.8318751
246	0x3fffd1ee	1.998594
247	0xbeed7394	-0.46377242
248	0x400ad642	2.1693273
249	0x3f651eeb	0.895003
250	0x3d02a2db	0.031893592
251	0x3fc74a80	1.556961
252	0x3c1c0880	0.009523511
253	0x3efd6e22	0.49498087
254	0x401d6f0d	2.459903
255	0x3f1076f7	0.56431526

l_lstm.weight_hh_l1 f4 [32, 8]
0	0x3f4232c3	0.75858706
1	0x3f42ef42	0.7614633
2	0xbfcca714	-1.5988488
3	0xbe7dfa46	-0.24802503
4	0xbeadaa53	-0.3391901
5	0xbf5276c9	-0.822125
6	0x3f7e8ba3	0.9943182
7	0x3d698d95	0.05701979
8	0x3e751aff	0.2393608
9	0xbf60b4f9	-0.8777614
10	0xbeb15d24	-0.34641373
11	0xbf483bce	-0.78216255
12	0xbf8aad14	-1.0834069
13	0x3f3defc6	0.7419399
14	0xbebdfeae	-0.37108368
15	0xbf69ed8e	-0.91378105
16	0x3d33ee17	0.043928232
17	0x3c9ed276	0.019387465
18	0x3f3a3ad0	0.7274599
19	0x3b8a30c2	0.004217238
20	0xbf8321c1	-1.0244676
21	0x3e95c31c	0.2925042
22	0xbecbff66	-0.3984329
23	0x3e392ea6	0.18084201
24	0xbed46448	-0.4148276
25	0x3f4df25a	0.80447924
26	0xbf88bbef	-1.0682353
27	0x3e398cb4	0.1812008
28	0xbe622e9e	-0.22088096
29	0x3e1844d4	0.14870006
30	0x3f373eac	0.71580005
31	0x3f7ad643	0.9798319
32	0xbfce2f74	-1.6108232
33	0x4015ebb3	2.342511
34	0xc030a0f7	-2.7598245
35	0x3fae6db3	1.3627228
36	0xbf17ee78	-0.5934825
37	0xbed29385	-0.41128173
38	0x3f847c86	1.0350502
39	0x3d57a528	0.05264774
40	0xbf042546	-0.51619375
41	0x3f75f8ab	0.9608256
42	0xc012b9fb	-2.2926013
43	0x3f949eac	1.1610923
44	0xbf112cb7	-0.56708854
45	0x3e3d1242	0.18463996
46	0x3f859d68	1.0438662
47	0x3f4683bc	0.7754476
48	0xbf470bff	-0.7775268
49	0x3e552d24	0.20818001
50	0xbf4b6cc4	-0.7946284
51	0xbd87d2f8	-0.06632036
52	0xbde0f5a7	-0.109843545
53	0xbeba799b	-0.36420903
54	0xbf5259a8	-0.82168055
55	0x3f65330d	0.8953102
56	0xbfea0951	-1.8284093
57	0x4008e3ae	2.1388965
58	0xc0171af3	-2.3610198
59	0x402b1071	2.6728785
60	0x3f3799b7	0.71718925
61	0xbfaf1463	-1.3678097
62	0x3f77b6c7	0.9676327
63	0x4021eeaf	2.530193
64	0x3f887fc8	1.0663996
65	0x3eec9c44	0.4621297
66	0xbf6f8d32	-0.9357482
67	0x3ef40e68	0.4766724
68	0xbe4942a6	-0.1965433
69	0xbfd2b8b4	-1.6462617
70	0x3fad1a53	1.3523659
71	0x3fad2295	1.3526179
72	0xbee01935	-0.4376923
73	0xbe88d4b3	-0.26724777
74	0xbf101fe5	-0.5629867
75	0xbe990272	-0.29884678
76	0xbe8409d6	-0.25788754
77	0xbedaaf3c	-0.42711818
78	0x3d944792	0.072402135
79	0xbdf82725	-0.12116841
80	0x3da0ee96	0.07858007
81	0xbf309afb	-0.6898648
82	0x3f9f3549	1.2438136
83	0xbeaa083d	-0.3320941
84	0xbf6e504d	-0.9309128
85	0xbf18ad6f	-0.5963964
86	0xbdf68e07	-0.12038808
87	0x3ef77175	0.48328748
88	0x3e66d1e0	0.22540998
89	0x3ed9b71d	0.42522517
90	0xbead838f	-0.33889434
91	0xbead4e22	-0.33848673
92	0xbe101f4d	-0.1407444
93	0x3e6a86dc	0.22903007
94	0xbe0cf908	-0.13766873
95	0xbe732daf	-0.23747896
96	0xbe36b2e2	-0.17841676
97	0x3f10373d	0.56334287
98	0xbf67f95e	-0.9061488
99	0xbef1b5cd	-0.47209015
100	0xbf49022c	-0.7851894
101	0x3e929164	0.2862655
102	0x3ee9c722	0.4565974
103	0x3e48d62f	0.19612955
104	0x3cf71422	0.030160967
105	0x3ed477af	0.4149756
106	0xbf40d5ff	-0.7532653
107	0xbe1715ad	-0.14754362
108	0xbbbdd949	-0.0057937247
109	0x3f77c051	0.96777827
110	0x3f31ded8	0.6948066
111	0xbe5c821f	-0.21534012
112	0xbdcce03c	-0.10003707
113	0x3d49802d	0.049194504
114	0x3bb9b6ff	0.005667567
115	0xbec39e96	-0.3820693
116	0xbf26ef24	-0.6520865
117	0xbea2d23a	-0.31801015
118	0xbfb5fea0	-1.421833
119	0x3fbc9d55	1.4735514
120	0x3fd98208	1.6992807
121	0xbfe95eab	-1.8232015
122	0x3fb5efc8	1.42138
123	0xc025cfea	-2.590815
124	0xc0163a71	-2.347317
125	0x402448c5	2.5669415
126	0xbfb776b9	-1.4333106
127	0xbfbc0a3e	-1.4690626
128	0xc05a3d1f	-3.4099805
129	0xbd85b4cd	-0.06528626
130	0xbf5827b8	-0.84435606
131	0xbf753a2b	-0.9579188
132	0xbf5ed6b4	-0.8704636
133	0x3f6397a0	0.88903236
134	0xbe128539	-0.14308633
135	0xc022d2ce	-2.5441165
136	0x3f6106b2	0.8790084
137	0xbfe5dc6b	-1.7957891
138	0x3f5a2256	0.8520864
139	0xbd755d26	-0.059903286
140	0xbf66ff95	-0.9023374
141	0xbf4ac27e	-0.7920302
142	0xbf66ae0e	-0.90109336
143	0xbf015082	-0.5051347
144	0x3cb74814	0.022373237
145	0x3f1018ea	0.56288016
146	0xbfd3f69e	-1.6559637
147	0x3e4e5f78	0.20153606
148	0xbd1c84d0	-0.038212597
149	0xbec4f8ab	-0.3847097
150	0xbb3a8357	-0.0028459632
151	0xbb77180c	-0.0037703542
152	0x3f4b43c7	0.79400295
153	0xbf93c4b9	-1.154441
154	0x3fb49663	1.4108394
155	0xbfe48b4c	-1.785501
156	0xbfa07d39	-1.2538215
157	0x3ebfe72a	0.37481052
158	0xbfac2444	-1.3448567
159	0xbfa9f74c	-1.3278594
160	0x3fabfcdf	1.3436545
161	0x3f46a6a0	0.77598
162	0x3effdc1f	0.49972627
163	0x3e3d0e1d	0.18462415
164	0xc036d68e	-2.8568454
165	0xbf94dd51	-1.163004
166	0xbf7d765b	-0.9900872
167	0xbf3f6ab8	-0.74772215
168	0xbfd3ab2f	-1.6536616
169	0x3fde6b5f	1.7376517
170	0xbfa988e4	-1.3244901
171	0x3f936163	1.1514095
172	0x3fd6165b	1.6725572
173	0xbfe7c2ed	-1.8106362
174	0x3fc74145	1.5566794
175	0x3f956f9a	1.1674683
176	0x3f8a5a4a	1.0808804
177	0x3eb0f2bb	0.3456019
178	0x3f8319d8	1.0242262
179	0x3f9d809c	1.2304873
180	0x3ecd6f6a	0.40124065
181	0xbec87feb	-0.39160094
182	0xc05860f6	-3.380918
183	0x3fffac49	1.9974452
184	0x3fbfab71	1.4974195
185	0xbf06e4e3	-0.52693003
186	0x3f8b8b45	1.0901877
187	0xbf53ba7c	-0.8270643
188	0xbf2217b5	-0.63317424
189	0xbe35e57f	-0.17763327
190	0xbff22726	-1.8918197
191	0xc010565c	-2.255271
192	0x3f59e8d3	0.85120887
193	0x3eb0ad37	0.34507152
194	0xbfc71290	-1.555254
195	0xbcf3523d	-0.0297023
196	0xbf2bc61b	-0.6709916
197	0xbfac50dd	-1.3462178
198	0x3eaae300	0.33376312
199	0xbea123c2	-0.31472594
200	0x3e844f28	0.2584164
201	0xbfa2e40e	-1.2725847
202	0xbd58901a	-0.0528718
203	0xbf48e1d0	-0.7846956
204	0xbfb30114	-1.3984704
205	0xbe25a763	-0.16177134
206	0xbd4b1113	-0.04957683
207	0x3da95528	0.082681954
208	0x3f4e55eb	0.8059985
209	0xbf26acfd	-0.6510771
210	0x3f45a5cd	0.77206117
211	0xbe83a2cf	-0.2571015
212	0xbfa0859f	-1.2540778
213	0xbebf50b7	-0.37366268
214	0xbda2e354	-0.07953516
215	0x3f21f7f7	0.6326899
216	0x3ec2067b	0.3789557
217	0x3eb58940	0.35456276
218	0xbf2f68ae	-0.68519104
219	0xbc8ead52	-0.01741663
220	0xbf3e51be	-0.7434348
221	0x3dcca7ac	0.09992918
222	0x3eb931ca	0.361708
223	0x3f3d3484	0.7390826
224	0xbff3432c	-1.9004874
225	0x3fbbd364	1.4673886
226	0xbfb87204	-1.4409795
227	0x3f56bcb4	0.8388169
228	0x3f8c0b58	1.0940962
229	0x3bdf5689	0.0068157357
230	0x3f98b890	1.1931324
231	0xbecdb5d0	-0.40177774
232	0x3f331855	0.69959
233	0x3ea3aa38	0.31965804
234	0xbfa45322	-1.283787
235	0xbcc9dab8	-0.024640426
236	0xbf70a406	-0.9400028
237	0x3e0e3a9c	0.13889545
238	0xbe5bd9cd	-0.21469803
239	0x3e7c3767	0.2463051
240	0xbf7f72cd	-0.9978455
241	0x3d032a6c	0.03202288
242	0xbf06821e	-0.52542293
243	0x3df206ee	0.11817728
244	0x3df29f41	0.118467815
245	0xbeb270bb	-0.34851632
246	0xbfa04d45	-1.2523581
247	0xbf4ebf3b	-0.80760545
248	0xc023e63b	-2.5609272
249	0x400e6c18	2.2253475
250	0xbff549af	-1.9163111
251	0x3fd0cc36	1.631232
252	0x3f8ec4e0	1.1153831
253	0xbf246b23	-0.6422598
254	0x3f6408be	0.8907584
255	0x3f85fef7	1.0468434

l_lstm.bias_ih_l1 f4 [32]
0	0xbf3c8fc8	-0.7365689
1	0xbf57e857	-0.843389
2	0xbed50571	-0.41605714
3	0xbf02867f	-0.50986475
4	0xbf6a69d5	-0.91567737
5	0xbf51b7c8	-0.8192105
6	0xbf5638ec	-0.83680606
7	0xbf87186d	-1.0554329
8	0xbe97792e	-0.2958464
9	0x3f249fee	0.64306533
10	0x3dca24cd	0.098703004
11	0x3eb2a8a2	0.34894282
12	0x3e4e8791	0.20168902
13	0x3fa32a5d	1.2747303
14	0x3db0fd3b	0.0864205
15	0xbe8f1b92	-0.27950722
16	0xbe98d811	-0.29852346
17	0xbc337b5a	-0.010954702
18	0xbeacc621	-0.3374491
19	0x3e0a0996	0.13480219
20	0x3ca2e7ed	0.019885981
21	0xbd58e1ea	-0.052949823
22	0x3e23779a	0.15963593
23	0xbe83c758	-0.25738025
24	0xbe484289	-0.19556631
25	0xbf536c50	-0.82587147
26	0xbf84f098	-1.0385923
27	0xbe804093	-0.25049266
28	0xbdb434bf	-0.08799123
29	0xbd8879f3	-0.06663885
30	0xbe81c3d0	-0.25344706
31	0xb8a864c0	-8.0296304e-05

l_lstm.bias_hh_l1 f4 [32]
0	0xbf3cee7e	-0.7380141
1	0xbf4311cc	-0.7619903
2	0xbf32d2a4	-0.6985266
3	0xbf578255	-0.84183246
4	0xbf6491fb	-0.8928525
5	0xbf891731	-1.0710202
6	0xbf788e3b	-0.97092026
7	0xbf7ab0ca	-0.9792601
8	0xbd08fa09	-0.033441577
9	0x3f3f54a0	0.747385
10	0x3e0d2755	0.13784535
11	0x3f13ed29	0.5778375
12	0xbe9b135a	-0.30288202
13	0x3f47f689	0.7811056
14	0x3cc77d1c	0.024351649
15	0xbefde0a4	-0.4958545
16	0x3d3062ff	0.04306316
17	0x3e4fe3e9	0.20301785
18	0x3e1ad56f	0.15120481
19	0x3d852e4b	0.0650297
20	0x3e258887	0.16165362
21	0xbde84cf5	-0.113428034
22	0xbcb373aa	-0.021905739
23	0x3eb4fe69	0.3535035
24	0xbf08649c	-0.5327852
25	0xbeba749c	-0.3641709
26	0xbf3413db	-0.703428
27	0xbedae42b	-0.42752203
28	0xbc831db1	-0.016005369
29	0xbb417ee5	-0.0029525098
30	0xbf135666	-0.5755371
31	0x3e4edb2e	0.20200798

l_linear.weight f4 [1, 8]
0	0xbee65237	-0.449846
1	0x3ecbcbfd	0.39804068
2	0xbed11722	-0.4083796
3	0x3ed77e0c	0.42088354
4	0x3edc9aed	0.4308695
5	0xbef13401	-0.47109988
6	0x3eeec546	0.46634883
7	0x3ecd0892	0.400456
