data/datasets/quebec_neighborhood_with_demand_response_set_points/resstock-amy2018-2021-release-1-430942.pth (torch, 817598 bytes, 39 tensors)

l_lstm.weight_ih_l0 f4 [224, 12]
0.15211576 -0.04391076 0.029778635 -0.046660814 0.26495638 -0.02268142 0.09830855 -0.06178766
-0.009322629 0.022772485 0.15972605 0.0060701133 -0.057706833 0.073304586 -0.100839816 0.023686029
0.022353923 -0.15721582 0.042119946 0.06381239 -0.0133495135 -0.07026543 -0.1866634 -0.113658205
0.45602918 0.24853665 0.11827802 0.16566478 0.16396134 -0.10904854 0.33168218 0.008517125
0.06955271 0.20155433 0.092579246 0.1321749 -0.33467263 0.001205248 0.17021462 -0.03915535
-0.047357265 0.0641357 0.040563036 0.029413404 0.21413276 0.034161583 -0.08043897 0.13878307
-0.31124023 -0.52845204 -0.032357708 -0.0735399 -0.097536236 0.010511925 -0.17734084 -0.010286221
-0.10491545 -0.088875435 -0.20831871 -0.03268071 0.0046365825 0.060796946 0.03892896 -0.029655838
0.03518882 0.051424075 0.09909212 0.088637725 -0.06432867 0.056335382 0.010526133 -0.02172761
0.0031366197 0.05615994 0.0061826888 -0.011052792 0.0131809255 0.0049284403 -0.052703664 -0.18233377
-0.04883151 0.12562263 0.15257652 -0.030946335 -1.08145 -0.85368097 -0.13753147 -0.042087384
-0.20344158 0.07208079 -0.07706494 0.17228934 0.36434573 0.0744637 -0.11753181 -0.26008508
-0.13382882 0.013812718 0.031246418 -0.12138613 0.010308545 -0.12614761 0.0627312 0.041852456
-0.13657552 -0.14645876 -0.011593525 -0.075489506 -0.13674158 0.014679913 -0.17861992 0.022450672
-0.3380934 -0.052488904 0.15640152 -0.026779884 0.059801016 0.070658766 0.036417924 -0.30731377
-0.034198843 0.0659119 -0.18924427 -0.11773036 -0.19472429 0.028398775 0.008794828 0.09553224
-0.0010614785 -0.038695525 0.082961015 -0.405265 -0.023974923 -0.057868183 0.049664423 0.055748224
-0.1085883 -0.0045995186 0.1542477 -0.006769928 0.09743242 0.02736164 0.06638284 -0.14096428
0.0830515 0.24538958 0.114953846 0.13489923 0.0005925642 0.29643232 0.16895613 0.16899268
0.17853843 0.09272027 0.2202442 0.23406607 -0.13317645 -0.14975667 0.1058861 0.0031750118
-0.07245533 -0.12528692 -0.086963296 0.0036407039 -0.11320655 -0.15141839 -0.09718405 -0.015834192
-0.036587 -0.036239013 -0.02533002 0.009363896 0.031790752 -0.15978794 -0.012440367 -0.14164466
-0.11778038 0.0844852 -0.11994074 0.032030813 0.13935998 0.2631359 0.02109088 0.12672183
0.015828134 -0.067368 -0.009837274 -0.06484392 0.06650597 -0.0030054366 0.0031439306 0.12776117
-0.11878944 0.019602928 -0.089707516 0.03601975 0.040312257 -0.13944279 0.05024713 0.007962705
-0.15665096 -0.002540201 0.07462625 0.074156955 -0.04079914 0.086714976 0.057113398 0.01659716
-0.112338334 -0.040530294 0.19178882 0.05558501 0.061041243 0.06800261 -0.038389087 0.13843931
-0.06102099 -0.22040091 -0.048916135 -0.05759508 -0.05489829 -0.03800456 -0.24445195 -0.09777318
0.07178796 -0.16273068 -0.002566582 -0.12781943 -0.2003737 -0.075446844 -0.20508024 -0.07770773
0.04334996 -0.18679085 -0.1311865 0.11527721 0.0117656225 0.0066465563 0.091329016 -0.063770555
0.14563876 -0.024541598 -0.033708267 -0.12463412 0.110415466 0.14691973 -0.04370821 0.04433344
-0.01005893 0.08822854 0.037349615 0.100062296 0.04945442 0.017668001 -0.16573067 -0.14108254
00000000: 3cc4 1b3e c5db 33bd 53f2 f33c 691f 3fbd
00000010: 5da8 873e 63ce b9bc fe55 c93d 0f15 7dbd
00000020: f1bd 18bc 5d8d ba3c 3a8f 233e cde7 c63b
00000030: 005e 6cbd b720 963d 1b85 cebd 3409 c23c
00000040: 931f b73c 2ffd 20be f785 2c3d 12b0 823d
00000050: ebb7 5abc 52e7 8fbd b124 3fbe a2c5 e8bd
00000060: a87c e93e 6480 7e3e bf3b f23d 07a4 293e
00000070: 7be5 273e d754 dfbd 3fd2 a93e 698b 0b3c
00000080: a771 8e3d 4264 4e3e 309a bd3d db58 073e
00000090: 365a abbe 69f9 9d3a be4c 2e3e 5c61 20bd
000000a0: b1f9 41bd 9459 833d 6d25 263d 61f4 f03c
000000b0: 9e45 5b3e 04ed 0b3d 30bd a4bd 261d 0e3e
000000c0: e15a 9fbe a248 07bf 8489 04bd 169c 96bd
000000d0: 14c1 c7bd 363a 2c3c d698 35be 8a87 28bc
000000e0: e9dd d6bd 5304 b6bd 8051 55be 35dc 05bd
000000f0: 79ee 973b 3806 793d f973 1f3d cdf0 f2bc
00000100: 2722 103d 0da2 523d cff0 ca3d b287 b53d
00000110: c0be 83bd eebf 663d cd75 2c3c 1afe b1bc
00000120: bf8f 4d3b f707 663d 2798 ca3b c516 35bc
00000130: cff4 573c c17e a13b ccdf 57bd b4b5 3abe
00000140: 8d03 48bd 38a3 003e 053d 1c3e 2b83 fdbc
00000150: f46c 8abf d68a 5abf 0dd5 0cbe d263 2cbd
00000160: fd52 50be 189f 933d 39d4 9dbd 9e6c 303e
00000170: 868b ba3e 6d80 983d 85b4 f0bd df29 85be
00000180: 6c0a 09be bd4e 623c 7df8 ff3c 4b99 f8bd
00000190: 2ce5 283c d72c 01be 3779 803d 7b6d 2b3d
000001a0: 74da 0bbe 49f9 15be c5f2 3dbc 3e9a 9abd
000001b0: fc05 0cbe 0584 703c 24e8 36be 79ea b73c
000001c0: 941a adbe 9bfe 56bd b827 203e 7d61 dbbc
000001d0: e9f1 743d 8bb5 903d f62a 153d 3b58 9dbe
000001e0: 1614 0cbd d1fc 863d 40c9 41be 9d1c f1bd
000001f0: ce65 47be 8ca4 e83c 2f18 103c 68a6 c33d
00000200: 4f21 8bba 337f 1ebd 77e7 a93d e57e cfbe
00000210: 0f67 c4bc 3007 6dbd ec6c 4b3d 4058 643d
00000220: 8b63 debd 8fb7 96bb 1cf3 1d3e 46d6 ddbb
00000230: a68a c73d 8525 e03c baf3 873d f158 10be
00000240: e816 aa3d 6847 7b3e ec6c eb3d 0623 0a3e
00000250: 4f56 1b3a fac5 973e d602 2d3e 6b0c 2d3e
00000260: c7d2 363e 20e4 bd3d b287 613e 04af 6f3e
00000270: 685f 08be d059 19be d0da d83d dc13 503b
00000280: 7663 94bd 374b 00be d019 b2bd e098 6e3b
00000290: d6d8 e7bd 6c0d 1bbe 6e08 c7bd b5b6 81bc
000002a0: 40dc 15bd 5c6f 14bd e780 cfbc 076b 193c
000002b0: 0537 023d 739f 23be aed2 4bbc 4c0b 11be
000002c0: d736 f1bd 9406 ad3d 7ea3 f5bd be32 033d
000002d0: 62b4 0e3e c0b9 863e c8c6 ac3c 5ec3 013e
000002e0: 01aa 813c 3cf8 89bd 852c 21bc e4cc 84bd
000002f0: 4834 883d dcf6 44bb 670a 4e3b d3d3 023e
00000300: e147 f3bd 5296 a03c 93b8 b7bd 7289 133d
00000310: 771e 253d 17ca 0ebe efcf 4d3d 0176 023c
00000320: 1c69 20be 8079 26bb a6d5 983d 9adf 973d
00000330: 001d 27bd 9f97 b13d bdef 693d c4f6 873c
00000340: a411 e6bd 1803 26bd 4a64 443e 1cad 633d
00000350: 6206 7a3d f444 8b3d e03d 1dbd 09c3 0d3e
00000360: 25f1 79bd c7b0 61be 495c 48bd d2e8 6bbd
00000370: 08dd 60bd abaa 1bbd 9d51 7abe 4e3d c8bd
00000380: 9105 933d dfa2 26be 1a34 28bb 19e3 02be
00000390: c32e 4dbe e083 9abd 8e00 52be 3b25 9fbd
000003a0: ba8f 313d 1a46 3fbe c155 06be 7516 ec3d
000003b0: 99c4 403c 5bcb d93b b50a bb3d 239a 82bd
000003c0: 5422 153e 760b c9bc ae11 0abd 2c40 ffbd
000003d0: 8121 e23d 2072 163e 6107 33bd fb96 353d
000003e0: 36ce 24bc 2ab1 b43d e9fb 183d 76ed cc3d
000003f0: b890 4a3d 7cbc 903c 4db5 29be f177 10be

l_lstm.weight_hh_l0 f4 [224, 56]
0.0054174503 0.018455151 -0.07001554 0.15242982 -0.031083887 0.17066963 -0.026041029 -0.080277674
-0.051712062 -0.15507117 0.17611936 0.011167775 -0.16100259 -0.0017587102 0.012613692 0.10250721
-0.122085184 0.1840268 0.0214572 -0.039202668 0.014394719 -0.09480616 0.018490622 -0.083654135
0.10665734 0.11428428 -0.099985525 -0.14265457 0.062494297 -0.013449767 0.055388138 -0.11134669
-0.10984823 -0.09726835 -0.069516845 0.0026563501 0.25965482 0.14572008 0.14209779 -0.2431197
-0.018913714 -0.08554663 0.035661273 0.09773842 -0.11364696 -0.059909295 0.0068626697 0.0013626427
0.028944427 -0.07044007 0.076169915 0.020265073 0.12894537 0.12186046 0.023551853 -0.09105346
-0.12556455 0.012154044 -0.11425404 -0.0033102257 -0.06418897 -0.049225677 0.08066875 -0.2372359
0.06429358 -0.24533992 0.21034025 0.0029598537 -0.030996965 -0.06985596 -0.019229548 0.03545762
0.08836919 0.026136134 -0.019487975 -0.06731702 -0.09808295 0.1263444 0.12130476 -0.057130206
-0.06322637 0.010908727 0.16092226 -0.081147 -0.15050343 0.08926603 -0.10347045 -0.09942898
0.10191604 -0.078545585 -0.04516551 -0.16645102 0.19759946 0.14483142 0.06580681 -0.20103164
-0.06459587 0.15619683 -0.0057546105 -0.006010326 0.056107044 0.0010922865 -0.052025046 -0.14638156
-0.03456542 -0.11505282 0.053830184 0.043356836 -0.021733725 0.09778203 0.010272468 0.0357895
-0.1339389 -0.12854989 0.11302613 0.010243515 -0.18537682 0.07692656 -0.05867164 0.42421445
0.1455724 0.09263504 -0.030110618 -0.16709541 0.09154672 0.1968065 0.18662149 -0.1029133
0.02580593 -0.1205693 -0.12754865 0.011877499 -0.012853063 -0.13077804 -0.08781794 -0.15130048
-0.13098143 0.02488174 0.002238502 0.091826476 0.037207086 -0.027335647 0.011533649 -0.051852427
-0.026876958 0.0904944 -0.16376817 0.21083498 0.09870664 0.47827333 -0.12474215 0.33078685
0.2718716 -0.24719444 0.013219663 -0.038911417 -0.18633604 -0.15095872 -0.046952084 0.18214856
0.16455127 -0.10585756 0.166847 -0.12146494 -0.056980483 0.043449845 -0.10011554 -0.18876249
-0.022427304 -0.13067466 0.026897896 -0.0019292994 -0.04328742 0.2582132 0.09785737 0.049912654
0.058859963 0.060447752 0.22681396 -0.15529081 -0.14116082 -0.008688843 0.0866904 -0.06431272
-0.063487396 -0.096883275 -0.12625688 -0.12003721 0.0587844 0.00022584702 0.21091932 -0.06863973
0.13368337 0.13796054 -0.06700053 -0.16966261 -0.13864729 -0.06720583 0.17528303 -0.07414785
-0.06592389 0.074165195 0.013866342 -0.15020528 0.30260405 0.3810424 0.112346984 0.35295638
-0.052189287 -0.1313876 0.029228212 -0.05026827 -0.20126031 -0.12352516 -0.20779239 -0.059614263
0.15162992 0.1524742 0.22072789 -0.12787718 -0.06284642 0.25657132 0.09759765 -0.16542906
0.0062076775 0.08708391 0.021875642 0.07754398 0.084222175 -0.11385492 0.0005941627 0.009750457
0.02231791 -0.07117862 0.049754284 0.09147409 0.14598571 -0.025482364 -0.10392367 0.059043113
-0.038081653 -0.001283235 -0.05984306 0.0959357 -0.03234782 0.17585297 -0.016422525 0.07721719
0.11618157 0.08916522 -0.029971182 -0.010402131 0.042216513 0.028070277 -0.10900938 0.05123159
00000000: de84 b13b 422f 973c 4f64 8fbd 9016 1c3e
00000010: a3a3 febc 05c4 2e3e ff53 d5bc 9f68 a4bd
00000020: 07d0 53bd faca 1ebe a258 343e 0bf9 363c
00000030: dddd 24be 8684 e6ba a9a9 4e3c 4def d13d
00000040: cc07 fabd 8571 3c3e 03c7 af3c fa92 20bd
00000050: d4d7 6b3c bb29 c2bd a579 973c dc52 abbd
00000060: 2a6f da3d e00d ea3d 36c5 ccbd 0a14 12be
00000070: 05fa 7f3d 695c 5cbc acde 623d bc09 e4bd
00000080: 1cf8 e0bd a134 c7bd d95e 8ebd 2916 2e3b
00000090: 7af1 843e a537 153e 1582 113e 5ff4 78be
000000a0: eff0 9abc 1233 afbd 8e11 123d 152b c83d
000000b0: bdbf e8bd 7363 75bd 3fe0 e03b b49a b23a
000000c0: dd1c ed3c e242 90bd f9fe 9b3d f002 a63c
000000d0: 410a 043e fa91 f93d d1ef c03c 3d7a babd
000000e0: fe93 00be c121 473c 06fe e9bd 5ff0 58bb
000000f0: 8275 83bd dda0 49bd a835 a53d f8ed 72be
00000100: 5aac 833d 633a 7bbe 6f63 573e 1bfa 413b
00000110: 59ed fdbc a410 8fbd 4987 9dbc 023c 113d
00000120: e8fa b43d 721b d63c 3fa5 9fbc 81dd 89bd
00000130: b7df c8bd 6d60 013e a16e f83d 5d01 6abd
00000140: d47c 81bd 84ba 323c cec8 243e 6630 a6bd
00000150: 921d 1abe 1cd1 b63d 51e8 d3bd 6ca1 cbbd
00000160: 5bb9 d03d 82dc a0bd 78ff 38bd 2372 2abe
00000170: 8357 4a3e b04e 143e b9c5 863d 3ddb 4dbe
00000180: d74a 84bd 10f2 1f3e 2c91 bcbb 45f2 c4bb
00000190: 80d0 653d 0e2b 8f3a 3718 55bd 0ce5 15be
000001a0: 7894 0dbd d0a0 ebbd 0a7d 5c3d f096 313d
000001b0: ed0a b2bc f241 c83d db4d 283c 0398 123d
000001c0: 4727 09be 95a2 03be 3e7a e73d 6ad4 273c
000001d0: 6cd3 3dbe ac8b 9d3d ac51 70bd a332 d93e
000001e0: ee10 153e 71b7 bd3d 8baa f6bc 0f1b 2bbe
000001f0: d97c bb3d a587 493e b419 3f3e 35c4 d2bd
00000200: f566 d33c 0aed f6bd 1d9c 02be d799 423c
00000210: a795 52bc aeea 05be e4d9 b3bd 83ee 1abe
00000220: ff1f 06be cad4 cb3c d5b3 123b 850f bc3d
00000230: 7566 183d 02ef dfbc a1f7 3c3c 3663 54bd
00000240: 112d dcbc 2155 b93d d8b2 27be 20e5 573e
00000250: b526 ca3d 3ee0 f43e d078 ffbd e55c a93e
00000260: c132 8b3e 8a20 7dbe 4997 583c 9461 1fbd
00000270: e0ce 3ebe ec94 1abe d450 40bd 2785 3a3e
00000280: 2180 283e d9cb d8bd f1d9 2a3e 9cc2 f8bd
00000290: 5e64 69bd 77f8 313d 6009 cdbd f44a 41be
000002a0: 77b9 b7bc 94cf 05be fa58 dc3c 8ce0 fcba
000002b0: 264e 31bd 8534 843e 7269 c83d 3671 4c3d
000002c0: 2517 713d 1098 773d eb41 683e 8e04 1fbe
000002d0: 768c 10be a65b 0ebc bd8a b13d 63b6 83bd
000002e0: ae05 82bd bd6a c6bd 7c49 01be 12d6 f5bd
000002f0: e9c7 703d 59d1 6c39 3cfb 573e fd92 8cbd
00000300: 4be4 083e 8745 0d3e 9337 89bd 09bc 2dbe
00000310: 8ef9 0dbe 36a3 89bd 657d 333e d4da 97bd
00000320: 1b03 87bd ece3 973d a72f 633c 6acf 19be
00000330: ebee 9a3e fd17 c33e 2d16 e63d b3b6 b43e
00000340: 6fc4 55bd 798a 06be 0170 ef3c 1ae6 4dbd
00000350: 2f17 4ebe c2fa fcbd 87c7 54be 162e 74bd
00000360: e044 1b3e 3222 1c3e 7e06 623e 3cf2 02be
00000370: a0b5 80bd 515d 833e 47e1 c73d 3c66 29be
00000380: c669 cb3b 0d59 b23d 8c34 b33c 61cf 9e3d
00000390: ad7c ac3d c52c e9bd 95c1 1b3a 61c0 1f3c
000003a0: 0dd4 b63c 19c6 91bd 26cb 4b3d c556 bb3d
000003b0: 477d 153e 64c0 d0bc efd5 d4bd 31d7 713d
000003c0: 82fb 1bbd 3932 a8ba ff1d 75bd f079 c43d
000003d0: 267f 04bd cd12 343e 8888 86bc 0c24 9e3d
000003e0: 9af0 ed3d 419c b63d 2086 f5bc b36d 2abc
000003f0: 39eb 2c3d a3f3 e53c 4f40 dfbd 37d8 513d

l_lstm.bias_ih_l0 f4 [224]
0.104576014 0.105601415 0.29490554 0.13996857 -0.16151129 0.13251178 0.10688326 0.18892281
0.028026627 0.13521257 -0.036936816 -0.009943104 0.17564702 0.07379254 -0.102271274 -0.023385169
-0.11240101 0.013418218 0.002261702 0.0046972833 -0.0021298248 -0.054399695 0.04792336 -0.09294453
0.023417551 -0.06233315 0.044282913 0.057332356 -0.17290246 -0.082965 -0.02821517 -0.12170147
0.019568814 0.024877263 -0.02437962 0.059640616 0.17656687 -0.1731264 0.13537255 0.037738603
0.13836709 -0.09639956 0.0065322467 -0.113376565 -0.017700668 -0.081652924 -0.055835083 0.101313226
-0.05246637 -0.026486393 -0.075135656 0.08614713 0.13547757 0.09748665 -0.014031218 -0.008828555
0.058145016 0.0311269 -0.08742579 -0.016892347 -0.14167438 0.014682501 0.079187 -0.010735065
-0.070673205 0.124943845 -0.03029791 -0.0694645 0.07555068 -0.095973514 0.014569181 0.09975761
-0.028448174 -0.11054059 -0.1432041 -0.15595564 -0.14415947 0.10143401 0.006284505 0.11241449
-0.021064283 -0.043356244 -0.176079 -0.05948043 -0.03276946 -0.115049355 -0.08001375 0.05670651
0.06797067 -0.0317449 -0.052335836 0.098924115 0.04714658 -0.08934698 0.07600905 -0.02838453
0.1440588 0.13462542 -0.04100103 -0.121784635 -0.03709527 -0.07448736 -0.13242586 0.037427682
-0.085059516 -0.13201146 -0.07892494 -0.12484796 0.09266631 -0.014676584 0.029714957 0.0779835
-0.060381915 0.04092519 0.08519854 0.0017586142 0.0075665493 -0.043681312 0.15152036 0.2201931
0.0063895825 0.16647565 -0.0060049384 -0.19621757 0.09538619 0.108314045 0.08778607 -0.01119936
0.047249652 -0.13487469 -0.08263994 0.123075925 -0.0886547 -0.18675223 -0.10475995 -0.092455804
-0.101452805 0.07167638 0.039091658 -0.06540601 0.012468313 -0.088354334 0.20449793 -0.119304806
-0.11608189 -0.17605619 -0.03513315 0.2557653 -0.11498655 -0.019532353 -0.055055276 0.091069356
0.2584903 -0.0877136 -0.059330888 -0.01699351 -0.096860245 -0.068033874 0.042010207 0.18403755
-0.12359986 0.07472139 -0.11082763 -0.09748479 -0.09776598 -0.18261695 -0.14830418 -0.058463436
0.12245222 -0.13000597 0.2975478 0.10003486 -0.041363984 0.14995745 0.018491963 -0.04998263
-0.117637925 0.11067064 0.0880517 0.13189368 0.16497238 -0.118388206 -0.01861518 -0.04805689
-0.15747108 0.12531915 0.058412336 0.033498336 0.04304373 0.029115105 0.13263613 -0.09945619
0.028534818 -0.06798556 -0.04677349 0.09674792 -0.0085144425 -0.07119179 -0.08938842 0.071006365
-0.012497195 -0.089064844 -0.06579253 0.03588832 0.008184928 -0.1046157 0.06014151 -0.029654544
-0.0046400335 -0.032909643 -0.15205467 0.017973706 -0.0224166 0.03046309 -0.17071286 0.11892471
0.045648456 -0.10674027 -0.118458875 0.076113015 0.17455304 0.1253467 0.03424359 -0.057125736
00000000: f32b d63d 8e45 d83d dcfd 963e ec53 0f3e
00000010: 3763 25be 2bb1 073e 9ce5 da3d fb74 413e
00000020: 1998 e53c 2a75 0a3e 0f4b 17bd 67e8 22bc
00000030: d0dc 333e 8b20 973d 9a73 d1bd 4192 bfbc
00000040: 8032 e6bd 16d8 5b3c 1039 143b abeb 993b
00000050: 8894 0bbb 37d2 5ebd 494b 443d b459 bebd
00000060: 2ad6 bf3c 0c51 7fbd 0062 353d 55d5 6a3d
00000070: 580d 31be 8ee9 a9bd 8023 e7bc 9f3e f9bd
00000080: c74e a03c 67cb cb3c c5b7 c7bc b849 743d
00000090: f2cd 343e 0c48 31be 1a9f 0a3e cb93 1a3d
000000a0: 1ab0 0d3e 226d c5bd 750c d63b f931 e8bd
000000b0: fe00 91bc a639 a7bd 54b3 64bd 4f7d cf3d
000000c0: fae6 56bd fef9 d8bc b9e0 99bd e86d b03d
000000d0: a2ba 0a3e 15a7 c73d 32e3 65bc a5a5 10bc
000000e0: 7829 6e3d d7fd fe3c 4b0c b3bd d261 8abc
000000f0: 1713 11be df8e 703c cb2c a23d 20e2 2fbc
00000100: 1dbd 90bd 8fe2 ff3d 5333 f8bc 6743 8ebd
00000110: 51ba 9a3d c38d c4bd 93b3 6e3c b84d cc3d
00000120: 250c e9bc 1b63 e2bd 18a4 12be d6b2 1fbe
00000130: 8a9e 13be a2bc cf3d 40ee cd3b 9139 e63d
00000140: 018f acbc 5196 31bd 0e4e 34be c0a1 73bd
00000150: 4539 06bd ff9e ebbd 40de a3bd 1645 683d
00000160: 3534 8b3d f106 02bd 1a5e 56bd ba98 ca3d
00000170: c61c 413d 8dfb b6bd a2aa 9b3d ad86 e8bc
00000180: 2684 133e 3fdb 093e b2f0 27bd 396a f9bd
00000190: 36f1 17bd d48c 98bd a59a 07be c54d 193d
000001a0: af33 aebd 032e 07be 66a3 a1bd 4ab0 ffbd
000001b0: d6c7 bd3d 0e76 70bc c86c f33c d0b5 9f3d
000001c0: 0753 77bd 2ca1 273d 927c ae3d 4d81 e63a
000001d0: d1f0 f73b 2deb 32bd 2728 1b3e 4d7a 613e
000001e0: b45f d13b 9878 2a3e 13c5 c4bb 42ed 48be
000001f0: d659 c33d c1d3 dd3d 2fc9 b33d 857d 37bc
00000200: da88 413d 971c 0abe 213f a9bd 3b0f fc3d
00000210: 9890 b5bd fa3b 3fbe 628c d6bd 7859 bdbd
00000220: 7dc6 cfbd 11cb 923d 931e 203d 96f3 85bd
00000230: e547 4c3c 1ef3 b4bd e867 513e 1456 f4bd
00000240: 58bc edbd 1348 34be c7e7 0fbd abf3 823e
00000250: 117e ebbd 5002 a0bc a481 61bd 9282 ba3d
00000260: d758 843e 30a3 b3bd f204 73bd f935 8bbc
00000270: aa5e c6bd 5855 8bbd e512 2c3d 5774 3c3e
00000280: ec21 fdbd 8707 993d 99f9 e2bd 1ba6 c7bd
00000290: 8839 c8bd f0ff 3abe 0ddd 17be 5b77 6fbd
000002a0: 3bc8 fa3d 4920 05be 2f58 983e 14df cc3d
000002b0: 486d 29bd 728e 193e 757c 973c 96ba 4cbd
000002c0: 27ec f0bd 4aa7 e23d 7354 b43d 230f 073e
000002d0: 85ee 283e 8475 f2bd dd7e 98bc 4dd7 44bd
000002e0: 1940 21be aa53 003e c641 6f3d 8d35 093d
000002f0: 9f4e 303d cd82 ee3c c4d1 073e b0af cbbd
00000300: dac1 e93c 033c 8bbd 8f95 3fbd c623 c63d
00000310: 2980 0bbc 00cd 91bd 4711 b7bd c96b 913d
00000320: 09c1 4cbc a167 b6bd 3cbe 86bd a2ff 123d
00000330: 141a 063c c240 d6bd f256 763d 16ee f2bc
00000340: 6c0b 98bb 43cc 06bd 38b4 1bbe 983d 933c
00000350: 04a3 b7bc bb8d f93c 5acf 2ebe cc8e f33d
00000360: e0f9 3a3d a59a dabd 919a f2bd 24e1 9b3d
00000370: 08be 323e e35a 003e 0243 0c3d adfc 69bd

l_lstm.bias_hh_l0 f4 [224]
0.019841466 -0.13632134 0.13412175 0.05471397 -0.026405692 -0.0416645 -0.12065882 0.15336913
-0.09848322 0.15995856 -0.010731361 0.010396282 0.19493821 0.09871751 -0.08910638 0.16972189
0.05096221 -0.025343735 -0.18762901 -0.1343792 0.114669025 -0.13339931 -0.0067245974 -0.0021344093
-0.0332654 -0.10709094 -0.038444247 0.13517968 0.023050392 0.019017642 -0.11337683 -0.11785188
-0.0870205 0.14111167 7.232541e-05 0.1606268 0.27541175 -0.07648939 -0.008712419 -0.025921926
0.082413346 0.0029333057 -0.15739177 0.10973719 -0.003770873 -0.08954045 0.07821477 -0.10452063
-0.09579186 -0.080937296 -0.14045592 0.019777128 0.027471537 0.035428762 0.182067 0.0568205
-0.008049955 -0.09445302 -0.22164305 -0.08597672 -0.13700448 0.07428277 0.031381767 -0.009797632
0.10685244 0.10450922 -0.039968267 -0.07045958 -0.08705087 0.04146792 -0.06972083 -0.108625054
0.04213675 -0.13000955 -0.046007086 -0.10443232 -0.14917241 -0.06371829 -0.015106503 0.08697113
0.018743888 -0.11237017 -0.09321878 0.097454704 -0.06261968 -0.07545488 0.033270277 0.023138693
-0.071434155 -0.022764675 0.0011582192 0.169585 0.16658567 -0.022200085 0.08810602 0.0065094144
0.06718474 -0.012185075 -0.1507409 -0.10610279 -0.10023856 -0.14044023 0.06972997 0.05220287
0.0193655 -0.16133387 0.11289682 -0.14343756 -0.054826427 0.022897858 -0.005986205 -0.1388054
-0.09686924 -0.011437017 0.09713974 0.01729494 -0.06703925 0.009583105 0.16604067 0.00013727095
-0.11174779 0.21238206 -0.16070563 -0.10952524 0.13750575 0.04689878 0.06008441 0.10411163
0.094075665 -0.0043691355 0.13117237 0.1265601 0.15702449 0.050406486 0.016437603 -0.15446968
-0.14320621 0.048424385 -0.11687794 0.16752587 -0.08207143 0.05761925 -0.011945403 -0.033673313
0.015143869 0.005199332 0.0016927716 0.052668665 -0.1713989 0.03251026 -0.026711296 0.07648119
0.15916789 -0.2333743 0.08928176 -0.02554758 -0.122873105 0.18165372 -0.00148083 0.15941164
-0.16701353 -0.039456014 0.092119694 -0.013351009 -0.11896424 -0.11854166 -0.1407945 -0.15132724
-0.098348275 0.06535986 0.07914095 0.11627285 -0.16963628 0.091315985 -0.08547094 0.11676879
0.011094257 0.12253461 0.06658389 -0.05384758 0.2353048 -0.06439444 0.018824477 -0.021382866
0.031876996 -0.053918246 -0.1758552 -0.16399744 -0.035858884 0.05869062 0.13861132 -0.043889172
0.034215283 -0.04730838 0.07106675 -0.023282174 -0.041714642 0.009053636 -0.052536014 0.026497591
-0.0015389723 0.07745291 -0.06518252 0.0035332346 0.17326085 -0.12656623 0.056374352 0.12154003
0.009245824 0.042686492 0.01896771 0.11131636 -0.03909655 0.104777224 0.039135687 0.1323345
0.059232052 -0.067872934 0.016068244 -0.10315913 -0.03026084 0.01164222 -0.0429464 0.10800824
00000000: 928a a23c d297 0bbe 3657 093e c11b 603d
00000010: c050 d8bc 65a8 2abd f91b f7bd cc0c 1d3e
00000020: 92b1 c9bd 2dcc 233e 97d2 2fbc 2b55 2a3c
00000030: e29d 473e 682c ca3d 687d b6bd 93cb 2d3e
00000040: c0bd 503d aa9d cfbc d221 40be b39a 09be
00000050: 98d7 ea3d d499 08be 035a dcbb 72e1 0bbb
00000060: 4d41 08bd 7f52 dbbd b777 1dbd 8b6c 0a3e
00000070: 2dd4 bc3c e3ca 9b3c 1d32 e8bd 545c f1bd
00000080: ce37 b2bd 947f 103e 69ad 9738 5a7b 243e
00000090: c502 8d3e 78a6 9cbd 89be 0ebc 385a d4bc
000000a0: 54c8 a83d b43c 403b 4f2b 21be e4bd e03d
000000b0: c020 77bb fc60 b7bd 112f a03d e90e d6bd
000000c0: 862e c4bd 74c2 a5bd add3 0fbe a503 a23c
000000d0: fd0b e13c c01d 113d c66f 3a3e 9dbc 683d
000000e0: f5e3 03bc 9670 c1bd 65f6 62be 9014 b0bd
000000f0: e74a 0cbe 9121 983d 2b8a 003d 3f86 20bc
00000100: 74d5 da3d ee08 d63d c4b5 23bd 1d4d 90bd
00000110: ba47 b2bd 44da 293d cbc9 8ebd d076 debd
00000120: 9697 2c3d 3921 05be ed71 3cbd 9de0 d5bd
00000130: a7c0 18be bc7e 82bd 4481 77bc eb1d b23d
00000140: c88c 993c 5522 e6bd 7de9 bebd 5596 c73d
00000150: bf3e 80bd 1788 9abd 6a46 083d 5b8d bd3c
00000160: 124c 92bd fc7c babc 63cf 973a b1a7 2d3e
00000170: 6f95 2a3e f4dc b5bc ee70 b43d ed4c d53b
00000180: 2798 893d e9a3 47bc d35b 1abe 6b4c d9bd
00000190: e049 cdbd 90cf 0fbe 96ce 8e3d add2 553d
000001a0: 66a4 9e3c b534 25be 7336 e73d 4ce1 12be
000001b0: ad91 60bd 4a94 bb3c ed27 c4bb 0123 0ebe
000001c0: 6163 c6bd 5362 3bbc 33f1 c63d 1eae 8d3c
000001d0: e04b 89bd 7502 1d3c 9106 2a3e 64f0 0f39
000001e0: 06dc e4bd af7a 593e 0490 24be c54e e0bd
000001f0: 4fce 0c3e ef18 403d 121b 763d 7a38 d53d
00000200: beaa c03d f72a 8fbb 0d52 063e f998 013e
00000210: 07cb 203e 0877 4e3d 27a8 863c 4d2d 1ebe
00000220: a6a4 12be a658 463d b45d efbd e78b 2b3e
00000230: 1115 a8bd 2a02 6c3d a7b6 43bc 07ed 09bd
00000240: fe1d 783c 285f aa3b fddf dd3a 19bb 573d
00000250: 3183 2fbe 7a29 053d a6d1 dabc 2ca2 9c3d
00000260: e8fc 223e acf9 6ebe 5bd9 b63d 2949 d1bc
00000270: e5a4 fbbd 6f03 3a3e 6918 c2ba ce3c 233e
00000280: 9805 2bbe a19c 21bd 40a9 bc3d 31be 5abc
00000290: 86a3 f3bd f8c5 f2bd 6f2c 10be 87f5 1abe
000002a0: d26a c9bd 64db 853d a714 a23d 7620 ee3d
000002b0: 22b5 2dbe e003 bb3d 630b afbd 7a24 ef3d
000002c0: b0c4 353c 6df3 fa3d 225d 883d 488f 5cbd
000002d0: bef3 703e 3be1 83bd ca35 9a3c 1f2b afbc
000002e0: 7491 023d 61d9 5cbd 6313 34be f2ee 27be
000002f0: c4e0 12bd 9365 703d 20f0 0d3e 22c5 33bd
00000300: 5325 0c3d 6fc6 41bd 728b 913d 42ba bebc
00000310: f9dc 2abd b455 143c 0130 57bd 7a11 d93c
00000320: 57b7 c9ba a29f 9e3d 6a7e 85bd d78d 673b
00000330: 4b6b 313e 949a 01be cbe8 663d fbe9 f83d
00000340: cc7b 173c 08d8 2e3d 2c62 9b3c d5f9 e33d
00000350: b423 20bd 7195 d63d be4c 203d b282 073e
00000360: 4f9d 723d f700 8bbd 8da1 833c 1845 d3bd
00000370: 95e5 f7bc 03bf 3e3c 90e8 2fbd 6d33 dd3d

l_lstm.weight_ih_l1 f4 [224, 56]
-0.47259146 -0.062829725 0.1967866 -0.14949074 0.024235737 -0.17698935 -0.18994883 1.1279855
0.0552922 0.7590827 -0.49784616 -0.3900065 0.051847637 0.12614474 0.0032430992 -0.27403122
0.236986 -0.25546253 -0.36213914 0.39187437 0.464896 -0.56058156 -0.13480797 -0.17753832
-0.6811666 -0.08494151 -0.16017798 0.11613802 -0.11176996 -0.16597952 0.4633355 0.14461249
0.06309331 0.0012196699 0.5778418 0.9350753 0.18466152 0.3059302 0.03130786 1.3429017
0.59392345 -0.657002 0.116178006 0.09525331 -0.03324711 -0.05291134 0.42961082 0.18930322
-0.16478406 -0.3951545 -0.18803512 0.013751294 0.102421746 -0.19863708 -0.00869438 -0.21107112
-0.03298142 -0.029183358 0.092811085 -0.12776813 -0.07160946 -0.0090016145 -0.11742387 0.0435156
-0.12342478 0.1276064 -0.06772706 -0.10431115 -0.049952876 -0.087624915 0.10154325 0.03202482
0.12807982 0.071140535 -0.008650684 0.053203158 0.07685482 0.03434659 -0.0664251 0.13526481
-0.14468624 -0.0033545014 -0.009873114 0.005792206 0.09422364 0.07796397 0.11808505 0.060830213
0.02222766 -0.08832389 -0.0059054373 0.10587207 0.026307818 -0.18824224 0.043126844 -0.05524372
0.0988959 -0.0042535868 0.0690669 -0.13043843 0.033701982 0.018396553 0.004138972 -0.106702276
-0.017690232 -0.025457181 -0.14818993 0.047876157 0.04810204 -0.033773202 -0.0024945098 -0.09976196
-0.0026800716 0.05777443 -0.021444162 -0.06306971 0.002726112 -0.15570746 -0.11890017 0.014795766
-0.13241331 -0.028996013 0.008789893 0.0753854 -0.06664442 -0.014685438 -0.06948402 0.16707438
0.054875568 -0.08491487 0.026475677 0.112255305 0.046233524 0.0037632182 -0.0030500144 -0.09737646
0.198041 -0.06917011 -0.009450581 -0.025360506 -0.012130879 0.035147272 0.073864676 0.16036667
-0.043921586 -0.17547637 -0.04358034 0.011694161 -0.112862244 0.012005485 -0.15645568 -0.14111069
-0.12743558 0.13564494 -0.13057537 -0.009028925 0.12358604 -0.019651173 0.16735129 -0.16405828
-0.034929115 0.09286381 -0.1283263 0.12188894 0.05508198 0.021322908 -0.17319116 0.16230808
-0.08596456 0.0655149 -0.01923685 0.06639306 -0.037416097 0.07993178 -0.004166366 -0.1294178
0.113127485 -0.13718274 -0.08750683 -0.07709243 -0.122897364 0.000433265 0.09741395 0.03408815
-0.018348042 -0.08169165 -0.07295031 -0.12042442 -0.02082492 0.122982435 -0.11659803 0.0692657
0.121315226 0.075623974 0.13901009 -0.09442114 -0.12117123 0.061228793 0.11303904 -0.06762729
0.07670108 -0.066684596 -0.08149131 -0.13367395 0.0017317511 -0.19407591 0.027976727 -0.11958432
-0.078549035 0.15951435 -0.015589962 0.060341656 0.10612702 -0.00901101 0.12183501 0.090559416
-0.010241899 0.0048737917 -0.12895103 -0.10883648 -0.07368097 0.116816744 0.13404153 0.034423053
-0.10099129 0.09647896 -0.117766604 0.09582091 -0.048831616 -0.030719744 -0.039715 -0.11254463
0.03233996 -0.18853341 0.108205035 0.0981421 -0.14891422 -0.12140241 0.0634395 0.060439255
0.023992274 -0.05526218 0.057551026 0.04331049 0.0066277473 -0.0043636253 0.020226805 -0.05405444
0.09986865 0.03808373 0.0275693 0.004039032 -0.0710389 -0.02589602 0.06001971 0.0074227564
00000000: 82f7 f1be dfac 80bd 6d82 493e 1a14 19be
00000010: 068a c63c b23c 35be f281 42be d461 903f
00000020: 137a 623d 3e53 423f b1e5 febe efae c7be
00000030: 305e 543d 162c 013e 2d8a 543b d24d 8cbe
00000040: 75ac 723e fccb 82be 4d6a b9be c2a3 c83e
00000050: d906 ee3e 4682 0fbf 1a0b 0abe 9bcc 35be
00000060: ef60 2ebf d0f5 adbd b205 24be c5d9 ed3d
00000070: a6e7 e4bd 89f6 29be 503a ed3e 4c15 143e
00000080: 1137 813d 55dd 9f3a 71ed 133f 1861 6f3f
00000090: e917 3d3e e2a2 9c3e ac3c 003d 34e4 ab3f
000000a0: 5e0b 183f 4831 28bf bcee ed3d 2b14 c33d
000000b0: 1f2e 08bd 90b9 58bd f3f5 db3e b4d8 413e
000000c0: 27bd 28be b151 cabe 478c 40be 1c4d 613c
000000d0: 7ec2 d13d 8567 4bbe df72 0ebc 0723 58be
000000e0: 8717 07bd f011 efbc bd13 be3d a6d5 02be
000000f0: fba7 92bd 827b 13bc ed7b f0bd 6a3d 323d
00000100: 22c6 fcbd 41ab 023e 7cb4 8abd 16a1 d5bd
00000110: 639b 4cbd b174 b3bd e8f5 cf3d 752c 033d
00000120: 5b27 033e 21b2 913d 99bb 0dbc 8eeb 593d
00000130: 0f66 9d3d 03af 0c3d e209 88bd dc82 0a3e
00000140: a128 14be 32d7 5bbb d7c2 21bc 8ccc bd3b
00000150: 53f8 c03d 93ab 9f3d 93d6 f13d 1a29 793d
00000160: c816 b63c 28e3 b4bd 6682 c1bb 75d3 d83d
00000170: 7e83 d73c 93c2 40be c6a5 303d 3d47 62bd
00000180: ef89 ca3d ac61 8bbb f272 8d3d a791 05be
00000190: 170b 0a3d 5eb4 963c 37a0 873b b986 dabd
000001a0: 1beb 90bc 948b d0bc 1abf 17be ca19 443d
000001b0: a506 453d c555 0abd ee7a 23bb 0050 ccbd
000001c0: 24a4 2fbb e1a4 6c3d abab afbc b12a 81bd
000001d0: 92a8 323b c771 1fbe ef81 f3bd f169 723c
000001e0: 5b97 07be 0c89 edbc 7c03 103c a963 9a3d
000001f0: df7c 88bd 319b 70bc a34d 8ebd 8c15 2b3e
00000200: 34c5 603d d9e7 adbd 85e3 d83c 1ce6 e53d
00000210: 5d5f 3d3d 53a0 763b c0e2 47bb 4f6d c7bd
00000220: 43cb 4a3e 0fa9 8dbd 9cd6 1abc d6c0 cfbc
00000230: 98c0 46bc 96f6 0f3d 5d46 973d 2937 243e
00000240: 1fe7 33bd 14b0 33be 4c81 32bd de98 3f3c
00000250: 5224 e7bd a7b2 443c eb35 20be 527f 10be
00000260: 797e 02be 82e6 0a3e 8db5 05be 0eee 13bc
00000270: ae1a fd3d 7ffb a0bc 235e 2b3e e5fe 27be
00000280: d511 0fbd 622f be3d f867 03be e9a0 f93d
00000290: a49d 613d 61ad ae3c 0659 31be 1734 263e
000002a0: 300e b0bd ad2c 863d 9996 9dbc 16f9 873d
000002b0: 9f41 19bd 46b3 a33d 0386 88bb 1a86 04be
000002c0: 62af e73d a279 0cbe c836 b3bd a3e2 9dbd
000002d0: 9db1 fbbd d827 e339 f780 c73d 04a0 0b3d
000002e0: a24e 96bc f44d a7bd f966 95bd 14a1 f6bd
000002f0: 0699 aabc 37de fb3d f3ca eebd 2ddb 8d3d
00000300: 1e74 f83d bee0 9a3d a958 0e3e df5f c1bd
00000310: 9f28 f8bd 0bcb 7a3d 0381 e73d 2d80 8abd
00000320: 7515 9d3d ef91 88bd eae4 a6bd d3e1 08be
00000330: edfb e23a d6bb 46be 732f e53c a0e8 f4bd
00000340: 51de a0bd bb57 233e 0a6d 7fbc d028 773d
00000350: 2059 d93d eaa2 13bc a284 f93d 3777 b93d
00000360: a3cd 27bc 54b4 9f3b bd0b 04be a9e5 debd
00000370: 0ce6 96bd 9e3d ef3d 2f42 093e 30ff 0c3d
00000380: 85d4 cebd c396 c53d 9e2f f1bd c13d c43d
00000390: a903 48bd f9a7 fbbc 32ac 22bd cd7d e6bd
000003a0: e876 043d e70e 41be 9a9a dd3d bafe c83d
000003b0: f87c 18be d4a1 f8bd 92ec 813d 278f 773d
000003c0: 728b c43c 985a 62bd a0ba 6b3d 5766 313d
000003d0: 932d d93b befc 8ebb afb2 a53c 3068 5dbd
000003e0: ef87 cc3d affd 1b3d 03d9 e13c db59 843b
000003f0: d87c 91bd e423 d4bc 3ad7 753d 983a f33b

l_lstm.weight_hh_l1 f4 [224, 56]
-0.34934488 -0.056052018 -0.40228856 -0.031324014 -0.088851824 0.14461717 -0.11719304 -0.2897561
0.20167193 -0.23886769 0.067351446 -0.025331367 -0.003249804 0.033510808 -0.013476506 0.328018
-0.01034725 0.010254751 0.57128197 0.12894998 1.009036 -0.17728193 -0.08537267 -0.0687655
0.1620432 0.03158298 0.123987064 -0.23841208 0.09658404 0.12577434 0.31519857 0.02136129
-0.86363906 0.0046503074 -0.010094392 0.5010326 -0.09952135 0.03544936 0.075446144 -0.06390367
-0.05438983 -0.055627014 0.31710103 0.48885837 -0.18873712 -0.2887284 -0.014102681 0.09736096
-0.14798257 0.18773428 -0.12574954 0.021986773 0.25219464 -0.13217685 -0.44866318 0.34850582
-0.2232129 -0.12558398 0.050835177 -0.11454971 0.033152014 -0.039221022 0.028752742 0.087512486
-0.11568207 -0.13506334 -0.05331575 -0.031642072 -0.00982297 -0.021021059 0.08643114 0.08639787
0.075496115 -0.1117288 0.06837146 0.0728951 0.14668947 -0.033241853 0.08871723 -0.13146086
0.02629121 0.066772774 0.12495279 0.0778663 -0.12142714 0.039648097 -0.107579574 0.13691635
-0.046832856 -0.10200358 0.11502953 0.105602935 -0.046068694 0.019055836 0.1029192 -0.11926576
0.03992235 -0.14377292 0.1387715 0.16107295 0.018326748 -0.12178919 -0.14490731 -0.014562304
0.11054396 -0.0056182933 -0.053782362 0.09431747 0.02379026 -0.035339855 0.032120448 -0.09475114
0.22416247 0.041923866 0.026320592 -0.15452412 0.1634222 -0.013993406 0.06835276 -0.09453112
0.016955707 -0.025126494 -0.024350895 -0.0020087066 0.09764723 0.0035326616 0.06502067 -0.06584587
0.03009729 0.068743065 0.041647926 0.110665955 -0.022648992 0.101502284 0.13249415 -0.18151864
0.0561336 -0.041442115 0.07003744 0.026741462 -0.1884901 -0.07866127 -0.1735958 0.16972716
0.22437826 -0.046374787 0.05989911 0.059151597 -0.07047363 -0.06622543 -0.12000609 0.12474104
0.13577212 -0.02886223 0.058133624 0.0028065012 -0.1370997 0.23016667 0.035848655 -0.035851292
0.05729994 0.031637393 -0.026652483 0.037465166 0.0231645 0.022768665 0.1688059 -0.024644021
0.13893992 -0.11075643 -0.024155961 0.074275896 0.0026613916 -0.0056448285 0.08662612 -0.1279627
0.002741539 -0.00035387935 -0.0039871503 0.14492607 0.13806815 0.08477717 -0.07343204 -0.031882092
0.10937883 -0.044929635 0.082144074 0.0036817854 0.13080631 -0.10852284 -0.04238917 4.4838613e-05
-0.14543448 -0.029024217 -0.00056460814 -0.086121656 0.10855339 0.085457295 -0.060212903 0.13084082
0.040744398 -0.007339944 0.11829046 -0.09096566 0.09209405 -0.11873419 0.0007361286 -0.061468933
0.055352762 -0.12761958 0.022867484 -0.12561977 -0.10841338 0.146955 0.069670044 0.010011567
0.14455323 -0.04050681 0.027685491 -0.008756962 0.05563786 -0.118019275 -0.0017096481 0.03412817
-0.09239984 -0.029975403 -0.10043455 0.032627247 0.096278295 0.04605831 0.058807876 0.05639851
0.107116394 -0.02533953 0.04113497 -0.008758502 -0.07069874 -0.04466504 0.027571606 0.09059819
-0.022557957 -0.11990072 -0.10899012 -0.011352811 -0.0057355235 0.04470299 -0.10201679 -0.027109526
0.046121575 -0.07067328 0.030776858 -0.01765953 -0.08539856 -0.007972407 -0.09232092 -0.026290327
00000000: 55dd b2be cd96 65bd c4f8 cdbe 9c4d 00bd
00000010: f2f7 b5bd 8616 143e e802 f0bd e95a 94be
00000020: 1683 4e3e bb99 74be 8eef 893d ba83 cfbc
00000030: aafa 54bb a142 093d 90cc 5cbc faf1 a73e
00000040: 8387 29bc 8b03 283c 893f 123f 770b 043e
00000050: 1728 813f 6589 35be ded7 aebd edd4 8cbd
00000060: a7ee 253e 285d 013d eeec fd3d 4c22 74be
00000070: dacd c53d fdca 003e b561 a13e dffd ae3c
00000080: 7317 5dbf 9b61 983b f362 25bc ac43 003f
00000090: d9d1 cbbd 5933 113d 8283 9a3d eddf 82bd
000000a0: dfc7 5ebd 27d9 63bd 115b a23e a54b fa3e
000000b0: 4e44 41be 35d4 93be ee0e 67bc 2f65 c73d
000000c0: be88 17be 6a3d 403e 7dc4 00be 9b1d b43c
000000d0: a81f 813e 5e59 07be 2eb7 e5be 5b6f b23e
000000e0: ec91 64be 1699 00be 8c38 503d 0a99 eabd
000000f0: 68ca 073d 39a6 20bd df8a eb3c bf39 b33d
00000100: b9ea ecbd 0b4e 0abe 9e61 5abd 1e9b 01bd
00000110: 86f0 20bc 5b34 acbc cf02 b13d 5ef1 b03d
00000120: b59d 9a3d 12d2 e4bd 5606 8c3d 074a 953d
00000130: c435 163e 9c28 08bd 61b1 b53d ad9d 06be
00000140: aa60 d73c 2ac0 883d 40e7 ff3d 5e78 9f3d
00000150: cbae f8bd 0b66 223d ae52 dcbd cd33 0c3e
00000160: cfd3 3fbd 41e7 d0bd 9a94 eb3d 5a46 d83d
00000170: 87b2 3cbd fc1a 9c3c 4dc7 d23d 9b41 f4bd
00000180: 9e85 233d 3539 13be 1e1a 0e3e 4ff0 243e
00000190: fa21 963c 9c6c f9bd 9562 14be bb96 6ebc
000001a0: df64 e23d a919 b8bb e54a 5cbd 8529 c13d
000001b0: cbe3 c23c 86c0 10bd bb90 033d e30c c2bd
000001c0: d98a 653e 5cb8 2b3d 489e d73c 923b 1ebe
000001d0: 2658 273e 9944 65bc 88fc 8b3d 8899 c1bd
000001e0: b2e6 8a3c 14d6 cdbc 877b c7bc 81a4 03bb
000001f0: 45fb c73d 3a84 673b 8f29 853d 33da 86bd
00000200: 988e f63c 2ac9 8c3d 0497 2a3d d5a4 e23d
00000210: 618a b9bc 6ee0 cf3d 8cac 073e 06e0 39be
00000220: 59ec 653d 35bf 29bd ca6f 8f3d e910 db3c
00000230: 8c03 41be 2919 a1bd 19c3 31be f5cc 2d3e
00000240: 6ac3 653e 7df3 3dbd c558 753d f248 723d
00000250: 7b54 90bd 33a1 87bd c1c5 f5bd 3b78 ff3d
00000260: d907 0b3e 7c70 ecbc 861d 6e3d 47ed 373b
00000270: dd63 0cbe d0b0 6b3e 0ad6 123d ced8 12bd
00000280: 58b3 6a3d 3696 013d 4f56 dabc 1375 193d
00000290: 7ac3 bd3c 5a85 ba3c 74db 2c3e 42e2 c9bc
000002a0: 4446 0e3e 44d4 e2bd b9e2 c5bc f61d 983d
000002b0: be6a 2e3b 41f8 b8bb 0969 b13d a708 03be
000002c0: 64ab 333b e288 b9b9 a4a6 82bb 8067 143e
000002d0: bd61 0d3e a79f ad3d 8a63 96bd cc96 02bd
000002e0: 0202 e03d 2308 38bd 273b a83d 1c4a 713b
000002f0: 17f2 053e 3941 debd 44a0 2dbd 1811 3c38
00000300: c7ec 14be 32c4 edbc 3602 14ba 8d60 b0bd
00000310: 3d51 de3d 3c04 af3d cea1 76bd 23fb 053e
00000320: 99e3 263d ea83 f0bb 4542 f23d 344c babd
00000330: ce9b bc3d e92a f3bd c1f8 403a d9c6 7bbd
00000340: 94b9 623d b5ae 02be 9754 bb3c 78a2 00be
00000350: d607 debd 5f7b 163e 2baf 8e3d 8e07 243c
00000360: c305 143e 78ea 25bd afcc e23c 5c79 0fbc
00000370: 86e4 633d 17b4 f1bd 4516 e0ba fbc9 0b3d
00000380: 213c bdbd fa8e f5bc a1b0 cdbd 26a4 053d
00000390: 8e2d c53d a3a7 3c3d 87e0 703d 2002 673d
000003a0: d75f db3d d994 cfbc 247d 283d d27f 0fbc
000003b0: 80ca 90bd b0f2 36bd d9dd e13c 8b8b b93d
000003c0: 77cb b8bc 828e f5bd 3636 dfbd 2401 3abc
000003d0: 0ff1 bbbb 7c1a 373d 2eee d0bd cc14 debc
000003e0: fae9 3c3d 27bd 90bd c01f fc3c b8aa 90bc
000003f0: 71e5 aebd b39e 02bc c012 bdbd d05e d7bc

l_lstm.bias_ih_l1 f4 [224]
0.44751015 0.03540475 -0.08133017 0.07200195 0.00827318 0.01515521 -0.10804979 -0.19607455
-0.08506357 0.096133955 0.00785094 -0.04076992 0.0353787 0.12095378 -0.08767412 0.058941092
-0.010552918 -0.11240093 0.043884426 -0.09059716 -0.041177962 -0.002745083 -0.039250977 0.042507872
0.050661653 -0.026582202 0.10415546 0.06635896 0.12697199 0.123962626 -0.05337865 -0.06810261
0.07200113 0.01067153 0.005045146 -0.17744093 0.123605534 -0.051076036 -0.0070713274 0.109216966
0.10739878 -0.079610534 0.10818932 -0.030408222 0.12092886 0.017053487 -0.10997775 0.011319218
-0.094104335 -0.019879756 0.103802614 0.0011655897 0.042243253 0.09653964 -0.15258616 -0.0040840935
-0.063737474 -0.14772016 -0.123785265 -0.12738378 -0.11362879 -0.11442757 -0.03850416 0.04894043
-0.071709864 -0.056217227 -0.059662092 -0.12500057 0.09738926 -0.0842576 -0.094883114 -0.04958026
-0.005573031 0.06276973 0.057024796 0.036468122 0.0042382246 -0.08365097 -0.105382435 -0.1502982
-0.07212398 -0.090482175 0.061391804 0.10482896 -0.037181735 -0.11482579 -0.16249377 -0.008359581
0.14865822 0.003526267 -0.022261754 0.06590159 0.07200636 0.05940481 0.017665816 0.117059715
-0.015168474 -0.13989978 0.15098998 -0.14339416 -0.024407484 0.015018415 -0.052527 0.07809774
0.10392929 0.07654551 -0.03922518 0.08719042 -0.12530346 -0.02008673 -0.12596765 -0.099098004
-0.051260255 -0.023465954 -0.008113114 0.09537513 -0.10008126 -0.08894086 -0.019824179 0.030954756
0.10406038 -0.13099286 0.03601805 0.039976094 -0.021438653 0.013077751 -0.12651494 0.031280514
0.10960887 -0.022284754 0.113240086 -0.073267184 0.045156993 0.01810117 0.033914074 0.07650221
0.087298654 0.079306655 -0.05436888 0.011735678 0.00033888573 0.093023814 0.11119835 -0.048439167
-0.10604631 -0.12286768 0.0012335088 0.09810698 -0.04979297 0.0073951986 0.07651039 0.056850515
-0.10313359 0.055988323 -0.035339765 0.03497542 0.08703356 0.054123025 0.10630486 0.058763124
-0.103712894 -0.00071724015 -0.1099102 -0.005878988 0.023043757 -0.026923293 0.02962078 -0.015114047
0.3232048 0.022882279 -0.18283902 0.05165264 -0.069729336 0.024058111 0.031057717 0.060893793
-0.06886224 -0.1202451 0.049858615 0.045043565 0.061241083 0.080933206 0.06614707 -0.1455046
-0.10657476 -0.07655179 -0.027016563 0.08903874 0.12314678 -0.13528849 0.05890779 0.12576425
-0.062287267 -0.071340844 0.06208484 -0.11131833 0.041903906 0.008412483 0.084951736 0.06731957
0.11793923 0.033528477 0.12066449 -0.030540224 -0.089198895 0.12796766 -0.07709048 -0.011958198
0.0048237513 0.06109386 -0.11433663 -0.125731 -0.124464765 -0.08109497 -0.081599124 0.059642836
-0.02842215 -0.02655109 -0.1265083 -0.13857122 -0.03715122 -0.040397786 -0.015916804 0.03918213
00000000: 0d20 e53e 9204 113d 6f90 a6bd c275 933d
00000010: 3b8c 073c 8f4d 783c 3549 ddbd c4c7 48be
00000020: cf35 aebd e1e1 c43d 3ba1 003c 5cfe 26bd
00000030: 41e9 103d 9eb6 f73d 7d8e b3bd 376c 713d
00000040: 25e6 2cbc 7532 e6bd 28c0 333d 018b b9bd
00000050: 39aa 28bd dae6 33bb a2c5 20bd bc1c 2e3d
00000060: 9882 4f3d ebc2 d9bc 754f d53d 35e7 873d
00000070: f204 023e 1ee0 fd3d 92a3 5abd 6279 8bbd
00000080: 5475 933d a4d7 2e3c c151 a53b 13b3 35be
00000090: e624 fd3d 1b35 51bd 98b6 e7bb 25ad df3d
000000a0: e4f3 db3d d90a a3bd 5d92 dd3d aa1a f9bc
000000b0: 8da9 f73d c1b3 8b3c 043c e1bd 3e74 393c
000000c0: c6b9 c0bd dfda a2bc 7796 d43d b3c6 983a
000000d0: 4307 2d3d 93b6 c53d 8c3f 1cbe dcd3 85bb
000000e0: cb88 82bd f443 17be 2183 fdbd e570 02be
000000f0: 36b6 e8bd 0059 eabd 8ab6 1dbd c375 483d
00000100: 9fdc 92bd 0944 66bd 3d60 74bd 2600 00be
00000110: 0574 c73d 408f acbd 1452 c2bd ac14 4bbd
00000120: f99d b6bb 6b8d 803d d592 693d 995f 153d
00000130: cee0 8a3b 3351 abbd bfd2 d7bd c5e7 19be
00000140: bdb5 93bd b84e b9bd f975 7b3d 91b0 d63d
00000150: e04b 18bd c929 ebbd c464 26be a0f6 08bc
00000160: dc39 183e f118 673b 485e b6bc 6af7 863d
00000170: 1278 933d 7552 733d e7b7 903c 01bd ef3d
00000180: 3185 78bc e341 0fbe 1e9d 1a3e ebd5 12be
00000190: 34f2 c7bc cc0f 763c 8d26 57bd b5f1 9f3d
000001a0: e1d8 d43d e4c3 9c3d 95aa 20bd e490 b23d
000001b0: 8d4f 00be ed8c a4bc aafd 00be e5f3 cabd
000001c0: 46f6 51bd ac3b c0bc deec 04bc 0954 c33d
000001d0: 67f7 ccbd a026 b6bd 5166 a2bc d494 fd3c
000001e0: 9c1d d53d fe22 06be aa87 133d f9bd 233d
000001f0: 1da0 afbc 1044 563c 228d 01be ff1f 003d
00000200: 9e7a e03d 848e b6bc 6bea e73d 1b0d 96bd
00000210: 8af6 383d e848 943c 7ce9 0a3d 31ad 9c3d
00000220: a3c9 b23d 876b a23d e7b1 5ebd 0047 403c
00000230: 79ac b139 4583 be3d f6bb e33d 2668 46bd
00000240: cf2e d9bd 0da2 fbbd b0ad a13a 50ec c83d
00000250: b7f3 4bbd 6c53 f23b 7bb1 9c3d 16dc 683d
00000260: b437 d3bd 0354 653d 6ec0 10bd 6342 0f3d
00000270: a73e b23d 1bb0 5d3d 5db6 d93d 9ab1 703d
00000280: 6d67 d4bd 2c05 3cba 9918 e1bd 87a4 c0bb
00000290: 43c6 bc3c 3d8e dcbc 47a7 f23c e8a0 77bc
000002a0: 197b a53e 9e73 bb3c 273a 3bbe b891 533d
000002b0: 41ce 8ebd 8415 c53c c16c fe3c c56b 793d
000002c0: a507 8dbd 1043 f6bd 8c38 4c3d 9a7f 383d
000002d0: eed7 7a3d 4fc0 a53d 1d78 873d 28ff 14be
000002e0: de43 dabd 2fc7 9cbd d751 ddbc f159 b63d
000002f0: 6134 fc3d 1189 0abe 4b49 713d 58c8 003e
00000300: ef20 7fbd 261b 92bd ac4c 7e3d ddfa e3bd
00000310: 6ea3 2b3d 83d4 093c 2dfb ad3d d8de 893d
00000320: 1f8a f13d 2855 093d f21e f73d 7e2f fabc
00000330: e9ad b6bd f409 033e 9de1 9dbd 51ec 43bc
00000340: 8f10 9e3b 8e3d 7a3d 5329 eabd a1bf 00be
00000350: 62e7 febd 1f15 a6bd 711d a7bd 0c4c 743d
00000360: 92d5 e8bc ac81 d9bc 648b 01be 9de5 0dbe
00000370: e12b 18bd 2678 25bd f563 82bc 717d 203d

l_lstm.bias_hh_l1 f4 [224]
0.458501 0.1346052 -0.1777011 0.06387909 0.1290248 -0.041612446 0.016644185 -0.058180697
0.0010201465 0.10665936 0.02307533 -0.018272677 -0.059311416 0.119582884 -0.12091906 0.07507494
0.10714838 -0.11403355 0.05139419 0.06210961 -0.00758896 -0.1433549 -0.029824667 0.053004965
-0.0866969 0.096364744 0.016459754 0.100851096 -0.009217125 -0.055463266 -0.061144494 -0.028027058
0.16985576 0.03639123 0.016412767 -0.116659455 0.052546542 -0.014123136 0.02757107 -0.001843426
-0.00752718 0.13281009 0.11056743 -0.01660483 0.053921852 -0.04992358 -0.16286989 -0.060719557
0.022516474 0.0889449 -0.12464205 -0.051940143 0.033312336 -0.02249554 -0.020531967 -0.032362737
-0.25437883 0.09453589 -0.044758618 -0.13792214 -0.045122318 -0.07819701 -0.15466133 -0.03636458
-0.05193053 -0.122856095 0.020371372 -0.10467082 -0.11765354 0.09451917 -0.037032314 0.0018021492
0.08697758 0.10399256 -0.031121198 0.034391023 -0.11036144 -0.10648462 0.026953783 -0.011153387
0.021771401 -0.03143796 0.07061068 -0.06487076 0.1025287 0.08934469 -0.10464508 -0.04853649
0.0034244196 0.039795693 -0.00065282284 -0.039605353 0.023273932 -0.16016133 -0.08179696 -0.023097416
0.021396695 -0.057574622 0.0065154964 -0.019732444 -0.014610135 0.042563356 0.046506617 0.04163688
-0.076369286 0.08341743 0.07152782 0.08158718 -0.1337689 0.08090799 -0.03816456 -0.06280728
-0.12118235 0.08891174 -0.070257604 0.0046515036 -0.114974275 0.048417665 -0.01787348 -0.045552082
0.014213954 -0.07227791 -0.10741233 -0.07735214 -0.033861514 0.049870018 -0.105399296 -0.05320682
-0.015714128 -0.12180255 -0.07816125 -0.035662528 -0.017546229 -0.07830149 -0.10344842 -0.07534632
0.112105295 0.07525178 0.021517074 -0.11442807 0.092787296 -0.04188295 0.06905041 -0.035266653
-0.10393426 -0.06068958 -0.056370653 0.014912698 0.053176314 -0.0022740292 0.12413198 -0.048461474
-0.03340543 -0.06970071 0.08898054 0.12687409 0.023947407 -0.17034686 -0.07812993 -0.061495483
0.021970399 -0.005723104 -0.029163932 0.0012442218 0.10754811 0.05883596 0.025281198 -0.0562414
0.43144926 0.0051467526 0.009563873 -0.123824 -0.03067414 0.033701103 0.0032395462 -0.10967528
0.009797105 0.11811934 -0.102630705 0.14361098 0.0101781925 0.09735779 0.08616667 -0.02995178
-0.10896055 -0.0742252 -0.07823965 0.012775293 -0.06110811 -0.08645722 0.07697066 -0.054834258
0.10076856 -0.06629526 -0.0648635 0.06704704 0.05230001 -0.019216314 0.036833286 -0.08118896
0.19898531 -0.12786017 0.056160465 0.0006989455 -0.022209093 -0.09186165 -0.022410097 0.056028374
-0.06424683 0.093403995 0.12806734 -0.15187812 0.0923659 0.03230384 -0.08992993 -0.15029939
-0.06629936 0.06525697 0.024520952 -0.057721596 -0.066519886 -0.062408585 0.03686361 0.06159376
00000000: a5c0 ea3e f2d5 093e 47f7 35be 0ad3 823d
00000010: 141f 043e d071 2abd 6359 883c e24e 6ebd
00000020: 70b6 853a 3970 da3d 7908 bd3c 95b0 95bc
00000030: 87f0 72bd dfe7 f43d 6aa4 f7bd e4c0 993d
00000040: 9c70 db3d 6c8a e9bd b782 523d a566 7e3d
00000050: d0ac f8bb a0cb 12be dc52 f4bc bc1b 593d
00000060: 258e b1bd e15a c53d 9bd6 863c 058b ce3d
00000070: 6d03 17bc 732d 63bd a672 7abd 0099 e5bc
00000080: abee 2d3e f80e 153d 1174 863c 27eb eebd
00000090: 0b3b 573d ba64 67bc b9dc e13c 1d9f f1ba
000000a0: 90a6 f6bb 5eff 073e 2d71 e23d da06 88bc
000000b0: 29dd 5c3d ab7c 4cbd 5dc7 26be 12b5 78bd
000000c0: 7874 b83c be28 b63d 5544 ffbd 30bf 54bd
000000d0: 8472 083d 9148 b8bc a832 a8bc ca8e 04bd
000000e0: f13d 82be 089c c13d d054 37bd 763b 0dbe
000000f0: 2ed2 38bd c125 a0bd 8a5f 1ebe 07f3 14bd
00000100: 1cb5 54bd fa9b fbbd dde1 a63c a85d d6bd
00000110: 57f4 f0bd 4493 c13d 32af 17bd 1836 ec3a
00000120: 4d21 b23d 0dfa d43d e2f1 febc 9add 0c3d
00000130: 2e05 e2bd 9c14 dabd 2ece dc3c b2bc 36bc
00000140: f059 b23c 17c5 00bd 559c 903d f6da 84bd
00000150: 91fa d13d 59fa b63d 2950 d6bd 33ce 46bd
00000160: 3a6c 603b cf00 233d 3322 2bba 3939 22bd
00000170: f9a8 be3c 5501 24be 2a85 a7bd cb36 bdbc
00000180: 1f48 af3c 5ed3 6bbd f27f d53b efa5 a1bc
00000190: 595f 6fbc ea56 2e3d b97d 3e3d 6f8b 2a3d
000001a0: 8067 9cbd c2d6 aa3d 2d7d 923d 2e17 a73d
000001b0: b7fa 08be 17b3 a53d 7152 1cbd 1aa1 80bd
000001c0: 742e f8bd 5c17 b63d 38e3 8fbd a46b 983b
000001d0: a277 ebbd 9a51 463d 686b 92bc d294 3abd
000001e0: a5e1 683c 7106 94bd fffa dbbd cc6a 9ebd
000001f0: 5fb2 0abd 8144 4c3d 96db d7bd 65ef 59bd
00000200: eaba 80bc 9e73 f9bd 0113 a0bd df12 12bd
00000210: 1cbd 8fbc 885c a0bd c4dc d3bd 2c4f 9abd
00000220: 7697 e53d 9b1d 9a3d 9344 b03c 4459 eabd
00000230: 4407 be3d 758d 2bbd 4d6a 8d3d c473 10bd
00000240: 7cdb d4bd a395 78bd eae4 66bd 6454 743c
00000250: 68cf 593d e107 15bb e838 fe3d 8a7f 46bd
00000260: 22d4 08bd 3fbf 8ebd 6e3b b63d 48eb 013e
00000270: 5a2d c43c 686f 2ebe 9602 a0bd b0e2 7bbd
00000280: 44fb b33c e088 bbbb 33e9 eebc 2815 a33a
00000290: 2f42 dc3d fafd 703d 841a cf3c 625d 66bd
000002a0: ebe6 dc3e 17a6 a83b cab1 1c3c 7097 fdbd
000002b0: 5648 fbbc 2b0a 0a3d 914e 543b 6f9d e0bd
000002c0: 0984 203c 8de8 f13d 0c30 d2bd c20e 133e
000002d0: 6fc2 263c 8563 c73d 2778 b03d 6f5d f5bc
000002e0: b526 dfbd 6203 98bd 1c3c a0bd 764f 513c
000002f0: 7f4c 7abd 7c10 b1bd cba2 9d3d e399 60bd
00000300: bf5f ce3d cfc5 87bd 28d7 84bd f54f 893d
00000310: 8938 563d 886b 9dbc 80de 163d 6646 a6bd
00000320: cec2 4b3e c7ed 02be 8408 663d 7039 373a
00000330: d8ef b5bc f621 bcbd 6195 b7bc 027e 653d
00000340: d893 83bd 984a bf3d 1624 033e f085 1bbe
00000350: 552a bd3d 0851 043d 2f2d b8bd 15e8 19be
00000360: f5c7 87bd 72a5 853d 2ae0 c83c 7b6d 6cbd
00000370: 943b 88bd 25a0 7fbd 4cfe 163d bd49 7c3d
