data/datasets/quebec_neighborhood_with_demand_response_set_points/resstock-amy2018-2021-release-1-498771.pth (torch, 817598 bytes, 39 tensors)

l_lstm.weight_ih_l0 f4 [224, 12]
-0.26874515 0.3377802 -0.14077888 -0.11861854 0.08174609 0.13391839 -0.27733263 -0.24845877
-0.07937149 -0.047262825 -0.08879342 -0.2895848 -0.062750466 0.09280695 0.0030541166 -0.07409377
0.12908891 -0.043166257 -0.04480921 -0.08135667 0.0018706557 -0.001307322 -0.0662684 0.04455262
-0.17109227 -0.0075037098 0.09920307 -0.09680393 0.13239731 0.022040196 -0.10933499 -0.02578339
-0.01636051 -0.13554958 -0.08172343 0.10629243 0.07505446 -0.10049615 0.019511102 -0.1545708
0.1141856 -0.039344355 -0.14958487 -0.079186685 -0.11997074 -0.13708319 -0.021413475 -0.06453118
-0.033022236 -0.25831854 -0.06474212 -0.15473092 -0.04878802 -0.09099959 0.08100898 -0.0065930383
-0.14682612 -0.11937306 -0.04869139 -0.22023498 0.22691563 0.19277596 -0.097792156 0.025044516
0.05351339 0.08198511 0.10866237 -0.026227567 0.14260745 0.031408794 -0.03869313 0.0031884662
-0.1503669 -0.09746687 -0.28409496 -0.015555299 0.72841465 -0.1144649 0.07691944 -0.011471528
0.008957455 0.25405025 -0.08607736 0.00032993135 0.10297918 -0.0233855 -0.06412233 -0.004048613
0.041795004 0.00022769335 -0.1098593 0.055371154 -0.091661245 0.0691029 -0.035040155 0.004182405
-0.09578719 0.07017489 -0.08329703 -0.15170746 -0.17911565 -0.01421525 -0.056456003 -0.25731435
0.004584434 -0.007203097 -0.06308497 -0.037208818 0.024808178 0.060215306 0.00323654 -0.049405504
-0.018318206 0.030873522 -0.10956742 0.047542028 0.04113391 0.10150766 -0.0080487225 -0.07813067
-0.03533298 0.04988052 0.07766001 -0.14931859 0.2020236 -0.012168697 0.033666648 -0.03379385
-0.043469477 -0.12888819 0.056112677 0.11614102 -0.0657716 -0.10566482 0.07827879 -0.08157824
0.20324938 -0.06625665 0.05349022 0.00946466 -0.07392554 -0.10399418 -0.04010729 -0.18695731
0.09473747 -0.15000804 -0.20196113 -0.04938392 0.09202145 -0.16341579 -0.030481396 -0.24799554
0.051478833 -0.107738115 -0.13074034 -0.12330227 0.06836027 0.052043773 0.021636212 0.06593775
0.19815132 -0.025769437 0.018148663 -0.084712215 0.055687454 0.0363943 -0.07713494 0.09139149
0.29725432 0.076275796 0.31771377 0.20378655 0.016708218 0.2222209 0.16133206 0.21210313
0.1998969 0.21089576 0.07495741 -0.047879048 0.0533241 0.026955632 -0.028760424 -0.14251563
0.24159478 0.10874274 -0.13856688 -0.034804717 0.09745257 0.021332154 0.08132816 0.17154564
-0.14411007 -0.054861914 0.07419089 -0.104651995 0.08933502 0.096431665 -0.005837172 0.019895898
0.041722998 -0.07067878 -0.09315196 -0.11161231 0.0129646 0.017523693 0.033601798 -0.123254724
0.0725728 -0.005672997 0.04027861 0.02149299 0.05127269 -0.079341955 0.094802536 0.028680641
-0.020701999 0.21561362 -0.03401973 0.11968032 0.18738315 -0.04126671 0.11707648 -0.0025286714
-0.071859874 0.10923186 -0.02045185 0.24134739 -0.027081048 -0.06857532 0.091839194 0.10955365
0.09158989 0.08063364 0.0461189 0.026719049 0.028921265 0.021049995 -0.08826608 0.06837779
-0.08448695 0.01674124 0.09787085 -0.16599038 0.042513687 -0.069605134 0.09472454 -0.16101629
-0.002407112 -0.15954672 -0.051566496 0.10691904 -0.06410464 -0.18680301 -0.10425952 -0.17818783
00000000: f798 89be 87f1 ac3e 5728 10be 47ee f2bd
00000010: 7e6a a73d e721 093e 8bfe 8dbe fa6b 7ebe
00000020: 858d a2bd aa96 41bd 53d9 b5bd 7544 94be
00000030: 5183 80bd 9211 be3d 9327 483b 79be 97bd
00000040: e22f 043e 1acf 30bd dd89 37bd 539e a6bd
00000050: ca30 f53a 725a abba bab7 87bd cf7c 363d
00000060: d032 2fbe aee1 f5bb fb2a cb3d 2441 c6bd
00000070: 2993 073e a48d b43c 06eb dfbd b037 d3bc
00000080: 7a06 86bc 82cd 0abe 9d5e a7bd d8af d93d
00000090: 27b6 993d edd0 cdbd bfd5 9f3c cf47 1ebe
000000a0: 24da e93d 8c27 21bd c72c 19be a12c a2bd
000000b0: 38b3 f5bd 895f 0cbe 506b afbc ec28 84bd
000000c0: 5342 07bd 5442 84be 8497 84bd c871 1ebe
000000d0: f2d5 47bd fe5d babd 09e8 a53d 6a0a d8bb
000000e0: 9659 16be dd79 f4bd 9f70 47bd 4785 61be
000000f0: 925c 683e 1067 453e 4147 c8bd 282a cd3c
00000100: db30 5b3d cfe7 a73d 608a de3d 32db d6bc
00000110: b007 123e 82a6 003d b07c 1ebd 96f5 503b
00000120: c8f9 19be b69c c7bd e574 91be a7db 7ebc
00000130: 6279 3a3f 936c eabd f087 9d3d 13f3 3bbc
00000140: 4ac2 123c e012 823e 5449 b0bd a3fa ac39
00000150: c0e6 d23d f392 bfbc 9152 83bd 3aaa 84bb
00000160: 3d31 2b3d f8c0 6e39 eafd e0bd ddcc 623d
00000170: e4b8 bbbd d285 8d3d 4486 0fbd 8e0c 893b
00000180: 132c c4bd dab7 8f3d a297 aabd 3359 1bbe
00000190: 186a 37be 14e7 68bc 693e 67bd b5be 83be
000001a0: 0539 963b f507 ecbb b132 81bd 4668 18bd
000001b0: 853a cb3c 53a4 763d 211c 543b 6d5d 4abd
000001c0: 1010 96bc 78ea fc3c e264 e0bd 6ebb 423d
000001d0: 087c 283d 3fe3 cf3d cade 03bc f902 a0bd
000001e0: 51b9 10bd 844f 4c3d 360c 9f3d f9e6 18be
000001f0: 46df 4e3e 375f 47bc 0ae6 093d 6c6b 0abd
00000200: 0d0d 32bd 44fb 03be 68d6 653d 58db ed3d
00000210: 43b3 86bd cc66 d8bd a150 a03d 7e12 a7bd
00000220: 9b20 503e 91b1 87bd 9018 5b3d a911 1b3c
00000230: 4666 97bd e7fa d4bd 8b47 24bd bd71 3fbe
00000240: b805 c23d b59b 19be e6ce 4ebe cb46 4abd
00000250: be75 bc3d 7856 27be 1fb4 f9bc 8bf2 7dbe
00000260: 78db 523d cda5 dcbd cce0 05be e785 fcbd
00000270: 7800 8c3d da2b 553d 6d3e b13c 5f0a 873d
00000280: 2ee8 4a3e 6d1a d3bc 81ac 943c 997d adbd
00000290: 8718 643d 3112 153d ecf8 9dbd 762b bb3d
000002a0: b831 983e 7c36 9c3d 61ab a23e 6cad 503e
000002b0: acdf 883c e08d 633e 3b34 253e 9031 593e
000002c0: c6b1 4c3e 0ff5 573e 4583 993d d21c 44bd
000002d0: 5f6a 5a3d 0fd2 dc3c fb9a ebbc 9eef 11be
000002e0: 9f64 773e 83b4 de3d 7ae4 0dbe 648f 0ebd
000002f0: 3795 c73d c5c0 ae3c 618f a63d a9a9 2f3e
00000300: 9791 13be e3b6 60bd 65f1 973d c953 d6bd
00000310: 47f5 b63d f77d c53d bf45 bfbb b9fc a23c
00000320: bce5 2a3d 09c0 90bd 74c6 bebd ff94 e4bd
00000330: 7969 543c d98d 8f3c 0aa2 093d f96c fcbd
00000340: 0ca1 943d 8ce4 b9bb 2ffb 243d 1112 b03c
00000350: 5003 523d 097e a2bd d527 c23d aaf3 ea3c
00000360: 3d97 a9bc d1c9 5c3e 4658 0bbd f51a f53d
00000370: 5ee1 3f3e 4807 29bd cbc5 ef3d 11b8 25bb
00000380: 452b 93bd f4b4 df3d a38a a7bc c523 773e
00000390: 13d9 ddbc 3871 8cbd 3016 bc3d aa5d e03d
000003a0: 7b93 bb3d 4023 a53d 2ce7 3c3d e8e1 da3c
000003b0: 4aec ec3c 0a71 ac3c d9c4 b4bd a809 8c3d
000003c0: 7e07 adbd ed24 893c 8370 c83d 62f9 29be
000003d0: d522 2e3d 238d 8ebd f1fe c13d 74e1 24be
000003e0: a3c0 1dbb 3760 23be 6437 53bd 5ff8 da3d
000003f0: 4b49 83bd 4a49 3fbe 0486 d5bd df76 36be

l_lstm.weight_hh_l0 f4 [224, 56]
0.09134444 -0.1554663 0.103061 0.11931937 -0.02695678 -0.1291296 0.08712894 0.1268782
-0.05168705 -0.015491733 -0.20207654 0.030871445 -0.068053186 -0.058215268 0.10604671 0.18689549
-0.17581077 -0.04797515 -0.15378322 0.14515354 0.14915912 -0.004721538 -0.010648112 -0.2317247
0.09216499 -0.31116584 0.018120376 -0.010864177 0.07968903 0.019816326 -0.09882317 -0.04091616
-0.018777838 0.08686096 -0.059316754 0.1694066 -0.05764932 0.123410426 -0.045974646 -0.08195276
-0.069268405 0.06779306 0.04462902 -0.007763719 -0.07461004 0.030122504 0.072903015 0.052139238
-0.1038003 0.07219896 0.21807075 -0.08136264 0.019440752 -0.10951633 0.17762509 0.11175921
0.055486135 -0.09776069 0.11621364 0.03673564 0.10754423 -0.10318569 0.06877993 -0.026989862
-0.023704134 -0.033433635 0.031658374 -0.038492348 0.11923113 0.12782282 0.10780352 -0.113225356
-0.009833742 -0.10713184 -0.11141746 0.09190515 -0.03466162 -0.0010948303 0.13925272 0.060857106
0.10491597 -0.271015 0.067043744 -0.08178492 -0.1538775 -0.052237816 -0.106213324 0.066620976
-0.05969576 -0.09191262 -0.09094099 0.019138766 0.060169403 -0.017017603 -0.102713 -0.042284183
-0.025848145 0.020858362 0.17063528 -0.064605094 -0.002701099 0.097771846 0.108992554 0.0719452
0.095289476 0.09936247 -0.0005248495 -0.14140178 -0.10560087 -0.08402363 -0.14482494 -0.09275477
0.067312814 0.08867176 -0.019908445 0.012593423 0.06680155 -0.0068321605 0.1952841 -0.046981443
-0.024345687 0.01841223 0.0090647945 -0.10116873 0.036022983 -0.029234758 -0.046976432 -0.039097767
0.12293484 0.0605593 0.020391546 0.07643268 0.068665445 -0.110508636 -0.038101077 0.17560253
-0.018637052 0.37033406 -0.067391835 0.0015507725 0.072444394 0.057955787 0.09946158 0.116494805
0.021620093 0.17416161 0.05356284 -0.1282661 0.062473204 -0.07003797 0.04048422 -0.08074543
-0.03678035 0.041909054 0.10765407 -0.08690448 -0.063978314 0.13121532 0.121325076 0.055777196
0.11036007 0.02857381 0.0531575 0.19338362 0.06715192 -0.10313923 0.19885534 -0.19128612
0.05605131 -0.029398121 -0.086770676 0.11427848 -0.054185137 -0.13028188 -0.042107645 0.07623166
0.09708748 0.008650586 0.014808865 0.01187607 -0.0070886384 0.13898997 -0.040008307 0.102622546
-0.101643674 -0.060229085 -0.09311986 0.073061034 -0.018310975 -0.08669036 -0.094224446 0.080491
-0.08255192 0.057660338 0.109645106 0.06954588 -0.10866677 0.09224988 -0.0433065 0.05199105
-0.07223234 -0.028881753 0.13159128 0.09080511 -0.052715704 -0.06115211 -0.1014191 -0.07582391
0.004477667 0.085036784 -0.07705209 -0.02889891 0.1512399 0.06973477 -0.047523152 0.13618253
0.01274744 -0.089591265 -0.049305357 0.13757065 0.103009686 0.12396475 0.021996861 -0.10358103
-0.007141267 -0.046010748 0.062173147 0.13442524 0.08342899 0.054207783 0.020696009 0.04013186
0.16891858 -0.034495946 -0.08700076 0.0067311185 -0.10192714 0.03612726 -0.05042806 -0.031609148
0.06608185 0.10285418 -0.12368829 -0.06284135 0.04921396 -0.19600858 0.093433924 0.10269291
-0.11961904 -0.2984888 0.13752572 0.01030937 -0.13317999 -0.13572742 -0.13554023 0.0101071065
00000000: cb12 bb3d 8f32 1fbe a511 d33d b75d f43d
00000010: 77d4 dcbc 8d3a 04be a870 b23d 5cec 013e
00000020: cdb5 53bd 0ad1 7dbc 27ed 4ebe 1de6 fc3c
00000030: 785f 8bbd 2273 6ebd 042f d93d 8861 3f3e
00000040: bd07 34be 9781 44bd 5979 1dbe 21a3 143e
00000050: 2bbd 183e 22b7 9abb 6b75 2ebc 3d49 6dbe
00000060: 00c1 bc3d 2151 9fbe 2f71 943c a9ff 31bc
00000070: 0134 a33d d955 a23c cd63 cabd b497 27bd
00000080: fbd3 99bc 29e4 b13d 20f6 72bd ec78 2d3e
00000090: b221 6cbd 9bbe fc3d e94f 3cbd d9d6 a7bd
000000a0: 98dc 8dbd 16d7 8a3d ebcc 363d cc66 febb
000000b0: 26cd 98bd 78c3 f63c 2d4e 953d f48f 553d
000000c0: 4095 d4bd 0cdd 933d f04d 5f3e 75a1 a6bd
000000d0: 3642 9f3c 194a e0bd 5ae3 353e 03e2 e43d
000000e0: 6e45 633d c236 c8bd 6b01 ee3d 1c78 163d
000000f0: 2640 dc3d 0553 d3bd 7edc 8c3d d819 ddbc
00000100: 2c2f c2bc b5f1 08bd 36ac 013d 27aa 1dbd
00000110: 732f f43d fce3 023e 18c8 dc3d b2e2 e7bd
00000120: b41d 21bc f067 dbbd d62e e4bd c438 bc3d
00000130: 58f9 0dbd 6980 8fba 4498 0e3e 4d45 793d
00000140: 2fde d63d 7ac2 8abe 3b4e 893d da7e a7bd
00000150: 1092 1dbe 52f7 55bd 5f86 d9bd 9470 883d
00000160: 8b83 74bd af3c bcbd 453f babd e7c8 9c3c
00000170: 3174 763d 8068 8bbc 315b d2bd 2e32 2dbd
00000180: 7dbf d3bc 28df aa3c 04bb 2e3e ad4f 84bd
00000190: ec04 31bb 9b3c c83d 7d37 df3d 0158 933d
000001a0: 2127 c33d 8d7e cb3d 0e96 09ba a1cb 10be
000001b0: 4545 d8bd 9514 acbd fd4c 14be 36f6 bdbd
000001c0: 4ddb 893d 8a99 b53d 0917 a3bc a554 4e3c
000001d0: 40cf 883d 51e0 dfbb 8ef8 473e 9d6f 40bd
000001e0: 9b70 c7bc 3fd5 963c 8184 143c 8d31 cfbd
000001f0: d68c 133d bb7d efbc 5c6a 40bd fb24 20bd
00000200: 43c5 fb3d 070d 783d 2c0c a73c bd88 9c3d
00000210: 78a0 8c3d 5a52 e2bd e00f 1cbd 26d1 333e
00000220: bbac 98bc 6d9c bd3e bb04 8abd 4a43 cb3a
00000230: ba5d 943d 0c63 6d3d 83b2 cb3d d494 ee3d
00000240: 9f1c b13c 6c57 323e b564 5b3d 3058 03be
00000250: e7e3 7f3d 1170 8fbd c8d2 253d dc5d a5bd
00000260: fea6 16bd d4a8 2b3d bd79 dc3d fafa b1bd
00000270: 1007 83bd 4f5d 063e 4879 f83d a176 643d
00000280: 7604 e23d 9f13 ea3c aebb 593d 5b06 463e
00000290: f286 893d a93a d3bd bca0 4b3e 82e0 43be
000002a0: 0f96 653d 54d4 f0bc d3b4 b1bd d60a ea3d
000002b0: 3cf1 5dbd 9d68 05be 1179 2cbd 581f 9c3d
000002c0: cdd5 c63d 30bb 0d3c e2a0 723c d993 423c
000002d0: cf47 e8bb 6353 0e3e c0df 23bd c52b d23d
000002e0: 8f2a d0bd c6b2 76bd a0b5 bebd 06a1 953d
000002f0: e600 96bc b78a b1bd bff8 c0bd 77d8 a43d
00000300: fb10 a9bd 3f2d 6c3d 9d8d e03d 126e 8e3d
00000310: af8c debd 81ed bc3d 2862 31bd 91f4 543d
00000320: 8dee 93bd 6d99 ecbc ddbf 063e 08f8 b93d
00000330: 6cec 57bd a37a 7abd d1b4 cfbd 9149 9bbd
00000340: 65b9 923b c427 ae3d 7ccd 9dbd 68bd ecbc
00000350: a2de 1a3e 1ad1 8e3d a3a7 42bd 6f73 0b3e
00000360: a3da 503c a07b b7bd 6af4 49bd 52df 0c3e
00000370: bef6 d23d 3be1 fd3d c332 b43c 4b22 d4bd
00000380: 4a01 eabb c475 3cbd 45a9 7e3d c5a6 093e
00000390: d1dc aa3d fb08 5e3d ad8a a93c 4e61 243d
000003a0: fef8 2c3e 9f4b 0dbd 742d b2bd b790 dc3b
000003b0: 2dbf d0bd 2efa 133d a78d 4ebd 9878 01bd
000003c0: ec55 873d 36a5 d23d 4950 fdbd f7b2 80bd
000003d0: 9494 493d 79b6 48be 495a bf3d a950 d23d
000003e0: d4fa f4bd 86d3 98be 8bd3 0c3e a2e8 283c
000003f0: 5660 08be 21fc 0abe 0fcb 0abe 4798 253c

l_lstm.bias_ih_l0 f4 [224]
0.10115986 -0.1206485 -0.13729876 -0.028958214 0.026683694 0.015728066 0.087408476 -0.015286494
-0.026190449 -0.08981154 0.06589633 -0.08984234 0.08972451 -0.10907035 0.3326792 0.062450387
-0.12666897 0.06894889 0.06516821 -0.017878374 0.051196598 -0.06461112 0.0747072 0.0982304
-0.07200907 0.48683316 -0.16478737 -0.09186938 -0.016887637 0.04110039 0.0009709339 -0.12851222
0.058410957 0.060370103 -0.16498888 -0.07492541 0.09296495 -0.04681233 0.07258537 0.22533466
-0.12560637 -0.053048953 -0.15013902 -0.17926079 0.037761908 -0.076388866 -0.01066069 -0.017552597
-0.12647912 -0.026482645 -0.15140575 0.049678106 0.11153014 0.08571066 -0.105728246 -0.0679159
-0.032029342 -0.08925021 -0.08225652 -0.09369579 -0.17563945 -0.057112426 -0.09537259 -0.0015445141
-0.07370907 0.024524081 -0.13068593 -0.08916304 0.05901761 -0.13183983 0.036486488 -0.15369809
-0.024996087 0.093361236 0.13302921 -0.044620752 -0.11283963 0.08308854 -0.040456716 -0.02580221
-0.13411207 -0.4211656 -0.1101526 0.055738952 -0.19684622 -0.10151982 0.034358937 0.048025206
-0.059536275 0.067136556 -0.13899085 -0.12999223 -0.09902709 -0.0020817071 0.056036964 -0.11859163
0.040484946 -0.014516803 -0.10640371 -0.20413108 0.007870889 0.03878974 0.0037366997 0.062053736
0.0054942663 -0.12397573 0.049276806 0.004301228 -0.0999336 -0.083183005 -0.1902071 -0.005774702
-0.114313595 -0.0013256619 -0.0998318 -0.06619726 0.08834218 -0.08041969 -0.057984997 0.03291034
-0.037625253 -0.09786151 0.013461472 -0.08755883 0.17106251 -0.08861756 0.05171405 0.0740799
-0.031201215 -0.051841516 -0.11562367 0.007892652 -0.02139751 -0.02516027 0.15875089 -0.046945214
-0.03172332 -0.14380148 0.118824735 0.15349627 -0.017771523 0.08183941 -0.13601357 -0.02429747
0.07268344 -0.20355937 -0.117385484 -0.04612369 0.03720897 0.05749449 -0.03200748 -0.023238312
0.14334415 -0.14400445 0.09088971 0.020620685 0.030992424 -0.04425302 0.045190584 0.023461897
-0.13694336 -0.025940735 -0.101661064 -0.06746619 0.04043398 -0.14115271 -0.14309026 0.06344471
0.00911866 -0.09197182 -0.04869375 -0.08871784 -0.1778914 0.16174626 0.37733543 0.09878532
0.019883325 -0.100659385 -0.01778976 0.038880594 -0.080998436 -0.03169004 0.090954795 -0.037637193
0.003538447 -0.0892218 -0.0024294204 0.09607489 0.05744204 -0.032930348 0.07918748 0.17920154
0.090944745 0.42577767 0.017035546 -0.01631847 0.1270843 0.040391043 -0.048468478 -0.22284664
0.0090669505 -0.017263666 -0.11924595 0.07954281 0.07744952 -0.09086643 -0.020865655 0.069892995
-0.0052233157 -0.04439236 -0.08457346 -0.14690137 -0.09034489 -0.013457865 0.025871424 0.14297183
-0.07859772 0.042723052 -0.13840191 0.051970504 0.093238726 0.16378425 0.03279185 -0.043574307
00000000: e72c cf3d 9016 f7bd 0c98 0cbe c739 edbc
00000010: c397 da3c 25d8 803c 3703 b33d 3474 7abc
00000020: 5a8d d6bc 1def b7bd a8f4 863d 43ff b7bd
00000030: 7cc1 b73d 4760 dfbd ee54 aa3e facb 7f3d
00000040: 83b5 01be 1335 8d3d e976 853d ab75 92bc
00000050: 86b3 513d d652 84bd 1700 993d 052d c93d
00000060: 7e79 93bd 3242 f93e 05be 28be 0326 bcbd
00000070: f157 8abc e258 283d 4586 7e3a b598 03be
00000080: 5440 6f3d a446 773d d8f2 28be 7e72 99bd
00000090: 6864 be3d 49be 3fbd a3a7 943d 21be 663e
000000a0: f59e 00be dc49 59bd 0bbe 19be 2490 37be
000000b0: 3bac 1a3d c471 9cbd 2daa 2ebc 77ca 8fbc
000000c0: be83 01be 22f2 d8bc 1c0a 1bbe 457b 4b3d
000000d0: ea69 e43d 1289 af3d 0d88 d8bd 7e17 8bbd
000000e0: 3331 03bd d0c8 b6bd 1b76 a8bd 94e3 bfbd
000000f0: d4da 33be b8ee 69bd b452 c3bd 4b71 caba
00000100: c8f4 96bd bae6 c83c 88d2 05be 1d9b b6bd
00000110: 73bc 713d 0501 07be db72 153d 0863 1dbe
00000120: 98c4 ccbc 2d34 bf3d cf38 083e 40c4 36bd
00000130: 7718 e7bd 532a aa3d f1b5 25bd 285f d3bc
00000140: ad54 09be 04a3 d7be b097 e1bd 874e 643d
00000150: 0e92 49be a0e9 cfbd f5bb 0c3d 14b6 443d
00000160: 4fdc 73bd e47e 893d 9e53 0ebe af1c 05be
00000170: b7ce cabd 406d 08bb 0487 653d 2be0 f2bd
00000180: 8bd3 253d e3d7 6dbc 30ea d9bd bd07 51be
00000190: e7f4 003c fee1 1e3d 6be3 743b 0f2c 7e3d
000001a0: 3f09 b43b fde6 fdbd 7ad6 493d 51f1 8c3b
000001b0: fda9 ccbd da5b aabd a6c5 42be b639 bdbb
000001c0: 3f1d eabd d5c1 adba 9d74 ccbd 6e92 87bd
000001d0: bfec b43d 14b3 a4bd ad81 6dbd fecc 063d
000001e0: f01c 1abd 9e6b c8bd 818d 5c3c 0b52 b3bd
000001f0: 032b 2f3e 207d b5bd 1dd2 533d 34b7 973d
00000200: b199 ffbc c557 54bd 1acc ecbd 2f50 013c
00000210: d549 afbc e91c cebc 988f 223e a049 40bd
00000220: 50f0 01bd b240 13be 625a f33d 202e 1d3e
00000230: 9695 91bc 6c9b a73d 2447 0bbe 7d0b c7bc
00000240: 0edb 943d de71 50be cd67 f0bd 32ec 3cbd
00000250: 6f68 183d 587f 6b3d 461a 03bd 465e bebc
00000260: cfc8 123e e775 13be 6224 ba3d b6ec a83c
00000270: d3e3 fd3c a842 35bd c319 393d 2a33 c03c
00000280: e13a 0cbe aa81 d4bc ad33 d0bd b72b 8abd
00000290: 1a9e 253d 568a 10be 4186 12be 4def 813d
000002a0: 6f66 153c b95b bcbd 1973 47bd b3b1 b5bd
000002b0: 2a29 36be d0a0 253e 1c32 c13e f54f ca3d
000002c0: 5be2 a23c 8226 cebd d5bb 91bc 4241 1f3d
000002d0: 82e2 a5bd 6acd 01bd 8246 ba3d 7529 1abd
000002e0: 4ae5 673b ebb9 b6bd e936 1fbb e9c2 c43d
000002f0: 5848 6b3d f9e1 06bd 0c2d a23d 9c80 373e
00000300: 3d41 ba3d 88ff d93e 218e 8b3c 50ae 85bc
00000310: 6322 023e 1471 253d e286 46bd e931 64be
00000320: 8c8d 143c 886c 8dbc 3837 f4bd 57e7 a23d
00000330: db9d 9e3d 2e18 babd 73ee aabc 0f24 8f3d
00000340: 5928 abbb c3d4 35bd da34 adbd 506d 16be
00000350: be06 b9bd 617e 5cbc 4ff0 d33c 3567 123e
00000360: d7f7 a0bd 5efe 2e3d 3bb9 0dbe 06df 543d
00000370: f2f3 be3d 0fb7 273e bf50 063d f97a 32bd

l_lstm.bias_hh_l0 f4 [224]
0.013455699 0.014932803 0.0070514013 -0.060352072 0.015690254 0.14182176 0.29646626 0.03861858
0.0042350115 -0.12760217 -0.046790916 -0.0012689685 0.079078615 -0.04293999 0.28981835 0.0022838593
0.013597087 0.058657784 -0.08314613 -0.052390743 0.025699269 -0.033055656 -0.07466834 0.059669822
0.07352333 0.46143404 0.007007197 -0.122811906 -0.039074633 0.06129032 0.10357618 -0.14355308
-0.10656006 -0.06022989 0.089464575 -0.116518356 0.08964755 -0.033237506 -0.034098208 0.15097353
-0.053044125 -0.07875859 -0.16854694 -0.011509064 -0.1251677 -0.1360848 -0.03961202 0.16391902
-0.07649615 -0.1166194 -2.937125e-05 0.1110411 0.10259258 0.08251291 0.12522842 0.00045327217
-0.07349797 0.067899935 -0.014602357 0.053172346 0.020405151 -0.07316255 0.0039516357 0.065799505
-0.02598961 0.09576663 -0.06616549 -0.087678306 -0.073913306 0.06342873 0.11886116 -0.105407946
-0.023495374 -0.08771505 0.05668142 -0.14598551 0.07813639 0.022034861 0.08597879 -0.16996935
-0.09761229 -0.45335037 -0.07581771 -0.120200776 -0.102972165 -0.088900246 -0.09468477 0.04817557
0.019174416 0.09116363 0.08507368 -0.13885152 -0.014095025 0.06081843 -0.117853604 -0.122499265
0.036652733 -0.07370771 -0.2172284 -0.17184876 -0.09435276 -0.06525703 -0.081669755 0.07311178
-0.13303928 -0.19362248 -0.10930806 0.097584955 0.0145589495 0.008496052 -0.18015888 -0.15957776
-0.06272628 0.02423273 0.08100345 -0.06976359 -0.030789934 -0.09310785 -0.14862455 -0.046901476
0.041471638 0.08755146 -0.022804521 0.011392119 -0.03147151 -0.06272556 0.15934323 0.061440963
-0.1160904 -0.012634767 -0.12210583 -0.03953139 0.017244613 0.15393853 0.10980052 -0.1528976
0.036853716 0.064444035 -0.08825736 0.12894022 -0.00913358 0.10141003 -0.19177777 -0.028720275
-0.057851605 -0.12664779 -0.045609955 -0.10914489 0.08537762 -0.00054448185 0.05827778 0.16164838
-0.008576176 -0.0178756 0.11367646 -0.07912122 -0.026062595 0.07775177 0.0029046296 -0.13686688
-0.10277097 -0.04249321 -0.05678709 -0.16780946 0.14049245 -0.020984437 -0.016409695 0.14510797
0.049314298 0.084900446 0.07976338 0.06263141 0.012130704 0.028663015 0.1846099 -0.1383461
-0.12150463 -0.12783737 -0.063395016 -0.13989758 0.1062429 0.09598351 0.265989 -0.08191114
-0.075503565 0.07873639 0.032001313 -0.08524271 -0.13612862 0.038119473 0.1392062 0.033606626
-0.13788384 0.2817662 -0.0074277264 0.1232877 0.013939428 -0.14223869 -0.047985647 -0.050956763
-0.043123312 -0.082209334 0.036508005 0.01015835 -0.14337671 0.10661432 -0.009894545 0.030774476
0.03328887 -0.07753797 -0.0283132 -0.06764922 -0.15034702 -0.14069526 -0.1297385 0.12325626
0.031743094 -0.016410345 -0.17868966 -0.0456571 0.10644897 -0.012047194 -0.040538337 0.16526058
00000000: 4b75 5c3c b7a8 743c 710f e73b bc33 77bd
00000010: d988 803c b939 113e 6dca 973e 842e 1e3d
00000020: dac5 8a3b 25aa 02be d5a7 3fbd 8453 a6ba
00000030: f8f3 a13d d8e1 2fbd 1263 943e cdac 153b
00000040: 51c6 5e3c 2543 703d 8548 aabd ad97 56bd
00000050: 4687 d23c 5e65 07bd b7eb 98bd 5868 743d
00000060: 6693 963d 1541 ec3e a19c e53b cf84 fbbd
00000070: b90c 20bd 8f0b 7b3d c01f d43d 94ff 12be
00000080: 293c dabd 9eb3 76bd 3439 b73d 2da1 eebd
00000090: 2299 b73d 0d24 08bd 90aa 0bbd ce98 1a3e
000000a0: cc44 59bd 2f4c a1bd 9297 2cbe 8390 3cbc
000000b0: f62b 00be d059 0bbe 3740 22bd 63da 273e
000000c0: 03aa 9cbd 27d6 eebd 4762 f6b7 8469 e33d
000000d0: 0f1c d23d 87fc a83d e13b 003e 29a5 ed39
000000e0: 1b86 96bd 1f0f 8b3d b93e 6fbc 3fcb 593d
000000f0: b428 a73c 3fd6 95bd b97c 813b e4c1 863d
00000100: 2ae8 d4bc 4b21 c43d c681 87bd af90 b3bd
00000110: dc5f 97bd ece6 813d 7b6d f33d 1fe0 d7bd
00000120: 5f79 c0bc f3a3 b3bd c72a 683d 3a7d 15be
00000130: f905 a03d 7482 b43c a615 b03d 720c 2ebe
00000140: f4e8 c7bd 8a1d e8be 5146 9bbd d32b f6bd
00000150: 12e3 d2bd 5511 b6bd 17ea c1bd bf53 453d
00000160: aa13 9d3c ffb3 ba3d 1c3b ae3d 182f 0ebe
00000170: d2ee 66bc bf1c 793d 3b5d f1bd e5e0 fabd
00000180: 2d21 163d 11f4 96bd 1f71 5ebe 1ff9 2fbe
00000190: 053c c1bd 7aa5 85bd 7942 a7bd a1bb 953d
000001a0: 733b 08be f944 46be e7dc dfbd 9fda c73d
000001b0: a988 6e3c 0633 0b3c 927b 38be 5a68 23be
000001c0: a376 80bd b883 c63c 23e5 a53d 37e0 8ebd
000001d0: 2c3b fcbc 54af bebd 0931 18be c31b 40bd
000001e0: 2ade 293d 2e4e b33d 8cd0 babc 03a6 3a3c
000001f0: 45e8 00bd 4276 80bd df2a 233e 85a9 7b3d
00000200: cec0 edbd 0e02 4fbc 9f12 fabd abeb 21bd
00000210: 9344 8d3c 10a2 1d3e 18df e03d 3091 1cbe
00000220: ecf3 163d 3cfb 833d 46c0 b4bd e808 043e
00000230: 03a5 15bc 10b0 cf3d 6461 44be c846 ebbc
00000240: cef5 6cbd f5af 01be 81d1 3abd 5b87 dfbd
00000250: 76da ae3d 8fbb 0eba aeb4 6e3d 2787 253e
00000260: 1783 0cbc da6f 92bc 34cf e83d 4e0a a2bd
00000270: 3981 d5bc 523c 9f3d 995b 3e3b d526 0cbe
00000280: 9679 d2bd 5c0d 2ebd 9499 68bd 3ed6 2bbe
00000290: 41dd 0f3e 8ee7 abbc a06d 86bc 2f97 143e
000002a0: cafd 493d 49e0 ad3d fc5a a33d e644 803d
000002b0: dcbf 463c b3ce ea3c 610a 3d3e 9aaa 0dbe
000002c0: 6bd7 f8bd cde7 02be 3fd5 81bd 5041 0fbe
000002d0: e195 d93d 0193 c43d b62f 883e 07c1 a7bd
000002e0: 9da1 9abd 8b40 a13d cf13 033d bb93 aebd
000002f0: 4d65 0bbe 2a23 1c3d 128c 0e3e 1aa7 093d
00000300: 6c31 0dbe a943 903e 4964 f3bb 437e fc3d
00000310: 3362 643c 05a7 11be 998c 44bd 0ab8 50bd
00000320: 12a2 30bd 5e5d a8bd 6b89 153d 356f 263c
00000330: 58d1 12be 9c58 da3d bb1c 22bc c11a fc3c
00000340: e959 083d 3acc 9ebd 16f1 e7bc ad8b 8abd
00000350: 92f4 19be 6b12 10be 2bda 04be c76d fc3d
00000360: 0c05 023d fd6e 86bc 6cfa 36be f002 3bbd
00000370: eb01 da3d 9861 45bc 870b 26bd 123a 293e

l_lstm.weight_ih_l1 f4 [224, 56]
-0.097590975 0.11116041 0.14076586 -0.084724896 -0.15488912 -0.034494545 0.79403967 -0.0712809
0.024421643 -0.09093591 -0.06582564 0.03797663 0.11591511 -0.023012558 0.047454745 -0.07494671
-0.081625044 0.09708461 -0.06660804 -0.122884065 0.013694654 -0.12798549 -0.028596638 0.42576426
-0.026495773 1.9275812 0.11247236 -0.07186255 0.014493115 0.05287768 0.14223407 0.09673372
0.27019867 0.106396385 -0.10730343 0.15265447 0.024272932 -0.15526976 -0.08954322 0.13948296
-0.09917904 0.010792049 0.14191926 -0.15542129 0.027279781 0.002959051 -0.06701949 -0.060460452
0.011017404 0.054747336 0.092897035 0.36252725 -0.009518036 -0.05921666 -0.052133948 -0.27514747
-0.09319614 -0.111714125 0.14661051 0.14840196 0.12095446 0.04798527 0.20286809 -0.06055547
-0.05287541 -0.06735682 -0.05669413 -0.05949549 0.16310905 0.0039327526 0.14412165 0.15581192
0.15534541 -0.028115712 -0.041961502 0.035587583 -0.027959846 -0.10584202 0.0073835286 0.008535139
-0.09860042 0.40295428 -0.04683979 -0.11721822 -0.07741296 0.0024129166 0.009599218 -0.09271863
-0.09584625 -0.13860357 0.08546259 0.007704881 0.050029498 -0.10057311 0.17263682 0.15563874
-0.102710776 -0.120110534 0.027686778 0.07158568 -0.07132203 -0.07436191 -0.041414242 -0.08823269
0.047931205 -0.04443807 0.085442424 0.11009494 0.089518905 -0.07144981 -0.1356152 -0.062581055
-0.045895305 -0.045975197 -0.06232114 0.053436905 -0.10862069 -0.05959731 0.34732303 -0.037955128
0.05945971 0.10083777 0.101063006 0.004943974 0.099045716 0.05755165 0.042400982 0.03094258
0.10685564 -0.078890026 -0.10664061 0.0029637213 -0.111865334 0.12314463 -0.08868081 0.32432878
-0.045508016 1.2701882 -0.033577923 -0.13555267 -0.010587346 -0.018736452 -0.09667526 -0.05887978
0.10585284 0.04490186 0.026102569 0.070904925 -0.02003824 -0.031903114 0.045092996 -0.08008052
0.01155286 -0.025632089 0.112841964 0.07809641 -0.0043172594 0.0072265468 -0.03263857 -0.10295545
-0.017311862 0.049854495 0.15994905 0.14672033 -0.09938454 0.0640947 0.1550011 -0.25291863
0.040150795 0.04579553 0.016677402 0.08843461 -0.037546836 -0.0011197566 -0.020451568 0.09236305
-0.10763493 -0.042399455 0.017880809 0.07629179 -0.0773265 -0.01546511 -0.009686662 -0.07366869
0.10817321 -0.042636186 0.14110507 0.006918016 -0.12248236 -0.103998244 -0.10154772 -0.021414815
-0.10236524 0.15161562 -0.051449124 -0.14728858 0.060678087 -0.09910454 -0.063383885 -0.084137954
0.05399718 -0.1510134 0.1190739 -0.037365176 0.057135694 -0.0734595 0.059814 -0.0687221
-0.09708031 0.01868062 -0.0040479954 0.06720958 0.048151653 0.010284593 0.023080636 0.07507274
-0.0053137904 0.04447496 -0.022552146 0.06375898 0.040872782 0.08192853 0.09139288 -0.13026612
-0.08930803 -0.067586444 0.040631678 0.07206729 0.08744512 0.13935584 0.017241377 0.095747985
0.0073033664 -0.10040772 0.13615829 -0.14558019 0.087893054 0.021117985 -0.06271442 0.08499854
-0.013207171 -0.023514984 -0.03163044 -0.044521604 0.05554797 0.11207217 -0.092110634 0.25642455
0.0076957135 0.58559495 0.092773214 0.03303845 0.026601247 0.12490256 -0.084265985 0.043661173
00000000: c7dd c7bd 12a8 e33d ed24 103e 3f84 adbd
00000010: 419b 1ebe 274a 0dbd 2f46 4b3f b8fb 91bd
00000020: e60f c83c 9b3c babd 98cf 86bd 628d 1b3d
00000030: e764 ed3d d584 bcbc e85f 423d a97d 99bd
00000040: 082b a7bd 4cd4 c63d cc69 88bd a4aa fbbd
00000050: 8b5f 603c a10e 03be 7f43 eabc c6fd d93e
00000060: aa0d d9bc fbba f63f e957 e63d ac2c 93bd
00000070: 8874 6d3c 4496 583d cfa5 113e 541c c63d
00000080: 7b57 8a3e 59e6 d93d e7c1 dbbd 7451 1c3e
00000090: 07d8 c63c 09ff 1ebe 7062 b7bd 9fd4 0e3e
000000a0: 611e cbbd 22d1 303c 4853 113e c226 1fbe
000000b0: d979 df3c a3ec 413b 8441 89bd 61a5 77bd
000000c0: 5782 343c be3e 603d cd40 be3d 2c9d b93e
000000d0: 89f1 1bbc 2b8d 72bd 688a 55bd 21e0 8cbe
000000e0: 9edd bebd 60ca e4bd 1121 163e aff6 173e
000000f0: f9b6 f73d 348c 443d a7bc 4f3e 0309 78bd
00000100: e393 58bd 5ff2 89bd 1b38 68bd 8bb1 73bd
00000110: 0f06 273e 52de 803b a094 133e 298d 1f3e
00000120: de12 1f3e ec52 e6bc d3df 2bbd 49c4 113d
00000130: 0c0c e5bc b3c3 d8bd 87f1 f13b f8d6 0b3c
00000140: 04ef c9bd 0650 ce3e 14db 3fbd 1b10 f0bd
00000150: b08a 9ebd 0622 1e3b 0a46 1d3c 44e3 bdbd
00000160: 0a4b c4bd 18ee 0dbe 0307 af3d 3a79 fc3b
00000170: bbeb 4c3d 46f9 cdbd b5c7 303e c35f 1f3e
00000180: 075a d2bd 83fc f5bd 62cf e23c 839b 923d
00000190: 4911 92bd 0f4b 98bd fba1 29bd 57b3 b4bd
000001a0: 8353 443d b204 36bd 70fc ae3d 7579 e13d
000001b0: b055 b73d 4754 92bd b6de 0abe 7f2a 80bd
000001c0: b7fc 3bbd 7d50 3cbd 7444 7fbd a8e0 5a3d
000001d0: 8674 debd 4f1c 74bd 53d4 b13e d676 1bbd
000001e0: 068c 733d 0884 ce3d 1ffa ce3d 0f01 a23b
000001f0: 7bd8 ca3d 47bb 6b3d a7ac 2d3d 4b7b fd3c
00000200: 21d7 da3d 1891 a1bd 6466 dabd fe3a 423b
00000210: a719 e5bd 4033 fc3d 499e b5bd 6c0e a63e
00000220: 9d66 3abd 8795 a23f 0189 09bd 52ce 0abe
00000230: 8c76 2dbc 307d 99bc aefd c5bd ed2b 71bd
00000240: 60c9 d83d 03eb 373d 0ed5 d53c 9a36 913d
00000250: 3c27 a4bc d7ac 02bd 6fb3 383d 4101 a4bd
00000260: 3548 3d3c 63fa d1bc b019 e73d 03f1 9f3d
00000270: cc77 8dbb abcc ec3b 05b0 05bd 4fda d2bd
00000280: 9bd1 8dbc 3a34 4c3d afc9 233e db3d 163e
00000290: 1f8a cbbd 1544 833d 9cb8 1e3e 8d7e 81be
000002a0: 2975 243d 1894 3b3d 0c9f 883c 341d b53d
000002b0: b6ca 19bd ccc4 92ba 0c8a a7bc d728 bd3d
000002c0: b46f dcbd 0dab 2dbd c67a 923c df3e 9c3d
000002d0: 5b5d 9ebd 5f61 7dbc ceb4 1ebc 9cdf 96bd
000002e0: ea89 dd3d 48a3 2ebd d97d 103e 86b0 e23b
000002f0: 08d8 fabd 08fd d4bd 40f8 cfbd 1f6e afbc
00000300: dea4 d1bd 2041 1b3e 51bc 52bd d1d2 16be
00000310: 9689 783d 52f7 cabd 69cf 81bd 8550 acbd
00000320: 262c 5d3d 42a3 1abe 04dd f33d 3a0c 19bd
00000330: 1e07 6a3d ef71 96bd 86ff 743d 2cbe 8cbd
00000340: 0bd2 c6bd 1908 993c 0ca5 84bb 2da5 893d
00000350: ab3a 453d b680 283c 9a13 bd3c bdbf 993d
00000360: 4e1f aebb 602b 363d 47bf b8bc 1194 823d
00000370: 386a 273d 25ca a73d 312c bb3d 7b64 05be
00000380: 21e7 b6bd c36a 8abd 676d 263d 0498 933d
00000390: 6d16 b33d 4cb3 0e3e ca3d 8d3c 8517 c43d
000003a0: 1451 ef3b 90a2 cdbd 146d 0b3e f912 15be
000003b0: 4601 b43d a0ff ac3c 6b70 80bd b713 ae3d
000003c0: e462 58bc 7fa2 c0bc ec8e 01bd 495c 36bd
000003d0: 4586 633d 1886 e53d 80a4 bcbd 144a 833e
000003e0: 532c fc3b 8de9 153f e2ff bd3d 5353 073d
000003f0: dcea d93c eacc ff3d a593 acbd 0fd6 323d

l_lstm.weight_hh_l1 f4 [224, 56]
0.26618916 0.11495538 0.081596896 -0.0036670314 0.13246834 0.10126514 0.026933838 -0.052625835
-0.14096828 -0.3070967 -0.14940466 0.56350964 -0.07777556 0.2941749 0.27898434 0.061532445
-0.43996477 -0.14388737 -0.032051817 -0.060847286 -0.13800892 0.1258986 -0.007889154 -0.13612232
-0.023074 -0.13948567 -0.35302192 0.13546023 0.009085984 -0.07666612 0.114978045 0.046575353
-0.27940786 0.17403644 -0.004208416 0.0042470857 -0.5573393 0.16363023 -0.010524387 0.06499243
-0.10023998 0.05188896 -0.0512846 -0.04556152 0.4106034 0.106932476 0.043574873 0.03473049
-0.31968474 -0.024142524 0.071988255 0.031525463 -0.13850191 -0.1563816 0.036667828 0.06722155
-0.0006043464 -0.08118564 0.047601383 0.040076543 -0.097915925 0.12256777 -0.05273486 0.13920899
-0.006290925 -0.07306907 0.05226501 -0.14250216 0.074780546 0.0445172 0.048948422 0.093537964
0.08770482 0.07643236 -0.03335337 0.052133057 0.017449426 0.087731674 0.020891191 -0.03072836
0.1343748 0.108639605 0.04812823 0.11275555 0.03272588 0.14215568 0.08899079 -0.0034220826
-0.024012841 -0.08868405 -0.014337032 -0.091415465 -0.08162761 0.03374202 0.11161441 0.13821845
0.04067105 0.091988236 0.08594808 0.10154939 -0.0947619 0.100127205 0.019812677 -0.07857499
-0.040880986 -0.078308485 -0.12237051 0.10347499 -0.022413492 -0.14931639 -0.024750438 -0.04281611
0.2013667 0.114045575 -0.03834189 -0.0386389 0.042991668 0.07804071 -0.05163787 0.027180273
-0.10320113 -0.10821808 0.034495126 0.26735198 -0.07411554 0.045603923 0.1833623 -0.026140302
-0.23613612 0.08000217 0.050343245 -0.087152034 -0.11527071 -0.026366131 -0.021538667 -0.000887978
-0.0112414155 -0.062210366 -0.26420727 0.11969511 0.07886185 0.057965912 0.005319078 0.085791655
-0.0031210463 -0.069965005 -0.10331175 -0.083553284 -0.286293 0.015630703 -0.1096731 0.09658249
0.11080452 -0.0036726652 -0.08197461 0.019888517 0.13886118 -0.021322588 0.053248506 0.017804554
-0.17279814 0.020933844 -0.045692254 -0.07483027 0.054195136 0.10639108 -0.056626063 0.082709
0.037317667 -0.10871952 0.06625921 -0.04089768 -0.12548016 0.080601975 -0.056735426 0.014554567
-0.08982667 -0.22570905 0.11872104 0.039085783 -0.027226167 0.09068285 0.03331016 -0.019443046
-0.13814211 0.12559259 -0.07158168 0.06554786 0.021415928 0.08493265 0.020784346 0.099534184
0.036930613 -0.14139895 -0.10671988 0.08778637 0.115077205 -0.13100643 -0.09143234 -0.09348887
-0.16318975 0.07972539 -0.116203085 0.049068496 -0.049744204 0.009275161 -0.098357506 0.066895045
-0.039828766 0.0010976553 -0.0128745735 0.047753118 0.058431834 -0.006313094 0.026483577 0.042275887
-0.013235822 0.1357598 0.0019300327 -0.11992045 0.06626351 0.03777416 0.12448733 0.03141097
0.10414447 0.07270519 0.054468524 -0.11142234 0.026426326 0.08049964 -0.004049374 -0.08804017
-0.13129342 -0.20577283 0.017790366 0.15035209 0.087486796 0.11705411 0.14624454 0.12503508
-0.22038111 0.088738926 -0.05741606 -0.08239794 -0.080632016 0.032799352 0.14836691 -0.06439448
-0.08612695 -0.072245315 -0.1896001 0.10965957 -0.05377754 -0.007122076 0.1163465 -0.05479346
00000000: f249 883e ba6d eb3d 461c a73d 9452 70bb
00000010: c8a5 073e 1964 cf3d 5aa4 dc3c 308e 57bd
00000020: fd59 10be c73b 9dbe 89fd 18be 2b42 103f
00000030: cb48 9fbd 189e 963e 09d7 8e3e 7209 7c3d
00000040: 1043 e1be 3657 13be c448 03bd 013b 79bd
00000050: 3652 0dbe 90eb 003e 8341 01bc a663 0bbe
00000060: af05 bdbc 55d5 0ebe 4abf b4be 16b6 0a3e
00000070: 61dd 143c 2003 9dbd 9c79 eb3d ccc5 3e3d
00000080: 8c0e 8fbe 9c36 323e c1e6 89bb 232b 8b3b
00000090: caad 0ebf af8e 273e 7a6e 2cbc c01a 853d
000000a0: 9e4a cdbd 8589 543d cd0f 52bd b79e 3abd
000000b0: 9c3a d23e 6aff da3d 917b 323d 8f41 0e3d
000000c0: b8ad a3be 8bc6 c5bc 946e 933d d820 013d
000000d0: 72d3 0dbe 8022 20be 0131 163d 74ab 893d
000000e0: 006d 1eba a844 a6bd abf9 423d 4d27 243d
000000f0: 2588 c8bd d004 fb3d 8200 58bd cd8c 0e3e
00000100: 1b24 cebb 3da5 95bd d613 563d 16ec 11be
00000110: 8b26 993d ab57 363d 247e 483d d590 bf3d
00000120: 969e b33d 9288 9c3d 8b9d 08bd 7989 553d
00000130: 19f2 8e3c aaac b33d 0124 ab3c 0bba fbbc
00000140: 8c99 093e 717e de3d 1b22 453d 62ec e63d
00000150: 930b 063d 4291 113e ce40 b63d 0545 60bb
00000160: 94b6 c4bc fc9f b5bd dfe5 6abc 0838 bbbd
00000170: 602c a7bd 1335 0a3d 1996 e43d 2389 0d3e
00000180: b096 263d 5464 bc3d 8c05 b03d 20f9 cf3d
00000190: 8712 c2bd 7e0f cd3d 324e a23c edeb a0bd
000001a0: d272 27bd 3360 a0bd 649d fabd b2ea d33d
000001b0: 809c b7bc 65e6 18be 6ec1 cabc f25f 2fbd
000001c0: 1233 4e3e ba90 e93d 630c 1dbd d343 1ebd
000001d0: 0818 303d cfd3 9f3d 3b82 53bd 2aa9 de3c
000001e0: 1d5b d3bd 71a1 ddbd c34a 0d3d 5ce2 883e
000001f0: e3c9 97bd 2ecb 3a3d 54c3 3b3e 3024 d6bc
00000200: abcd 71be 2dd8 a33d b834 4e3d c47c b2bd
00000210: 0d13 ecbd c9fd d7bc dc71 b0bc 32c7 68ba
00000220: ea2d 38bc 4cd0 7ebd 2d46 87be b622 f53d
00000230: 5282 a13d aa6d 6d3d a94b ae3b 89b3 af3d
00000240: 788a 4cbb d049 8fbd 1c95 d3bd fc1d abbd
00000250: ff94 92be f60b 803c 4a9c e0bd 0acd c53d
00000260: 7bed e23d 19b1 70bb 4ee2 a7bd 3eed a23c
00000270: a031 0e3e b5ac aebc 1b1b 5a3d dbda 913c
00000280: fff1 30be 747d ab3c cd27 3bbd 9d40 99bd
00000290: b8fb 5d3d 91e3 d93d bbf0 67bd 5663 a93d
000002a0: 69da 183d 57a8 debd e9b2 873d 5384 27bd
000002b0: df7d 00be a612 a53d 6863 68bd 4776 6e3c
000002c0: 0cf7 b7bd 4620 67be 0424 f33d 6a18 203d
000002d0: 6909 dfbc eeb7 b93d 3c70 083d 0647 9fbc
000002e0: 2075 0dbe 589b 003e 6a99 92bd f53d 863d
000002f0: 7570 af3c 2bf1 ad3d ef43 aa3c 94d8 cb3d
00000300: 8e44 173d e3ca 10be f48f dabd 57c9 b33d
00000310: 99ad eb3d 8d26 06be e140 bbbd 1877 bfbd
00000320: 371b 27be 1147 a33d e2fb edbd 0cfc 483d
00000330: 94c0 4bbd d8f6 173c a96f c9bd 4500 893d
00000340: 7d23 23bd 33df 8f3a e0ef 52bc c698 433d
00000350: 3856 6f3d 12de cebb 16f4 d83c 7b29 2d3d
00000360: 10db 58bc 9e04 0b3e 27f9 fc3a da98 f5bd
00000370: 2ab5 873d 14b9 1a3d 37f3 fe3d caa8 003d
00000380: b249 d53d 75e6 943d 631a 5f3d 6531 e4bd
00000390: 067c d83c ffdc a43d 9cb0 84bb 684e b4bd
000003a0: c871 06be 1db6 52be 1abd 913c e6f5 193e
000003b0: 472c b33d 11ba ef3d 21c1 153e 3209 003e
000003c0: 96ab 61be c1bc b53d 1a2d 6bbd 40c0 a8bd
000003d0: 6622 a5bd 9d58 063d 7fed 173e 41e1 83bd
000003e0: 5463 b0bd 5af5 93bd 8726 42be 3295 e03d
000003f0: d645 5cbd 4e60 e9bb 1347 ee3d 1b6f 60bd

l_lstm.bias_ih_l1 f4 [224]
0.08639216 -0.04319846 -0.040672474 -0.05808588 -0.0145048015 -0.13867752 -0.07538853 -0.093258336
0.05347376 -0.08864636 -0.05953402 -0.11935611 -0.17546095 0.11583984 -0.10855907 0.068558276
0.14234461 -0.0018874734 -0.061253525 0.05943034 -0.106192745 -0.06121417 0.03503479 0.050409675
0.08200391 0.0044086627 0.07331682 -0.13311055 0.06845896 -0.09862994 -0.030532049 -0.036045343
0.14975263 0.14055856 0.0028369834 0.07103046 0.20163603 -0.022649031 -0.061011262 0.012135911
-0.02176035 -0.050571438 0.07571298 -0.12562503 -0.026082652 -0.14572807 -0.011640395 0.13860671
0.080617696 -0.13099654 -0.1359888 -0.12010539 0.075526215 -0.07652119 0.1449827 -0.16409366
0.083660886 -0.1485422 -0.0681113 0.05823655 0.09726705 -0.20083687 -0.10367259 -0.123464875
-0.042736255 0.103985965 -0.09925016 -0.162026 -0.041669108 0.06477276 -0.16828352 -0.016535467
-0.0075390753 -0.057614908 0.07843098 -0.14595252 0.07198191 0.10346547 -0.14444447 0.09755829
-0.11530898 -0.0673681 0.014978127 0.0013829769 0.049412012 -0.07998672 0.0034316473 -0.1152402
-0.040852666 -0.041812092 -0.026335586 -0.1137734 0.04440763 0.11098077 -0.06601956 -0.093168594
-0.06332003 -0.01358954 -0.1485747 -0.0067457017 0.08988017 -0.11043944 0.02692481 -0.05019398
-0.04438893 -0.03244411 -0.00027605658 -0.08655673 -0.03730941 0.09114353 0.08117351 -0.034478035
-0.011698611 0.09586685 -0.057111386 -0.011156573 0.049393818 -0.0032657476 -0.07894404 -0.10308206
-0.07977684 -0.118363254 0.09392022 0.09313772 0.090898044 -0.048815116 -0.032374043 -0.02932899
-0.1413163 -0.029348178 -0.11250585 -0.12398815 0.05238066 0.07589745 0.033534806 0.003920172
-0.057315808 -0.05363006 0.04979626 0.021929452 0.055868406 -0.09477158 0.032379862 0.098250456
-0.1542717 -0.09928197 0.06781038 -0.06031616 -0.091719255 -0.08694592 0.008060539 -0.06882851
0.07705181 0.09330644 -0.09541096 0.06724643 0.116816334 -0.11366622 0.026210947 -0.14121534
-0.05383701 -0.023339778 0.088253334 -0.040886514 0.08925977 0.087399594 0.0047705974 -0.022682928
0.055293765 -0.14592366 0.011809984 -0.100891545 0.06952377 0.1038624 -0.059269287 -0.12194541
-0.003809063 0.10020603 0.03786252 -0.1310301 -0.055401865 0.06883978 -0.0023673023 -0.10285716
-0.068142086 0.004486992 0.095706955 0.04933202 0.020629229 0.1108896 -0.07413016 -0.0242095
-0.10924867 -0.019090254 0.23786476 0.092331305 -0.023464356 -0.03871049 0.09971405 -0.09563426
0.02479494 0.003939827 0.026351128 0.022148412 -0.036232498 -0.08583978 0.022781968 0.08230442
-0.048425365 -0.13188799 0.03486411 -0.10305965 0.066693656 -0.08801963 0.11568836 0.15931444
-0.14058536 0.031140553 -0.048515845 -0.077273555 -0.066683516 -0.012667202 0.022852387 0.02932288
00000000: 5fee b03d def0 30bd 2e98 26bd 76eb 6dbd
00000010: 8ca5 6dbc 7b01 0ebe 4d65 9abd 3afe bebd
00000020: 4d07 5b3d 398c b5bd f2d9 73bd fa70 f4bd
00000030: 09ac 33be 703d ed3d 3854 debd 4868 8c3d
00000040: c9c2 113e 1965 f7ba fae4 7abd 3a6d 733d
00000050: 957b d9bd b6bb 7abd a480 0f3d 607a 4e3d
00000060: aaf1 a73d 8b76 903b 2127 963d 224e 08be
00000070: 3634 8c3d 7efe c9bd 591e fabc 48a4 13bd
00000080: c158 193e 95ee 0f3e afec 393b 6b78 913d
00000090: ad79 4e3e 768a b9bc f2e6 79bd b3d5 463c
000000a0: c342 b2bc ff23 4fbd 680f 9b3d d9a3 00be
000000b0: 49ab d5bc bd39 15be 5bb7 3ebc ebee 0d3e
000000c0: e41a a53d f523 06be a640 0bbe d1f9 f5bd
000000d0: 7dad 9a3d 24b7 9cbd 5876 143e 2b08 28be
000000e0: 6656 ab3d 721b 18be f07d 8bbd 7389 6e3d
000000f0: f233 c73d 2ea8 4dbe 4b52 d4bd 27db fcbd
00000100: 360c 2fbd 98f6 d43d ab43 cbbd 25ea 25be
00000110: 3aad 2abd 95a7 843d 8452 2cbe 6375 87bc
00000120: 590a f7bb 9cfd 6bbd 6ca0 a03d 9474 15be
00000130: 406b 933d b4e5 d33d 40e9 13be a4cc c73d
00000140: 1d27 ecbd 49f8 89bd d166 753c 0145 b53a
00000150: 4064 4a3d 14d0 a3bd 7de5 603b 0e03 ecbd
00000160: 2055 27bd 2843 2bbd babd d7bc 0702 e9bd
00000170: c6e4 353d e349 e33d 4335 87bd 2dcf bebd
00000180: efad 81bd a9a6 5ebc f723 18be 0c0b ddbb
00000190: 1813 b83d 132e e2bd 6b91 dc3c 3498 4dbd
000001a0: 2bd1 35bd 1de4 04bd b0bb 90b9 a844 b1bd
000001b0: c0d1 18bd 76a9 ba3d 4c3e a63d d738 0dbd
000001c0: 88ab 3fbc d755 c43d a1ed 69bd 0fca 36bc
000001d0: 2c51 4a3d 2706 56bb 6aad a1bd b01c d3bd
000001e0: 0a62 a3bd 6f68 f2bd 3f59 c03d fdbe be3d
000001f0: c128 ba3d 5cf2 47bd a59a 04bd 5a43 f0bc
00000200: 38b5 10be 976b f0bc 7869 e6bd 80ed fdbd
00000210: 1a8d 563d 1f70 9b3d cb5b 093d c974 803b
00000220: fbc3 6abd 32ab 5bbd 2af7 4b3d 65a5 b33c
00000230: 45d6 643d 9a17 c2bd bfa0 043d 8937 c93d
00000240: 67f9 1dbe 5854 cbbd 2be0 8a3d 140e 77bd
00000250: 4ed7 bbbd b410 b2bd 5a10 043c f6f5 8cbd
00000260: 57cd 9d3d 7217 bf3d d266 c3bd 7fb8 893d
00000270: 673d ef3d d6c9 e8bd 57b8 d63c c19a 10be
00000280: 3284 5cbd 1033 bfbc 2abe b43d 9e78 27bd
00000290: d4cd b63d 8ffe b23d ac52 9c3b 8cd1 b9bc
000002a0: b77b 623d 036d 15be aa7e 413c 3aa0 cebd
000002b0: 7a62 8e3d cfb5 d43d 5ac4 72bd 84be f9bd
000002c0: 79a1 79bb d238 cd3d bb15 1b3d c12c 06be
000002d0: 11ed 62bd dffb 8c3d be24 1bbb c6a6 d2bd
000002e0: 148e 8bbd 9e07 933b 0202 c43d 5f10 4a3d
000002f0: a1fe a83c 161a e33d 8ed1 97bd 0053 c6bc
00000300: c4bd dfbd 2a63 9cbc d292 733e 3218 bd3d
00000310: 5238 c0bc e48e 1ebd e136 cc3d e5db c3bd
00000320: c21e cb3c aa19 813b 52de d73c 9670 b53c
00000330: 8768 14bd c4cc afbd 40a1 ba3c 388f a83d
00000340: ad59 46bd a50d 07be abcd 0e3d f010 d3bd
00000350: af96 883d a343 b4bd 05ee ec3d 5323 233e
00000360: 9cf5 0fbe 791a ff3c 8db8 46bd 9941 9ebd
00000370: 5e91 88bd 198a 4fbc ee34 bb3c 8936 f03c

l_lstm.bias_hh_l1 f4 [224]
0.11659971 -0.09359506 0.09934236 -0.02765094 0.007522047 0.061894864 -0.15186703 0.062208276
-0.10704646 -0.0694359 -0.11109002 0.10253687 -0.15610199 -0.09751601 0.03973788 0.10914426
-0.045002285 -0.116990514 -0.09294098 -0.09883906 0.12533659 0.005025792 0.012675795 0.031000754
0.070163846 0.0063050147 0.08382825 -0.118780166 0.04755123 -0.17573327 -0.095346875 0.08131699
-0.03178938 -0.03314102 0.09198569 0.0038209935 0.25646713 -0.040132582 -0.004634087 -0.05141409
-0.08600013 0.064437106 -0.013571564 -0.12950708 0.0908513 0.030197822 -0.05825632 0.061780825
-0.037611745 -0.13681152 0.10487085 0.12645905 0.08129334 0.07104267 -0.004171421 -0.057271305
-0.11934523 -0.082569346 -0.029267676 -0.03408661 -0.123289436 0.010120416 -0.094148986 -0.14875422
0.072184935 -0.03551498 -0.16266386 0.04267218 -0.04290294 -0.14291218 -0.05324125 0.102988146
-0.013373994 -0.19079153 -0.0046963515 0.0040485407 0.04800158 -0.14312497 -0.16266017 -0.045668185
0.026719894 -0.062450983 -0.15207191 -0.14795932 -0.08781684 -0.18505526 -0.120956056 0.04701319
-0.14454208 -0.15413965 -0.13234414 -0.1052876 -0.06802342 -0.07694939 -0.051920705 -0.13802329
0.009352948 -0.033886977 -0.14334695 0.05014071 -0.022518598 0.021582862 -0.0065766647 -0.111724846
-0.15368997 -0.037625287 -0.11444539 -0.05201282 -0.121998236 0.07797134 -0.0054872786 -0.099125795
0.060311437 0.037390582 0.11933645 0.10502561 -0.026473502 0.0043614954 -0.038629945 0.010250482
0.021376675 -0.17864686 -0.072632946 0.05833545 -0.08983416 0.122144885 0.03613372 0.1005482
0.013219379 0.07026159 0.119043365 0.1282998 -0.056887217 -0.08713911 0.0905574 0.058095023
-0.012532216 0.08012072 -0.1094504 -0.0673682 0.012293482 -0.015852328 -0.030716041 -0.05550457
0.056055475 0.046007596 0.0747497 -0.041235916 -0.17247725 -0.11012488 -0.015862184 0.075554095
-0.043543145 -0.10553823 0.034609176 -0.023898488 0.20562868 0.1089084 0.028928623 0.035392344
0.021740569 0.05043761 0.089832135 0.028609792 -0.024917308 -0.11412894 -0.029562566 0.06556462
0.03654058 -0.07333286 -0.11266655 -0.0020648714 -0.01722037 0.117763214 -0.018928932 0.050729956
0.01257454 0.12142444 -0.15228844 -0.054817155 0.065046266 0.07853482 0.0930502 0.10777381
0.042051837 -0.031785723 -0.049763907 -0.11929492 0.07651855 0.0046500787 0.03792976 0.10223882
-0.08941077 -0.01305439 0.20252381 -0.06361931 0.010185989 0.023890551 -0.12889549 -0.12276506
0.15592977 -0.085461505 -0.072915584 -0.016041027 0.025551496 -0.07258356 0.03202147 0.09618244
-0.066234775 0.04725267 -0.068633 0.036603943 -0.014258148 0.05695189 -0.084859975 0.13619347
-0.0028857114 -0.0318092 0.08941517 0.098476194 0.014999267 -0.08723067 -0.0026195715 0.022597652
00000000: d4cb ee3d c4ae bfbd 0274 cb3d 3984 e2bc
00000010: 817b f63b 7885 7d3d 0883 1bbe 1bce 7e3d
00000020: 2d3b dbbd 6934 8ebd 2a83 e3bd dafe d13d
00000030: 33d9 1fbe 79b6 c7bd 30c4 223d 0787 df3d
00000040: 5154 38bd b998 efbd d757 bebd 226c cabd
00000050: 3c58 003e 66af a43b 23ae 4f3c 4bf5 fd3c
00000060: 10b2 8f3d 4c9a ce3b 25ae ab3d 0443 f3bd
00000070: 14c5 423d 6cf3 33be 3945 c3bd 8689 a63d
00000080: 9535 02bd e1be 07bd fe62 bc3d a269 7a3b
00000090: a94f 833e 1062 24bd 8ad9 97bb 9597 52bd
000000a0: d620 b0bd 9af7 833d 445b 5ebc 819d 04be
000000b0: 3f10 ba3d 6c61 f73c 2e9e 6ebd e40d 7d3d
000000c0: c60e 1abd 5218 0cbe 87c6 d63d 7b7e 013e
000000d0: 1f7d a63d d27e 913d 6ab0 88bb 5195 6abd
000000e0: 466b f4bd 1e1a a9bd c4c2 efbc 679e 0bbd
000000f0: 2c7f fcbd 1ad0 253c 2fd1 c0bd 0753 18be
00000100: b2d5 933d 2878 11bd 5b91 26be 06c9 2e3d
00000110: feba 2fbd 9257 12be 7f13 5abd 73eb d23d
00000120: 991e 5bbc db5e 43be dae3 99bb 9fa9 843b
00000130: 4e9d 443d 5a8f 12be 6390 26be 900e 3bbd
00000140: aee3 da3c 9acc 7fbd bdb8 1bbe a682 17be
00000150: 51d9 b3bd 207f 3dbe cfb7 f7bd e790 403d
00000160: d702 14be c9d6 1dbe 3985 07be 06a1 d7bd
00000170: dd4f 8bbd a497 9dbd ceaa 54bd fa55 0dbe
00000180: 1b3d 193c 12cd 0abd 8bc9 12be 5860 4d3d
00000190: ec78 b8bc 8bce b03c 1081 d7bb ffcf e4bd
000001a0: e760 1dbe f91c 1abd 5862 eabd 650b 55bd
000001b0: 36da f9bd 70af 9f3d a1ce b3bb 7702 cbbd
000001c0: 2009 773d de26 193d ab66 f43d ab17 d73d
000001d0: f5de d8bc e0ea 8e3b 6f3a 1ebd a3f1 273c
000001e0: 231e af3c 34ef 36be 95c0 94bd 27f1 6e3d
000001f0: f9fa b7bd 1927 fa3d f400 143d 37ec cd3d
00000200: 1896 583c 4fe5 8f3d 02cd f33d 0661 033e
00000210: 9202 69bd fd75 b2bd 2876 b93d 0cf5 6d3d
00000220: ec53 4dbc 5516 a43d 8827 e0bd 57f8 89bd
00000230: 9a6a 493c bedc 81bc 35a0 fbbc c358 63bd
00000240: 6d9a 653d 7672 3c3d 5f16 993d fee6 28bd
00000250: e09d 30be 2789 e1bd 69f1 81bc 1bbc 9a3d
00000260: 4c5a 32bd 6d24 d8bd 5ac2 0d3d c3c6 c3bc
00000270: 5390 523e 5e0b df3d b8fb ec3c 90f7 103d
00000280: 4719 b23c ab97 4e3d e9f9 b73d 155f ea3c
00000290: 621f ccbc 6fbc e9bd 322d f2bc be46 863d
000002a0: 93ab 153d 8a2f 96bd b8bd e6bd cb52 07bb
000002b0: bc11 8dbc d72d f13d d910 9bbc 37ca 4f3d
000002c0: 7205 4e3c 60ad f83d 80f1 1bbe f487 60bd
000002d0: fa36 853d ddd6 a03d 1a91 be3d 84b8 dc3d
000002e0: 8c3e 2c3d bf31 02bd 3dd5 4bbd e550 f4bd
000002f0: c2b5 9c3d b05f 983b 3c5c 1b3d 9662 d13d
00000300: fe1c b7bd 15e2 55bc 6762 4f3e d74a 82bd
00000310: 22e3 263c 1eb6 c33c 2efd 03be 3f6c fbbd
00000320: 0eac 1f3e 7106 afbd c454 95bd 7968 83bc
00000330: 5f51 d13c b1a6 94bd f228 033d 4dfb c43d
00000340: 19a6 87bd 048c 413d 758f 8cbd 04ee 153d
00000350: 029b 69bc 6346 693d 11cb adbd 4d76 0b3e
00000360: 341e 3dbb 5d4a 02bd 4d1f b73d e3ad c93d
00000370: 7cbf 753c fea5 b2bd 1ead 2bbb b61e b93c
