citylearn/data/datasets/quebec_neighborhood_without_demand_response_set_points/resstock-amy2018-2021-release-1-450491.pth (torch, 175102 bytes, 39 tensors)

l_lstm.weight_ih_l0 f4 [96, 12]
0	0x3e581bee	0.21104404
1	0x3d6a595b	0.057214122
2	0x3cc30f25	0.023810932
3	0x3e62f3ce	0.22163317
4	0x3e8cf4dd	0.27530566
5	0xbd324be7	-0.043529417
6	0x3e8f8616	0.28031987
7	0x3e27fcd5	0.16405042
8	0x3e04f24e	0.12983057
9	0xbd8401df	-0.064456694
10	0x3ccc22a1	0.024918856
11	0x3f11b649	0.5691877
12	0xbdc966cc	-0.0983406
13	0x3e5b619b	0.21423952
14	0xbd95ae66	-0.073086545
15	0x3d54a288	0.051912814
16	0x3cf97d49	0.030455248
17	0xbe829f45	-0.25512138
18	0x3ea2ec45	0.31820884
19	0x3dd3fb30	0.103506446
20	0x3e3d4b95	0.18485864
21	0xbed0b023	-0.40759382
22	0x3cea6ae3	0.02861542
23	0xbda3fb27	-0.08006888
24	0xbe42dfc0	-0.19030666
25	0xbf145084	-0.5793536
26	0x3ec16c4f	0.37777945
27	0x3e5e7fdc	0.21728462
28	0x3f03d862	0.5150205
29	0xbdaaf714	-0.08347908
30	0x3f125b17	0.5717024
31	0x3e5287f6	0.20559677
32	0x3e62575e	0.2210364
33	0x3eae5e48	0.34056306
34	0x3dcec627	0.10096388
35	0x3f0e7886	0.55652654
36	0x3c4336af	0.011914893
37	0x3e0f4766	0.1399208
38	0x3e414080	0.18872261
39	0x3d5b212c	0.053498432
40	0x3d9473d6	0.072486565
41	0xbe0fe020	-0.1405034
42	0x3da9e583	0.08295729
43	0xbcd653f4	-0.026163079
44	0xbe97ba7c	-0.29634464
45	0x3de89533	0.113565825
46	0xbe194778	-0.1496867
47	0x3ce757a1	0.028240027
48	0xbd8c24c6	-0.068429515
49	0xbe6999ae	-0.2281253
50	0x3cb548aa	0.022129375
51	0xbccd866a	-0.025088508
52	0x3ebb4a5e	0.36580175
53	0xbe6ff8e5	-0.2343479
54	0xbde08a31	-0.10963858
55	0xbd96ce32	-0.073635474
56	0x3d01a6c9	0.0316532
57	0x3de62f8c	0.112395376
58	0x3e81f871	0.25384858
59	0x3daa2484	0.08307746
60	0xbe88dfcd	-0.26733246
61	0x3dc0ade2	0.094081655
62	0xbb50ecf4	-0.0031879516
63	0x3e197e7e	0.14989659
64	0xbeb51016	-0.35363835
65	0xbddfe0d3	-0.10931554
66	0xbe034aac	-0.12821454
67	0xbd2b92c9	-0.041888032
68	0x3dab7bce	0.08373223
69	0xbe116cd1	-0.14201666
70	0x3d9122e5	0.07086734
71	0xbf20215a	-0.6255089
72	0x3e51f628	0.20504057
73	0x3d853a9e	0.06505321
74	0x3b414ff5	0.002949712
75	0xbcb7b265	-0.022423932
76	0x3da726c7	0.08161693
77	0xbdee19aa	-0.11625989
78	0x3e974f2f	0.295526
79	0x3e1058ee	0.14096424
80	0x3e3a81a9	0.18213524
81	0x3ddbd28d	0.10733519
82	0x3d85ecd5	0.06539313
83	0x3e22f2b0	0.1591289
84	0xbe32a7b7	-0.1744679
85	0xbe5dfd3c	-0.21678632
86	0xbd6208b0	-0.055184066
87	0xbd597f3c	-0.053099856
88	0x3e6dbf9e	0.23217627
89	0xbcb2500d	-0.021766687
90	0x3dc020bd	0.09381244
91	0xbd3f89e8	-0.046762377
92	0xbcf3a1e4	-0.029740281
93	0x3e6c6e6a	0.23088995
94	0xbd8637f8	-0.06553644
95	0x3e9a9f8b	0.30199847
96	0xbdf8ee21	-0.121547945
97	0x3dd3d559	0.10343427
98	0x3c29605e	0.010337917
99	0xbe24d2b9	-0.1609601
100	0x3d421bcc	0.04738979
101	0x3d8a771f	0.06761002
102	0x3e3638b7	0.17795072
103	0x3e4aab82	0.19791988
104	0xbd5194f7	-0.051167455
105	0xbe12e3ba	-0.14344683
106	0x3dbe2bed	0.09285722
107	0x3e61cced	0.22050829
108	0x3dff3815	0.12461869
109	0xbdb2b247	-0.0872541
110	0xbe65422a	-0.22388521
111	0xbdef7e5e	-0.116940245
112	0xbd34f3c7	-0.044177797
113	0x3d792155	0.060822804
114	0xbe69e5e5	-0.22841604
115	0x3da450de	0.08023237
116	0xbe072a48	-0.13199723
117	0xbe61cdeb	-0.22051208
118	0xbe567dfb	-0.20946495
119	0xbd799823	-0.060936105
120	0xbdda24c5	-0.106515445
121	0xbe0129bd	-0.12613578
122	0x3e69158c	0.22762126
123	0x3df773c5	0.12082628
124	0x3e8c1868	0.2736237
125	0xbdc14d19	-0.09438533
126	0x3ec6019a	0.38673097
127	0x3e1c2e12	0.1525195
128	0x3eec671c	0.46172416
129	0x3ee5f7c8	0.44915605
130	0x3e0bb943	0.1364489
131	0x3e108f04	0.14117056
132	0x3e37274d	0.17886086
133	0xbe0c4532	-0.13698271
134	0x3d502993	0.0508209
135	0x3de31e0c	0.11089715
136	0x3e3e34cf	0.18574832
137	0xbe51d719	-0.2049221
138	0x3d2ada23	0.041711938
139	0x3e23f389	0.1601087
140	0x3e0d6f33	0.1381195
141	0x3e17fd8e	0.14842817
142	0xbc885506	-0.016642105
143	0xbd9533f1	-0.07285298
144	0x3e19cb13	0.15018873
145	0x3ded1d93	0.115779065
146	0x3dbc8e2c	0.09206805
147	0xbdaf8a6b	-0.08571323
148	0x3e07ff62	0.13281015
149	0x3da4eb70	0.08052719
150	0xbd9206d8	-0.071302116
151	0xbc8ace8e	-0.016944196
152	0x3e04d32e	0.12971184
153	0x3e2b1b19	0.16709556
154	0x3de85671	0.113446124
155	0xbeb4b9c8	-0.3529799
156	0x3e170204	0.14746863
157	0xbbe2e1c2	-0.006923885
158	0xbe489174	-0.19586736
159	0x3db8a49a	0.0901577
160	0x3d226973	0.039651345
161	0xbde98a2a	-0.11403306
162	0x3da1cb69	0.079001255
163	0xbe1d921c	-0.15387768
164	0xbe3881e7	-0.18018304
165	0xbdeabb5a	-0.11461516
166	0x3df81930	0.12114179
167	0x3e6003f8	0.21876514
168	0xbe9b7638	-0.3036363
169	0xbef2f13e	-0.47449678
170	0xbe89594a	-0.26825935
171	0x3dffc689	0.124890395
172	0xbe7a937e	-0.24470326
173	0xbe607525	-0.21919687
174	0xbd90e527	-0.07074957
175	0xbec786fe	-0.38970178
176	0x3e0c5099	0.1370262
177	0xbee065ed	-0.43827763
178	0x3e322251	0.17395903
179	0xbecbe6c4	-0.39824498
180	0x3ce6fc15	0.028196374
181	0x3e25b7d8	0.16183412
182	0xbdf99848	-0.121872485
183	0x3bd664a4	0.006542759
184	0xbe1cab88	-0.15299809
185	0xbd2a1b2f	-0.04152983
186	0xbe3e4794	-0.18581992
187	0x3e06f433	0.13179092
188	0x3c9211b1	0.017830702
189	0xbe105a11	-0.14096858
190	0xbba87b05	-0.005141618
191	0xbd01f0ef	-0.031723913
192	0x3d1655da	0.03670297
193	0x3da3b500	0.079935074
194	0x3e6bef05	0.23040397
195	0x3e17aa40	0.14811039
196	0x3ed80da0	0.42197895
197	0x3e4d1860	0.2002883
198	0x3daeef25	0.08541707
199	0x3e8c7d63	0.27439412
200	0x3d4d8a47	0.0501807
201	0x3e44780e	0.19186422
202	0x3e5bbd66	0.21458969
203	0x3df76b38	0.12080997
204	0x3e5ad813	0.21371488
205	0xbe344d0d	-0.17607518
206	0x3e6ca28f	0.23108886
207	0x3dba9b8a	0.09111698
208	0x3ea0ec7a	0.31430417
209	0x3e431148	0.19049561
210	0x3e6fa7b1	0.23403813
211	0x3e8a0cbf	0.2696285
212	0x3e95d0cb	0.2926086
213	0x3dcaac59	0.09896154
214	0x3d839780	0.06425381
215	0x3de11139	0.10989613
216	0x3eae811c	0.34082878
217	0xbd4f31ba	-0.050584532
218	0x3ea88c8f	0.32919738
219	0x3d9720b7	0.07379287
220	0x3d943b97	0.07237928
221	0x3e3df754	0.1855138
222	0x3f0870bd	0.53297025
223	0x3d8e4b5b	0.06947967
224	0x3e81e343	0.253687
225	0x3db8412d	0.08996806
226	0x3ec687fe	0.3877563
227	0x3e9250ec	0.28577363
228	0xbd929dcd	-0.07159004
229	0x3dc98542	0.0983987
230	0x3e83a0aa	0.25708514
231	0xbdcd33cd	-0.10019646
232	0x3e97afcc	0.2962631
233	0x3c9f4db8	0.019446239
234	0xbc40515b	-0.011738147
235	0x3eb7c65a	0.35893518
236	0x3e07fd6c	0.13280267
237	0x3e1e5638	0.15462577
238	0x3ebdd9fb	0.37080368
239	0x3e0654d5	0.13118298
240	0xbe878a23	-0.26472577
241	0xbe4734b6	-0.19453701
242	0x3e088247	0.13330947
243	0x3dd98981	0.1062193
244	0x3e5c254a	0.214986
245	0x3c652cd8	0.013987742
246	0xbeacf931	-0.33783868
247	0xbe517e57	-0.20458351
248	0x3dc46607	0.09589773
249	0x3e251c16	0.16123995
250	0x3e1c3a61	0.15256645
251	0x3e2da2e2	0.16956666
252	0x3dcac369	0.09900553
253	0x3d871bd3	0.06597104
254	0x3ea6eb6b	0.32601485
255	0x3e3ab0ce	0.18231508

l_lstm.weight_hh_l0 f4 [96, 24]
0	0xbeac05bd	-0.33598128
1	0xbdfb2ec1	-0.12264777
2	0xbef8b30a	-0.48574096
3	0xbe086352	-0.13319138
4	0x3d2545d6	0.040349804
5	0xbeea62bf	-0.45778462
6	0x3dc3dd45	0.09563688
7	0x3d6f3980	0.058404446
8	0xbdf244d0	-0.11829531
9	0xbca7e50d	-0.020494962
10	0xbe84a54a	-0.25907356
11	0xbda39cb6	-0.079888746
12	0xbe46ee5e	-0.19426867
13	0xbda95778	-0.082686365
14	0xbe4a3e63	-0.19750361
15	0x3de12efc	0.1099529
16	0xbe7f0c00	-0.24906921
17	0x3c719cc0	0.014746845
18	0x3e117a18	0.14206731
19	0x3ce082da	0.027406145
20	0xbe76bf7e	-0.24096486
21	0xbed0ad26	-0.40757102
22	0xbe05377c	-0.13009447
23	0x3e8178b1	0.25287393
24	0x3caaee97	0.020865722
25	0x3cc6cab0	0.02426657
26	0xbde0c45a	-0.10974951
27	0x3e6f0ce5	0.23344763
28	0x3df1d79e	0.11808704
29	0xbc3369d7	-0.010950527
30	0xbcdf5db2	-0.027266357
31	0x3cd45fce	0.02592459
32	0x3de23bb5	0.110465445
33	0xbe3800f4	-0.17969114
34	0xbe09ad8a	-0.13445106
35	0x3e01f4bf	0.1269102
36	0xbc0a3750	-0.008436039
37	0xbe0241d2	-0.12720421
38	0x3dca3208	0.09872824
39	0x3e5ec3b1	0.21754338
40	0x3e39dc08	0.18150342
41	0xbd56cb56	-0.05244001
42	0x3cbc64e3	0.022997325
43	0x3e32bb91	0.17454363
44	0x3e966fc7	0.29382154
45	0xbc541cd0	-0.012946323
46	0x3be0ca70	0.00686007
47	0xbdfc821f	-0.12329506
48	0x3ea53a72	0.32271153
49	0xbdc96b6b	-0.098349415
50	0x3e774a68	0.24149477
51	0xbeb23808	-0.34808373
52	0x3ebf7246	0.3739187
53	0xbef4c8b6	-0.4780938
54	0x3e361b23	0.1778379
55	0x3e81977c	0.25310886
56	0x3d21a103	0.039460193
57	0xbe485c5c	-0.19566482
58	0x3e42c749	0.19021334
59	0xbe8bd8d1	-0.27313855
60	0xbe835764	-0.2565261
61	0xbda433ee	-0.08017717
62	0xbc62507c	-0.013813134
63	0xbe6db292	-0.2321265
64	0x3e0b755a	0.13618985
65	0x3eebe49f	0.46072862
66	0x3ddb4d75	0.10708133
67	0xbd704d2f	-0.058667358
68	0xbe2d0619	-0.16896857
69	0x3e5745ec	0.21022767
70	0xbec71073	-0.38879737
71	0xbe3e9f68	-0.18615496
72	0xbb83fa8e	-0.004027671
73	0xbe12bdb9	-0.14330186
74	0x3eaef02b	0.3416761
75	0x3e5df33e	0.21674821
76	0x3c1ab585	0.009442692
77	0x3ec1c0bd	0.3784236
78	0x3c79b0d1	0.01523991
79	0x3e2ff0d1	0.17181708
80	0x3e110788	0.14163029
81	0xbd37b454	-0.04484971
82	0xbe2b7a88	-0.1674596
83	0xbde03300	-0.109472275
84	0x3d809cbd	0.062798955
85	0x3cc4f027	0.024040295
86	0xbd9ba23a	-0.07599302
87	0xbe16532d	-0.14680167
88	0xbda14ebb	-0.07876345
89	0x3de42cf2	0.11141385
90	0xbe898ccb	-0.2686523
91	0xbc4323d3	-0.011910397
92	0x3e72a48d	0.23695584
93	0x3e1b7175	0.15179999
94	0x3eb605e0	0.35551357
95	0x3e683d34	0.22679597
96	0xbd36b1eb	-0.04460327
97	0x3dd4b999	0.103869624
98	0x3e54ae47	0.20769607
99	0xbdf00b07	-0.11720853
100	0x3df63909	0.12022597
101	0x3e22f2af	0.15912889
102	0x3d172ea8	0.03690973
103	0xbe56b0fd	-0.20965953
104	0xbdec8026	-0.1154788
105	0x3a4bfb88	0.00077813165
106	0x3e7fe8dd	0.24991174
107	0x3cddc4c8	0.027071372
108	0x3e684b0b	0.22684877
109	0x3e6e124a	0.23249164
110	0x3d362aa8	0.044474274
111	0x3dfce419	0.12348194
112	0x3d09c63a	0.03363631
113	0x3de6c344	0.11267713
114	0x3e7180c7	0.23584281
115	0x3e5610a4	0.20904785
116	0x3d9d6ce3	0.07686784
117	0x3dac81dd	0.08423207
118	0x3d0705f2	0.032964654
119	0x3debbb59	0.11510343
120	0xbda27000	-0.079315186
121	0x3dd11f01	0.10210992
122	0x3e466bde	0.19377086
123	0xbe255a7c	-0.16147798
124	0xbe82485b	-0.25445828
125	0x3d91690c	0.07100114
126	0xbe8923c7	-0.26785108
127	0x3dd49249	0.10379464
128	0xbdd78dce	-0.10525094
129	0x3e37e8a1	0.17959835
130	0xbcc23893	-0.023708617
131	0xbc85e8b5	-0.016346315
132	0xbe4984b3	-0.19679527
133	0x3cb00c29	0.021490173
134	0xbce63b49	-0.028104441
135	0xbe80cee1	-0.25157836
136	0xbda44ce0	-0.08022475
137	0xbdddc4bc	-0.1082854
138	0x3e17bf9a	0.14819184
139	0x3da176fa	0.07884021
140	0xbd56e36e	-0.052462988
141	0x3d708027	0.058715966
142	0x3e708c6b	0.23491065
143	0xbdd803c2	-0.10547592
144	0xbe6f7b71	-0.23386933
145	0x3c854b8c	0.016271375
146	0xbdee0614	-0.11622253
147	0x3ce59efc	0.028029911
148	0x3e461264	0.19342953
149	0xbce2caca	-0.027684588
150	0x3ce12429	0.027483063
151	0x3daa6ceb	0.08321556
152	0xbcb5d155	-0.022194544
153	0x3d801560	0.06254077
154	0x3daacd04	0.08339885
155	0xbe1e99d6	-0.15488371
156	0x3dfec9bd	0.12440822
157	0xbe0fde8c	-0.14049739
158	0xbdee5279	-0.11636824
159	0xbcf6552a	-0.030069906
160	0xbbfa79d1	-0.007643916
161	0x3e6bdd00	0.23033524
162	0x3e633489	0.2218801
163	0x3cac66c5	0.021045098
164	0xbe57df2b	-0.21081226
165	0x3e2e5fb2	0.17028692
166	0x3e163b1f	0.1467099
167	0x3d163942	0.0366757
168	0x3da31eb3	0.0796484
169	0x3de8c82c	0.11366305
170	0x3ed2dcbd	0.41184035
171	0x3dbad647	0.091229014
172	0xbdcdc485	-0.10047249
173	0x3e349ff8	0.17639148
174	0xbdc1f2dc	-0.0947015
175	0xbdcdd189	-0.10049731
176	0xbdb51c51	-0.088432916
177	0x3e2e17ed	0.17001314
178	0x3db81900	0.08989143
179	0xbe0a6d5b	-0.13518278
180	0x3e9095f2	0.282394
181	0x3e364f41	0.1780367
182	0x3e3e2cba	0.1857175
183	0x3e076c9c	0.13225025
184	0x3b25c959	0.0025297015
185	0x3e85b2f0	0.2611308
186	0x3df13d13	0.11779227
187	0x3e34c9e1	0.17655136
188	0xbe5e2fac	-0.21697873
189	0x3e92637a	0.2859152
190	0x3e5d8ef9	0.21636571
191	0x3e13cca0	0.14433527
192	0xbdc36dc4	-0.095424205
193	0xbe2fcfd1	-0.1716912
194	0x3e434fb2	0.1907337
195	0xbdec0177	-0.11523717
196	0x3d80030d	0.06250582
197	0xbc9051bf	-0.017617105
198	0x3d4b74a0	0.04967177
199	0x3e3f62c0	0.18690014
200	0x3e345b5a	0.17612973
201	0xbde3e4e1	-0.111276396
202	0xbda0c1e0	-0.07849479
203	0x3e2a5437	0.16633688
204	0xbc52f086	-0.012874728
205	0xbe3bae73	-0.18328266
206	0xbdc4aa47	-0.0960279
207	0x3d7b841f	0.061405297
208	0x3bf88226	0.0075838743
209	0x3e6179b8	0.22019088
210	0xbcdec5d6	-0.027193945
211	0x3cfee6fa	0.031115998
212	0xbc5cb8c9	-0.013471791
213	0x3db7bbd5	0.08971373
214	0x3e3c17e8	0.18368495
215	0xbd9bda49	-0.07609994
216	0xbe0a4c9d	-0.13505788
217	0x3c62ff99	0.013854885
218	0x3da1ba9b	0.0789692
219	0x3cf4a2b3	0.029862737
220	0xbdc42740	-0.09577799
221	0x3d34369f	0.043997403
222	0xbdb766df	-0.08955168
223	0xbe34533e	-0.1760988
224	0x3dc9135a	0.09818144
225	0xbe0aa06f	-0.13537763
226	0x3d0ab767	0.033866312
227	0x3d7c429f	0.061586972
228	0xbd1142e3	-0.03546418
229	0xbdae4f1f	-0.08511185
230	0xbc8599ef	-0.016308753
231	0xbd5bceaf	-0.053663906
232	0x3da96147	0.08270507
233	0xbd80bd4f	-0.06286108
234	0x3dac656b	0.084177814
235	0xbe1a446b	-0.15065162
236	0x3d50541d	0.050861467
237	0xbdb80a24	-0.08986309
238	0x3e348da6	0.1763216
239	0x3e2331dc	0.15936989
240	0x3e8a818d	0.27051964
241	0xbe404138	-0.18774879
242	0x3e2ab84c	0.16671866
243	0xbe8a4160	-0.27003002
244	0x3d8cde7f	0.06878375
245	0xbdd91db7	-0.10601371
246	0x3e69913b	0.22809307
247	0x3e37d8de	0.17953822
248	0xbd45150a	-0.048115768
249	0x3e0b6167	0.13611375
250	0x3c9966d1	0.018725784
251	0xbe285552	-0.16438797
252	0x3d056ab7	0.032572474
253	0xbe1fc8d3	-0.15603952
254	0xbe0817e8	-0.1329037
255	0xbd3568e8	-0.0442895

l_lstm.bias_ih_l0 f4 [96]
0	0x3e7f3cc1	0.2492552
1	0xbda409f0	-0.08009708
2	0x3dbd0636	0.092297
3	0xbe678c06	-0.22612008
4	0xbcd41a76	-0.025891524
5	0xbc196cf6	-0.009364357
6	0x3e631657	0.2217649
7	0x3cb85428	0.022501066
8	0x3ccf230e	0.02528527
9	0xbe808f05	-0.25109115
10	0x3e656f4a	0.22405735
11	0x3d64d987	0.055871513
12	0x3e835681	0.25651935
13	0xbe42873a	-0.18996897
14	0x3d0931cf	0.033494767
15	0xbe31c401	-0.17359926
16	0x3dd4ce45	0.10390905
17	0x3ea7ecd7	0.32797882
18	0x3d4ffd90	0.050778925
19	0x3e3cb5de	0.18428752
20	0x3dc77dd3	0.09740796
21	0x3d528aaa	0.05140177
22	0x3db31b99	0.08745498
23	0xbe01eb4a	-0.12687412
24	0xbe47f86b	-0.19528358
25	0x3d5feb6b	0.05466787
26	0xbd7152df	-0.058916923
27	0xbd983375	-0.0743169
28	0xbd9b1b97	-0.07573622
29	0xbdde45a6	-0.10853128
30	0xbe09d6ca	-0.13460842
31	0xbd977588	-0.07395464
32	0xbe6acaf3	-0.22928981
33	0xbdca13fe	-0.098670945
34	0xbe47086d	-0.19436808
35	0x3d394391	0.045230452
36	0x3d277be4	0.040889636
37	0x3dc2f6ec	0.09519753
38	0xbe4ce879	-0.20010556
39	0x3ceb6c61	0.028738203
40	0x3ded6b3a	0.115927175
41	0xbdabefe3	-0.08395364
42	0xbd49e267	-0.04928818
43	0xbc9b6266	-0.018967818
44	0xbdd96be1	-0.106162794
45	0x3d2ed489	0.042683158
46	0x3deef8a1	0.11668516
47	0x3e2a084b	0.16604726
48	0xbe010501	-0.12599565
49	0x3dcd8a76	0.10036175
50	0x3d3ab2c3	0.045580637
51	0xbe3f496b	-0.1868035
52	0xbc1b369d	-0.00947347
53	0xbe34ba0c	-0.17649096
54	0xbde07798	-0.10960311
55	0x3c012fc5	0.007884924
56	0x3caf104e	0.02137008
57	0xbe2ec1b7	-0.17066084
58	0xbe5a04f0	-0.21290946
59	0xbe481813	-0.19540434
60	0xbe22a921	-0.1588483
61	0xbe104e23	-0.14092307
62	0xbd8dd1cb	-0.069247805
63	0x3e0a0906	0.13480005
64	0x3c326bf6	0.010889998
65	0x3e212b7f	0.15739249
66	0xbd90b18e	-0.07065116
67	0xbe312f84	-0.17303282
68	0xbcc837d3	-0.024440682
69	0xbc811673	-0.015757775
70	0xbdecf662	-0.11570431
71	0xbdd08679	-0.101818986
72	0x3e83f1f1	0.25770524
73	0x3e13d268	0.14435732
74	0xbd6ee7f5	-0.05832668
75	0x3e003ef3	0.12524013
76	0xbdd6ad7a	-0.10482307
77	0x3d2ccfd7	0.0421904
78	0x3e164a46	0.1467677
79	0xbe6e386a	-0.23263708
80	0xbe0b79af	-0.13620637
81	0x3e05950e	0.13045141
82	0x3e9636d5	0.2933871
83	0xbe181fca	-0.14855877
84	0x3bdf769a	0.0068195583
85	0xbe07df04	-0.13268667
86	0x3ce0941b	0.027414372
87	0xbcca43af	-0.024690477
88	0x3e467ed7	0.19384323
89	0xbba64194	-0.0050737355
90	0x3e4571ee	0.19281742
91	0xbd4f5d44	-0.050626054
92	0x3d3306ea	0.043707766
93	0x3d9d1e6f	0.0767182
94	0xbccb580f	-0.024822263
95	0x3e3d1c8f	0.18467925

l_lstm.bias_hh_l0 f4 [96]
0	0x3c1e61ca	0.009666869
1	0xbe24d0c8	-0.16095269
2	0x3eeaf215	0.4588782
3	0xbe540af9	-0.2070731
4	0xbb2ffee1	-0.00268548
5	0x3e153f9a	0.14575043
6	0x3e8d0f83	0.27550897
7	0xbe4b8675	-0.1987551
8	0xbe1b1f46	-0.15148649
9	0xbc8052ec	-0.01566454
10	0x3ea942b6	0.3305871
11	0x3c7d45ca	0.015458534
12	0xbb63fa50	-0.003478665
13	0xbdbec79c	-0.09315416
14	0xbe850ace	-0.25984806
15	0x3c5305b7	0.0128797805
16	0x3e17d84e	0.14828607
17	0x3ea4b28a	0.32167464
18	0x3df157d5	0.11784331
19	0x3e784ac2	0.24247268
20	0xbde8cc00	-0.11367035
21	0x3e281c08	0.16416943
22	0x3e55d63b	0.20882504
23	0xbe061dec	-0.13097352
24	0x3dcac2d1	0.099004395
25	0xbd9cf5fd	-0.07664106
26	0xbea43271	-0.32069734
27	0x3dad2772	0.08454789
28	0xbd832a09	-0.06404502
29	0xbe29f0ed	-0.16595812
30	0x3e0e3cb0	0.13890338
31	0x3e0fa424	0.14027458
32	0xbe4a3b0f	-0.19749092
33	0xbc736f47	-0.014858074
34	0x3dbdb34e	0.09262715
35	0x3dc60b27	0.09670096
36	0x3e8dead9	0.27718237
37	0x3e3d22c7	0.18470298
38	0xbe1ff698	-0.15621412
39	0x3df7770e	0.12083255
40	0xbb2d18ff	-0.0026412604
41	0x3e0af273	0.1356905
42	0xbe1c32b6	-0.1525372
43	0xbd289e12	-0.041166373
44	0x3c8a5d18	0.016890094
45	0x3da8721b	0.08224889
46	0x3d2428d8	0.040078014
47	0x3c8bc779	0.01706289
48	0x3d335699	0.043783758
49	0xbd91acf3	-0.071130656
50	0x3d69c8ad	0.057076145
51	0xbdc59911	-0.09648336
52	0xbd794625	-0.06085791
53	0xbdcd73af	-0.100318305
54	0xbd3725c2	-0.044713743
55	0xbcc94526	-0.024569105
56	0xbdddbc33	-0.10826912
57	0xbdb2afb9	-0.08724923
58	0xbd450fba	-0.0481107
59	0xbe6a1e3c	-0.22863096
60	0xbe110961	-0.14163734
61	0x3c3d398f	0.011549368
62	0x3de752dc	0.11295101
63	0xbe69ea53	-0.22843294
64	0xbda10132	-0.07861556
65	0xbc0c322c	-0.008556884
66	0x3df896ac	0.121381134
67	0xbe04c39e	-0.12965247
68	0x3de137ac	0.10996947
69	0xbdde13e1	-0.10843635
70	0xbe608308	-0.21924984
71	0x3a6fe81c	0.00091517135
72	0x3e7fafd6	0.2496942
73	0xbcef2753	-0.029193556
74	0x3e89c2a3	0.2690631
75	0x3d1a5d3a	0.037686564
76	0xba0e0b0d	-0.0005418517
77	0xbde90bcb	-0.113792025
78	0x3df973b4	0.12180272
79	0xbd9a0c62	-0.07521893
80	0x3d8d9308	0.069128096
81	0xbc9047ea	-0.017612416
82	0x3e9ff0e4	0.31238472
83	0xbc983d43	-0.0185839
84	0xbe4fec40	-0.20304966
85	0xbe2a2d43	-0.16618828
86	0xbdea3b13	-0.11437049
87	0xbe8442d8	-0.25832248
88	0x3eb2e29b	0.3493851
89	0x3e6e2c82	0.23259166
90	0x3c92848b	0.017885467
91	0x3d52ad0d	0.051434565
92	0x3e080bd6	0.13285765
93	0x3d9a94bd	0.07547901
94	0x3d866189	0.06561572
95	0x3e4d293b	0.2003526

l_lstm.weight_ih_l1 f4 [96, 24]
0	0x3d001fe4	0.031280413
1	0x3e17f22a	0.14838472
2	0x3ec9ac6c	0.3938936
3	0x3e0320cc	0.1280548
4	0x3de78793	0.113051556
5	0x3e8aa450	0.27078485
6	0x3d94f0c1	0.07272483
7	0x3e477b63	0.19480662
8	0x3dc9a59a	0.09846039
9	0xbe362870	-0.17788863
10	0xbde39a19	-0.11113376
11	0x3e3977a8	0.18112051
12	0x3e330d6b	0.17485587
13	0x3dd2f518	0.10300654
14	0x3d3be7fe	0.045875542
15	0xbd9b4c91	-0.07582963
16	0x3de56615	0.11201111
17	0x3db8ee5b	0.09029838
18	0xbdd5a0ff	-0.10431098
19	0x3dd2e02f	0.10296666
20	0x3e098cff	0.13432692
21	0xbca2d6b3	-0.019877767
22	0x3e1e0965	0.15433271
23	0x3c6725d2	0.014108138
24	0x3eb5cc76	0.35507554
25	0xbde7a9fe	-0.1131172
26	0x3ed26c98	0.41098475
27	0xbdcb42c4	-0.09924844
28	0x3e44c959	0.19217433
29	0xbe3e9bca	-0.18614116
30	0x3eaf77cf	0.34271094
31	0x3e130e45	0.14360912
32	0x3e298c20	0.1655736
33	0x3e53ba90	0.20676637
34	0x3e4de4c5	0.201068
35	0xbe85a902	-0.26105505
36	0xbe1e012b	-0.15430133
37	0x3db8dfde	0.09027074
38	0xbe8fddbb	-0.28098854
39	0xbe5f31b6	-0.21796307
40	0x3e3edc1b	0.18638651
41	0xbe0b8957	-0.1362661
42	0x3e015f23	0.12633948
43	0xbdb43a28	-0.08800155
44	0xbb6c584d	-0.0036063374
45	0xbcde55b0	-0.027140468
46	0x3db56a41	0.08858157
47	0x3e389a92	0.18027714
48	0x3e0f9a10	0.14023614
49	0x3da1972f	0.07890164
50	0x3ea23261	0.3167906
51	0xbe26a6de	-0.16274592
52	0x3e2e5b9f	0.17027138
53	0xbcaf347d	-0.021387333
54	0xbd3a08a7	-0.045418408
55	0x3d9ec6e6	0.077527806
56	0xbe70dd8d	-0.23522015
57	0x3e3063df	0.17225598
58	0x3e11023f	0.14161013
59	0xbe359d0c	-0.1773569
60	0x3e129f95	0.14318688
61	0xbd5b44ea	-0.05353252
62	0xbe099c8a	-0.13438621
63	0xbd0d3505	-0.03447439
64	0x3e14125e	0.14460132
65	0xbe0cbf56	-0.13744864
66	0xbe2d8fec	-0.16949433
67	0x3e66980a	0.22518936
68	0xbe170459	-0.14747752
69	0xbc3b6908	-0.011438616
70	0x3c3ab79d	0.011396316
71	0x3da03aa9	0.078236885
72	0x3c8e7e61	0.017394247
73	0x3d59963b	0.053121787
74	0xbe6e07e7	-0.23245202
75	0xbd3d19d3	-0.046167206
76	0xbdd4ee6c	-0.10397038
77	0x3db48dab	0.088160835
78	0xbe9ef788	-0.31048226
79	0xbe92de00	-0.28684998
80	0x3d899c33	0.06719246
81	0xbdb3f93e	-0.087877735
82	0x3d06ceab	0.032911938
83	0x3d200f8e	0.039077334
84	0x3e067c9c	0.13133472
85	0xbd67052e	-0.056401424
86	0xbe732d6d	-0.23747797
87	0x3d0a1eb3	0.033720683
88	0x3dcb8d33	0.09939041
89	0xbea448e8	-0.32086873
90	0x3e97b9dd	0.2963399
91	0x3a5a2237	0.00083211384
92	0x3e006eab	0.12542216
93	0x3dd2dc4b	0.10295924
94	0x3d9852ac	0.074376434
95	0xbd8e474a	-0.06947191
96	0x3e8414d3	0.25797138
97	0x3e0cfcca	0.13768306
98	0x3e61a380	0.22035027
99	0xbdc37409	-0.09543616
100	0x3e66d455	0.22541936
101	0xbe11d975	-0.1424311
102	0x3d2804b7	0.04102012
103	0x3da6d748	0.081465304
104	0x3dba3818	0.0909273
105	0x3e1b07b1	0.15139653
106	0xbdda3d60	-0.106562376
107	0xbb5c5beb	-0.0033624123
108	0xbe361feb	-0.17785613
109	0x3df22b57	0.11824673
110	0xbd5312c5	-0.051531572
111	0x3e42a6ba	0.19008914
112	0xbd859129	-0.06521828
113	0x3e5554a6	0.20833072
114	0x3dc7d21d	0.09756873
115	0x3d605d6b	0.05477659
116	0xbe0fc49a	-0.14039841
117	0x3df679d8	0.120349586
118	0xbdb4f68e	-0.08836089
119	0x3e170bac	0.14750546
120	0x3e970f32	0.2950378
121	0xbd9956bc	-0.074872464
122	0x3e0daff5	0.13836654
123	0xbe5d4f7e	-0.21612355
124	0xbd506e89	-0.050886665
125	0x3e148d07	0.14506923
126	0x3e84cdaf	0.25938174
127	0x3e885d3a	0.26633626
128	0x3d7a81df	0.06115901
129	0x3da83a00	0.082141876
130	0xbd148b52	-0.03626568
131	0xbe38492c	-0.17996663
132	0x3da1e758	0.079054534
133	0x3d59060e	0.05298429
134	0xbe8d4a29	-0.27595642
135	0x3e08bba7	0.13352834
136	0x3e029a5c	0.12754196
137	0xbdcd2b67	-0.10018044
138	0xbcdac541	-0.026705386
139	0x3e87431d	0.2641839
140	0xbe78ab15	-0.24284013
141	0xbcf5d995	-0.030010978
142	0x3df03f8f	0.11730873
143	0x3c754ffd	0.014972684
144	0x3e3adcc4	0.18248278
145	0x3e2d3fc1	0.16918851
146	0x3dedce13	0.11611571
147	0xbd154d2c	-0.03645055
148	0x3dd3a035	0.103332914
149	0x3da0f8e2	0.07859971
150	0x3e8dd700	0.27703094
151	0x3d0f5c47	0.035000112
152	0xbbe8dded	-0.0071065337
153	0x3ab68737	0.0013925795
154	0x3e19d71d	0.15023465
155	0xbddaba01	-0.10680009
156	0xbcdd64c6	-0.027025592
157	0xbe6db04a	-0.2321178
158	0xbdfd7e4a	-0.12377603
159	0xbe13c3b3	-0.14430122
160	0x3e3e7693	0.1859992
161	0x3e0587b8	0.13040054
162	0xbe1bc56c	-0.15212029
163	0xbd802dbc	-0.06258723
164	0xbe7df06f	-0.2479875
165	0xbd2cfcd7	-0.042233314
166	0x3da9103f	0.08255052
167	0x3e261b60	0.1622138
168	0x3e985883	0.2975503
169	0x3e3f3474	0.18672353
170	0x3e9a82ff	0.30178067
171	0x3d54bec3	0.051939737
172	0x3e1f844c	0.15577811
173	0xbd5cb56c	-0.053883955
174	0xbda07962	-0.07835652
175	0xbe48785c	-0.19577163
176	0x3e3a9cf7	0.1822394
177	0xbe1668d8	-0.14688432
178	0xbd9be134	-0.076113135
179	0x3e06d16f	0.1316583
180	0x3d0ab8be	0.03386759
181	0x3e3aedca	0.18254772
182	0xbe5c83e0	-0.21534681
183	0x3e0a293a	0.13492289
184	0xbde08b5c	-0.10964081
185	0x3d5d5376	0.054034673
186	0x3e36b06b	0.17840736
187	0x3e4ebdf7	0.20189653
188	0xbd56a647	-0.05240467
189	0x3cbdf58d	0.023188377
190	0x3db4ed4a	0.08834322
191	0x3a5e201c	0.00084734126
192	0xbecca32d	-0.39968243
193	0x3dac081e	0.08399986
194	0xbee38d1f	-0.44443604
195	0xbd8f922b	-0.07010301
196	0x3da23526	0.079202935
197	0xbd868e04	-0.06570056
198	0xbebfbd7a	-0.37449247
199	0xbe45dc05	-0.19322212
200	0xbbdc59c0	-0.006724566
201	0xbe2440b1	-0.16040303
202	0xbea4875d	-0.32134524
203	0x3d95059e	0.07276462
204	0xbeb5d9fa	-0.35517865
205	0x3e475404	0.19465643
206	0xbdf6f64d	-0.12058697
207	0xbd951099	-0.072785564
208	0xbea496db	-0.32146344
209	0x3c007bf2	0.007842051
210	0x3ecd6382	0.4011498
211	0xbe8e9dcb	-0.2785476
212	0x3e6cf66d	0.23140879
213	0xbeebce15	-0.46055666
214	0xbed68e28	-0.41905332
215	0xbe7ff2e3	-0.24994998
216	0x3f23f9de	0.6405314
217	0xbe485fc4	-0.19567782
218	0x3ef3fa17	0.4765174
219	0xbca4e5b4	-0.020129062
220	0x3e9946c3	0.299368
221	0xbea97d06	-0.33103198
222	0x3e8a6152	0.27027375
223	0x3e9c67e0	0.30548
224	0xbd383644	-0.044973627
225	0xbd6eba04	-0.058282867
226	0x3d8e30be	0.069428906
227	0xbe6974ca	-0.22798458
228	0xbe87c9b6	-0.2652108
229	0xbeabd1df	-0.33558556
230	0x3ce00749	0.027347224
231	0x3dffe6ad	0.1249517
232	0x3dcfa536	0.10138933
233	0x3def987e	0.116990075
234	0xbd9298a0	-0.07158017
235	0x3e884dd3	0.26621875
236	0xbd9dc8fb	-0.077043496
237	0x3db9a0ae	0.0906385
238	0xbe568003	-0.2094727
239	0x3e3fb378	0.18720806
240	0x3f036a35	0.51333934
241	0x3d4c1990	0.049829066
242	0x3eb53f72	0.35399967
243	0xbd8e3083	-0.069428466
244	0x3d138619	0.036016557
245	0x3e6f1715	0.23348649
246	0x3ec03264	0.37538445
247	0xbccbec9d	-0.0248931
248	0xbe50a967	-0.20377122
249	0x3e4caf73	0.19988804
250	0x3ccb6426	0.024828028
251	0xbd0eb33b	-0.034838896
252	0x3dbce099	0.09222526
253	0xbe970fa0	-0.29504108
254	0xbe229dcf	-0.15880512
255	0xbd85e1f8	-0.06537241

l_lstm.weight_hh_l1 f4 [96, 24]
0	0xbe1e4061	-0.15454246
1	0xbdbd4885	-0.09242348
2	0xbe0bb688	-0.13643849
3	0xbdfa9841	-0.122360714
4	0x3a8dea74	0.0010827319
5	0xbdb3e515	-0.08783928
6	0xbe0f06d3	-0.13967447
7	0x3de33381	0.11093808
8	0xbda68994	-0.0813171
9	0x3da07f0d	0.07836733
10	0xbda64683	-0.08118918
11	0xbe240ca0	-0.16020441
12	0x3deef898	0.11668509
13	0x3e258845	0.16165264
14	0x3cdfdf62	0.027328197
15	0x3e00d03e	0.12579438
16	0xbd8c17ad	-0.06840453
17	0x3dc21884	0.09477332
18	0x3e23a9c6	0.15982732
19	0xbc7ea698	-0.015542649
20	0xbc2ed50e	-0.010670913
21	0xbe773a7e	-0.24143407
22	0x3d55c6d1	0.05219156
23	0xbd871ac0	-0.06596899
24	0xbdbab3e7	-0.09116345
25	0xbb5d9e93	-0.0033816441
26	0xbce31afe	-0.027722832
27	0xbdb7d554	-0.08976236
28	0xbdd7bccc	-0.10534057
29	0xbe010c7c	-0.12602419
30	0xbe415aff	-0.18882369
31	0xbe681fc3	-0.22668366
32	0xbe24e483	-0.16102795
33	0x3ccd7c58	0.025083706
34	0xbd1fd7ea	-0.03902427
35	0x3d8b3638	0.06797451
36	0xbca90d6d	-0.020636285
37	0xbe3b08af	-0.18265031
38	0xbc616619	-0.013757252
39	0xbd9140fc	-0.07092473
40	0xbdf9daaf	-0.12199914
41	0x3e9440d2	0.28955704
42	0x3d32cb1d	0.043650735
43	0x3eaa66f3	0.3328167
44	0x3c71c35a	0.014756048
45	0xbdbc613f	-0.09198236
46	0x3e769df6	0.24083695
47	0x3d1b7ecc	0.03796272
48	0xbd3dfb79	-0.0463824
49	0x3d4fd201	0.050737385
50	0xbdf7f93d	-0.12108085
51	0x3dd4ff99	0.10400314
52	0xbdc30dfb	-0.09524151
53	0xbd5912b1	-0.05299634
54	0xbc6de809	-0.0145206535
55	0xbe17edbd	-0.14836784
56	0xbc2f726f	-0.010708435
57	0x3d99a934	0.07502976
58	0x3c3b8951	0.011446313
59	0xbe1821af	-0.148566
60	0x3c936e1b	0.017996838
61	0x3cbd5a0b	0.023114225
62	0xbda6177e	-0.081099495
63	0x3bfea25a	0.0077708187
64	0xbc2fb6e7	-0.01072476
65	0x3e2efc05	0.17088325
66	0xbd774f17	-0.06037816
67	0x3e17257c	0.14760393
68	0xbddf7e08	-0.109127104
69	0xbd1c3ce8	-0.038144022
70	0x3df00ecc	0.11721572
71	0x3c8f056a	0.017458636
72	0xbdd557a3	-0.10417106
73	0xbe4d2129	-0.20032181
74	0x3a0382e5	0.0005016758
75	0xbdb9e714	-0.09077278
76	0xbd8279d8	-0.06370896
77	0xbb4ffe54	-0.0031737285
78	0x3e3ec0d7	0.1862825
79	0x3e4c6fb1	0.19964482
80	0xbddf2ddf	-0.10897421
81	0x3d0c67fc	0.034278855
82	0x3e020513	0.12697248
83	0xbd105b1f	-0.03524315
84	0x3e5848a5	0.21121462
85	0x3d1c440f	0.038150843
86	0xbdcae102	-0.09906198
87	0xbd522f62	-0.05131472
88	0xbe01381c	-0.1261906
89	0x3dd6dc79	0.104912706
90	0xbe0b5d71	-0.13609864
91	0x3c0ad872	0.008474456
92	0xbe29c02c	-0.16577214
93	0xbe0a9aad	-0.13535567
94	0x3da32c26	0.07967405
95	0xbda5180b	-0.080612265
96	0x3e094ae8	0.1340748
97	0x3e0ac387	0.1355115
98	0x3e2837af	0.16427492
99	0x3d9194ae	0.071084365
100	0x3d80c772	0.06288041
101	0xbe568226	-0.20948085
102	0xbcb1ebae	-0.021718826
103	0xbe49f0fc	-0.19720834
104	0x3da7f1d7	0.08200424
105	0xbc82f62a	-0.01598652
106	0x3e23c84c	0.15994376
107	0x3d8315c2	0.06400634
108	0x3dd41f3a	0.103575185
109	0x3d7911c2	0.06080795
110	0x3e2ea41c	0.1705479
111	0xbe6cc0d3	-0.23120432
112	0xbe77adce	-0.24187395
113	0xbe162c07	-0.14665233
114	0xbe3fabb1	-0.18717839
115	0x3c7f9149	0.0155986035
116	0xbe516e94	-0.20452338
117	0x3d935e67	0.0719574
118	0xbd6b5f0f	-0.0574637
119	0xbd35294e	-0.044228844
120	0xbd3a77ec	-0.045524523
121	0x3e23a1c1	0.15979673
122	0x3dc95a03	0.098316215
123	0x3d0f0d01	0.03492451
124	0xbe6fe7f6	-0.2342833
125	0x3e6113a3	0.21980147
126	0x3e38caa4	0.18046051
127	0xbd49229f	-0.049105283
128	0xbec665c9	-0.3874953
129	0xbdf48e50	-0.119412065
130	0x3e08686e	0.13321087
131	0x3d768ac9	0.06019095
132	0xbe0df09a	-0.13861313
133	0x3e2767f8	0.16348255
134	0xbe2f2370	-0.17103362
135	0xbd6aa7cb	-0.057288926
136	0x3e10eb20	0.14152193
137	0x3d80076c	0.062514156
138	0xbde21655	-0.11039416
139	0x3e2cbcb6	0.16868863
140	0xbe445df5	-0.19176467
141	0xbd37da41	-0.044885878
142	0xbdbfb0de	-0.093599066
143	0x3bb0e3e4	0.0053982604
144	0x3e1a46bc	0.15066046
145	0x3e1d2ad7	0.15348373
146	0x3e14eb15	0.14542802
147	0xbd0e3d64	-0.034726515
148	0x3deadbce	0.11467706
149	0xbe5720f4	-0.21008664
150	0xbe41e339	-0.18934335
151	0x3d0e54a6	0.034748696
152	0xbea8140d	-0.32827798
153	0xbe0c0ac4	-0.13675982
154	0x3d4afa2a	0.04955498
155	0xbdb7e60d	-0.089794256
156	0x3d6b8235	0.057497222
157	0xbde2b1ff	-0.11069106
158	0xbdcecce2	-0.10097672
159	0xbde3e1da	-0.11127062
160	0x3cac50f9	0.021034705
161	0x3e31b120	0.17352724
162	0xbe384907	-0.17996608
163	0x3e270375	0.16309913
164	0x3d060fbb	0.032729845
165	0x3dba5f73	0.09100237
166	0x3e0e341b	0.13887064
167	0x3e265b39	0.16245736
168	0x3d66998f	0.05629879
169	0xbbc6af27	-0.0060633603
170	0xbd77c3d6	-0.060489498
171	0xbb87c8f7	-0.00414383
172	0xbbae3adf	-0.0053170766
173	0xbcd83e9e	-0.026397046
174	0xbe38da24	-0.18051964
175	0x3cd85460	0.02640742
176	0x3eb58329	0.3545163
177	0x3dd34d1b	0.10317441
178	0x3d164b23	0.03669275
179	0xbdf72a54	-0.1206862
180	0x3d53fdb0	0.051755607
181	0xbd9b901f	-0.07595848
182	0xbe10d28e	-0.1414282
183	0x3e341890	0.17587495
184	0xbe2c42e0	-0.16822386
185	0x3d09ad0a	0.03361229
186	0xbe2a9960	-0.1666007
187	0xbd8708ff	-0.06593513
188	0xbe444e93	-0.19170599
189	0xbe1fe9fb	-0.156166
190	0xbd23d823	-0.040001046
191	0x3cecba1d	0.02889734
192	0x3cc463b9	0.023973333
193	0x3e5ffae0	0.21873045
194	0xbdbd3908	-0.092393935
195	0xbdfa5ea1	-0.1222508
196	0xbc8bcbc2	-0.017064933
197	0x3db27dba	0.08715387
198	0xbe914311	-0.2837148
199	0xbe9c8746	-0.30571955
200	0xbe2e78bc	-0.17038244
201	0x3df3d919	0.119066425
202	0xbe891c3b	-0.2677935
203	0x3e896d95	0.26841417
204	0xbdbe5262	-0.09293057
205	0xbe8b7f68	-0.2724564
206	0x3d802f86	0.062590644
207	0xbea9bcb8	-0.33151793
208	0xbebfc9d1	-0.3745866
209	0x3e4c0507	0.19923793
210	0x3d69400a	0.056945838
211	0x3d115751	0.035483662
212	0xbe1182e8	-0.14210093
213	0x3e287190	0.1644957
214	0x3e169e15	0.14708741
215	0x3ddd160a	0.10795219
216	0x3e225c9f	0.15855645
217	0x3d6bb18d	0.057542372
218	0xbd431ca3	-0.047634732
219	0xbedc6840	-0.43048286
220	0x3bf25752	0.0073956633
221	0xbe3fcfc6	-0.18731603
222	0xbdaa4f8e	-0.08315955
223	0xbda47338	-0.08029789
224	0xbf2dfc4d	-0.67963105
225	0xbdb6c6d5	-0.08924643
226	0x3d8008f2	0.06251706
227	0x3e390d6b	0.18071525
228	0x3d38994a	0.045068063
229	0xbe953691	-0.29143193
230	0x3e0b99f7	0.13632952
231	0xbed26015	-0.4108893
232	0xbea64411	-0.32473806
233	0x3ed26c6d	0.41098347
234	0xbd7aa226	-0.061189793
235	0x3eada0c5	0.3391172
236	0xbe7bcf28	-0.24590743
237	0x3e5938ce	0.21213076
238	0x3e8ccec7	0.2750151
239	0x3ea4759e	0.32120985
240	0x3d890c50	0.066918015
241	0x3d334243	0.043764364
242	0xbe4c47f5	-0.19949324
243	0xbe6a481b	-0.22879069
244	0x3e5fae3f	0.21843813
245	0xbdc900ef	-0.09814631
246	0x3db15a86	0.08659844
247	0x3dc45c70	0.095879436
248	0x3e052800	0.1300354
249	0xbd98a55e	-0.07453416
250	0x3e00584c	0.12533683
251	0xbbe80479	-0.0070806113
252	0x3e1d184b	0.15341298
253	0x3d754c08	0.059886962
254	0x3d2a004b	0.041504186
255	0x3dec1334	0.115271

l_lstm.bias_ih_l1 f4 [96]
0	0x3cfcce57	0.03086011
1	0x3e99814e	0.29981464
2	0x3e59a71e	0.21255156
3	0xbd428efe	-0.04749965
4	0x3d8fcfa6	0.07022028
5	0x3b3709f4	0.0027929517
6	0x3e711bd8	0.23545778
7	0xbdc22b71	-0.09480942
8	0x3dbfe86c	0.09370503
9	0x3dd3bfe3	0.10339334
10	0x3d972cd1	0.07381595
11	0x3d1a9aa8	0.037745148
12	0x3dfd77b3	0.123763464
13	0xbd8f8b50	-0.070089936
14	0xbd6846a0	-0.05670798
15	0xbdc368f2	-0.09541501
16	0xbe1bdbd6	-0.1522058
17	0x3e0f8ff0	0.14019752
18	0x3b471255	0.0030375917
19	0x3d1dd860	0.03853643
20	0xbe09f67d	-0.13472934
21	0x3e005b44	0.12534815
22	0xbdd1946b	-0.102333866
23	0xbe57abbd	-0.21061607
24	0xbdb72689	-0.08942897
25	0xbe0d28b3	-0.13785057
26	0xbd430f49	-0.047622
27	0x3d2877ce	0.04112988
28	0xbe065169	-0.13116993
29	0x3d440c57	0.04786333
30	0x3db521c7	0.08844333
31	0x3dec8b40	0.11549997
32	0x3e5837d9	0.21115054
33	0xbe4fe02a	-0.20300356
34	0xbb916b19	-0.004437816
35	0x3dd880b1	0.10571421
36	0x3dc813a5	0.09769372
37	0xbe63473d	-0.22195144
38	0xbe2e5d2f	-0.17027734
39	0x3e284046	0.16430768
40	0xbd699e30	-0.057035625
41	0xbe0d7dbf	-0.138175
42	0x3e1dc2d9	0.1540636
43	0x3dd699f0	0.1047858
44	0xbe1cf91a	-0.153294
45	0x3b5ba896	0.0033517233
46	0xbe4a52f2	-0.19758204
47	0x3c641400	0.013920784
48	0x3d8b51b3	0.06802692
49	0xbd83da4e	-0.06438123
50	0xbdff8850	-0.124771714
51	0xbcfa6751	-0.030566843
52	0xbddfc04d	-0.1092535
53	0x3ce02f52	0.027366314
54	0x3e0ea840	0.1393137
55	0xbe508a15	-0.20365174
56	0xbe86d2fa	-0.26332837
57	0xbdfa053e	-0.12208031
58	0xbcaa74ef	-0.020807711
59	0x3df5066a	0.11964114
60	0x3d409224	0.04701437
61	0xbe3f7796	-0.18697962
62	0x3da81fd0	0.08209193
63	0xbe427c22	-0.18992665
64	0xbde57024	-0.1120303
65	0x3d71f333	0.059069823
66	0x3d0a2d71	0.033734743
67	0x3e52fbf9	0.20603932
68	0x3dc54257	0.09631794
69	0xbdc637f3	-0.0967864
70	0xbcd73716	-0.026271384
71	0x3cee7d5b	0.029112509
72	0xbd5d5fcf	-0.05404645
73	0x3d7e9db0	0.0621621
74	0xbd8c254e	-0.06843053
75	0x3bf063d7	0.0073361206
76	0x3e0434bf	0.12910746
77	0x3c8b1de2	0.016982023
78	0x3e0678eb	0.13132064
79	0x3dea5827	0.11442595
80	0x3e807779	0.2509115
81	0x3d7b00dd	0.06128012
82	0x3e45ecea	0.19328657
83	0x3dbb2e46	0.09139685
84	0xbe79cdea	-0.24394956
85	0xbdb671a9	-0.08908398
86	0x3e6608e5	0.2246433
87	0x3e037ca3	0.12840514
88	0x3e1d8439	0.1538247
89	0xbd0d1a2c	-0.034448788
90	0x3e06daf4	0.13169461
91	0xbdd35a57	-0.10319965
92	0x3e0127ef	0.1261289
93	0x3db36084	0.08758643
94	0x3e24f9e5	0.16110952
95	0x3c92c98c	0.01791837

l_lstm.bias_hh_l1 f4 [96]
0	0x3e299a49	0.16562761
1	0x3e1b65dc	0.15175575
2	0xbd9a06fc	-0.075208634
3	0xbdba8e8c	-0.0910922
4	0x3e203949	0.15646853
5	0xbdbee4de	-0.09320997
6	0x3e5933b4	0.2121113
7	0x3e0d6f3c	0.13811964
8	0x3e0d36f2	0.13790491
9	0x3eae6be8	0.340667
10	0xbdf5f08b	-0.120087706
11	0xbd966ba9	-0.07344753
12	0xbd086f8c	-0.033309504
13	0x3e98601c	0.29760826
14	0x3e04f77c	0.12985033
15	0x3d3f5f3a	0.046721675
16	0x3e68b51b	0.22725336
17	0xbe057c3b	-0.13035671
18	0xbe15615f	-0.14587925
19	0x3d380ed4	0.044936016
20	0xbd1aa71e	-0.03775703
21	0xbdc4d5af	-0.096110694
22	0xbdb4ce9f	-0.08828472
23	0x3df16e18	0.11788577
24	0x3c431142	0.01190597
25	0xbd68e778	-0.05686137
26	0x3d3f7de4	0.046750918
27	0x3daad773	0.08341875
28	0x3d77288b	0.0603414
29	0x3de6bbfa	0.112663224
30	0xbe060ae1	-0.13090087
31	0xbd3ed8b4	-0.046593383
32	0xbd841bda	-0.06450625
33	0x3e0177a4	0.12643296
34	0xbde67a8f	-0.11253845
35	0x3d975f69	0.07391245
36	0xbe2ce62a	-0.16884676
37	0xbd78800b	-0.060668986
38	0xbe2da280	-0.1695652
39	0xbd2ec68e	-0.042669825
40	0xbdb77def	-0.08959567
41	0xbe63ebb8	-0.22257888
42	0x3cc7fec3	0.024413472
43	0xbe1fb092	-0.155947
44	0x3e18207b	0.1485614
45	0x3d454697	0.048163023
46	0x3d1ac42e	0.037784748
47	0x3d544599	0.051824186
48	0x3e5cd9c7	0.2156745
49	0xbbd68ff9	-0.0065479246
50	0xbe2d3d30	-0.16917872
51	0xbe311a56	-0.17295203
52	0x3dcba08c	0.09942731
53	0xbe234320	-0.15943575
54	0xbe50b527	-0.20381604
55	0xbe1b3fcf	-0.1516106
56	0xbe22476e	-0.15847561
57	0x3d7207b8	0.059089392
58	0x3cce5988	0.025189176
59	0xbdf5db5c	-0.1200473
60	0x3ca374d0	0.019953161
61	0x3d221288	0.039568454
62	0x3e2d1357	0.16901909
63	0xbe633211	-0.22187068
64	0x3d94c45b	0.07264014
65	0xbd494211	-0.04913527
66	0xbde072dc	-0.10959408
67	0xbd90733a	-0.07053228
68	0xbe03c043	-0.12866311
69	0xbdcd40bb	-0.10022112
70	0x3e164870	0.1467607
71	0xbc89e8e3	-0.016834682
72	0xbe4b8b86	-0.19877443
73	0x3e6c75f4	0.2309187
74	0xbe35b199	-0.1774353
75	0x3b94f3d0	0.0045456663
76	0x3cb10a86	0.021611463
77	0x3e227c77	0.15867792
78	0x3e3c0532	0.18361357
79	0x3bd1ec0d	0.0064063133
80	0x3d518640	0.05115342
81	0x3ea8e2a5	0.32985416
82	0xbd3cecf0	-0.0461244
83	0x3d49cda2	0.049268372
84	0x3db3bc6a	0.087761715
85	0x3e0d19a8	0.13779318
86	0x3e677d45	0.2260638
87	0xbd4e0f44	-0.050307527
88	0xbe10fffe	-0.14160153
89	0xbd6661d0	-0.056245625
90	0xbd3d2db3	-0.04618616
91	0x3c1fe785	0.009759788
92	0x3d06786d	0.03282969
93	0xba6126c0	-0.0008588843
94	0x3e3fb743	0.18722253
95	0xbe145462	-0.14485314

l_lstm.weight_ih_l2 f4 [96, 24]
0	0xbb9e18ab	-0.004824718
1	0x3e8f00c9	0.27930287
2	0xbe4ae1af	-0.19812654
3	0x3dc7c8b9	0.09755082
4	0x3e6971bd	0.22797294
5	0xbe5be92d	-0.21475668
6	0x3d4c536f	0.049884256
7	0xbdad2271	-0.08453835
8	0x3d8421d5	0.064517654
9	0x3e1b9693	0.15194158
10	0xbdf3973c	-0.1189408
11	0xbd707c74	-0.058712438
12	0xbe324293	-0.17408209
13	0xbebc51ce	-0.36781162
14	0x3e2b1746	0.16708097
15	0xbe46d488	-0.19417012
16	0xbe76e70b	-0.24111573
17	0x3e970946	0.29499263
18	0xbcf8c251	-0.030366095
19	0x3e42863f	0.18996523
20	0x3c3348f4	0.010942686
21	0xbe035803	-0.12826543
22	0x3d65365f	0.055960055
23	0x3e558673	0.2085207
24	0xbd4a5594	-0.04939802
25	0xbc70363a	-0.014661366
26	0xbca42753	-0.020038282
27	0xbe2c1343	-0.16804223
28	0x3ccb3626	0.024806093
29	0x3d681cb7	0.05666801
30	0x3e07538e	0.13215467
31	0x3e2fe812	0.17178372
32	0x3ddb5272	0.107090846
33	0xbe0cd3e2	-0.13752702
34	0x3dbf4664	0.09339598
35	0xbd29116b	-0.041276377
36	0x3db4b076	0.0882272
37	0xbe557d0d	-0.20848484
38	0xbdc3b3b1	-0.09555758
39	0x3d222270	0.039583623
40	0x3e34d070	0.17657638
41	0xbe0b8e8f	-0.136286
42	0x3d1d3ab6	0.03838607
43	0x3e068c3e	0.13139436
44	0xbe5b2716	-0.21401629
45	0xbe65c963	-0.22440104
46	0x3d0f14f4	0.03493209
47	0x3e023ce1	0.12718536
48	0x3d424289	0.047426734
49	0x3e3de2f1	0.18543603
50	0x3d118f28	0.035536915
51	0x3e367708	0.17818844
52	0x3c0e4a88	0.008684762
53	0xbd1b4215	-0.037904818
54	0xbddf7736	-0.109114096
55	0xbe576b90	-0.21037126
56	0x3e9aaeeb	0.30211577
57	0x3e65bd83	0.22435574
58	0xbe0d6e89	-0.13811697
59	0x3e8bb955	0.27289835
60	0xbd4325d1	-0.047643486
61	0xbdff5a1d	-0.124683596
62	0xbd36a81a	-0.044593908
63	0xbe5d718b	-0.21625344
64	0xbe9265ce	-0.28593296
65	0xbe2fd8e5	-0.17172582
66	0xbd98d9a3	-0.07463386
67	0x3db8bc6a	0.09020312
68	0xbea08095	-0.313481
69	0x3dd346ea	0.1031626
70	0x3cc384af	0.02386698
71	0xbde91e9c	-0.113827914
72	0xbe2195d3	-0.1577981
73	0x3e7b143d	0.24519439
74	0x3e21e354	0.15809375
75	0xbe0c7378	-0.13715923
76	0x3d8966ed	0.06709085
77	0xbe328101	-0.17432024
78	0x3db2d24c	0.08731517
79	0x3dd51113	0.10403647
80	0x3ecb53dc	0.39712417
81	0x3da8fb28	0.08251029
82	0x3d06e5e1	0.032934073
83	0x3e3bdfbf	0.18347071
84	0xbce8e71d	-0.028430516
85	0xbe022560	-0.1270957
86	0x3e09a20e	0.13440725
87	0x3cdf8913	0.027287042
88	0x3d3c55f0	0.045980394
89	0x3db497af	0.08817994
90	0xbc5e6238	-0.013573222
91	0x3e420220	0.18946123
92	0xbd3f98e8	-0.046776682
93	0x3e27fe4c	0.164056
94	0x3c95461a	0.018221904
95	0x3d782adf	0.06058776
96	0xbcebe192	-0.028794084
97	0x3ccd1039	0.02503215
98	0xbd932cdd	-0.07186291
99	0x3dc52d3e	0.0962777
100	0x3cb6663f	0.022265552
101	0xbe25d447	-0.16194259
102	0x3e202942	0.15640739
103	0x3d1bc598	0.038030237
104	0x3e9d3ba6	0.3070957
105	0x3d971913	0.073778294
106	0x3dc1cf39	0.09463353
107	0xbd909fc1	-0.07061721
108	0xbdfaaf2c	-0.12240443
109	0x3de685b8	0.112559736
110	0x3e1c0273	0.1523531
111	0xbe77b58f	-0.24190353
112	0xbd1fcb4d	-0.039012242
113	0xbb870bfc	-0.0041213017
114	0xbc7ad205	-0.015308862
115	0xbc1e19b8	-0.0096496865
116	0xbe6c0aad	-0.23050947
117	0xbe47f65d	-0.19527574
118	0xbac41c82	-0.0014962109
119	0x3dead340	0.11466074
120	0xbd67f954	-0.056634262
121	0x3e2d4602	0.16921237
122	0x3d216037	0.0393984
123	0x3b89130d	0.0041831792
124	0x3ddbf0ed	0.10739312
125	0x3ccb1b75	0.024793366
126	0x3dfba2a1	0.122868784
127	0xbceff048	-0.02928938
128	0xbe49cdd4	-0.19707423
129	0xbe00c8ce	-0.12576601
130	0xbd869681	-0.06571675
131	0x3e3af2f2	0.18256739
132	0xbd93ad4b	-0.072107874
133	0x3de285af	0.11060654
134	0x3e25002b	0.16113345
135	0x3e4ca94b	0.19986455
136	0xbe1f2f8e	-0.15545484
137	0xbe197fa5	-0.14990099
138	0x3db26ac8	0.08711773
139	0x3d049281	0.03236628
140	0xbe1c0467	-0.15236054
141	0xbe575c8a	-0.21031395
142	0x3d8fd8d1	0.07023776
143	0x3e0ed408	0.13948071
144	0xbd7c958f	-0.061666068
145	0xbe206d05	-0.15666588
146	0x3e24af69	0.16082539
147	0x3ca460aa	0.020065624
148	0xbdbeb899	-0.09312553
149	0x3e5013b8	0.20320022
150	0x3dbd1c84	0.092339545
151	0xbcad2eb3	-0.021140432
152	0x3e166280	0.14686012
153	0xbe6f8b17	-0.23392902
154	0x3e332365	0.1749397
155	0xbdce7815	-0.100814976
156	0x3bda761c	0.0066669118
157	0xbcc131bb	-0.023583284
158	0x3c8a1529	0.016855793
159	0x3e5f8f47	0.21832
160	0x3e6fb91c	0.23410457
161	0x3e4cad7f	0.19988059
162	0xbc05df75	-0.008170952
163	0x3dc8dad9	0.09807367
164	0x3e81974a	0.25310737
165	0xbd9a367e	-0.07529925
166	0xbe39b8dd	-0.18136926
167	0xbe29c625	-0.16579492
168	0xbe55e30e	-0.20887396
169	0xbe5502b1	-0.20801808
170	0x3dc25814	0.09489456
171	0xbde65c3e	-0.112480626
172	0xbce2efba	-0.027702201
173	0x3e4f81a9	0.20264305
174	0x3d3653f8	0.044513673
175	0xbd2571e5	-0.04039182
176	0xbe0eaca3	-0.13933043
177	0xbe9dcc0d	-0.3081974
178	0x3c5459ac	0.012960833
179	0x3d53aa95	0.05167635
180	0x3e41e3be	0.18934533
181	0x3d3f48e5	0.046700377
182	0xbe758c64	-0.23979336
183	0x3ea01495	0.31265703
184	0x3dd14ff0	0.10220325
185	0x3ea1453e	0.3149814
186	0x3dd250fe	0.10269354
187	0x3e1fd80a	0.15609756
188	0xbdd980ca	-0.10620268
189	0xbe03fb19	-0.12888755
190	0xbc907a92	-0.017636571
191	0x3ca30149	0.019898074
192	0xbbcdbbd5	-0.006278495
193	0xbdfdccbe	-0.12392567
194	0xbc502365	-0.012703751
195	0xbe1fbf44	-0.15600306
196	0x3ce89669	0.028392034
197	0xbd33c332	-0.043887325
198	0xbe5b732a	-0.2143065
199	0xbe88d361	-0.2672377
200	0x3da3f1d2	0.08005108
201	0x3e73cad2	0.23807839
202	0xbe113fca	-0.1418449
203	0x3e78527a	0.24250212
204	0xbcabd4a7	-0.020975424
205	0xbe659dcf	-0.2242348
206	0x3c52056d	0.012818676
207	0x3db91fb8	0.09039253
208	0xbe72523a	-0.2366418
209	0x3dcd0ec9	0.10012586
210	0x3bd12d08	0.006383542
211	0x3dcc6f09	0.09982116
212	0xbcfcbb20	-0.030850947
213	0x3d0ac777	0.03388163
214	0x3e0e70b8	0.13910186
215	0xbe31b25d	-0.17353196
216	0x3e177de0	0.14794111
217	0xbe194bc3	-0.14970307
218	0xbd233803	-0.03984834
219	0x3e005a16	0.12534365
220	0x3d7dbc0c	0.061946914
221	0xbd8977bc	-0.06712291
222	0x3ae2b2a2	0.0017295668
223	0xbcf9136e	-0.030404773
224	0x3edbe86c	0.4295076
225	0x3d1ccb69	0.038279925
226	0x3d0f3794	0.034965113
227	0xbdb77bd4	-0.08959165
228	0x3e21d4e8	0.15803874
229	0xbd9ef11d	-0.077608325
230	0x3d7106ef	0.058844503
231	0xbe31a6d0	-0.1734879
232	0xbd169df0	-0.036771715
233	0xbd73fb3d	-0.05956577
234	0x3dbb0314	0.091314465
235	0xbe504007	-0.20336924
236	0xbe5220ad	-0.20520277
237	0xbd4fbb14	-0.05071552
238	0x3da65613	0.08121886
239	0xbc32f2dd	-0.010922161
240	0xbc7ca9f0	-0.015421376
241	0xbd9d1c67	-0.07671433
242	0x3dc4b87b	0.09605499
243	0x3d5d7713	0.054068636
244	0x3e1c529a	0.15265885
245	0xbc84f603	-0.016230589
246	0x3bfab5c3	0.007651062
247	0xbd6140cd	-0.05499344
248	0x3e88281a	0.26593095
249	0xbe4e5de2	-0.20153001
250	0xbda0b237	-0.07846492
251	0x3ce9c82c	0.028537832
252	0xbe607890	-0.21920991
253	0xbd87c40b	-0.06629189
254	0x3dbe1e28	0.092830956
255	0xbd5b2b14	-0.05350788
