citylearn/data/datasets/quebec_neighborhood_without_demand_response_set_points/resstock-amy2018-2021-release-1-376570.pth (torch, 507054 bytes, 27 tensors)

l_lstm.weight_ih_l0 f4 [224, 12]
0.06005953 -0.1849357 0.18508326 0.071413845 -0.26983958 -0.013282873 -0.10593444 0.010884024
0.02626215 0.096383035 -0.1042033 -0.008045132 -0.09729023 -0.15769097 0.10112501 0.040627133
-0.021550735 -0.0695792 0.18921594 -0.008330066 -0.0519947 0.07165259 0.17249161 -0.04219328
0.039181255 -0.050468426 -0.02717729 -0.05414352 -0.038085166 -0.12737738 -0.16292876 -0.0033513042
-0.1710722 -0.0012855472 -0.0836584 0.014126935 -0.15893196 0.0025935017 -0.075402535 -0.17132846
-0.009998339 -0.08523587 -0.117989175 -0.09654093 0.009491703 -0.10399594 -0.07279898 -0.43367016
0.013475161 -0.13669592 0.09586233 0.07705962 0.054640293 0.042377368 0.017276453 -0.0016354561
-0.064521514 0.09137905 0.08748209 -0.13361835 -0.030387301 -0.010163594 -0.0034619805 -0.067401536
0.17758839 0.10742597 0.0015332932 0.09873385 0.076609135 0.099499404 -0.06670621 0.09175459
-0.05583003 0.025790282 0.07017856 -0.03281061 -0.021326484 -0.15817136 -0.07851063 -0.145105
0.03330745 -0.06901541 0.10172907 0.052348737 0.527171 -0.10543016 0.10151375 0.040848915
0.33486137 -0.14827183 0.3799833 0.13249181 0.2810721 0.18657924 0.17426938 0.34584588
-0.07317409 0.104914315 0.052890517 -0.14773227 -0.030761236 -0.13334532 -0.10951725 0.10196462
-0.063601404 -0.13510205 -0.09336695 -0.03727391 -0.05547846 -0.08671046 0.037221238 0.0737035
-0.5615842 -0.002451494 0.29564464 0.3143348 0.23080689 0.25742802 -0.040239245 -0.32043606
-0.063095294 -0.19897819 -0.078054205 0.08313595 0.11840515 -0.13266453 -0.08801788 0.010354546
-0.094327345 0.096333764 0.047798395 0.036696985 -0.033927616 -0.10359247 0.11030553 0.08599989
0.015151729 -0.05416371 -0.120344415 -0.040081643 -0.08400387 -0.09979309 -0.027208833 0.17414723
-0.03730366 0.027568802 0.03166663 0.07416216 -0.021063283 0.07712482 0.026928453 -0.063947454
0.028881393 0.034501202 0.15141036 0.0738456 -0.040614955 -0.12834981 0.11105555 0.05818937
0.10562199 -0.0045761312 -0.01821409 0.10922841 0.17859681 -0.01793811 0.12506478 0.09294448
-0.1659028 -0.13653482 -0.13991722 -0.07932863 0.2054848 -0.08224502 -0.059048668 -0.24823047
-0.13087092 -0.005852171 0.06259587 -0.09578081 0.079983145 0.14439373 -0.046917714 0.09100063
-0.06818996 0.04555134 0.102953315 0.13492484 -0.07137925 -0.09496149 0.12902993 0.23035733
-0.38892108 -0.009707876 0.17636326 -0.14481851 0.06445051 0.30588436 -0.13908087 -0.33298767
-0.15013205 -0.02522878 0.046493314 0.26188466 -0.14438303 -0.17715432 -0.15614143 -0.1620151
-0.19237782 -0.10735855 -0.062267814 -0.14450982 -0.11269527 -0.08057572 -0.19557422 -0.04799188
0.2115701 0.24639712 -0.06934522 0.044597443 0.15498613 0.046668082 -0.11096534 -0.04227567
-0.04840546 -0.13176382 -0.102508426 -0.1673491 -0.025768153 0.006971169 0.20039847 0.070510074
0.16828915 0.29572445 -0.071790084 0.286019 0.21668464 0.27416497 0.06492557 0.3003372
0.17751765 -0.045282528 0.12627213 0.088706985 -0.2617592 0.0093201315 0.08245381 -0.00030852164
0.20961766 0.116068624 -0.061214276 -0.17944363 0.20739722 0.069158554 0.17056231 0.13674642
00000000: fb00 763d c95f 3dbe 7786 3d3e 6c41 923d
00000010: 6a28 8abe 68a0 59bc 28f4 d8bd e852 323c
00000020: b823 d73c 7864 c53d 8a68 d5bd bbcf 03bc
00000030: 1a40 c7bd be79 21be a11a cf3d a368 263d
00000040: 2b8b b0bc 8a7f 8ebd d3c1 413e d47a 08bc
00000050: 65f8 54bd 98be 923d a4a1 303e dcd2 2cbd
00000060: 867c 203d fbb7 4ebd e8a2 debc 98c5 5dbd
00000070: 31ff 1bbd 376f 02be ccd6 26be 8ea1 5bbb
00000080: 8d2d 2fbe ce7f a8ba 1855 abbd a974 673c
00000090: 0fbf 22be bdf7 293b a56c 9abd ba70 2fbe
000000a0: 13d0 23bc 2590 aebd 4fa4 f1bd 40b7 c5bd
000000b0: 1683 1b3c d3fb d4bd a217 95bd 040a debe
000000c0: ecc6 5c3c 04fa 0bbe 7853 c43d 6fd1 9d3d
000000d0: 80ce 5f3d e493 2d3d 5987 8d3c cd5c d6ba
000000e0: db23 84bd f024 bb3d cf29 b33d 40d3 08be
000000f0: caee f8bc 3485 26bc 65e2 62bb d109 8abd
00000100: bbd9 353e 2602 dc3d c8f8 c83a f934 ca3d
00000110: 40e5 9c3d 58c6 cb3d 449d 88bd d5e9 bb3d
00000120: 08ae 64bd 2446 d33c c7b9 8f3d 6b64 06bd
00000130: e1b4 aebc acf7 21be 2eca a0bd 6896 14be
00000140: 656d 083d f457 8dbd 5557 d03d a16b 563d
00000150: aef4 063f c5eb d7bd 71e6 cf3d 3151 273d
00000160: f372 ab3e 92d4 17be 2c8d c23e efab 073e
00000170: afe8 8f3e a10e 3f3e ac73 323e b612 b13e
00000180: 4cdc 95bd 51dd d63d baa3 583d 2147 17be
00000190: fdfe fbbc ad8b 08be 944a e0bd d4d2 d03d
000001a0: 7441 82bd 3158 0abe 2c37 bfbd 87ac 18bd
000001b0: 623d 63bd 4195 b1bd 4c75 183d dcf1 963d
000001c0: fbc3 0fbf 3fa9 20bb bc5e 973e 7ef0 a03e
000001d0: a458 6c3e 9bcd 833e e8d1 24bd 3210 a4be
000001e0: 1b38 81bd f0c0 4bbe e2da 9fbd 2e43 aa3d
000001f0: 667e f23d 36d9 07be b842 b4bd 1da6 293c
00000200: b22e c1bd a34a c53d 40c8 433d 944f 163d
00000210: aff7 0abd 4a28 d4bd dee7 e13d b620 b03d
00000220: f53e 783c c4da 5dbd 2277 f6bd a62c 24bd
00000230: 390a acbd 5260 ccbd 0fe5 debc a753 323e
00000240: b9cb 18bd f8d7 e13c deb4 013d 55e2 973d
00000250: e88c acbc 9ef3 9d3d 0f99 dc3c e2f6 82bd
00000260: ac98 ec3c 2251 0d3d 510b 1b3e 5d3c 973d
00000270: de5b 26bd 226e 03be 1871 e33d fa57 6e3d
00000280: 5850 d83d 5ff3 95bb b735 95bc 25b3 df3d
00000290: 15e2 363e f1f2 92bc fb10 003e ad59 be3d
000002a0: 6ce2 29be c9cf 0bbe 7646 0fbe 0c77 a2bd
000002b0: 9b6a 523e 1470 a8bd 04dd 71bd 2130 7ebe
000002c0: 0703 06be 92c3 bfbb 4332 803d bb28 c4bd
000002d0: 34ce a33d f3db 133e ca2c 40bd 8a5e ba3d
000002e0: 2ea7 8bbd 0b94 3a3d 30d9 d23d bd29 0a3e
000002f0: 492f 92bd 2b7b c2bd 6c20 043e cbe2 6b3e
00000300: aa20 c7be c80d 1fbc 9298 343e 4e4b 14be
00000310: a1fe 833d e09c 9c3e 376b 0ebe 5c7d aabe
00000320: 37bc 19be 96ac cebc c66f 3e3d bf15 863e
00000330: 25d9 13be f167 35be 8ae3 1fbe 49e7 25be
00000340: b1fe 44be cdde dbbd 890c 7fbd 62fa 13be
00000350: c7cc e6bd e204 a5bd 9c44 48be 2293 44bd
00000360: d5a5 583e 874f 7c3e de04 8ebd cfab 363d
00000370: afb4 1e3e 0827 3f3d cc41 e3bd 4129 2dbd
00000380: ce44 46bd 18ed 06be f0ef d1bd 905d 2bbe
00000390: bc17 d3bc 676e e43b 4235 4d3e 9667 903d
000003a0: fe53 2c3e 3269 973e ae06 93bd 1571 923e
000003b0: 94e2 5d3e 5a5f 8c3e b2f7 843d ccc5 993e
000003c0: 30c7 353e 2c7a 39bd 7b4d 013e 02ac b53d
000003d0: 4d05 86be 77b3 183c 8bdd a83d 13c1 a1b9
000003e0: 03a6 563e 63b5 ed3d d2bb 7abd 12c0 37be
000003f0: f05f 543e 00a3 8d3d e3a7 2e3e 4107 0c3e

l_lstm.weight_hh_l0 f4 [224, 56]
0.05438633 -0.17571622 0.0891906 0.16080481 0.039325777 0.09307965 0.14284794 0.067995735
0.15223329 -0.10282844 -0.05041415 0.065035924 -0.062135838 -0.23230818 -0.10412709 -0.19412678
-0.034543343 -0.054078322 0.038256943 0.053990725 0.23396486 -0.0155969085 0.092357494 -0.06653881
0.03065366 0.0048257015 0.094180204 0.10290838 0.13186248 0.03633497 0.08978309 0.07413889
-0.02725511 -0.1052958 0.17115882 -0.060764633 0.17756116 0.043306317 0.045112707 0.12708624
-0.09490474 -0.03743202 0.2459346 0.07486381 -0.10042791 0.0069412747 -0.0328136 -0.16836253
-0.13820362 -0.16305758 0.05384328 -0.028690943 -0.14175072 -0.17569539 -0.0058930065 0.11125935
-0.1278569 -0.05785892 -0.039289106 -0.010836956 0.123495474 0.051898036 0.0046376544 -0.14910685
-0.11528138 -0.098637715 0.12286015 0.08337376 -0.09442554 0.009661754 0.057172574 0.083538316
-0.06842234 -0.01215868 -0.11472995 0.10737085 -0.05188492 -0.076259896 -0.11260634 -0.13244861
-0.12157891 0.07721206 0.13769037 -0.07648195 -0.0989543 -0.02210441 -0.076095246 0.037157662
-0.055889893 0.11780559 0.10534619 -0.0753234 0.00042364045 -0.1166147 0.022398125 -0.12049539
-0.06670201 -0.085523024 -0.17738329 -0.09139425 -0.049794767 0.10128671 0.060076546 -0.059322968
-0.0011913767 -0.10341928 0.04517954 -0.042675428 -0.03814668 -0.1958319 -0.13309586 -0.041723438
0.07188735 0.015811449 0.034865875 -0.15450487 -0.08542249 0.13118838 0.1910415 -0.07673226
0.07905262 -0.117790915 0.08869294 -0.22743084 -0.010948652 -0.053383164 -0.048221067 0.013207077
0.15364392 0.0027558692 0.018295964 0.030012438 0.02436938 -0.16742195 0.05573897 -0.07707442
0.038887326 -0.040184382 -0.03744252 -0.08064688 0.19256335 -0.010992238 0.15155035 0.059521325
-0.2029996 0.1672561 -0.09387241 -0.02213702 0.06753432 -0.07291608 0.07660384 -0.07772871
-0.0050023454 0.047138132 -0.07643089 -0.20302488 0.15756539 -0.060999915 0.038038313 0.015967567
-0.1729762 -0.10135412 0.013851907 -0.060661122 0.027787462 0.011136693 0.16315377 0.0761905
-0.0046865875 -0.2149534 -0.04628355 0.0505274 -0.14085446 0.043839198 -0.08906685 0.09779456
-0.024426911 -0.08828475 -0.011354037 -0.031209484 -0.031538583 -0.18128672 0.0013738986 0.0037046596
-0.011949965 -0.031092921 -0.13006504 -0.02934694 -0.0803309 0.11862836 0.10804029 0.043636665
0.22963232 0.09966975 0.029426329 -0.06439298 -0.08451754 -0.095823236 0.0898763 -0.04499635
-0.054716583 -0.107965015 -0.117591746 -0.021190485 -0.012266242 -0.09468985 0.074773215 -0.04711873
-0.16098894 0.042572886 -0.11482895 -0.0719331 0.1317238 0.09546033 -0.14860521 -0.15972997
-0.008310535 -0.060718667 0.03813613 0.10085782 -0.19531451 -0.17722723 0.0013323766 -0.055512488
-0.16737111 -0.045408003 -0.0013767836 -0.06312822 0.030981945 0.049866725 -0.115146555 0.014043871
0.101991676 0.30892825 0.02398408 -0.0810582 0.026626939 -0.13058802 -0.08019245 -0.1209208
0.061505124 -0.02240289 0.05409385 0.11083619 -0.13113353 0.03100319 -0.032894805 -0.09522527
0.044833906 0.081359744 0.027547617 -0.034868676 0.07635757 -0.009115907 -0.03019268 -0.091778055
00000000: 33c4 5e3d f4ee 33be 90a9 b63d 04aa 243e
00000010: 1114 213d 8ba0 be3d bb46 123e 5941 8b3d
00000020: 0be3 1b3e b897 d2bd 117f 4ebd 8e31 853d
00000030: 2682 7ebd 32e2 6dbe 9540 d5bd 2cc9 46be
00000040: 527d 0dbd 3b81 5dbd 50b3 1c3d 6125 5d3d
00000050: 7c94 6f3e 2d8a 7fbc ed25 bd3d 8045 88bd
00000060: 621d fb3c eb20 9e3b 8de1 c03d a1c1 d23d
00000070: f506 073e fad3 143d 32e0 b73d 21d6 973d
00000080: 1c46 dfbc 53a5 d7bd 4244 2f3e 56e4 78bd
00000090: 98d2 353e f761 313d 1ac8 383d e522 023e
000000a0: 6b5d c2bd 5152 19bd 48d6 7b3e 3252 993d
000000b0: 26ad cdbd a273 e33b 8e67 06bd 3a67 2cbe
000000c0: 4085 0dbe 91f8 26be c58a 5c3d 4509 ebbc
000000d0: 1a27 11be 7ee9 33be 1f1a c1bb f1db e33d
000000e0: ebec 02be 7afd 6cbd 9ded 20bd 7d8d 31bc
000000f0: 32eb fc3d 0993 543d 77f7 973b 77af 18be
00000100: a518 ecbd 9202 cabd 1a9e fb3d ddbf aa3d
00000110: 2d62 c1bd 554c 1e3c ca2d 6a3d 2316 ab3d
00000120: 0321 8cbd 3335 47bc 89f7 eabd 40e5 db3d
00000130: 4885 54bd 262e 9cbd 279e e6bd 9ca0 07be
00000140: 5dfe f8bd 5b21 9e3d b4fe 0c3e 92a2 9cbd
00000150: 8da8 cabd 4f14 b5bc d3d7 9bbd a232 183d
00000160: cdec 64bd 0f44 f13d bebf d73d 2843 9abd
00000170: 0f1c de39 b0d3 eebd 467c b73c 49c6 f6bd
00000180: 109b 88bd b226 afbd f7a3 35be e92c bbbd
00000190: 99f5 4bbd 686f cf3d d312 763d a4fc 72bd
000001a0: f827 9cba 7dcd d3bd 2e0e 393d 6ecc 2ebd
000001b0: b13f 1cbd 2888 48be 484a 08be 32e6 2abd
000001c0: ad39 933d 0387 813c 85cf 0e3d 8636 1ebe
000001d0: fdf1 aebd 3f56 063e 62a0 433e ce25 9dbd
000001e0: 57e6 a13d 5d3c f1bd a5a4 b53d a1e3 68be
000001f0: fa61 33bc 4ea8 5abd 7483 45bd 7f62 583c
00000200: d554 1d3e d09b 343b 6be1 953c a5dc f53c
00000210: 4ba2 c73c a970 2bbe 8c4e 643d 32d9 9dbd
00000220: 5148 1f3d 6198 24bd 545d 19bd 312a a5bd
00000230: 542f 453e ca18 34bc 0430 1b3e a2cc 733d
00000240: 21df 4fbe 2f45 2b3e 2e40 c0bd b258 b5bc
00000250: 6f4f 8a3d 0755 95bd 79e2 9c3d 3b30 9fbd
00000260: b7ea a3bb ea13 413d cc87 9cbd c1e5 4fbe
00000270: d258 213e 0cdb 79bd 10ce 1b3d 6ace 823c
00000280: ac20 31be c092 cfbd 1cf3 623c cc77 78bd
00000290: 88a2 e33c ad76 363c c811 273e c409 9c3d
000002a0: f291 99bb be1c 5cbe d293 3dbd d2f5 4e3d
000002b0: 273c 10be bb90 333d ae68 b6bd 8448 c83d
000002c0: f21a c8bc a3ce b4bd 4806 3abc 08ab ffbc
000002d0: 9a2e 01bd 3aa3 39be 6314 b43a e0c9 723b
000002e0: c9c9 43bc 95b6 febc c52f 05be fe68 f0bc
000002f0: 8784 a4bd 6df3 f23d 3a44 dd3d 5cbc 323d
00000300: bc24 6b3e a71f cc3d 7c0f f13c 77e0 83bd
00000310: 8817 adbd f93e c4bd 1111 b83d 184e 38bd
00000320: 7f1e 60bd c31c ddbd f1d3 f0bd ab97 adbc
00000330: 59f8 48bc c1ec c1bd b322 993d 92ff 40bd
00000340: 49da 24be e860 2e3d 712b ebbd a951 93bd
00000350: 9be2 063e b580 c33d f72b 18be 4190 23be
00000360: e928 08bc 23b4 78bd a134 1c3d 8b8e ce3d
00000370: 8700 48be 0e7b 35be 24a3 ae3a 1061 63bd
00000380: 5563 2bbe befd 39bd 3175 b4ba 5e49 81bd
00000390: d9cd fd3c 0d41 4c3d f5d1 ebbd 4418 663c
000003a0: 03e1 d03d d82b 9e3e 437a c43c d701 a6bd
000003b0: bd20 da3c deb8 05be f03b a4bd 53a5 f7bd
000003c0: ccec 7b3d 4486 b7bc 8391 5d3d 16fe e23d
000003d0: de47 06be 67fa fd3c b4bc 06bd 7705 c3bd
000003e0: c2a3 373d f09f a63d 8aab e13c 75d2 0ebd
000003f0: 5c61 9c3d e35a 15bc a456 f7bc 22f6 bbbd

l_lstm.bias_ih_l0 f4 [224]
0.028051596 0.12205879 -0.08071579 -0.01216383 0.08618254 -0.08907636 0.0024433155 0.21529603
-0.10057297 0.19326292 -0.1423654 0.1021096 0.13002098 0.17969054 -0.14062235 -0.003787052
-0.15591808 -0.0033401938 0.0072164945 0.1798672 -0.047495406 0.21870147 -0.01819583 0.06548664
0.11367154 0.26064545 -0.05167674 0.05589458 -0.120297916 -0.019302104 0.07709748 0.08963121
-0.04781447 0.0064333025 0.09094564 0.13241827 -0.0037407356 -0.08792557 0.057439376 0.03411721
-0.0465129 0.23353723 0.059629716 -0.016170247 -0.07372847 0.057127245 0.03051653 0.06727682
0.14934428 0.002330878 0.078353 -0.11568712 0.059315436 0.12689638 0.036303427 -0.07965361
-0.14904207 -0.107698165 -0.15091191 0.0059347027 0.06854765 -0.021258537 0.049050093 -0.15487663
-0.035435356 0.11385236 -0.101584904 -0.06671059 0.016347697 0.12721816 -0.08157158 -0.038911607
0.024157433 -0.05585869 0.0096768895 0.045728106 0.09055262 0.025859479 0.06536357 -0.124538004
-0.012666325 -0.13459095 -0.15330724 0.0978634 -0.18110967 -0.08637723 0.019838858 -0.08037789
0.09684694 0.030457448 0.05272765 -0.11022447 -0.13097648 -0.0071262275 0.029138025 -0.14678027
0.031072078 -0.040412985 -0.07549158 0.041588653 -0.07967253 -0.078894354 -0.14358455 -0.10863374
-0.06073418 -0.093502894 0.08664716 0.042550147 -0.064944975 -0.03261509 -0.03771448 -0.16432229
-0.106552094 -0.13602099 0.065912 0.22650895 -0.031862564 0.024108185 -0.07896879 0.029891225
-0.04721406 -0.06516737 0.03479686 0.042536363 -0.054634478 -0.049714006 -0.06742617 -0.05010195
0.072623 0.061441664 0.10459702 0.07639609 0.02967689 -0.007978754 0.052320354 0.014827643
0.03559011 0.099022076 -0.00039759476 -0.005861615 0.1171493 -0.092378885 -0.063408524 0.003871977
-0.037874542 0.13402134 -0.12975973 -0.08087756 0.10687886 0.073316604 -0.06817426 -0.093454696
0.027801612 -0.14078026 -0.06991175 0.019484133 -0.063490435 0.0025513747 0.054383025 -0.044409286
-0.080617 -0.08033608 -0.11508084 0.07838252 -0.021215182 0.019394511 0.056416653 0.06982817
0.13346216 0.10217371 -0.17315489 0.015120204 -0.019211112 -0.07011165 -0.0008436228 0.15721038
0.013642361 0.20115544 -0.13338006 0.045996923 0.08219203 0.16707547 0.029135218 0.13515094
0.008408712 -0.15946902 -0.07370046 0.15852022 -0.008062414 -0.054744553 -0.122873425 -0.0023283465
0.007896091 0.140391 0.027038692 0.12471007 -0.16810507 0.08799762 -0.0047452278 -0.050266203
0.01624071 -0.030947534 0.07971306 -0.107310496 -0.02059639 0.1048455 -0.060998727 -0.10450917
0.13416147 0.14203286 -0.0279963 -0.10927308 0.09100919 0.036442477 -0.122384645 0.0819191
0.12374211 -0.118346535 -0.09608893 -0.039707243 -0.01102525 0.15183273 0.06556757 0.036086533
00000000: 76cc e53c f5f9 f93d 524e a5bd cd4a 47bc
00000010: 7980 b03d ab6d b6bd 0820 203b 9076 5c3e
00000020: 34f9 cdbd b7e6 453e 3cc8 11be d71e d13d
00000030: 3824 053e cc00 383e 4eff 0fbe 3030 78bb
00000040: fda8 1fbe 27e7 5abb 5878 ec3b 1b2f 383e
00000050: 8b8a 42bd 47f3 5f3e 6c0f 95bc dc1d 863d
00000060: a0cc e83d 5273 853e fdaa 53bd b7f1 643d
00000070: c15e f6bd 721f 9ebc 49e5 9d3d 9190 b73d
00000080: 1bd9 43bd 74ce d23b b541 ba3d a898 073e
00000090: 2127 75bb 5212 b4bd 8d45 6b3d 7dbe 0b3d
000000a0: 5084 3ebd 6224 6f3e 4a3e 743d 7777 84bc
000000b0: f4fe 96bd 42fe 693d cdfd f93c 6ec8 893d
000000c0: b5ed 183e a5c1 183b 8a77 a03d 5eed ecbd
000000d0: bef4 723d 20f1 013e e7b2 143d 6f21 a3bd
000000e0: 7c9e 18be db90 dcbd a788 1abe e577 c23b
000000f0: b662 8c3d 6226 aebc c0e8 483d fb97 1ebe
00000100: aa24 11bd 6d2b e93d bf0b d0bd 909f 88bd
00000110: 9beb 853c 7a45 023e 000f a7bd c761 1fbd
00000120: cfe5 c53c 15cc 64bd d18b 1e3c 654d 3b3d
00000130: a773 b93d 42d7 d33c 56dd 853d c80d ffbd
00000140: 6b86 4fbc 36d2 09be 93fc 1cbe 9b6c c83d
00000150: d074 39be 8ce6 b0bd 1a85 a23c 2a9d a4bd
00000160: b057 c63d e681 f93c f3f8 573d 5ebd e1bd
00000170: b31e 06be 2183 e9bb deb2 ee3c 914d 16be
00000180: df8a fe3c 1688 25bd 549b 9abd dd58 2a3d
00000190: 5a2b a3bd 5d93 a1bd d407 13be 5e7b debd
000001a0: 67c4 78bd 727e bfbd 1174 b13d 1049 2e3d
000001b0: df01 85bd 6797 05bd 807a 1abd 1a44 28be
000001c0: fc37 dabd 1649 0bbe dffc 863d f6f1 673e
000001d0: 5282 02bd 877e c53c 64ba a1bd 71de f43c
000001e0: 8863 41bd 7876 85bd 2787 0e3d 9c3a 2e3d
000001f0: 67c8 5fbd eaa0 4bbd bb16 8abd b437 4dbd
00000200: 5ebb 943d 41aa 7b3d f636 d63d 8e75 9c3d
00000210: f31c f33c 52b9 02bc de4d 563d a4ef 723c
00000220: efc6 113d 16cc ca3d 4474 d0b9 ca12 c0bb
00000230: f9eb ef3d 2431 bdbd 54dc 81bd ffc0 7d3b
00000240: 5622 1bbd e43c 093e bcdf 04be 22a3 a5bd
00000250: 4ee3 da3d 0427 963d f29e 8bbd 2d65 bfbd
00000260: 35c0 e33c b328 10be e42d 8fbd 309d 9f3c
00000270: 4607 82bd f734 273b bcc0 5e3d 83e6 35bd
00000280: 871a a5bd 3e87 a4bd 81af ebbd 0487 a03d
00000290: 76cb adbc 3de1 9e3c 2615 673d 1202 8f3d
000002a0: 4eaa 083e 7340 d13d 844f 31be bbba 773c
000002b0: 9f60 9dbc b296 8fbd 9126 5dba c2fb 203e
000002c0: 3684 5f3c b1fb 4d3e c894 08be 4567 3c3d
000002d0: 4c54 a83d d515 2b3e fbac ee3c 0265 0a3e
000002e0: b2c4 093c d94b 23be 44f0 96bd 2053 223e
000002f0: 3718 04bc d33b 60bd 10a5 fbbd 2c97 18bb
00000300: 9b5e 013c a9c2 0f3e 3f80 dd3c fe67 ff3d
00000310: bc23 2cbe 1938 b43d db7d 9bbb efe3 4dbd
00000320: 3d0b 853c af85 fdbc 9a40 a33d 9bc5 dbbd
00000330: c3b9 a8bc 3db9 d63d cdd9 79bd e708 d6bd
00000340: a061 093e 1071 113e 7f58 e5bc 91ca dfbd
00000350: 0763 ba3d b544 153d cda4 fabd 33c5 a73d
00000360: 816c fd3d ab5f f2bd 46ca c4bd 10a4 22bd
00000370: 40a3 34bc 0a7a 1b3e 4a48 863d 79cf 133d

l_lstm.bias_hh_l0 f4 [224]
0.045997128 0.13073094 -0.15213582 -0.12342666 0.08213761 -0.022243999 -0.07152288 0.03159758
-0.12969515 0.027132748 0.104917414 -0.03856939 0.125273 0.13232377 0.045974806 0.107452385
-0.12628628 -0.021644158 -0.13294324 0.12699431 -0.039451547 0.1570807 -0.02248902 0.1381787
0.13699146 0.18206586 0.083484724 0.08982694 -0.030540196 -0.12021747 -0.099346355 -0.0104938615
0.0048295995 -0.010081615 0.14191009 0.055152964 0.02076499 0.03771192 -0.07711372 -0.13602611
-0.06998309 0.015816316 -0.098961845 -0.09443227 0.045706607 -0.0765223 -0.035664868 0.032157555
0.17935258 0.14621475 -0.08580749 0.07523143 -0.09334696 0.10638707 -0.041607436 0.060329925
-0.14529316 0.0853263 0.05255315 0.02711445 -0.058100812 -0.087340005 -0.035791732 -0.2141404
-0.07769627 -0.08337196 -0.039212584 0.049875885 -0.037878964 -0.07201158 -0.06917027 -0.072776206
-0.12836432 0.024722567 0.062484197 -0.007857856 0.020083252 0.14078036 -0.10122011 0.09178533
-0.15014824 0.034501456 0.028014632 -0.07616916 -0.2099896 0.01636972 0.015452148 0.09460914
0.03602008 -0.119492024 -0.085955694 0.029237555 -0.13480411 0.06366216 -0.114145875 -0.13294032
0.10380531 -0.06344588 -0.15195812 0.07354011 -0.07103577 -0.15146787 0.03876302 0.045676224
-0.13942948 -0.059727192 0.056556582 0.0018538863 0.0768296 -0.15947624 -0.042955834 -0.106703565
-0.07668894 0.03271317 -0.076258115 0.04242106 0.13598405 0.062117763 -0.067216575 0.024250101
-0.11170169 0.04046302 -0.07592029 0.068230316 0.110962085 -0.11421161 -0.11498451 0.09220047
0.010668295 0.0727934 0.085471526 0.068332836 0.09330689 -0.19524482 -0.058136784 -0.1720981
0.08614629 0.07628343 0.086798035 -0.021130186 -0.0900846 -0.05405991 -0.048551474 -0.0575216
0.04280199 -0.111226924 -0.06763241 0.081672356 0.09241275 -0.027251827 -0.036433045 0.07064915
-0.16669409 0.016025865 0.0740098 -0.121089354 -0.04406118 -0.08616037 0.14327401 -0.059605986
0.037167035 -0.0115047945 0.051126078 -0.07891455 -0.14346151 0.14658491 -0.053251937 0.014852554
0.15120386 -0.009918287 -0.0992379 -0.13588308 -0.060710948 -0.015935974 0.023726346 0.042846076
0.0019376226 0.023090176 -0.015951132 -0.12859647 0.13717456 0.048093747 -0.15317751 -0.022434637
-0.012774487 -0.14744918 -0.05957822 0.068837434 0.06316657 -0.023305112 -0.0028782918 0.11136557
-0.04893208 0.1337255 0.076044135 0.074268214 -0.18879765 0.032907117 -0.0892139 -0.123826966
0.06412192 -0.03592919 0.11012618 0.14086056 -0.044950258 0.047973502 -0.01147732 -0.020305173
0.12066336 0.22580731 0.064983316 -0.11957423 0.11087838 -0.12191239 0.07505611 -0.044080902
0.066957496 -0.074023545 -0.03950432 0.102911495 0.0848668 -0.0067353277 0.09496555 -0.04985221
00000000: 7c67 3c3d 55de 053e 7ec9 1bbe 1ec7 fcbd
00000010: c337 a83d 0c39 b6bc 967a 92bd 776c 013d
00000020: cece 04be 7f45 de3c f1de d63d f0fa 1dbd
00000030: 9147 003e e27f 073e 1450 3c3d ff0f dc3d
00000040: 3151 01be 174f b1bc 4622 08be cc0a 023e
00000050: f297 21bd c3d9 203e e53a b8bc b87e 0d3e
00000060: 7d47 0c3e 796f 3a3e 0afa aa3d 30f7 b73d
00000070: 6f2f fabc 9434 f6bd 1a76 cbbd 72ee 2bbc
00000080: 9e41 9e3b 5c2d 25bc e150 113e 13e8 613d
00000090: 571b aa3c d077 1a3d cced 9dbd 6e4a 0bbe
000000a0: 4b53 8fbd 3891 813c 82ac cabd b565 c1bd
000000b0: da36 3b3d b9b7 9cbd 5315 12bd a4b7 033d
000000c0: 34a8 373e 52b9 153e d6bb afbd f012 9a3d
000000d0: b12c bfbd 77e1 d93d 8f6c 2abd 831c 773d
000000e0: bbc7 14be 8ebf ae3d f941 573d 1f1f de3c
000000f0: 1efb 6dbd 51df b2bd 5a9a 12bd 9f47 5bbe
00000100: 391f 9fbd ebbe aabd 609d 20bd a84a 4c3d
00000110: f926 1bbd cf7a 93bd 24a9 8dbd b10b 95bd
00000120: f071 03be fb86 ca3c 6eef 7f3d 3dbe 00bc
00000130: a285 a43c ba28 103e 7d4c cfbd f2f9 bb3d
00000140: 76c0 19be 6651 0d3d f17e e53c 94fe 9bbd
00000150: 8407 57be cb19 863c 022b 7d3c 70c2 c13d
00000160: cb89 133d 3cb8 f4bd 8a09 b0bd 9983 ef3c
00000170: 170a 0abe 4e61 823d 50c5 e9bd 8221 08be
00000180: e197 d43d eaef 81bd e99a 1bbe 329c 963d
00000190: 347b 91bd 651a 1bbe f9c5 1e3d fe16 3b3d
000001a0: 9ac6 0ebe 80a4 74bd e0a7 673d 1afe f23a
000001b0: d658 9d3d bd4d 23be 75f2 2fbd 6687 dabd
000001c0: 170f 9dbd 3ffe 053d 372d 9cbd b5c1 2d3d
000001d0: 673f 0b3e 326f 7e3d d8a8 89bd 26a8 c63c
000001e0: dbc3 e4bd 8dbc 253d 197c 9bbd 56bc 8b3d
000001f0: 1740 e33d c7e7 e9bd 007d ebbd 9ad3 bc3d
00000200: 13ca 2e3c b514 953d b20b af3d 16f2 8b3d
00000210: af17 bf3d 42ee 47be d620 6ebd 7c3a 30be
00000220: 776d b03d 7d3a 9c3d 2bc3 b13d 3619 adbc
00000230: 467e b8bd ed6d 5dbd e9dd 46bd c59b 6bbd
00000240: 2451 2f3d f1ca e3bd dc82 8abd d643 a73d
00000250: e542 bd3d 393f dfbc d13a 15bd 80b0 903d
00000260: dbb1 2abe ad48 833c 7392 973d b2fd f7bd
00000270: 7f79 34bd d974 b0bd 6cb6 123e 6825 74bd
00000280: 763c 183d 9b7e 3cbc 9469 513d f49d a1bd
00000290: 93e7 12be 5b1a 163e b41e 5abd 2058 733c
000002a0: 2fd5 1a3e 5080 22bc 3d3d cbbd ef24 0bbe
000002b0: 0bac 78bd 298c 82bc c15d c23c 5e7f 2f3d
000002c0: d3f7 fd3a 9c27 bd3c f3ab 82bc cbae 03be
000002d0: 7d77 0c3e f3fd 443d 91da 1cbe d8c8 b7bc
000002e0: 154c 51bc ebfc 16be 4b08 74bd a4fa 8c3d
000002f0: 7a5d 813d 5dea bebc b9a1 3cbb a213 e43d
00000300: 016d 48bd 56ef 083e 07bd 9b3d ef19 983d
00000310: 2c54 41be 9dc9 063d c7b5 b6bd fe98 fdbd
00000320: 5a52 833d 7d2a 13bd d689 e13d c03d 103e
00000330: c31d 38bd dd7f 443d 5f0b 3cbc 0957 a6bc
00000340: 5a1e f73d 083a 673e f915 853d 55e3 f4bd
00000350: 3414 e33d 34ad f9bd 05b7 993d 2d8e 34bd
00000360: 0321 893d a899 97bd 48cf 21bd 43c3 d23d
00000370: a5ce ad3d 06b4 dcbb 4c7d c23d d531 4cbd

l_lstm.weight_ih_l1 f4 [224, 56]
0.069388695 -0.029747307 -0.08105822 0.010035078 0.025494242 0.07529222 0.097981334 0.17237647
0.10053897 0.2763021 -0.056930736 0.020150665 -0.07548015 0.15037496 -0.13139507 -0.09031146
-0.004724094 0.020907478 0.024617473 0.0009051189 0.0899418 -0.031380203 0.09227532 0.04971782
-0.14996967 0.027204417 -0.102714725 -0.099197276 -0.06181295 -0.07048435 0.082350165 -0.024455674
0.06127557 0.019235838 0.0123052085 0.06732554 0.041061983 -0.07877445 0.0264516 0.019769177
-0.07251525 0.26786435 -0.14324431 -0.04864011 -0.036427118 -0.074177906 0.09162732 -0.009067476
0.102647685 0.1128471 0.109031685 -0.028256968 -0.0029881545 -0.20877744 0.08055637 -0.010557691
0.026903044 0.019051652 -0.06159361 -0.10820327 -0.075116426 0.105739534 -0.02226775 0.13304213
-0.062486917 0.21398698 -0.10940688 0.070806615 0.061056867 0.04430447 0.11737976 -0.0981625
0.08041855 0.078401536 0.08076612 -0.11609014 -0.044241145 -0.07603364 -0.02285407 0.09986583
0.012698396 0.117525645 0.09609227 -0.012237036 -0.052637912 0.07200097 -0.0026124176 -0.06603045
-0.1211027 0.08925273 0.0154974535 -0.06466786 0.016734133 0.030613689 0.055242468 -0.08875398
0.06682964 0.02902694 -0.14590913 -0.13390762 -0.009960518 -0.009895955 -0.068748124 -0.06740915
-0.049128722 0.06860626 -0.028361568 -0.04609816 -0.03586242 -0.034035485 0.10326871 -0.15030487
0.09955782 -0.00063662685 -0.07624637 -0.1380894 -0.044105805 0.048995107 0.0868615 0.0658521
0.091758296 0.07154725 0.05372229 0.11722371 -0.04601639 -0.05990681 0.037869044 -0.044584412
-0.15375754 -0.10659529 -0.046638004 -0.15448701 -0.05925269 0.15056589 -0.036219325 0.15219603
-0.025063943 -0.07640424 0.022167845 -0.07108464 -0.06079318 -0.12975271 -0.023172226 0.0047595343
0.04786017 -0.14182737 0.06875512 0.11182967 -0.13359138 -0.103228025 0.030511258 0.00045013658
0.13357633 0.08008891 -0.17106862 -0.037144586 -0.045725513 0.06940553 0.11789867 -0.0139881065
-0.02939642 0.048432715 -0.014674416 0.019400246 0.14903161 -0.18635403 0.106929235 0.084672175
0.061791524 0.07725696 -0.12198346 -0.12392906 0.0982072 -0.048460968 0.10764719 -0.0333051
-0.10888275 0.13190576 -0.07250731 -0.019999644 0.073355004 0.08521557 0.08256639 -0.09933532
-0.015937136 0.042533003 -0.10132921 -0.06025927 -0.047173206 -0.042859614 -0.08832871 -0.11566088
-0.1175357 0.09170635 -0.0915587 0.12370862 -0.09595856 0.077776454 0.035810925 0.1128219
0.033577614 0.09147774 0.05097636 0.013679517 0.090265065 -0.08250903 0.07223595 0.06557339
-0.099650405 0.09044804 -0.15105923 -0.013341107 0.010837401 0.037518024 -0.06161874 0.077923
0.03159639 -0.0054774955 0.07600816 -0.042478357 0.06928152 0.020408258 0.04667163 -0.1168767
0.005995605 0.11769174 -0.07226835 0.016154893 -0.097067386 -0.15775488 0.0571786 -0.027519241
-0.14888054 0.18940037 -0.10922898 0.10112862 -0.03394292 -0.017104598 -0.018114781 0.00013309272
-0.16203873 0.05514209 -0.044425692 -0.16316473 -0.04221056 0.020768836 0.02607878 0.1502147
0.0138576245 -0.18741776 -0.13260195 0.14882852 0.07863903 -0.03778758 -0.16357653 -0.061469078
00000000: a91b 8e3d a0b0 f3bc da01 a6bd 2b6a 243c
00000010: 4dd9 d03c cf32 9a3d 70aa c83d 7583 303e
00000020: 60e7 cd3d 7877 8d3e 3430 69bd 0213 a53c
00000030: 5695 9abd e5fb 193e 6e8c 06be 37f5 b8bd
00000040: 93cc 9abb 2946 ab3c 95aa c93c 8045 6d3a
00000050: 6833 b83d 8788 00bd d8fa bc3d eaa4 4b3d
00000060: a691 19be ccdb de3c 195c d2bd f127 cbbd
00000070: 932f 7dbd 195a 90bd 34a7 a83d 4457 c8bc
00000080: 18fc 7a3d 7a94 9d3c c99b 493c f9e1 893d
00000090: 9c30 283d 8054 a1bd 07b1 d83c f8f2 a13c
000000a0: e082 94bd 8425 893e a3ae 12be da3a 47bd
000000b0: 9a34 15bd 96ea 97bd 1ba7 bb3d c08f 14bc
000000c0: f338 d23d 611c e73d 014c df3d 287b e7bc
000000d0: ead4 43bb c1c9 55be bdfa a43d 2afa 2cbc
000000e0: c663 dc3c 3612 9c3c 9549 7cbd ad99 ddbd
000000f0: a4d6 99bd f88d d83d db6a b6bc 323c 083e
00000100: 48f2 7fbd 671f 5b3e b710 e0bd 0f03 913d
00000110: c416 7a3d 9b78 353d cd64 f03d 6c09 c9bd
00000120: 7bb2 a43d fc90 a03d b568 a53d abc0 edbd
00000130: 3436 35bd 86b7 9bbd 7538 bbbc 7586 cc3d
00000140: ef0c 503c 49b1 f03d 06cc c43d d97d 48bc
00000150: da9a 57bd 3f75 933d 1835 2bbb f93a 87bd
00000160: b104 f8bd 23ca b63d 08e9 7d3c 9570 84bd
00000170: 0516 893c 8fc9 fa3c ed45 623d a6c4 b5bd
00000180: fadd 883d e8c9 ed3c 3469 15be 141f 09be
00000190: 7131 23bc a522 22bc d1cb 8cbd cf0d 8abd
000001a0: 333b 49bd 7081 8c3d 8556 e8bc 6dd1 3cbd
000001b0: 79e4 12bd cb68 0bbd 8c7e d33d 85e9 19be
000001c0: f8e4 cb3d 4ee3 26ba 0f27 9cbd 4f67 0dbe
000001d0: 4aa8 34bd 18af 483d 71e4 b13d 77dd 863d
000001e0: c6eb bb3d 5d87 923d e70b 5c3d fc12 f03d
000001f0: af7b 3cbd d860 75bd 921c 1b3d 259e 36bd
00000200: 9e72 1dbe a24e dabd 7e07 3fbd d831 1ebe
00000210: f3b2 72bd f22d 1a3e b75a 14bd 47d9 1b3e
00000220: e652 cdbc d479 9cbd 5799 b53c d394 91bd
00000230: 4502 79bd e5dd 04be aed3 bdbc def5 9b3b
00000240: 0709 443d 323b 11be 7ccf 8c3d f406 e53d
00000250: 2ecc 08be 3769 d3bd bff2 f93c 4f00 ec39
00000260: 3cc8 083e a805 a43d 9d2c 2fbe ec24 18bd
00000270: ad4a 3bbd 7d24 8e3d dc74 f13d 5f2e 65bc
00000280: c3d0 f0bc 6261 463d f66c 70bc 44ed 9e3c
00000290: be9b 183e 97d3 3ebe b7fd da3d 9b68 ad3d
000002a0: 1c19 7d3d e638 9e3d 77d2 f9bd 85ce fdbd
000002b0: db20 c93d 027f 46bd 2176 dc3d ee6a 08bd
000002c0: ebfd debd 4e12 073e b67e 94bd 4bd6 a3bc
000002d0: 263b 963d 8085 ae3d 9118 a93d 5170 cbbd
000002e0: 998e 82bc 1637 2e3d b085 cfbd 6dd2 76bd
000002f0: b138 41bd 908d 2fbd afe5 b4bd 9ddf ecbd
00000300: 8fb6 f0bd 8ad0 bb3d 2183 bbbd f25a fd3d
00000310: ec85 c4bd 4349 9f3d 7aae 123d 2b0f e73d
00000320: ae88 093d ae58 bb3d 96cc 503d 0e20 603c
00000330: e4dc b83d 7ffa a8bd 71f0 933d 574b 863d
00000340: 8315 ccbd d23c b93d 45af 1abe a994 5abc
00000350: 5b8f 313c 80ac 193d ef63 7cbd 1896 9f3d
00000360: 376b 013d 907c b3bb 2baa 9b3d c9fd 2dbd
00000370: 78e3 8d3d 382f a73c c02a 3f3d 0d5d efbd
00000380: c876 c43b 5e08 f13d 6e01 94bd 4457 843c
00000390: 44cb c6bd 7f8a 21be 1c34 6a3d 0870 e1bc
000003a0: 2474 18be 2cf2 413e 72b3 dfbd 861c cf3d
000003b0: bb07 0bbd f11e 8cbc 7365 94bc ce8e 0b39
000003c0: 7bed 25be acdc 613d b7f7 35bd a814 27be
000003d0: fbe4 2cbd 6823 aa3c 2aa3 d53c e2d1 193e
000003e0: 170b 633c 71ea 3fbe cec8 07be 8166 183e
000003f0: 800d a13d 26c7 1abd 9b80 27be 00c7 7bbd

l_lstm.weight_hh_l1 f4 [224, 56]
-0.00075838406 -0.1385219 -0.048751153 0.11613612 0.0689578 0.1171396 0.06265198 0.10148748
0.045953486 -0.02898984 0.0015329438 0.11393442 0.11049852 -0.0074434993 -0.13467048 0.1489461
-0.00021911306 -0.009565392 -0.14629303 0.009118274 -0.10977984 -0.027162176 0.13552906 0.092377745
-0.10147303 -0.011885682 -0.030828755 -0.12552767 0.08655172 -0.056163706 0.0381349 0.03675268
-0.08587876 0.024550783 -0.1422433 -0.014960776 -0.08622493 0.047616955 0.07068589 -0.054998334
-0.053018782 -0.033403702 0.091554776 0.06541101 0.11537296 0.024669321 -0.023291288 0.0036806779
0.12509912 -0.024786048 0.1363142 -0.048373934 0.069418184 -0.12603836 -0.10928267 0.021916352
-0.093831144 0.07629391 0.034738284 0.13809301 0.027949495 0.13615291 -0.074710175 0.08734942
0.018314656 -0.13629836 -0.10482745 0.064529136 -0.14348379 0.021120261 0.07173395 0.19411656
-0.04120192 -0.036051124 -0.09191715 -0.0024834448 -0.14813274 0.013008512 -0.07698379 0.026086092
-0.022946341 -0.043581888 -0.093340985 -0.08040453 0.05223438 0.060800746 0.11373328 -0.014446859
0.08632061 0.030768903 -0.10719529 0.072388135 0.029511502 -0.010566827 0.07464645 -0.082037814
0.06174845 -0.0042251907 0.016275141 0.020236816 -0.049917422 -0.07052622 -0.03380522 -0.13322836
-0.10787036 -0.03630087 0.13671719 0.14406803 0.0030615167 -0.16817059 -0.026085986 0.15016626
0.0018497782 0.10244499 -0.07323154 0.12867263 0.05559341 0.09018652 -0.054912634 -0.09442397
-0.093149915 -0.00499415 0.07173694 -0.14147928 0.039956182 0.17225133 -0.103170864 0.09240111
-0.109035455 0.04049049 0.065420285 -0.018599443 -0.111883216 0.0072059333 0.012016363 -0.07138135
-0.048076157 -0.10338579 -0.030266924 0.07514211 0.05843747 -0.055620033 -0.09462503 0.05256631
-0.089913845 -0.047630258 -0.05114982 0.11832021 -0.028876593 -0.047306355 0.13150515 -0.14714672
-0.11949796 0.15398975 -0.14346826 -0.036015525 0.050922837 0.00806248 0.1069344 -0.13060395
-0.08679047 -0.19316919 0.10391272 0.06266732 -0.020875383 -0.14479584 -0.111865364 0.08133382
-0.06267266 -0.13034399 0.026940286 0.077584244 -0.1122318 -0.05351228 0.009987718 -0.045904413
-0.038120095 -0.043087687 -0.10375831 -0.013350817 0.023560695 0.07619468 -0.111383125 0.060546286
-0.011951628 0.11800428 -0.06148039 -0.09286589 -0.10351455 -0.07989712 -0.020207262 -0.057674266
0.034410622 -0.12798864 -0.18103358 -0.101268336 -0.080838926 0.044520807 0.049479254 0.12548862
0.014184392 -0.06713398 -0.13120693 -0.10920028 -0.07240691 0.051451866 -0.122034274 -0.010936008
0.06769175 0.13003293 0.053075485 0.07743047 0.04590049 0.12197004 0.12691456 -0.05591781
-0.015683278 -0.124416485 0.02856295 0.0042592664 0.045803756 0.021189904 0.06233626 -0.09436546
0.12936798 -0.009816539 -0.06163201 -0.0465396 -0.08349465 -0.0015364845 0.03679698 -0.06520318
-0.050406285 0.00024233814 -0.11744016 0.04270943 0.032973643 0.052308567 -0.110718526 0.1727662
-0.051867727 -0.01567045 -0.011851619 -0.019644128 0.0784364 0.083442226 0.079413384 0.09897427
-0.06650073 0.076818176 0.097513065 -0.11819815 0.015528168 -0.042441636 0.068363935 0.11730585
00000000: 4bce 46ba afd8 0dbe 4aaf 47bd c6d8 ed3d
00000010: bf39 8d3d e3e6 ef3d ae4f 803d abd8 cf3d
00000020: b939 3c3d 1a7c edbc 0fed c83a 7356 e93d
00000030: 0c4d e23d 99e8 f3bb 0fe7 09be 5485 183e
00000040: b7c1 65b9 29b8 1cbc d7cd 15be d064 153c
00000050: 41d4 e0bd 3683 debc 21c8 0a3e 8b30 bd3d
00000060: 18d1 cfbd 2abc 42bc 968c fcbc 538a 00be
00000070: 0742 b13d ea0b 66bd 5733 1c3d fa89 163d
00000080: 34e1 afbd b91e c93c 3aa8 11be 0b1e 75bc
00000090: b296 b0bd ff09 433d c4c3 903d ef45 61bd
000000a0: 392a 59bd 52d2 08bd 1281 bb3d 35f6 853d
000000b0: a948 ec3d 5117 ca3c 5fcd bebc 8737 713b
000000c0: fc19 003e 1c0c cbbc f395 0b3e bf23 46bd
000000d0: 1f2b 8e3d 3310 01be 98cf dfbd ec89 b33c
000000e0: 8b2a c0bd fb3f 9c3d bb49 0e3d 4168 0d3e
000000f0: 57f6 e43c ab6b 0b3e a601 99bd 41e4 b23d
00000100: 9e08 963c cc91 0bbe c6af d6bd da27 843d
00000110: 6aed 12be 6604 ad3c 40e9 923d 7ec6 463e
00000120: 58c3 28bd 58aa 13bd 0f3f bcbd 4ac1 22bb
00000130: 1cb0 17be a721 553c ada9 9dbd 80b2 d53c
00000140: f7f9 bbbc ec82 32bd 8f29 bfbd 21ab a4bd
00000150: b8f3 553d 340a 793d feec e83d 85b2 6cbc
00000160: dcc8 b03d 110f fc3c 3489 dbbd 3b40 943d
00000170: 1bc2 f13c 7c20 2dbc 3de0 983d 7103 a8bd
00000180: f1eb 7c3d 7873 8abb 7253 853c aec7 a53c
00000190: 3676 4cbd 0d70 90bd 5877 0abd 046d 08be
000001a0: 23eb dcbd 39b0 14bd 97ff 0b3e 9286 133e
000001b0: baa3 483b e934 2cbe 47b2 d5bc 2fc5 193e
000001c0: 4274 f23a aece d13d 6bfa 95bd c2c2 033e
000001d0: eab5 633d b6b3 b83d 12ec 60bd 5b61 c1bd
000001e0: 62c5 bebd f7a5 a3bb d1ea 923d f2df 10be
000001f0: 18a9 233d a762 303e 3f4b d3bd cb3c bd3d
00000200: fb4d dfbd 5bd9 253d 12fb 853d dc5d 98bc
00000210: 0723 e5bd c01f ec3b 48e0 443c 6330 92bd
00000220: 81eb 44bd eebb d3bd 57f2 f7bc 1be4 993d
00000230: 215c 6f3d d5d1 63bd c5ca c1bd c54f 573d
00000240: c024 b8bd f217 43bd 7982 51bd de51 f23d
00000250: 9b8e ecbc 4fc4 41bd 49a9 063e a1ad 16be
00000260: 59bb f4bd 7daf 1d3e 58e9 12be 0485 13bd
00000270: 7794 503d 7e18 043c 6c00 db3d 0bbd 05be
00000280: 34bf b1bd 25ce 45be 31d0 d43d b957 803d
00000290: da02 abbc 5c45 14be ab19 e5bd 5992 a63d
000002a0: 865a 80bd e578 05be e0b1 dc3c 7de4 9e3d
000002b0: c9d9 e5bd b12f 5bbd 87a3 233c 4406 3cbd
000002c0: d123 1cbd b77c 30bd 3d7f d4bd 63bd 5abc
000002d0: 5c02 c13c f50b 9c3d d61c e4bd 62ff 773d
000002e0: c3d0 43bc 3aac f13d ddd2 7bbd 7930 bebd
000002f0: 70ff d3bd 1aa1 a3bd b389 a5bc da3b 6cbd
00000300: 27f2 0c3d 740f 03be de60 39be c665 cfbd
00000310: e18e a5bd 735b 363d c2aa 4a3d 1780 003e
00000320: a765 683c 8a7d 89bd 1c5b 06be 65a4 dfbd
00000330: 134a 94bd 31bf 523d 1bed f9bd f12c 33bc
00000340: f9a1 8a3d 5a27 053e ae65 593d de93 9e3d
00000350: 2702 3c3d 6ecb f93d e4f5 013e 130a 65bd
00000360: 387a 80bc 12ce febd d9fc e93c 5191 8b3b
00000370: b89c 3b3d 7396 ad3c 4e54 7f3d ae42 c1bd
00000380: 0a79 043e 8cd5 20bc d971 7cbd 4fa0 3ebd
00000390: 3eff aabd dd63 c9ba 6eb8 163d 3f89 85bd
000003a0: d276 4ebd 261c 7e39 7784 f0bd 15f0 2e3d
000003b0: 5f0f 073d 8241 563d 65c0 e2bd 9fe9 303e
000003c0: 4173 54bd 515f 80bc 4b2d 42bc b9ec a0bc
000003d0: 43a3 a03d c2e3 aa3d 7ca3 a23d 06b3 ca3d
000003e0: 8931 88bd d952 9d3d eeb4 c73d df11 f2bd
000003f0: db69 7e3c 48d7 2dbd 6402 8c3d 0d3e f03d

l_lstm.bias_ih_l1 f4 [224]
-0.09968043 0.11648745 0.08332376 0.107448645 0.1185883 0.087673575 -0.022789858 0.17333859
0.07285947 0.08606914 0.03773499 -0.06133462 -0.1579247 0.092344426 0.002303433 0.1427095
-0.03602293 0.08184466 -0.03162871 0.017692879 0.05574708 -0.012972403 0.0947061 0.062167235
0.027920816 0.008300514 -0.07026751 -0.046182588 0.02333648 0.040110346 0.06776118 -0.028958991
-0.013929082 -0.07330002 0.082874104 0.15746209 0.08697496 -0.14286013 -0.009813561 0.11364336
-0.08647692 -0.102072306 -0.1225286 -0.061848838 -0.052373685 -0.035812512 0.019158298 0.02493123
0.058183346 0.17132948 -0.003713687 -0.066452466 -0.12609595 0.012804423 0.0526402 0.00450545
-0.06684499 0.059438873 0.04434993 0.054468364 -0.0019208578 0.1116079 0.09866292 0.014569848
0.009783498 -0.02311573 0.019489182 -0.042759575 -0.09953759 -0.12885378 -0.026430817 -0.050930582
-0.04637158 -0.123698086 -0.066522315 -0.10833275 0.09582747 0.10223859 -0.041913692 0.049503308
0.09942952 -0.035330914 -0.039631065 -0.2005448 0.053761255 0.047115102 0.0839581 -0.027955629
0.074709654 0.031648662 -0.05353224 0.05233679 -0.12172208 -0.12430409 -0.0561344 0.01923331
-0.10194289 0.1228974 -0.10033513 -0.0319085 0.04238194 0.013582815 -0.10240082 -0.0066374387
0.082160324 -0.046727147 -0.013761185 -0.06360241 0.07159024 -0.015421716 -0.028860347 0.11399125
-0.11696649 0.14974496 -0.007070579 -0.06687168 -0.010898901 -0.012361989 0.0048215953 -0.15876709
0.06568618 -0.009054194 -0.025316067 0.060592957 0.024244903 -0.015775235 -0.09833066 0.09422845
0.15548924 -0.15250121 0.109692685 -0.12616962 0.04384374 0.019330816 0.06294825 0.019697992
-0.12382291 0.12680076 -0.0043673017 -0.059113275 0.09228473 0.04168298 -0.15780038 0.056709368
0.015368005 -0.04590486 0.0063817366 -0.07533969 -0.018037505 0.037734985 -0.09595075 0.042815775
0.05766645 -0.11146327 0.13736898 0.010874947 0.075320765 -0.09740447 -0.12430567 0.089190856
-0.13698961 0.07402529 -0.08438304 0.035034098 0.068170555 -0.059210744 0.070632026 -0.09311072
-0.025453534 -0.017173527 0.106041335 0.046775304 0.00801298 0.09143283 -0.018543042 0.06678588
-0.023228325 -0.12837787 -0.0707135 -0.05522555 -0.06793631 0.12924449 -0.12122263 0.13218482
0.11790282 0.084744915 0.14396317 0.10624852 -0.06483055 -0.02315174 -0.06709002 0.08948182
0.04453839 0.13579528 -0.0040184553 -0.0633578 0.027828926 0.03038509 0.0959555 0.011588687
-0.020757698 -0.013630215 0.028506149 0.04397461 -0.07277904 -0.038072657 0.08350058 0.024472227
0.100292444 -0.045674607 -0.12196376 -0.16560394 -0.01635553 0.09064311 0.14141206 -0.054871842
0.11861697 0.14597821 0.13331114 -0.061655145 0.055975005 0.08231558 -0.019257803 0.07260116
00000000: 4125 ccbd f990 ee3d a6a5 aa3d 090e dc3d
00000010: 6cde f23d 348e b33d ccb1 babc ac7f 313e
00000020: 5937 953d 0445 b03d 0190 1a3d 033a 7bbd
00000030: 03b7 21be 131f bd3d 31f5 163b 7022 123e
00000040: c88c 13bd 2c9e a73d 1b8d 01bd a8f0 903c
00000050: 0d57 643d 348a 54bc 46f5 c13d 12a3 7e3d
00000060: 32ba e43c e1fe 073c 6ae8 8fbd f429 3dbd
00000070: 252c bf3c bf4a 243d 60c6 8a3d 683b edbc
00000080: ce36 64bc 521e 96bd e6b9 a93d be3d 213e
00000090: ee1f b23d ed49 12be 0fc9 20bc dabd e83d
000000a0: d01a b1bd 490b d1bd 46f0 fabd 3555 7dbd
000000b0: ca85 56bd 24b0 12bd ddf1 9c3c 943c cc3c
000000c0: a951 6e3d ff70 2f3e 5461 73bb 3b18 88bd
000000d0: 4c1f 01be a5c9 513c 409d 573d 74a2 933b
000000e0: 07e6 88bd 2d76 733d 46a8 353d 381a 5f3d
000000f0: 4bc5 fbba af92 e43d c90f ca3d 5fb6 6e3c
00000100: f74a 203c 335d bdbc c7a7 9f3c aa24 2fbd
00000110: 5dda cbbd 3ff2 03be 7185 d8bc 969c 50bd
00000120: 20f0 3dbd 6c55 fdbd da3c 88bd 90dd ddbd
00000130: 3141 c43d 7762 d13d b1ad 2bbd fbc3 4a3d
00000140: b4a1 cb3d 26b7 10bd 2f54 22bd 9e5b 4dbe
00000150: c334 5c3d c4fb 403d 39f2 ab3d 3403 e5bc
00000160: 6001 993d 07a2 013d 9f44 5bbd 1a5f 563d
00000170: 6d49 f9bd 2593 febd 2fed 65bd 2d8f 9d3c
00000180: 6fc7 d0bd a2b1 fb3d 817c cdbd 7db2 02bd
00000190: af98 2d3d 758a 5e3c 85b7 d1bd df7e d9bb
000001a0: ac43 a83d f764 3fbd 9876 61bc fb41 82bd
000001b0: e79d 923d 5dab 7cbc 896c ecbc 3f74 e93d
000001c0: 218c efbd be56 193e 51b0 e7bb 05f4 88bd
000001d0: 4e91 32bc f189 4abc 79fe 9d3b d793 22be
000001e0: 7a86 863d 0b58 14bc a463 cfbc 5230 783d
000001f0: 3f9d c63c 113b 81bc 9661 c9bd d8fa c03d
00000200: 9238 1f3e 4729 1cbe 8fa6 e03d 9c32 01be
00000210: 7e95 333d a95b 9e3c 03eb 803d af5d a13c
00000220: de96 fdbd 0fd8 013e 951b 8fbb c320 72bd
00000230: c7ff bc3d c6bb 2a3d 6c96 21be 1548 683d
00000240: 16ca 7b3c bc06 3cbd e31d d13b b24b 9abd
00000250: 64c3 93bc 0090 1a3d d481 c4bd 985f 2f3d
00000260: a833 6c3d db46 e4bd 74aa 0c3e d52c 323c
00000270: c641 9a3d ff7b c7bd f993 febd b2a9 b63d
00000280: 0147 0cbe 929a 973d 04d1 acbd ea7f 0f3d
00000290: 019d 8b3d f786 72bd 86a7 903d d5b0 bebd
000002a0: ee83 d0bc 7faf 8cbc 332c d93d 7697 3f3d
000002b0: e048 033c 2341 bb3d 94e7 97bc 09c7 883d
000002c0: 5449 bebc 7d75 03be 3dd2 90bd 3034 62bd
000002d0: 3122 8bbd ab58 043e 9243 f8bd 755b 073e
000002e0: 0977 f13d be8e ad3d 156b 133e d398 d93d
000002f0: e1c5 84bd b8a8 bdbc 7e66 89bd 3f42 b73d
00000300: e36d 363d eb0d 0b3e 3fad 83bb bcc1 81bd
00000310: 7df9 e33c 27ea f83c 5184 c43d 7ade 3d3c
00000320: 0c0c aabc 4451 5fbc ba85 e93c b81e 343d
00000330: 2d0d 95bd 13f2 1bbd 5a02 ab3d fb79 c83c
00000340: 2066 cd3d 4c15 3bbd 23c8 f9bd 1494 29be
00000350: 08fc 85bc 18a3 b93d 53ce 103e 4cc1 60bd
00000360: 74ed f23d 507b 153e b782 083e 1b8a 7cbd
00000370: 0c46 653d 1295 a83d 8ac2 9dbc ebaf 943d

l_lstm.bias_hh_l1 f4 [224]
-0.0829105 0.08796755 0.039961882 -0.086873844 0.16555144 0.13700572 -0.07981658 0.08828442
-0.12814222 -0.07095104 -0.11360872 -0.110545926 -0.09191658 0.1256587 -0.16736667 0.22365263
0.0097010555 0.08526129 -0.018559165 0.04456581 -0.016388621 0.18854997 -0.05088322 -0.07271099
0.0794944 0.02444035 0.034277476 -0.10823384 0.07426883 0.08124599 0.046370946 -0.031813126
0.03975784 0.036216974 -0.139064 0.10771384 -0.049574494 0.0513371 0.039633956 0.027927423
0.11221902 0.06516297 -0.02692846 -0.05897671 -0.050487928 0.024061576 0.027293408 -0.094799764
-0.04832349 0.18677466 -0.036679443 -0.050559912 -0.050975975 -0.092042804 -0.010061053 0.067423254
0.0049398015 -0.006563369 0.026960976 -0.120870635 -0.12491966 -0.02766576 -0.05561565 0.0031892927
-0.07325263 -0.027080026 -0.024281329 -0.15547478 0.056794725 -0.163937 0.006745292 -0.041301448
-0.056753326 0.08132596 -0.09359864 -0.0468654 0.098191485 0.05653316 -0.01629533 -0.104282856
-0.031884957 0.0039805193 -0.100771226 0.015411786 0.106211245 0.04249516 -0.07752398 0.010603417
0.021931656 -0.04844231 -0.15062332 -0.014052675 -0.045275457 -0.050771046 -0.1012248 -0.017702948
-0.12212661 -0.08301383 -0.04010054 0.015815226 -0.109090075 0.11655429 -0.10648567 0.09289194
-0.13150333 -0.17929386 -0.095724106 -0.07497074 0.049654454 -0.1054195 0.049915127 -0.10516325
0.036880855 0.09376303 -0.03735201 -0.09944974 0.13432015 -0.13052346 -0.052711587 -0.12377446
-0.051252536 -0.057793017 -0.0008437035 -0.05993313 -0.10559332 0.06524348 -0.032020215 -0.07547507
0.07029495 0.041282278 0.1387732 0.016020495 -0.023820875 0.12580669 -0.09569443 0.16275412
0.019430209 -0.076020546 0.04994101 0.11068068 0.003812731 0.102769054 -0.18562034 0.04053374
0.0059826355 -0.034078427 -0.08587365 -0.11297182 0.08148175 -0.021210678 0.043478124 0.15224865
-0.0071434216 -0.14337303 0.14187072 0.094094574 0.05325603 0.022630515 -0.08089549 0.10684058
-0.12168119 -0.040663965 -0.12212015 -0.07659702 -0.00880604 0.023485016 0.023818837 -0.0046184803
-0.10723295 0.033395115 -0.008331002 -0.113686435 -0.06485958 0.122105636 0.052590217 -0.048793133
-0.06073897 -0.063609146 0.0033011173 -0.0044397595 -0.026359705 -0.06662949 0.0075656637 0.12616764
0.0978133 -0.10401302 0.013980373 -0.15062445 -0.11258427 0.10850019 0.07541837 -0.0714451
-0.0654416 0.09335031 0.033894848 -0.13828452 -0.036606576 0.10454944 0.077974826 -0.09709855
-0.117259495 0.020327365 -0.095593676 0.14556456 -0.045277957 -0.033840444 0.04150556 -0.010327685
-0.11239306 0.011117365 -0.06185674 0.020244418 -0.072146036 -0.06558147 0.035481103 -0.01959285
0.08546756 -0.008485362 -0.04119812 0.030387891 0.060376104 -0.020447513 0.062530555 -0.0011631864
00000000: fbcc a9bd 5528 b43d 12af 233d eaea b1bd
00000010: 5186 293e 3a4b 0c3e e076 a3bd 76ce b43d
00000020: b737 03be c74e 91bd b0ab e8bd e765 e2bd
00000030: c33e bcbd adac 003e 2b62 2bbe 3205 653e
00000040: 2df1 1e3c 799d ae3d 6409 98bc a48a 363d
00000050: 6e41 86bc 3e13 413e ec6a 50bd 80e9 94bd
00000060: f6cd a23d 2137 c83c 8a66 0c3d b4a9 ddbd
00000070: 421a 983d 4c64 a63d 76ef 3d3d 7b4e 02bd
00000080: 1ed9 223d 4058 143d cb66 0ebe 1399 dc3d
00000090: a00e 4bbd da46 523d 3757 223d 0dc8 e43c
000000a0: 16d3 e53d 2a74 853d 1399 dcbc 9091 71bd
000000b0: 6ecc 4ebd c81c c53c 6d96 df3c 6126 c2bd
000000c0: daee 45bd db41 3f3e 2f3d 16bd e917 4fbd
000000d0: 2fcc 50bd f080 bcbd 1dd7 24bc 3415 8a3d
000000e0: 0fde a13b 8811 d7bb 44dd dc3c 068b f7bd
000000f0: e1d5 ffbd 4ea3 e2bc 3ccd 63bd 7403 513b
00000100: 7a05 96bd eed6 ddbc a3e9 c6bc c834 1fbe
00000110: 96a1 683d 1adf 27be 9c07 dd3b b52b 29bd
00000120: 2d76 68bd 3a8e a63d a5b0 bfbd eff5 3fbd
00000130: 9e18 c93d 518f 673d c97d 85bc 4092 d5bd
00000140: cd99 02bd 046f 823b 2561 cebd b781 7c3c
00000150: 4885 d93d 680f 2e3d e4c4 9ebd f4b9 2d3c
00000160: 04aa b33c 726b 46bd 003d 1abe 313d 66bc
00000170: c272 39bd 4df5 4fbd f34e cfbd c605 91bc
00000180: 841d fabd 2803 aabd 7740 24bd ef8e 813c
00000190: 9e6a dfbd 04b4 ee3d 2915 dabd 213e be3d
000001a0: cfa8 06be cf98 37be 000b c4bd 428a 99bd
000001b0: 7862 4b3d 2ee6 d7bd ce73 4c3d d45f d7bd
000001c0: 6110 173d d506 c03d 6cfe 18bd 4eac cbbd
000001d0: 398b 093e f1a7 05be 1be8 57bd 777d fdbd
000001e0: 2eee 51bd 5fb8 6cbd fc2b 5dba 717c 75bd
000001f0: 5041 d8bd 609e 853d a127 03bd ac92 9abd
00000200: ccf6 8f3d 9b17 293d 901a 0e3e 6a3d 833c
00000210: ff23 c3bc 78d3 003e 71fb c3bd 04a9 263e
00000220: 1a2c 9f3c a9b0 9bbd f28e 4c3d 8dac e23d
00000230: 03df 793b 9578 d23d 4213 3ebe b506 263d
00000240: fc09 c43b d295 0bbd 86de afbd c55d e7bd
00000250: e7df a63d 04c2 adbc 1e16 323d 12e7 1b3e
00000260: 5d13 eabb 61d0 12be 8f46 113e a8b4 c03d
00000270: ff22 5a3d a163 b93c 89ac a5bd 3ccf da3d
00000280: fd33 f9bd 428f 26bd 211a fabd e6de 9cbd
00000290: 3547 10bc a663 c03c b91f c33c 9f56 97bb
000002a0: f39c dbbd 51c9 083d c17e 08bc 6fd4 e8bd
000002b0: 19d5 84bd 8512 fa3d d768 573d 4fdb 47bd
000002c0: 6dc9 78bd 8345 82bd 8f57 583b 677b 91bb
000002d0: 4ff0 d7bc 0b75 88bd 63e9 f73b 1732 013e
000002e0: 5752 c83d c704 d5bd ef0d 653c 4c3d 1abe
000002f0: 9592 e6bd 5935 de3d f274 9a3d cf51 92bd
00000300: 3f06 86bd 732e bf3d 53d5 0a3d 759a 0dbe
00000310: c7f0 15bd 041e d63d 44b1 9f3d 9bdb c6bd
00000320: bf25 f0bd 9385 a63c 9ec6 c3bd e00e 153e
00000330: 6175 39bd 479c 0abd bc01 2a3d 7335 29bc
00000340: 552e e6bd 9c25 363c 7e5d 7dbd 9fd7 a53c
00000350: 4dc1 93bd 944f 86bd a254 113d 2f81 a0bc
00000360: 9e09 af3d 3006 0bbc 5cbf 28bd 07f0 f83c
00000370: ef4c 773d 8b81 a7bc 0510 803d 0f76 98ba

l_linear.weight f4 [1, 56]
-0.118498825 0.081896484 -0.12020909 -0.014774298 0.11260889 -0.12980118 -0.026758302 -0.12279552
0.043350942 0.033337075 -0.0012489775 0.04605866 0.027369363 -0.12076746 0.050546672 -0.10258783
0.14040406 -0.06575526 0.08343303 -0.0804291 0.13901173 0.16114226 -0.09257971 0.055442408
-0.123752974 0.11743449 0.006854493 -0.015585241 0.12948285 0.10516338 -0.17153284 -0.0693854
-0.084816486 -0.0032691045 0.0723942 -0.16305463 0.048849232 0.101798445 0.03488372 0.0798656
0.051522333 -0.07568701 0.09372692 -0.048365325 -0.11381664 -0.14941123 -0.15411596 0.07680876
-0.051123697 0.16722438 -0.11923238 -0.044739474 -0.027147427 0.12631471 0.10687132 -0.10885813
00000000: 83af f2bd 58b9 a73d 2f30 f6bd e60f 72bc
00000010: 7d9f e63d 9aea 04be 3a34 dbbc 387c fbbd
00000020: c290 313d 758c 083d bbb4 a3ba 01a8 3c3d
00000030: b735 e03c ee54 f7bd 070a 4f3d 9119 d2bd
00000040: 15c6 0f3e b2aa 86bd f0de aa3d 03b8 a4bd
00000050: 1759 0e3e 7a02 253e 6e9a bdbd 9417 633d
00000060: 3372 fdbd 7e81 f03d a89b e03b 3d59 7fbc
00000070: 2797 043e e65f d73d 4ea6 2fbe ef19 8ebd
00000080: 44b4 adbd 793e 56bb 6943 943d cbf7 26be
00000090: 2216 483d b47b d03d 3be2 0e3d 9390 a33d
000000a0: 1509 533d cb01 9bbd e6f3 bf3d b81a 46bd
000000b0: b318 e9bd 42ff 18be 93d0 1dbe e94d 9d3d
000000c0: 1567 51bd de3c 2b3e 1b30 f4bd bd40 37bd
000000d0: 4864 debc a558 013e 5adf da3d 03f1 debd
