citylearn/data/datasets/ca_alameda_county_neighborhood/resstock-amy2018-2021-release-1-250074.pth (torch, 8966 bytes, 9 tensors)

l_lstm.weight_ih_l0 f4 [32, 13]
0.57335746 -0.29943404 -0.0021138636 0.16677402 -0.03185844 -0.059902914 -1.4179325 -0.7878847
-0.25445414 -0.26957107 0.19860208 0.41593176 -2.6333857 -0.9464922 -0.65660954 0.10956197
-0.1187988 0.7961374 -2.19839 -4.7753873 3.3454072 -1.5880812 -2.268771 -0.82960147
-0.44571012 -0.6890988 0.0922467 -0.10173121 0.2999947 0.12410459 -0.52090365 -0.94045603
2.9181507 -2.3098626 0.7010526 0.036446627 0.60701334 -0.07325447 1.6460283 0.21182165
-0.499737 0.15229243 -0.15305026 -1.056273 -0.62695104 -0.26976338 -0.12739861 1.5561849
-0.39280894 0.6258406 0.0023445315 1.7294916 -0.06883175 -0.25193632 0.0026661407 -0.20111503
0.7069123 -2.901579 -3.1064565 -3.8099663 -1.3912921 -0.49201334 -1.153868 -0.66876525
-0.44273034 0.0982199 -0.13564888 0.15413463 0.25878304 0.12052301 0.8618518 -0.30129197
1.8439463 -0.38119307 -0.11804164 -0.9893211 -0.41274616 1.0512375 -0.6864229 -0.8247328
-0.2784089 -0.31831786 0.20755154 0.7997767 1.9608754 0.97605664 0.16042538 0.39077285
-0.1025221 -0.14345667 -0.411248 1.0170565 -0.123502724 -2.8638465 0.63452953 -0.4944995
0.07007095 5.358834 13.960376 -0.47796926 -0.2717572 -0.22347826 0.19462137 -1.795603
0.27201262 -0.058601063 -0.24692829 -0.27345157 0.62107855 -0.086474225 -3.2996976 -0.48322076
0.5763627 -0.7274026 0.015814953 -0.006816955 -2.4082084 0.98578906 1.3177888 -0.26677167
-0.017413165 1.9263335 -1.1175776 -11.522241 -1.5122 -1.9622339 -1.6552023 -0.07178519
0.005370721 -0.8733695 0.44371057 0.18003784 -0.29670814 0.17218852 2.6742198 0.31511566
5.4362226 1.6660911 -1.1966275 -2.0652559 -1.6145732 0.26767033 0.5854996 1.2560515
-0.57346344 -0.486646 0.1165541 -0.4306551 0.16370685 1.8301289 2.5635257 -1.2338939
-0.16486168 0.35929698 0.16151479 2.2749834 -1.261935 -1.0749209 -0.04746431 -0.28802252
-2.833169 1.8693548 -11.838306 -1.7918057 -0.17573601 -1.3034543 -0.3550728 0.8467851
-0.8189117 -0.30007398 0.6102246 -0.2734144 -0.1304457 0.26020178 0.087180145 -2.4118683
-4.7586317 0.57032275 -0.24598457 0.43680078 0.7284174 1.3738657 -0.95960504 -1.0471083
0.027768206 0.44462192 -2.5552564 -0.88691145 -2.9828448 1.7634387 0.831063 0.95577615
0.75059104 0.67768437 -1.6671828 -0.40767837 0.2973445 -0.24671398 -0.13197705 -0.11310908
-0.012571459 2.0601008 6.9822965 -0.8751881 -0.62279975 -0.33086547 0.2583576 -2.2542005
0.49239314 0.8542909 4.583191 7.04414 0.39930645 2.5207462 4.3039436 1.8925524
-0.86357856 -0.69101125 -1.4181731 0.03959451 -0.7559324 -0.22204196 0.106777675 -0.05979599
-0.15492211 0.40577373 -0.17157912 -1.0907137 -12.729061 0.42319715 0.33636206 -1.472071
0.04775809 0.8422177 0.015403988 -0.17418593 -0.021066066 -0.030820498 -0.06353891 -0.39179704
-1.2748575 -0.18006691 0.27556837 0.28375217 -0.1430721 -0.09693823 2.3304827 -0.07848086
-0.22958174 -0.06964476 0.12915654 0.07834935 -0.5978194 -1.1697739 -1.1799911 0.34344926
00000000: 8ec7 123f 6b4f 99be bf88 0abb cfc6 2a3e
00000010: ff7d 02bd c25c 75bd d07e b5bf d0b2 49bf
00000020: d047 82be 3805 8abe 585e 4b3e 02f5 d43e
00000030: 6489 28c0 504d 72bf 9017 28bf 0762 e03d
00000040: c94c f3bd a9cf 4b3f 6cb2 0cc0 f9cf 98c0
00000050: 271b 5640 3f46 cbbf 8b33 11c0 c360 54bf
00000060: 1e34 e4be c768 30bf d6eb bc3d 7458 d0bd
00000070: e898 993e 8c2a fe3d f159 05bf bac1 70bf
00000080: fbc2 3a40 cad4 13c0 2f78 333f 0f49 153d
00000090: 3a65 1b3f 7106 96bd 0eb1 d23f c6e7 583e
000000a0: 87dd ffbe 8cf2 1b3e 35b9 1cbe f433 87bf
000000b0: dd7f 20bf 6d1e 8abe c874 02be 1131 c73f
000000c0: 411e c9be 1737 203f b6a6 193b fb5f dd3f
000000d0: a9f7 8cbd ccfd 80be 6bba 2e3b 19f1 4dbe
000000e0: 34f8 343f 78b3 39c0 2fd0 46c0 7dd6 73c0
000000f0: dc15 b2bf 2ce9 fbbe f2b1 93bf 3334 2bbf
00000100: 8dad e2be 8427 c93d 8ae7 0abe 78d5 1d3e
00000110: 367f 843e c5d4 f63d 52a2 5c3f f142 9abe
00000120: 6f06 ec3f bd2b c3be d1bf f1bd 2644 7dbf
00000130: 7753 d3be f38e 863f 69b9 2fbf b021 53bf
00000140: 9d8b 8ebe 8ffa a2be 6488 543e 2abe 4c3f
00000150: f7fd fa3f d9de 793f 8d46 243e 6113 c83e
00000160: 1bf7 d1bd 4ee6 12be 198f d2be e82e 823f
00000170: ffee fcbd 4349 37c0 8770 223f 0a2f fdbe
00000180: 5c81 8f3d 917b ab40 b35d 5f41 63b8 f4be
00000190: c223 8bbe 7cd7 64be d34a 473e 52d6 e5bf
000001a0: 3d45 8b3e ab07 70bd c5da 7cbe d801 8cbe
000001b0: 01ff 1e3f 6619 b1bd 3f2e 53c0 b668 f7be
000001c0: 828c 133f 0f37 3abf 5c8e 813c c360 dfbb
000001d0: 1620 1ac0 ac5c 7c3f 4ead a83f 4c96 88be
000001e0: 0ea6 8ebc 1992 f63f c80c 8fbf 195b 38c1
000001f0: c58f c1bf 7b2a fbbf abdd d3bf 1d04 93bd
00000200: e0fc af3b 2595 5fbf 082e e33e d75b 383e
00000210: 21ea 97be 3052 303e 6b26 2b40 d756 a13e
00000220: 89f5 ad40 7942 d53f 172b 99bf 272d 04c0
00000230: 56aa cebf 160c 893e 4de3 153f 4cc6 a03f
00000240: 80ce 12bf aa29 f9be eab3 ee3d d37e dcbe
00000250: c5a2 273e aa41 ea3f ce10 2440 3cf0 9dbf
00000260: 80d1 28be c6f5 b73e 2264 253e 5499 1140
00000270: 1687 a1bf 0297 89bf f069 42bd b077 93be
00000280: a452 35c0 0547 ef3f b469 3dc1 e459 e5bf
00000290: 24f4 33be 97d7 a6bf 1acc b5be e9c6 583f
000002a0: 32a4 51bf 4ca3 99be ae37 1c3f f9fc 8bbe
000002b0: 8f93 05be 2b39 853e 818b b23d 0d5c 1ac0
000002c0: b646 98c0 ac00 123f 61e3 7bbe 5aa4 df3e
000002d0: 9079 3a3f d5da af3f ada8 75bf a507 86bf
000002e0: 267a e33c 7ca5 e33e 5289 23c0 a10c 63bf
000002f0: eee6 3ec0 5cb8 e13f 8bc0 543f bfad 743f
00000300: bc26 403f b97c 2d3f 3f66 d5bf 38bb d0be
00000310: 8a3d 983e 97a2 7cbe fe24 07be bca5 e7bd
00000320: 85f8 4dbc b1d8 0340 f96e df40 540c 60bf
00000330: ce6f 1fbf 3367 a9be 7347 843e d244 10c0
00000340: f41a fc3e cfb2 5a3f 80a9 9240 9869 e140
00000350: e571 cc3e e853 2140 e8b9 8940 283f f23f
00000360: 7c13 5dbf 1de6 30bf b286 b5bf da2d 223d
00000370: c984 41bf f85e 63be 41ae da3d a4ec 74bd
00000380: e7a3 1ebe 93c1 cf3e 70b2 2fbe 829c 8bbf
00000390: 3caa 4bc1 4cad d83e a637 ac3e d36c bcbf
000003a0: fd9d 433d 949b 573f 0261 7c3c cc5d 32be
000003b0: be92 acbc 457b fcbc b020 82bd 9f99 c8be
000003c0: 882e a3bf 7663 38be 4c17 8d3e f747 913e
000003d0: 7e81 12be 8d87 c6bd a126 1540 93ba a0bd
000003e0: 7a17 6bbe e9a1 8ebd 9d41 043e a075 a03d
000003f0: b10a 19bf 27bb 95bf f309 97bf 95d8 af3e

l_lstm.weight_hh_l0 f4 [32, 8]
0.36388844 0.037131883 0.6541959 0.20786107 -0.20048423 0.013739582 -0.9255909 -0.18482201
0.62518835 1.7479141 1.6960272 -0.7725671 2.2051785 0.6800357 1.3408378 -0.4357188
-1.5210823 -2.7345088 -2.2503796 -0.65735966 -0.533953 0.4386517 0.934487 0.24176566
-1.5968275 0.40107265 0.17183842 0.41858545 0.32913816 -0.67027974 -0.081415005 0.17110893
1.6719655 0.7679878 0.16227975 -0.7555387 0.63793874 0.39873198 -1.0514026 -0.063183434
-0.22302046 3.2918613 0.6275064 1.7595563 -2.067339 -0.105409324 -0.18671131 -0.53553003
-0.00072361773 1.0570797 1.836231 -0.926476 4.0228424 -0.09878797 -0.7873504 -1.6606351
1.7353212 -0.68049246 0.21310237 -0.9168771 -1.1642725 1.0569792 -0.38550282 -1.7041849
0.39152646 -0.45445785 -0.011528337 -0.29196346 -0.79332083 0.52644235 -1.0672643 -0.13386127
0.46626619 -0.7116736 -1.1533799 2.3829234 -0.01809464 -0.9354144 0.14549184 2.0577228
0.11939455 0.15966631 0.11051132 -2.0667338 -3.2459385 0.6715784 0.6687009 2.9474938
-0.6905944 -0.32520205 -0.030969523 -0.6771409 -0.32929695 -0.2953963 0.5510531 0.2674474
2.2119482 -1.3539944 1.3690858 -0.53896254 2.0991843 1.0381402 -1.5421154 1.0957612
0.22424962 0.08130841 -1.3399879 0.03705526 0.35767663 -0.9909736 0.5611254 0.21658993
0.17232122 -2.5761404 -2.5128627 -1.2995466 2.0554578 -0.45673388 -1.6180918 -0.78746724
0.8767621 -0.35411316 -0.47817087 -1.7022232 -0.781795 1.4328786 -0.61037743 -0.49606085
0.21261837 -3.6501076 0.24092586 -0.821313 -0.95290416 0.6934408 1.4595253 -0.44409817
0.14980899 -1.0573658 1.5906442 -2.0496216 -0.31942546 -0.31627238 0.05385411 1.975322
-0.8106607 -0.26453182 -0.7471921 -0.027337337 0.07094678 -0.49244153 0.67249435 -0.119509056
1.000313 0.42582893 0.1531505 -0.43964082 -0.06886184 0.69298315 -0.90783805 -0.4020527
0.26222485 0.49758628 0.94789743 0.030973563 0.19842385 0.17835869 1.0046402 -0.049085673
-0.79205614 0.3722366 -0.99556106 -0.12935768 0.60711783 -1.092704 0.26544514 0.6017159
1.085519 -0.6210093 0.118432134 1.12997 -0.5326962 -1.0701164 0.6425854 -0.27800462
-2.8844898 0.54993683 -0.82118946 -0.48276377 1.9503144 -0.30577174 -0.40528065 -0.26034454
0.5256669 -1.0662633 0.45475817 -0.20495093 -0.46509233 -0.41415876 -1.150407 -0.36618984
0.56887364 1.2824011 -1.536163 1.2294004 -2.426642 0.7811798 -1.6474825 0.46483046
-3.3463519 -0.81870437 0.8796022 -1.8599464 -5.8195047 -1.3439834 -2.5204287 -0.3744673
-1.1764395 0.22600873 -0.03840638 -0.17035085 0.90502805 -0.021865621 0.032557733 0.31151193
0.6439894 2.374453 2.626687 0.19726421 -1.2371926 0.9940201 -0.10119132 1.6739566
0.41313344 -1.2698888 0.003147712 0.041262764 -2.0147367 -0.22489426 2.2858024 -0.64414835
0.14792164 -0.73059076 1.0884498 -0.36716348 1.4934603 0.64339834 1.2677059 2.4726398
0.2882506 -0.39664668 0.66568166 0.94408774 -0.4593414 0.71083045 -0.2933805 -0.75083226
00000000: 964f ba3e 9a17 183d 6279 273f 88d9 543e
00000010: bd4b 4dbe fc1b 613c 86f3 6cbf fb41 3dbe
00000020: 580c 203f a6bb df3f 6b17 d93f f5c6 45bf
00000030: a521 0d40 d216 2e3f 93a0 ab3f 8916 dfbe
00000040: d3b2 c2bf 3102 2fc0 3806 10c0 b948 28bf
00000050: 25b1 08bf f596 e03e 8a3a 6f3f 6b91 773e
00000060: d864 ccbf 6559 cd3e 69f6 2f3e d550 d63e
00000070: cc84 a83e 7497 2bbf e9bc a6bd 2e37 2f3e
00000080: f702 d63f d99a 443f aa2c 263e fc6a 41bf
00000090: f44f 233f 9926 cc3e 5c94 86bf 5166 81bd
000000a0: 7a5f 64be dbad 5240 42a4 203f 2439 e13f
000000b0: 484f 04c0 d8e0 d7bd 4031 3fbe 7f18 09bf
000000c0: 2ab1 3dba 634e 873f 9e09 eb3f 882d 6dbf
000000d0: 20bb 8040 5951 cabd cc8f 49bf b18f d4bf
000000e0: 011f de3f c134 2ebf 8237 5a3e 75b8 6abf
000000f0: e206 95bf 184b 873f a060 c5be bb22 dabf
00000100: 2876 c83e b3ae e8be 5ae1 3cbc 3c7c 95be
00000110: 1317 4bbf edc4 063f 1e9c 88bf ee12 09be
00000120: 71ba ee3e 3e30 36bf f4a1 93bf d181 1840
00000130: 363b 94bc 5177 6fbf d0fb 143e bbb1 0340
00000140: 2185 f43d 917f 233e c253 e23d 5e45 04c0
00000150: 75bd 4fc0 90ec 2b3f fb2f 2b3f bda3 3c40
00000160: cbca 30bf e280 a6be ccb3 fdbc 1b59 2dbf
00000170: 9c99 a8be 2f3e 97be d111 0d3f deee 883e
00000180: 8f90 0d40 b04f adbf 343e af3f 73f9 09bf
00000190: 0959 0640 c7e1 843f 0a64 c5bf e741 8c3f
000001a0: b1a1 653e 0685 a63d b984 abbf 42c7 173d
000001b0: 6421 b73e 72b0 7dbf eaa5 0f3f c0c9 5d3e
000001c0: f974 303e 7cdf 24c0 bed2 20c0 8b57 a6bf
000001d0: 9f8c 0340 06d9 e9be a21d cfbf 7497 49bf
000001e0: 7b73 603f 524e b5be d0d2 f4be 73e2 d9bf
000001f0: b823 48bf 9168 b73f b241 1cbf b0fb fdbe
00000200: a1b8 593e 5d9b 69c0 45b5 763e 9241 52bf
00000210: 87f1 73bf 5685 313f bad1 ba3f d660 e3be
00000220: 8767 193e c357 87bf 3b9a cb3f 002d 03c0
00000230: bc8b a3be 74ee a1be 2196 5c3d 5ad7 fc3f
00000240: 7687 4fbf b770 87be fb47 3fbf 8df2 dfbc
00000250: 8c4c 913d 4c21 fcbe 9728 2c3f 2ac1 f4bd
00000260: 420a 803f 4006 da3e 7cd3 1c3e 9a18 e1be
00000270: 7007 8dbd 5867 313f 1368 68bf dad9 cdbe
00000280: 5642 863e a1c3 fe3e 68a9 723f 45bc fd3c
00000290: 9f2f 4b3e a9a3 363e 0d98 803f 0f0e 49bd
000002a0: 31c4 4abf cc95 be3e 17dd 7ebf 5776 04be
000002b0: 136c 1b3f badd 8bbf 6de8 873e 0e0a 1a3f
000002c0: 49f2 8a3f 77fa 1ebf 8c8c f23d dba2 903f
000002d0: c75e 08bf 93f9 88bf 7a80 243f 9f56 8ebe
000002e0: 7b9b 38c0 a9c8 0c3f 7939 52bf d02c f7be
000002f0: e7a3 f93f 1d8e 9cbe f280 cfbe e14b 85be
00000300: 1b92 063f 517b 88bf 10d6 e83e a8de 51be
00000310: 9520 eebe 9e0c d4be 8940 93bf 3c7d bbbe
00000320: b4a1 113f b825 a43f fda0 c4bf fe5c 9d3f
00000330: 1a4e 1bc0 66fb 473f b5e0 d2bf 42fe ed3e
00000340: a12a 56c0 9c96 51bf 9c2d 613f b912 eebf
00000350: 6239 bac0 a607 acbf b44e 21c0 2eba bfbe
00000360: 9295 96bf d56e 673e 0250 1dbd 7470 2ebe
00000370: ebaf 673f 881f b3bc 425b 053d 7e7e 9f3e
00000380: 7ddc 243f 0af7 1740 a41b 2840 a1ff 493e
00000390: 545c 9ebf 1a78 7e3f 653d cfbd 3644 d63f
000003a0: 3a86 d33e b78b a2bf d849 4e3b 2503 293d
000003b0: 72f1 00c0 ae4a 66be 964a 1240 e8e6 24bf
000003c0: c578 173e ff07 3bbf 5352 8b3f dafc bbbe
000003d0: b529 bf3f c1b5 243f 3044 a23f bb3f 1e40
000003e0: 9595 933e 4615 cbbe 1d6a 2a3f bcaf 713f
000003f0: cc2e ebbe fcf8 353f f835 96be 8b36 40bf

l_lstm.bias_ih_l0 f4 [32]
0.23671377 0.8027361 -0.56241596 -0.6945261 0.24471402 -0.55372095 0.2117572 1.3203622
0.18261543 0.2232753 -0.47605848 -0.39901 0.5661836 -0.12956224 0.3340051 0.74526685
0.15453392 0.4320527 -0.4148737 0.54071146 -0.53658867 -0.06175916 -0.8338123 -1.1475931
0.11413268 -0.005993403 0.21808036 -0.5441275 0.2892288 0.3508158 -1.4306059 0.037238315
00000000: 1865 723e 1d80 4d3f 7efa 0fbf 76cc 31bf
00000010: 5096 7a3e a8c0 0dbf e1d6 583e a101 a93f
00000020: 8aff 3a3e 48a2 643e f0bd f3be 0a4b ccbe
00000030: 69f1 103f f7ab 04be b702 ab3e cfc9 3e3f
00000040: 243e 1e3e 0336 dd3e 536a d4be 116c 0a3f
00000050: e05d 09bf 2cf7 7cbd b974 55bf 55e4 92bf
00000060: 65be e93d 4f64 c4bb 7550 5f3e f14b 0bbf
00000070: cc15 943e 219e b33e 181e b7bf 3487 183d

l_lstm.bias_hh_l0 f4 [32]
0.13957258 1.1600882 -0.40405068 -0.59066325 0.513528 -0.23325822 0.07386236 1.4490445
0.65813917 0.51348615 -0.5653362 -0.46634537 0.27721524 -0.065548055 0.17968135 0.8567368
0.25207266 0.24053863 0.07377572 0.26148483 -0.9749394 -0.34994122 -0.72386825 -1.2082028
0.20320947 -0.06285806 -0.3379148 -0.115064144 0.09438265 0.7434738 -1.9705702 0.16758226
00000000: 1dec 0e3e c57d 943f bbdf cebe b535 17bf
00000010: 9276 033f 3edb 6ebe 2645 973d 4a7a b93f
00000020: cf7b 283f d473 033f e0b9 10bf d2c4 eebe
00000030: 28ef 8d3e 0f3e 86bd 63fe 373e 1a53 5b3f
00000040: ab0f 813e c24f 763e ba17 973d 57e1 853e
00000050: a195 79bf 7f2b b3be 6e4f 39bf 64a6 9abf
00000060: 2516 503e babb 80bd 2b03 adbe c0a6 ebbd
00000070: b14b c13d 4d54 3e3f a53b fcbf af9a 2b3e

l_lstm.weight_ih_l1 f4 [32, 8]
-0.7275031 -2.062167 -0.782548 -0.6537803 -0.1479515 0.02726349 0.55388194 1.2730687
-0.98782396 -1.1830227 -0.5831192 1.2423556 0.72178435 -1.356281 -0.12876517 -0.1260328
-1.1000599 -0.6238717 -0.9406266 -0.3497368 0.3139038 -0.7412236 -0.4103094 0.12960856
-1.2957438 0.20999254 0.5801316 0.25607646 0.7251424 0.31642368 0.41406924 -0.45064855
0.7425497 -0.13638018 -0.6059565 1.2801858 3.5209713 -3.0724547 -0.33634207 -0.6404268
-1.150481 -0.14211649 -0.43319312 -0.04900037 0.3087339 -0.39754182 0.010827458 0.2537204
0.44268143 1.3652599 -0.76216406 -0.47776195 -0.19270664 -1.6097085 0.25723937 -1.0937706
-0.8534579 -1.0440638 -0.0023377752 -1.1107984 -0.14798722 -0.7122781 0.18095912 -0.1540744
0.054216098 -0.72887325 -0.52058494 -0.22851703 0.019221727 0.5221162 0.7431172 1.1679295
0.5613635 -1.0075345 1.8855424 -1.2434307 1.5339736 1.7126023 -1.4030536 1.4297217
-0.13569643 1.5856538 0.9759172 0.044564094 0.62938195 0.46456638 0.49971998 0.66063875
0.8233238 2.3654432 -5.7658353 1.6407322 3.1415017 -3.2673821 1.8150623 0.58901155
1.4065697 -0.73911285 2.894029 1.1510817 1.7967436 3.795279 -2.9469206 -0.48211157
-1.0031743 0.81117976 2.1729782 -1.2179258 1.9450643 0.0022044368 -0.72577375 2.514088
0.33631617 2.8559785 -0.3731007 1.2312628 -0.1099889 2.4377577 -0.24199349 -1.8821892
-2.7784867 4.3912444 0.5875357 -0.19672017 -0.29379296 1.0361598 0.091276444 1.6519948
1.3620498 0.18888707 -0.99746174 0.33212858 0.35482544 -1.389273 0.6727191 -0.88280946
-1.0381901 -0.392667 0.89883995 -0.63471425 -0.51762354 0.9200024 -0.7841267 1.5352107
0.9462255 0.42414588 -0.8586533 0.28745407 0.59680396 -0.7124392 0.78937614 -1.4113052
0.78151906 0.7895031 -0.4491289 0.46880275 0.8041933 -0.606985 0.42286745 -0.8587994
-0.4277198 -1.5653352 1.3446511 -2.5591493 0.51405513 0.6039489 -1.5238088 1.2669269
-1.0405091 -0.5011733 0.75249094 -0.3278893 -0.7299188 0.68867373 -0.77288306 1.4585502
0.017616663 1.818304 -2.2545214 -0.5457085 1.1967278 -0.7497269 1.8233727 -1.7218437
-0.84027123 -0.73225135 1.244823 0.27509874 -1.1349862 1.071549 -0.71867406 1.0427141
-1.034139 0.50661 0.7788005 -0.0055847056 -0.1385662 1.228349 -0.03324276 1.3479509
-0.17862359 -1.4175769 0.33572257 0.16774873 1.3589188 -0.6305731 -0.76926655 -1.6294996
-0.51571864 -0.300739 0.16385613 -0.2635779 0.023640996 -0.17862913 0.82453585 -0.2575503
0.6417905 -1.7744238 0.9433996 0.5833612 2.1109555 0.8719727 0.5400422 -1.4017656
1.117262 0.42232588 -0.3706489 2.2858472 -0.5913523 -0.21753673 1.1465298 -0.97613
-0.18863736 -0.39207518 0.29103658 -0.041977443 0.57490385 -0.42494434 -0.6777546 0.2917877
0.8737013 -0.08869491 -0.47729698 -2.0507834 0.044311613 0.556062 0.22407873 -1.4903123
-0.85996157 -0.33064893 0.34442338 -0.60587686 0.017249305 0.25285706 -0.52504814 -0.1400272
00000000: a53d 3abf 8bfa 03c0 1155 48bf 255e 27bf
00000010: 9980 17be af57 df3c 35cb 0d3f eaf3 a23f
00000020: 08e2 7cbf 4a6d 97bf 4d47 15bf 8205 9f3f
00000030: dcc6 383f 9e9a adbf 04db 03be be0e 01be
00000040: c3ce 8cbf 0eb6 1fbf e8cc 70bf b410 b3be
00000050: 00b8 a03e d4c0 3dbf 1314 d2be 1bb8 043e
00000060: efda a5bf 4908 573e 8183 143f 741c 833e
00000070: efa2 393f 4902 a23e e200 d43e 68bb e6be
00000080: bd17 3e3f 3fa7 0bbe f71f 1bbf 21dd a33f
00000090: 9857 6140 19a3 44c0 0735 acbe 03f3 23bf
000000a0: f642 93bf fc86 11be 7dcb ddbe 9db4 48bd
000000b0: 5f12 9e3e 9a8a cbbe a765 313c a4e7 813e
000000c0: 24a7 e23e d6c0 ae3f 2f1d 43bf 379d f4be
000000d0: e454 45be ee0a cebf e1b4 833e ad00 8cbf
000000e0: 387c 5abf e2a3 85bf 5c35 19bb a42e 8ebf
000000f0: f689 17be dc57 36bf 594d 393e aec5 1dbe
00000100: b311 5e3d 7097 3abf 0e45 05bf 5e00 6abe
00000110: e276 9d3c 68a9 053f ee3c 3e3f b77e 953f
00000120: 85b5 0f3f e4f6 80bf 7459 f13f bd28 9fbf
00000130: 3f59 c43f 8d36 db3f 4397 b3bf 1f01 b73f
00000140: 01f4 0abe b4f6 ca3f b6d5 793f d788 363d
00000150: 2d1f 213f a5db ed3e 4cdb ff3e 9f1f 293f
00000160: 59c5 523f 6c63 1740 b981 b8c0 8303 d23f
00000170: 5d0e 4940 ca1c 51c0 f653 e83f 76c9 163f
00000180: 7a0a b43f 8036 3dbf c537 3940 a556 933f
00000190: b2fb e53f dae5 7240 599a 3cc0 54d7 f6be
000001a0: 0468 80bf 7aa9 4f3f 1312 0b40 fee4 9bbf
000001b0: def7 f83f 5078 103b 4fcc 39bf d1e6 2040
000001c0: a231 ac3e 5ac8 3640 0e07 bfbe 059a 9d3f
000001d0: dc41 e1bd 3904 1c40 24cd 77be 93eb f0bf
000001e0: bad2 31c0 1385 8c40 bd68 163f 0371 49be
000001f0: 086c 96be e2a0 843f 25ef ba3d 9174 d33f
00000200: a657 ae3f 9d6b 413e a759 7fbf c20c aa3e
00000210: aeab b53e b3d3 b1bf 5237 2c3f cdff 61bf
00000220: 6ae3 84bf a60b c9be 601a 663f a27c 22bf
00000230: fa82 04bf 4785 6b3f 87bc 48bf c981 c43f
00000240: d63b 723f a629 d93e b4d0 5bbf 2e2d 933e
00000250: 25c8 183f 6a62 36bf 8e14 4a3f a6a5 b4bf
00000260: a211 483f e01c 4a3f 39f4 e5be ea06 f03e
00000270: 9ddf 4d3f 5e63 1bbf 1582 d83e 47da 5bbf
00000280: 17fe dabe e75c c8bf 871d ac3f 1ac9 23c0
00000290: 1e99 033f 659c 1a3f 2b0c c3bf a92a a23f
000002a0: 672f 85bf e54c 00bf 3fa3 403f 1be1 a7be
000002b0: f5db 3abf ec4c 303f aadb 45bf c6b1 ba3f
000002c0: d250 903c 2fbe e83f 144a 10c0 8db3 0bbf
000002d0: 602e 993f 1aee 3fbf 4764 e93f 6065 dcbf
000002e0: 041c 57bf d374 3bbf 5c56 9f3f bed9 8c3e
000002f0: 3a47 91bf 8528 893f 06fb 37bf a877 853f
00000300: ab5e 84bf 31b1 013f 785f 473f e8ff b6bb
00000310: 4ce4 0dbe 8a3a 9d3f 8f29 08bd a889 ac3f
00000320: 1ae9 36be 2973 b5bf d4e3 ab3e 53c6 2b3e
00000330: 0df1 ad3f 3d6d 21bf a7ee 44bf 7193 d0bf
00000340: 2306 04bf 76fa 99be e7c9 273e aff3 86be
00000350: c3aa c13c 8eea 36be c814 533f a2dd 83be
00000360: 624c 243f 5220 e3bf a382 713f 2957 153f
00000370: e519 0740 9a39 5f3f 3540 0a3f 0e6d b3bf
00000380: 7102 8f3f 193b d83e b1c5 bdbe 524b 1240
00000390: dd62 17bf f3c1 5ebe 7dc1 923f a8e3 79bf
000003a0: 272a 41be 14be c8be bf02 953e 8af0 2bbd
000003b0: e62c 133f 4e92 d9be 5381 2dbf 3365 953e
000003c0: e3aa 5f3f ada5 b5bd 4560 f4be 0940 03c0
000003d0: 1880 353d 145a 0e3f e574 653e 8ec2 bebf
000003e0: 7126 5cbf d14a a9be 4358 b03e bf1a 1bbf
000003f0: 6a4e 8d3c 7b76 813e 8e69 06bf 4a63 0fbe

l_lstm.weight_hh_l1 f4 [32, 8]
1.2174708 0.12360279 0.28357026 0.72648644 -1.7574008 -0.5565369 0.3955287 -1.0433756
-2.4490817 4.885384 -1.3884175 -0.48514724 -5.4515185 1.8699936 1.588483 0.8477708
-2.2466297 2.6408439 -1.1032434 -0.7619602 -2.8000066 1.6515778 0.6191901 1.005552
-1.5490758 2.8360121 -1.4761175 -0.36769202 -1.9787335 1.2490935 -0.7609967 1.4870952
-2.0080006 -1.2656021 0.4972026 -0.23430836 1.6797197 -0.5682829 0.1812098 1.5498483
-1.5314448 1.8809631 -0.49077877 -0.38556945 -3.1646516 0.37775972 0.87016237 0.33238623
-0.962106 -0.46555912 0.31359255 0.5313336 0.57431245 0.05707805 -0.4994399 1.3610978
0.92531055 0.28869656 0.5727529 0.6395687 -2.0545607 0.35014555 -0.13161859 -0.29006374
1.156835 -1.7560378 0.3715879 -0.0006432559 0.6559755 -0.46362215 -1.2234803 -0.9083505
1.9399552 -1.5729063 1.4579167 0.46715158 1.0724614 -0.6465071 -1.6887882 -0.90607584
1.2976445 -2.2304194 1.4950633 0.44830236 0.7712766 -1.1943207 -1.2579653 -0.09973994
1.0686889 -3.0707214 2.1794846 -1.97281 -0.2539182 -2.3249004 0.3081625 -0.096220456
-0.96958256 0.8525014 -1.601725 -1.5658511 1.531001 1.2568213 -1.3111205 1.7239616
1.0445905 0.30173227 -0.017501337 -0.47245702 -1.3487746 0.35675842 -0.76122457 0.3100689
0.67838764 -0.13357583 0.29849672 0.51262534 0.12473761 0.101232484 -0.38516465 -0.28076094
1.4045509 0.101794966 0.0061146603 1.046081 -0.3559944 -0.07278262 -0.28394368 -1.3161389
-0.34517217 0.12652764 -0.5491684 -1.60277 -0.3114504 0.75272036 -1.547387 1.1099176
0.8811229 -1.7937645 1.4856291 1.6929233 -1.0578897 -1.2434407 1.6003312 -1.3517982
-0.63206595 0.30349582 -1.901519 -1.628035 0.053259265 1.1619835 -0.90524495 1.1081309
0.51235145 -1.9144754 0.3602169 -3.362671 -0.5303798 1.5206327 0.8708799 -0.91624326
0.33657354 1.1766552 0.19683215 0.8050288 -0.28900287 0.4238886 1.140082 -0.2048557
0.43586352 -0.18879266 0.78446084 0.948201 -0.1283338 -1.3890284 1.3377053 -0.7764416
1.4274712 -3.5073102 0.23469527 0.39872438 -0.82014745 -0.7961868 -2.5075788 -1.0671904
-0.79285955 2.185716 0.6498947 1.5862482 0.60358304 -0.5281065 0.31696022 -0.76448566
0.35429725 -1.3331985 0.55945164 0.67730826 -0.7957101 -0.40421727 -0.6530666 -0.4678463
-2.3086295 0.9357146 -0.098029256 0.15471317 -3.9141946 0.58114654 0.81516856 0.8080285
-1.3401331 1.5481018 -0.106668636 0.21787392 -3.342194 0.8167845 0.9621747 0.17941102
-1.6806318 -0.09043718 0.11755424 0.72657615 -2.1975095 -0.32899317 -0.27105653 1.0901433
-0.56910837 0.4246554 -0.24046238 -0.7578631 0.11642424 0.2924969 0.07845086 1.2218375
-2.022724 0.15961958 0.25369024 -0.4872109 -1.4361563 0.37030485 0.46171018 0.67308545
-1.7094523 -1.3194529 0.021459304 0.5879582 1.2993603 0.060497686 -1.7183406 1.492042
-0.24885055 -0.110655144 0.13221778 0.4740795 -0.51335645 0.25807846 -0.56617075 0.6922965
00000000: 15d6 9b3f 7623 fd3d 1f30 913e 04fb 393f
00000010: 82f2 e0bf 3479 0ebf bd82 ca3e 558d 85bf
00000020: c1bd 1cc0 1155 9c40 aab7 b1bf 3865 f8be
00000030: d772 aec0 f35b ef3f 6953 cb3f 8207 593f
00000040: c8c8 0fc0 9603 2940 1437 8dbf d30f 43bf
00000050: 4f33 33c0 e766 d33f 3e83 1e3f eeb5 803f
00000060: 1e48 c6bf 3981 3540 6bf1 bcbf 2142 bcbe
00000070: 2447 fdbf 4ce2 9f3f aed0 42bf 2359 be3f
00000080: 1583 00c0 40ff a1bf 5791 fe3e 88ee 6fbe
00000090: 0e01 d73f fd7a 11bf 108f 393e 6e61 c63f
000000a0: 6206 c4bf 66c3 f03f 5b47 fbbe 5c69 c5be
000000b0: a789 4ac0 b969 c13e f6c2 5e3f 872e aa3e
000000c0: 944c 76bf c45d eebe 348f a03e 7b05 083f
000000d0: 2406 133f acca 693d 96b6 ffbe 7438 ae3f
000000e0: 27e1 6c3f 09d0 933e ef9f 123f c6ba 233f
000000f0: ec7d 03c0 4746 b33e 06c7 06be 3c83 94be
00000100: 2b13 943f d9c5 e0bf c540 be3e 2ca0 28ba
00000110: 03ee 273f e25f edbe 019b 9cbf a989 68bf
00000120: 7450 f83f fe54 c9bf 049d ba3f 7e2e ef3e
00000130: 6a46 893f 7d81 25bf 362a d8bf 96f4 67bf
00000140: 3719 a63f 31bf 0ec0 3c5e bf3f e387 e53e
00000150: 6272 453f 80df 98bf 0205 a1bf 7444 ccbd
00000160: ccca 883f b386 44c0 ad7c 0b40 0a85 fcbf
00000170: 9101 82be 2bcb 14c0 7ac7 9d3e 3b0f c5bd
00000180: 9036 78bf 883d 5a3f 5305 cdbf cf6d c8bf
00000190: d7f7 c33f 85df a03f ccd2 a7bf c6aa dc3f
000001a0: 24b5 853f a77c 9a3e f75e 8fbc e3e5 f1be
000001b0: a5a4 acbf 0aa9 b63e 9ddf 42bf 5ac1 9e3e
000001c0: d0aa 2d3f 1ac8 08be 90d4 983e 6a3b 033f
000001d0: 6f76 ff3d fa52 cf3d 4d34 c5be e6bf 8fbe
000001e0: 53c8 b33f e179 d03d 7d5d c83b fbe5 853f
000001f0: e644 b6be 0e0f 95bd 1161 91be 3d77 a8bf
00000200: 68ba b0be 7690 013e 4d96 0cbf 9127 cdbf
00000210: 6d76 9fbe 48b2 403f c710 c6bf c811 8e3f
00000220: 4591 613f 139a e5bf 1829 be3f b6b1 d83f
00000230: ee68 87bf 1129 9fbf a7d7 cc3f b907 adbf
00000240: 13cf 21bf ce63 9b3e f964 f3bf 7363 d0bf
00000250: 6326 5a3d e0bb 943f 22be 67bf 3cd7 8d3f
00000260: 7729 033f 880d f5bf 596e b83e 0036 57c0
00000270: f8c6 07bf 18a4 c23f fcf1 5e3f eb8e 6abf
00000280: 5e53 ac3e a39c 963f 5e8e 493e 5e16 4e3f
00000290: 2ff8 93be ed07 d93e 35ee 913f b1c5 51be
000002a0: 8129 df3e dd52 41be 6dd2 483f 4dbd 723f
000002b0: f069 03be afcb b1bf ed39 ab3f e0c4 46bf
000002c0: 60b7 b63f c577 60c0 f553 703e 9a25 cc3e
000002d0: 2ff5 51bf e6d2 4bbf 2c7c 20c0 b299 88bf
000002e0: d8f8 4abf c5e2 0b40 805f 263f 2e0a cb3f
000002f0: 6b84 1a3f fd31 07bf 9c48 a23e 55b5 43bf
00000300: 7366 b53e 40a6 aabf 3938 0f3f 1364 2d3f
00000310: a8b3 4bbf 91f5 cebe 5f2f 27bf 8d89 efbe
00000320: 96c0 13c0 fe8a 6f3f 90c3 c8bd 216d 1e3e
00000330: 2a82 7ac0 05c6 143f e3ae 503f f5da 4e3f
00000340: 7b89 abbf 3328 c63f 1675 dabd 571a 5f3e
00000350: 82e6 55c0 ca18 513f 1551 763f 86b7 373e
00000360: f11e d7bf 2137 b9bd 47c0 f03d e500 3a3f
00000370: ffa3 0cc0 cb71 a8be ecc7 8abe d189 8b3f
00000380: 16b1 11bf 6f6c d93e c53b 76be 5103 42bf
00000390: d56f ee3d 27c2 953e d8aa a03d 2c65 9c3f
000003a0: 4f74 01c0 5173 233e b0e3 813e b573 f9be
000003b0: f8d3 b7bf 9998 bd3e 4765 ec3e 544f 2c3f
000003c0: 55cf dabf d5e3 a8bf 6ccb af3c 6e84 163f
000003d0: 7051 a63f 6ccc 773d 96f2 dbbf 3bfb be3f
000003e0: aed2 7ebe 2a9f e2bd 1964 073e 8cba f23e
000003f0: 546b 03bf dc22 843e 91f0 10bf 583a 313f

l_lstm.bias_ih_l1 f4 [32]
-0.35959682 -0.54697233 -0.5821728 -0.5219623 -0.37512723 -0.32291234 -0.8426338 -0.5008731
0.43120396 0.066289425 -0.4013846 -1.2854295 0.008113911 -0.7189964 -0.6565883 -0.70159304
0.041911714 0.031749316 0.12495016 0.1111901 -0.03121708 0.32169524 0.042486522 -0.19530565
-0.70681536 0.3436778 0.2802879 0.022005316 -0.8057096 0.1631719 -0.15244791 -0.40056783
00000000: 131d b8be 6106 0cbf 4709 15bf 529f 05bf
00000010: ad10 c0be c454 a5be d9b6 57bf 3839 00bf
00000020: c4c6 dc3e c0c2 873d 4882 cdbe f488 a4bf
00000030: 36f0 043c 2610 38bf 2c16 28bf 9a9b 33bf
00000040: 9eab 2b3d 920b 023d dfe5 ff3d a3b7 e33d
00000050: f6ba ffbc 3db5 a43e 5906 2e3d 34fe 47be
00000060: daf1 34bf 89f6 af3e e581 8f3e 7e44 b43c
00000070: fc42 4ebf 8916 273e 4e1b 1cbe 3a17 cdbe

l_lstm.bias_hh_l1 f4 [32]
-0.004408867 -0.5512599 -0.41286644 -0.85872626 -0.73747677 -0.29034266 -1.2768483 -0.4223506
0.09631323 0.29215214 -0.14251643 -1.1568347 0.41675153 -0.77662677 -0.9419972 -1.0404769
-0.09784526 0.15434295 -0.2941591 -0.12301448 -0.08196655 -0.13913189 -0.13565956 0.2132246
-0.5020983 0.07097237 0.608076 0.33025616 -0.7905799 0.17507459 -0.3733473 -0.3829152
00000000: 4278 90bb 5e1f 0dbf 3b63 d3be 7cd5 5bbf
00000010: 47cb 3cbf cba7 94be c46f a3bf 563e d8be
00000020: df3f c53d f794 953e d4ef 11be 2913 94bf
00000030: 7560 d53e 03d1 46bf ba26 71bf 592e 85bf
00000040: 1863 c8bd 140c 1e3e 069c 96be 04ef fbbd
00000050: 14de a7bd 9778 0ebe 57ea 0abe 8d57 5a3e
00000060: 8489 00bf f659 913d deaa 1b3f 5617 a93e
00000070: 7263 4abf c146 333e 6127 bfbe 760d c4be

l_linear.weight f4 [1, 8]
-0.41177714 0.51620543 -0.4742072 -0.40351275 0.3109606 0.45551386 -0.34006205 0.40299606
00000000: 74d4 d2be 0a26 043f 49cb f2be 3999 cebe
00000010: 3a36 9f3e 1d39 e93e 9d1c aebe 8055 ce3e
