citylearn/data/datasets/ca_alameda_county_neighborhood/resstock-amy2018-2021-release-1-210179.pth (torch, 8966 bytes, 9 tensors)

l_lstm.weight_ih_l0 f4 [32, 13]
000000 d5 3d 93 be f1 71 1c bd 76 0e b4 be b3 61 b8 3e
       -0.28758112 -0.0381946 -0.35167283 0.3601204
000010 5c 44 26 bf 8d 65 6f be c4 47 65 3f 2e 77 ae 40
       -0.6494806 -0.23378582 0.8956263 5.4520483
000020 ba b5 f2 bf ed 81 5b c0 5e 1b b6 3f 3a cb 05 bf
       -1.8961709 -3.429805 1.4227102 -0.52263224
000030 55 36 24 c0 59 18 11 bf b2 6d 33 3f 1d d3 39 be
       -2.5658162 -0.56677777 0.70089257 -0.1814694
000040 b4 40 1b 3e 61 64 57 3e a9 58 be 3e 72 ea 01 c0
       0.15161401 0.21034385 0.37177017 -2.0299344
000050 87 30 45 41 28 28 26 40 3d 9d 72 3f aa 13 e9 3e
       12.3243475 2.596201 0.94771177 0.45522815
000060 56 99 80 bc ba 05 4e c0 83 73 57 3f ac d9 dd 3e
       -0.015698116 -3.2190995 0.8416063 0.43330133
000070 a8 2d 6c 3e a9 91 cc be 47 90 c1 3f ad db 12 c0
       0.23064291 -0.3995488 1.5122155 -2.294658
000080 13 08 58 c0 68 c5 89 c0 68 b4 92 3e 48 5a de 3d
       -3.3754928 -4.3053474 0.28653264 0.108570635
000090 41 c0 b1 bf 76 9b ed 3e ea 63 1b bf 3c 4f 16 c0
       -1.3886796 0.4640767 -0.6069933 -2.348586
0000a0 a3 1e 4e be 0c ac f8 bd 75 c3 ed 3e 37 bb 07 3f
       -0.20128874 -0.1214219 0.46438184 0.5302004
0000b0 bf 7c d3 bd d3 fa 05 c0 dc 51 d7 3f 16 04 7e be
       -0.10326528 -2.093434 1.6821856 -0.24806246
0000c0 5e 2b 97 bf 33 af ee 3f db 5c 97 3e 63 3a 67 c0
       -1.181011 1.8647217 0.2956303 -3.6129386
0000d0 42 d9 9c be dd 9f a7 bd 3b 0e 71 bd f4 53 7f 3d
       -0.30634505 -0.081847884 -0.05885146 0.062335923
0000e0 ef b1 ad be f6 11 e5 be 5b b0 f4 bf c6 00 33 3f
       -0.33924815 -0.44740266 -1.911632 0.69923055
0000f0 d0 67 43 3e 95 f9 16 3f da c6 e8 be fd 0b 9f bd
       0.1908257 0.5897458 -0.45464212 -0.077659585
000100 7a 58 22 c0 2b 87 78 be 54 d0 52 be 5f 7f 4f bf
       -2.5366502 -0.24270312 -0.20587283 -0.8105373
000110 af 4b 57 3f a0 10 79 3f b2 37 5b bf 90 52 89 c0
       0.8409986 0.9729099 -0.8563186 -4.2913284
000120 62 dd da bf b7 bb 07 c0 44 f8 01 c0 ac 1c 0f bf
       -1.7098811 -2.1208322 -2.030778 -0.55903125
000130 10 51 45 bf 96 ab 2e 40 0c 16 9f 3e 42 00 ca be
       -0.77076817 2.7292228 0.31071508 -0.39453322
000140 dd 15 4b bf 28 9f 2a 3f 19 3a 22 bf 98 44 de 3d
       -0.79330236 0.66649103 -0.633699 0.10852927
000150 90 94 5d c1 8c c8 4e 40 80 3b 89 3f 6d f3 c6 3f
       -13.84877 3.2309904 1.0721283 1.5543038
000160 a0 0b 71 be 35 ba 93 be 53 1b 8f bf a2 f4 44 bd
       -0.23539591 -0.28853002 -1.1180214 -0.048084863
000170 96 b6 38 bf e9 eb 15 3e de 16 b6 be 4a fd 70 bf
       -0.72153604 0.14640774 -0.3556432 -0.9413649
000180 fe 35 d7 3f f7 05 ed c0 bd 10 05 41 2d c7 84 bf
       1.6813352 -7.406978 8.3165865 -1.0373284
000190 93 a0 ab 3d 17 7d c3 3e 9b 5a b3 bd c9 57 e5 3f
       0.083802365 0.38181373 -0.08757516 1.7917415
0001a0 ca 83 12 3f 11 ea cc be e4 fd 34 3e 9a fc 92 be
       0.57232344 -0.40022328 0.17674977 -0.28708345
0001b0 27 e1 cf be 90 6d 0d be 4d c9 54 bf e4 c8 10 40
       -0.40601465 -0.13811326 -0.8311966 2.2622614
0001c0 39 25 00 c0 6e 18 a0 bc 2a 39 f8 3f 33 03 18 bf
       -2.002272 -0.019542899 1.9392445 -0.5937988
0001d0 6c 36 35 c0 ff 73 ec bc 3a 82 aa bc 24 25 ed bb
       -2.8314466 -0.028863905 -0.02081405 -0.0072370935
0001e0 9d 4e b6 3d ae a2 98 3d e7 fb 8f 3e 2f bc d5 3e
       0.08901713 0.07452904 0.28121874 0.41745135
0001f0 6a 97 4d c1 6e fe 13 3e 4f c7 32 bd 8d 71 f6 be
       -12.849466 0.14452526 -0.043647107 -0.48133507
000200 4e ac 82 3e 6d b5 3b bf 22 30 9b 3f 0c 97 4a 3f
       0.25522083 -0.7332371 1.2124064 0.7913673
000210 54 24 79 3d 72 9c 57 3e 49 f0 0b bf 4a d5 94 40
       0.06082566 0.21055773 -0.5466352 4.6510363
000220 0a 44 bd bf 32 ea db bf 61 5f 5f be e4 cd c8 bd
       -1.4786389 -1.7180846 -0.21813728 -0.098048955
000230 9e bf 85 3f c9 18 d5 bf de c1 93 3f a7 74 19 bf
       1.0449102 -1.6648189 1.1543539 -0.5994362
000240 a2 3e e3 be 09 f3 68 bf b1 da 20 3f 2f 2e d5 3e
       -0.44383723 -0.9099584 0.62833697 0.41636798
000250 66 6d 79 c0 07 92 5a c1 8b fa 55 bf 49 12 d9 3f
       -3.8973022 -13.660651 -0.83585423 1.6958705
000260 bf 68 6e 3f e4 c6 34 40 b3 30 49 be 80 76 6c bf
       0.9312858 2.8246393 -0.19647484 -0.92368317
000270 1d 98 35 bf bd e0 be bd 6d 28 9e 3d 0c 52 b6 be
       -0.7093523 -0.09320209 0.07722554 -0.35609472
000280 74 3f 24 bc 7c ea 2c bc 9b 2f cf bf a4 b7 4e 3f
       -0.010024894 -0.010553952 -1.6186403 0.80748963
000290 fd 31 c5 bd 23 d8 cd 3d 4b 45 28 3e e3 26 aa 3e
       -0.09628675 0.100509904 0.16432683 0.33232793
0002a0 f3 8f 1b c0 31 49 35 3f 2d ff a5 3f b5 1b 8c 3f
       -2.430661 0.70814806 1.2968498 1.0945956
0002b0 f6 fa 5d 3c 95 3d da be 15 e1 2a bf 5b d7 20 c1
       0.013548603 -0.42625108 -0.667497 -10.052577
0002c0 88 2d 88 bf 32 90 62 bf 13 3f 91 bf e6 f8 f2 be
       -1.0638895 -0.88501275 -1.1347374 -0.4745552
0002d0 ea e1 81 3e 11 97 f8 3f 9d c2 15 c0 6b 3a 84 3f
       0.2536767 1.9421102 -2.3400033 1.0330328
0002e0 e5 27 f4 3c 6c bf 5f bf da 32 5d c0 44 ed d0 3f
       0.02980418 -0.8740146 -3.4562287 1.6322408
0002f0 83 3a 32 c1 9b 82 ad 3f b8 ec 59 bf d3 69 03 c0
       -11.139285 1.3555483 -0.8512683 -2.053334
000300 2b d2 6a 3f b1 83 0f 3e 21 77 24 3b 63 9f 3d 3e
       0.9172694 0.1401508 0.002509542 0.18517832
000310 fe 85 cc 3e 0c a4 82 3e 0b c5 a1 be a8 ba f2 be
       0.39945978 0.25515783 -0.31595644 -0.47408032
000320 0e ac e8 3e e8 85 a7 40 83 69 3e bf 5e 96 21 be
       0.45443767 5.235096 -0.7437975 -0.15780017
000330 5d 5c bf bd fc 75 67 3d e5 1f e4 3d 91 a7 04 40
       -0.09343789 0.056509003 0.11138896 2.0727274
000340 ae ce a0 3e 07 55 fc 3d db de 27 3d 25 f3 57 bc
       0.31407684 0.12320905 0.040984016 -0.013180529
000350 1e d5 d0 3e df 54 df 3e e5 0a 03 40 ee 4c 5b 41
       0.40787596 0.4361944 2.04754 13.706282
000360 84 b5 a2 bf dc 6d 18 c0 61 72 f3 3e 6d be 43 bc
       -1.2711644 -2.3817053 0.47548202 -0.0119472565
000370 86 c4 c0 bf 0c 19 a1 3e 9d 50 77 3d d6 ba 0e 3a
       -1.5059974 0.31464422 0.060379613 0.0005444711
000380 ec 47 4a 3d 2f 18 90 3d e7 8b 83 3e 93 de e0 3f
       0.049384996 0.07035863 0.25692675 1.7567924
000390 93 c4 f9 bf e4 f4 b8 bd 02 79 94 bd ea 8d eb be
       -1.9513115 -0.09031084 -0.07249643 -0.4600671
0003a0 9f 1c 81 bd 32 b8 1e c0 dd a0 4a be 54 ab 45 3e
       -0.06304287 -2.4799924 -0.19787927 0.19303638
0003b0 db 18 39 bd ee af 81 bc da b8 06 3f 6f b9 7b 3e
       -0.04518972 -0.01583096 0.5262581 0.24582456
0003c0 88 90 8d c0 e2 fd d9 3f cf 6c 6e bd f4 36 03 be
       -4.423893 1.7030604 -0.058209237 -0.12813932
0003d0 88 cf 11 be ac ab f1 3c 7c ec 14 c0 7d 9f e4 be
       -0.14239323 0.029500805 -2.3269339 -0.4465293
0003e0 09 44 3d bf 3c 62 bf be 6f 6c 71 3e b5 d3 dd bf
       -0.7393194 -0.37379634 0.2357652 -1.7330233
0003f0 e5 15 9f 3e 28 c4 1f 41 f3 c8 a3 bf 26 93 b0 be
       0.31071392 9.98539 -1.27957 -0.34487265

l_lstm.weight_hh_l0 f4 [32, 8]
000000 3a c4 bc bc 9d 23 f5 bf 1a 0f bc 3f 6c 51 0a c0
       -0.023042787 -1.9151493 1.4692109 -2.1612196
000010 e4 c4 27 40 e8 d4 06 3e 91 8a a5 3f e3 d2 99 bf
       2.6213923 0.13167155 1.2932912 -1.2017483
000020 34 00 83 c0 96 83 c4 3e 4c 12 20 40 c0 98 c9 c0
       -4.093775 0.38381642 2.5011168 -6.2998962
000030 c8 fe 21 c0 03 4d 74 be ba d3 c4 bf 89 a8 33 40
       -2.5311756 -0.23857503 -1.5377114 2.8071616
000040 05 ef 12 40 db eb 2d c0 1c f6 78 40 c1 45 43 3f
       2.2958386 -2.7175205 3.8900213 0.7627831
000050 cd 08 c2 3f d4 54 13 bd b4 24 64 c0 9d e4 c9 3f
       1.5158936 -0.03596957 -3.5647402 1.5772892
000060 84 18 d9 bf 23 e1 11 bf d6 c8 6a 3f d4 80 1a 40
       -1.6960607 -0.56984156 0.917127 2.414113
000070 d6 ae 88 3e 72 58 cb 3d e5 30 72 40 b3 eb 62 bf
       0.2669589 0.09928979 3.7842343 -0.886409
000080 70 2c 11 3e c8 09 7d 3d 13 79 3f be f9 0c a3 bf
       0.14177108 0.061776906 -0.1869853 -1.2738334
000090 98 b0 c6 bf f3 0e 64 bf 28 15 e6 3e 22 dc bd bd
       -1.5522642 -0.8908531 0.44938016 -0.092705026
0000a0 0c 6c 8b 3f d8 2b 88 bf 6d 06 84 3f aa 8f e9 3e
       1.0892348 -1.063838 1.0314461 0.4561742
0000b0 0a b2 f7 be 60 02 b6 be 99 eb 6b bf 98 bb b5 be
       -0.4837802 -0.35548687 -0.9215637 -0.35494685
0000c0 be 05 c5 bf 4f a9 8d 3e f5 3e 8e c0 98 0e 27 c0
       -1.5392377 0.27668235 -4.445185 -2.6102657
0000d0 59 c9 0b 3f 69 3c 09 be 88 55 e8 bf 17 90 68 bf
       0.5460411 -0.13401951 -1.8151102 -0.90844864
0000e0 69 3e 46 40 c1 e8 cd bd d3 f3 a0 3f 78 b7 22 c0
       3.0975592 -0.1005416 1.2574409 -2.542448
0000f0 cb 4c 51 3f 27 f6 c8 3e 24 72 e7 3d 51 0c aa bf
       0.817578 0.392503 0.113010675 -1.3285009
000100 64 88 42 bf 37 9a ba 3f 76 38 60 3f e8 7e 34 c0
       -0.75989366 1.4578313 0.8758615 -2.8202457
000110 36 85 11 bf ef 76 bd 3f ee 41 bc 3f 86 bd 47 c0
       -0.5684389 1.4801921 1.470762 -3.1209426
000120 49 09 0b be 3e 41 8f be 67 f0 a6 bf 6a 96 5a bf
       -0.13577761 -0.27979463 -1.3042115 -0.85385764
000130 49 fb 9b 3e 8b 09 0c 40 9b 43 91 bd 3d fb cf 3e
       0.30465153 2.1880825 -0.07092973 0.40621367
000140 2b ae a2 be 74 6b 84 3f 1d a5 a7 be d7 b9 8b 3e
       -0.31773505 1.0345292 -0.3274316 0.27290222
000150 af a1 03 40 15 58 62 3d 0a 23 15 40 78 87 16 bf
       2.0567434 0.055259783 2.3302636 -0.5880046
000160 ad 14 8b c0 2e b7 2b c0 fb 90 c4 c0 ce 7b 5f bf
       -4.346274 -2.6830554 -6.142698 -0.87298286
000170 33 2f d5 3f f8 29 03 40 d6 47 11 40 e1 02 8e bf
       1.6655029 2.0494366 2.2700095 -1.1094629
000180 b9 d7 89 bd 6e 6b 65 3e 04 29 d5 be 29 a0 db 3e
       -0.06730599 0.22404262 -0.41632855 0.4289563
000190 ed a5 75 bf 8d 6b 85 bf c6 9a f3 3e 33 34 23 bf
       -0.9595631 -1.0423447 0.4757902 -0.63751525
0001a0 ff b4 e9 bf 79 38 b5 3e 86 a3 67 bf a1 29 60 be
       -1.8258361 0.35394648 -0.9048389 -0.2189088
0001b0 52 12 a6 3f 45 fc 9b 3f b3 c6 b5 be f4 6c 1d bf
       1.2974341 1.2186362 -0.35503158 -0.61494374
0001c0 95 c3 0a be ca ba 12 c0 de 86 85 bf 06 8a 90 bf
       -0.13551171 -2.2926507 -1.0431783 -1.1292121
0001d0 fe f3 89 3f 31 75 2d bf 6f ec c3 3f 1d a6 93 3f
       1.0777586 -0.67756945 1.5306529 1.1535069
0001e0 f7 a4 dc 3f ee 5e 07 c0 4a 9f cf 3e a0 5d 1e 3f
       1.7237843 -2.115169 0.40551215 0.6186161
0001f0 7e eb 14 3f 7c 19 04 3f ee 22 7f 3e 5f 6c ac bc
       0.5817183 0.51601386 0.24915668 -0.02104777
000200 36 18 df 3f 59 04 02 bf c4 0e 29 bf 35 9f 07 c0
       1.7429264 -0.50787884 -0.66038156 -2.1190922
000210 4b e9 27 be 1b c0 76 be 4c 9a f2 3f 05 e5 ce 3f
       -0.16397588 -0.2409672 1.8953338 1.6163641
000220 eb 38 b5 3e 91 e3 32 bf 73 7a 56 bf 6a bf e1 be
       0.35394987 -0.6987849 -0.8378059 -0.4409135
000230 4d 12 9e bf e3 45 a3 be fd 84 2e 3f 53 72 68 3e
       -1.2349335 -0.31889257 0.68171674 0.22699861
000240 33 27 04 bf dc 93 be 3d 7c fd ce bf 9b a7 ff be
       -0.51622313 0.09305546 -1.6171107 -0.4993256
000250 ac ca 98 3e a9 c4 30 bf f4 9a e2 be 30 f0 34 3f
       0.29842126 -0.6905008 -0.44258845 0.70679
000260 74 22 41 40 b4 52 80 bd 58 90 60 c0 d4 73 cb bf
       3.0177279 -0.06265774 -3.50881 -1.5894723
000270 3d 50 a9 be be 21 58 bf 30 96 4d 40 2b d7 b4 3f
       -0.3306903 -0.84426486 3.2122917 1.4128164
000280 5a 38 fa be b0 88 b3 bf a7 99 b1 3f f2 41 13 40
       -0.48871118 -1.4026089 1.3875016 2.3009
000290 e4 31 be bf 4c 00 73 3e 6c 46 bf 3d 7f 97 20 bf
       -1.4858975 0.23730582 0.09339604 -0.62731165
0002a0 58 2c ce bd b6 36 13 bd a3 22 e0 be b1 a5 93 be
       -0.10067052 -0.03594085 -0.43776426 -0.2883735
0002b0 8e 6a 30 be 76 c2 cc bf 2d 73 3d bf c2 6d a7 3e
       -0.17228147 -1.5996845 -0.7400387 0.32700926
0002c0 dc df 42 40 78 94 62 bd 52 17 00 40 5a 0a 77 c0
       3.0449133 -0.055317372 2.0014234 -3.8600068
0002d0 d8 22 f0 bf 29 78 55 3f 25 55 97 be b2 96 19 3f
       -1.8760633 0.83386475 -0.29557148 0.5999557
0002e0 3c 01 77 bf 56 fa 4e bf 45 fb 5a bf de 07 f8 bf
       -0.9648626 -0.8085073 -0.85539657 -1.9377401
0002f0 17 4a 88 3f 0d 4a a0 be 5a 2b ba be 19 82 16 bf
       1.064761 -0.31306496 -0.363612 -0.58792263
000300 0d b9 85 bf a2 bf 70 bf 9b 85 2c 3f e5 39 00 3e
       -1.0447098 -0.9404241 0.67391366 0.12522085
000310 fe 8b 18 40 de 2e d9 be 6a e9 89 3f 7e d0 5b 3f
       2.3835444 -0.4241857 1.0774357 0.8586501
000320 99 eb b3 bf 57 e9 ff be 26 14 86 bf 30 17 b3 bf
       -1.4056274 -0.49982712 -1.0474899 -1.3991451
000330 a5 f5 eb bf 65 5e 60 bf 63 14 b5 3e ab ef b3 bf
       -1.843434 -0.87644035 0.35367116 -1.4057516
000340 da 56 14 3f 89 82 47 bf 4e 57 a3 3f a3 db 0d 40
       0.57945025 -0.77933556 1.2761018 2.2165306
000350 bd f9 43 be e0 5c 1b 40 dd 2d 24 3f b6 1c ee be
       -0.19138236 2.4275436 0.6413248 -0.4650628
000360 c4 35 76 c0 c4 07 10 bf f0 73 2e be 82 6c 7c 3f
       -3.8470316 -0.5626185 -0.17036414 0.9860307
000370 13 fc a0 3f 94 c3 1a c0 99 fa 31 be c2 7a 89 3f
       1.2576927 -2.4181871 -0.17380752 1.0740588
000380 2f a9 75 3e 78 26 db be 0a d3 80 be 80 de 20 be
       0.2399032 -0.42802787 -0.2516101 -0.15709877
000390 bd ee 11 bf 8e eb 80 bc f8 d9 8e 3e e4 80 f3 3e
       -0.5700491 -0.015737321 0.27900672 0.47559273
0003a0 6b 16 b0 bd 29 26 82 3d a4 55 d0 3d d2 5e ad c0
       -0.08598026 0.06354935 0.10172585 -5.4178247
0003b0 ac be 79 3f d0 da 9e bf 09 74 d2 3d a9 60 e4 bd
       0.9755657 -1.2410526 0.10276038 -0.11151249
0003c0 c4 43 53 3f 55 62 2f bf 16 bf db bf 1a fe fa 3e
       0.8252528 -0.6850942 -1.716769 0.4902199
0003d0 b2 11 21 40 8a fc 6d 3f 5c 90 d6 3e 8a 51 97 3d
       2.516705 0.9296347 0.41907012 0.07388599
0003e0 fe b2 a6 3f d8 30 35 3f ea fe 0d 3f ad b8 b8 3e
       1.3023374 0.70777655 0.55467093 0.36078396
0003f0 53 f6 4f 3f b2 a0 03 bf 0c 4b ba 3d 1d 8b a9 be
       0.81235236 -0.51417077 0.09096345 -0.33113948

l_lstm.bias_ih_l0 f4 [32]
000000 11 8d ae 3e 23 86 71 3f e9 27 59 be 91 7e da 3e
       0.34092 0.943453 -0.21206631 0.42674688
000010 00 ff cc 3e 02 2b 0e bf 5a 6a a0 3e 78 30 0e bf
       0.400383 -0.55534375 0.3133114 -0.5554271
000020 a5 c5 2a 3f 79 8f 77 bd e2 3c b6 be 0a c3 4f be
       0.6670783 -0.06043956 -0.35593325 -0.20289245
000030 c7 d6 52 3f 6f 93 94 be 8b 2b d6 bd dc 3a 01 bf
       0.82358974 -0.29018733 -0.10457524 -0.5048044
000040 10 3d 89 3e 5c b8 d9 3e 95 9d 83 3e 4e ef cf 3b
       0.268044 0.42523468 0.25706163 0.006345666
000050 43 48 d7 be 60 88 d0 3e 7d 0b 67 3f 65 94 e6 be
       -0.4204732 0.40729046 0.90251905 -0.4503509
000060 21 92 8a 3e 82 6c 2b 3f e5 21 04 3f bf 08 a6 be
       0.27064613 0.66962445 0.5161422 -0.32428548
000070 29 33 3d 3e 48 87 49 be 15 f3 5e be 0e 08 fa be
       0.18476547 -0.19680512 -0.21772416 -0.4883427

l_lstm.bias_hh_l0 f4 [32]
000000 69 c8 62 3f 7d d7 47 3f 3e 3b e7 bd 44 fe 2e 3c
       0.8858705 0.78063184 -0.112905964 0.010680739
000010 c2 b9 99 3e 29 d1 94 bd 81 bd 7e bd bd fe 3e bf
       0.30024534 -0.07266457 -0.062192444 -0.7460745
000020 78 78 b0 3e b8 8d d3 bd 26 35 a0 be a9 fe 6a be
       0.3446691 -0.10329765 -0.3129055 -0.22948708
000030 b5 01 54 3f a9 08 32 bf 2e 21 2c be 13 e5 22 be
       0.82815105 -0.69544464 -0.16809532 -0.15907697
000040 e9 90 09 3d bc 17 b2 3e 2d 11 1e 3f 9f 5d a0 3e
       0.033585463 0.34783733 0.6174496 0.31321427
000050 0c dc 0a bf b6 89 0b 3e 70 78 aa 3e ac 49 0a bf
       -0.54242015 0.13626751 0.33295012 -0.54018664
000060 55 24 58 3d 3e 8e 08 3f 63 19 b7 3e 3a d9 e5 bd
       0.052769024 0.53342044 0.35761556 -0.11223073
000070 22 f9 2a 3e e8 77 9f be 2d 3d 28 be 27 71 9e be
       0.16696599 -0.3114617 -0.16429587 -0.30945703

l_lstm.weight_ih_l1 f4 [32, 8]
000000 67 ec 0e 40 1e 8d 88 3f e8 7f 9d 3f 73 1e 05 c0
       2.2331789 1.0668066 1.2304659 -2.0799835
000010 02 d2 4f bf b0 ca 86 3f 38 ca 35 bf 5c ac 54 3f
       -0.8117982 1.0530605 -0.71011686 0.830755
000020 01 8f 94 3e 03 88 d5 3e ea d4 4e 3e 3a 74 50 be
       0.29015353 0.4170533 0.20198408 -0.20356837
000030 e9 43 a3 be 79 50 08 40 4c a1 5d 3e 28 8f ec 3f
       -0.3188775 2.1299117 0.21643561 1.8481188
000040 28 bb 27 bd 4a 39 c5 3e 36 db 98 3f a6 d4 47 bc
       -0.04094997 0.3852027 1.1941898 -0.012196695
000050 45 87 82 3f 53 27 01 40 27 fb 2f 3f 6d 9f e4 3d
       1.0197531 2.0180252 0.68742603 0.111632206
000060 18 ba 32 3e 6d 50 d5 bf d7 1e 4b bf 70 28 93 bf
       0.17453802 -1.6665169 -0.7934393 -1.1496716
000070 90 49 8a bd 3a 46 78 3f 68 c1 31 3f bf 25 72 3d
       -0.06752312 0.9698216 0.6943574 0.05911803
000080 75 85 02 40 0c e0 09 bf 22 ce 52 3f 18 76 54 3e
       2.0393956 -0.53857493 0.82345784 0.20748174
000090 3f 4c 5c 3f 80 32 45 3f 5b 0b 3f bf 95 85 a2 bf
       0.8605384 0.7703018 -0.746267 -1.2697016
0000a0 a8 9e 3e 3f 4c 4c cd 3f cc c3 95 3e ac 29 74 bf
       0.7446084 1.6038909 0.29250944 -0.95376086
0000b0 d1 e6 a0 bf f6 80 2e 40 52 7d b7 3e d9 12 ab 3f
       -1.257044 2.7266212 0.358378 1.3365127
0000c0 41 f0 4e 3f ff 83 5d bf e8 cd b6 3f c4 69 96 3e
       0.8083535 -0.86529535 1.4281588 0.29377568
0000d0 0d 91 34 be 9c d5 37 3f 27 dc 82 bd c3 5b ab 3f
       -0.17633457 0.7181032 -0.06389647 1.3387378
0000e0 a9 39 f5 3f fd 22 34 3f d8 41 d2 3a 52 d7 29 c0
       1.9158221 0.7036589 0.0016041351 -2.653767
0000f0 e5 ec 1a bf 1f 7a 9a 3f 5e 0a a7 3e b1 2e 9a be
       -0.6051772 1.2068518 0.32625097 -0.30113748
000100 ab 8a fc 3e bb 7d 83 bf e5 15 e4 be df 5a 2c 40
       0.49324545 -1.0272745 -0.44547954 2.6930463
000110 a5 99 03 3f b4 89 13 c0 89 b6 59 bf ef 53 1a bf
       0.5140632 -2.3052797 -0.8504415 -0.6028432
000120 8f da 08 c0 8e 3f 7f be 0f 36 98 3f f4 04 9b 40
       -2.1383398 -0.24926588 1.1891497 4.8443546
000130 a6 1d d8 3e ab 20 2f c0 6b 1f ca 3e 73 68 16 be
       0.4221012 -2.736369 0.39477095 -0.14688282
000140 a5 1f 3c c0 e7 65 6b 3e 05 56 49 bf fc 95 06 bf
       -2.9394314 0.22988091 -0.7864688 -0.5257261
000150 ae bb 8d 3f d7 f9 30 40 2d 01 88 c0 80 7a 40 c0
       1.10729 2.765249 -4.2501435 -3.0074768
000160 1f 53 b8 bf 27 e8 21 3f af c4 64 be fb b4 48 40
       -1.4400367 0.6324486 -0.22340654 3.1360462
000170 91 c7 96 3f 60 a9 c7 bc ad ea a6 bf 6f fe 83 bf
       1.1779653 -0.024372756 -1.3040367 -1.0312022
000180 8f 47 18 3f 90 2b 43 40 a6 13 5b 40 15 fa 3e bc
       0.5948419 3.0495338 3.4230742 -0.011656304
000190 7e 32 f6 3f bd af 8b 40 4d 33 87 3d 10 88 97 bf
       1.9234159 4.3652024 0.06601582 -1.1838398
0001a0 07 e4 50 3f 47 69 4c be 87 27 ee 3f 1a 8a 1a 40
       0.8159794 -0.19962035 1.8605813 2.414679
0001b0 87 96 de 3e c6 fd 36 c0 fe 6f e0 3f a6 92 61 3e
       0.43474218 -2.859239 1.7534177 0.22028598
0001c0 e8 a1 f9 c0 11 2a 9b c0 26 1d 56 c0 c1 88 f6 3f
       -7.801014 -4.848885 -3.345529 1.9260484
0001d0 97 24 4b 3f 04 7f e0 3f 04 57 2d bd aa eb 11 bb
       0.79352707 1.7538762 -0.042319313 -0.002226571
0001e0 31 b7 13 3e 07 03 4b bf 0c 07 da bd d9 c6 28 be
       0.1442535 -0.79301494 -0.10645875 -0.16482104
0001f0 b5 2b ea 3f d7 a9 b2 bf 48 84 5f bf a0 39 ba be
       1.8294588 -1.3958081 -0.8731122 -0.3637209
000200 0d 3f 8b be 4a 03 d2 bf b2 72 78 bf e4 31 79 be
       -0.2719654 -1.6407254 -0.9705001 -0.24335438
000210 d6 ac 6f 3f 60 27 3f bf 86 63 fe 3e df de 1d 3f
       0.936231 -0.74669456 0.49685305 0.616682
000220 52 aa 0c bf 60 da 9d bf 54 f8 0f bf 17 f3 9c be
       -0.5494739 -1.2332268 -0.56238294 -0.30654213
000230 8c d6 3f 3f 76 5e 41 bf 2d b7 4a 3f 2c 95 8e 3f
       0.7493675 -0.7553476 0.79185754 1.1139274
000240 bb 09 cc be ad 7e 47 40 c0 4e 1e 3f 68 9a b2 bf
       -0.39851174 3.1171067 0.6183891 -1.3953371
000250 c5 e6 2a 3f be f4 15 bf 18 f6 44 bf ae 8b b8 bf
       0.66758376 -0.5857657 -0.7693801 -1.4417627
000260 4b d7 96 3f d8 6f a1 bf 7e b0 b3 bf 28 06 8e be
       1.1784452 -1.2612257 -1.4038236 -0.27739072
000270 23 b9 11 3f d8 49 98 be 40 69 1e 3e 9d ec 08 3f
       0.5692312 -0.29743838 0.15469837 0.53486043
000280 7b e4 12 40 e2 3e ef bf 8a 7b f6 3e 7c fb 2c be
       2.2951953 -1.8691065 0.48141128 -0.16892809
000290 ca c1 c1 bd 31 27 04 bf e4 c9 80 3f 95 b6 92 3f
       -0.094607905 -0.516223 1.0061612 1.146197
0002a0 e9 31 0e bd 26 52 b9 bf 64 24 99 bf fa 3d 1c 3d
       -0.034715567 -1.4478195 -1.196423 0.038145043
0002b0 b0 09 3b 3f 50 71 65 bf 09 15 17 3f ac 08 26 3f
       0.73061657 -0.89626026 0.5901647 0.6485698
0002c0 b7 9e 23 c0 a0 8e 78 bb c8 cd c9 3e 5a bf a9 3f
       -2.5565622 -0.0037926808 0.3941481 1.3261521
0002d0 7a 33 cc 3f 10 40 a9 be 8e f8 d0 bf 9a 17 a2 be
       1.5953209 -0.33056688 -1.6325853 -0.31658632
0002e0 ea 74 46 3e e1 5d bf bf 23 e5 a9 bf 49 f7 57 be
       0.19380537 -1.4950525 -1.3273052 -0.21090426
0002f0 3f 01 84 3f 82 aa 69 bf 7e da 21 3f 90 e8 00 3f
       1.031288 -0.912758 0.6322402 0.5035486
000300 f0 d1 95 3f 5c 64 29 3f 8c 3d a2 bf 85 9b ff be
       1.1704693 0.6616876 -1.2675033 -0.4992334
000310 4c da 5e 3e 55 59 35 be 1e fc b7 3d aa dc 44 3f
       0.21762961 -0.17709859 0.089836344 0.76899207
000320 ba 5d 72 3f 7a 9c b2 3f 48 33 69 bf 3d 43 b7 be
       0.94674265 1.3954003 -0.91093874 -0.35793486
000330 67 08 32 bd ef 3e eb 3f 5c 24 c9 be 94 ff 79 3f
       -0.043465044 1.8378581 -0.39285553 0.97655606
000340 0e b2 01 bf 16 6c 9f 3e 17 ba 5e 3f 1b 09 c6 bf
       -0.50662315 0.3113715 0.870027 -1.5471529
000350 4c 75 a0 3f ca f9 60 be 14 91 d8 bf 28 0c 95 3f
       1.2535796 -0.21970287 -1.6919274 1.1644335
000360 00 59 96 3d fb 32 0b bf 72 1d cf 3d 00 8c 1d 3f
       0.07341194 -0.54374665 0.10113038 0.6154175
000370 2b e5 01 3e 45 4a b5 bf f5 8a 24 bf 7b 20 cb be
       0.12685077 -1.416329 -0.6427453 -0.39673218
000380 88 55 c8 be f8 1e 3b 40 61 78 33 c0 44 79 18 c0
       -0.39127755 2.9237652 -2.8042223 -2.3824015
000390 fe ef 27 be d0 6a 60 bf 1d dc 96 3e 37 ad c7 3f
       -0.16400144 -0.8766298 0.29464808 1.5599736
0003a0 49 bd 11 40 76 9a d3 3f 7e 42 f2 3a cf 8c 17 c0
       2.277178 1.6531513 0.0018482951 -2.3679693
0003b0 7b 85 91 bf d6 86 d8 3e 0f 27 bc 3f be 3f ed 3e
       -1.136886 0.42290372 1.469942 0.46337694
0003c0 65 e3 70 3f 28 ac e2 be b5 dc b4 be 2f d6 b8 3f
       0.94096977 -0.4427197 -0.35324636 1.4440364
0003d0 34 fe 88 3f c5 a8 ab bf e2 a4 42 c0 5b 84 3a bf
       1.0702577 -1.3410879 -3.0413136 -0.7285821
0003e0 54 e8 e8 3e 65 29 cf 3e 77 92 44 3f ce af 8d bf
       0.45489752 0.4046127 0.7678599 -1.1069276
0003f0 77 9e 99 bd d9 72 de be e1 67 12 3f 2d c2 76 3f
       -0.07500928 -0.43446997 0.57189757 0.9639004

l_lstm.weight_hh_l1 f4 [32, 8]
000000 da ad 72 3f 07 29 14 3f 89 68 4b 40 b5 a8 1e 3f
       0.94796526 0.578751 3.1782553 0.61976177
000010 69 b4 04 bf 24 5f 71 3f 1b e7 7f bf 36 c5 28 40
       -0.51837784 0.942858 -0.99962014 2.6370368
000020 07 30 08 40 c5 19 3f 3f 81 7c 63 40 75 68 20 3d
       2.1279314 0.74648696 3.554474 0.039162118
000030 9b 3a 4f be 44 31 8b 3f 38 e7 e7 3d 6a 84 84 3f
       -0.202372 1.087441 0.11323398 1.035291
000040 1b db 77 3f 53 7b b6 3f 53 c4 46 3f 4d 38 89 3f
       0.96818703 1.4256386 0.77643317 1.0720307
000050 98 80 2a bf be 7a 0d c0 a6 e5 e1 bf dd 23 a6 bd
       -0.6660247 -2.2106166 -1.7648208 -0.08112309
000060 ce 4f e0 be 90 df f0 3e b8 42 df 3e 1f eb 9a bf
       -0.43810886 0.47045565 0.4360559 -1.2103003
000070 c1 4b 51 bf c6 8d 45 bf 82 ec 81 3c 1c 14 ed bf
       -0.81756216 -0.77169454 0.015859846 -1.8521762
000080 92 b1 71 40 dd 16 4b 40 2b f7 81 3f c0 2c 3a bf
       3.776463 3.1732705 1.0153555 -0.72724533
000090 cc 16 98 bf f9 83 1a 40 5a 2f aa be eb 38 97 3f
       -1.1881957 2.414305 -0.3323925 1.1814245
0000a0 a6 f3 f5 3f 1a 2a 1e 40 76 f3 76 40 bc 35 ee 3e
       1.9214981 2.4713197 3.8586097 0.4652537
0000b0 49 86 db 3e ba fd a7 40 30 d1 d5 bf 09 eb 04 3e
       0.4287589 5.2497225 -1.6704464 0.12980284
0000c0 9f 76 cc be 27 18 fb 3d 36 b8 1b 40 0a a1 01 c0
       -0.3993425 0.12260466 2.4331183 -2.025454
0000d0 04 d3 a0 bf ae fa ee bf 69 9e 9e 3c 7c 6e c0 bf
       -1.2564397 -1.8670251 0.019362645 -1.5033717
0000e0 14 f4 b8 3e 6f 0b 0e bf 6a 74 32 be 5e 61 1d 3e
       0.36123717 -0.55486196 -0.17427221 0.15369174
0000f0 94 45 b5 be b9 a6 f9 be 90 e5 0e 3f 45 67 40 3f
       -0.35404646 -0.48760012 0.55819035 0.75157577
000100 ee 32 7f be 82 56 dd bf e2 f5 3a 3d dd df 74 bf
       -0.24921772 -1.7292025 0.04564465 -0.9565409
000110 82 05 ce bd da 1b 25 c0 c8 c1 30 3f fc 52 d7 3e
       -0.10059644 -2.579825 0.69045687 0.420555
000120 bc ea 56 bf ad 5b c8 bf 1e b9 ee 3e da b6 34 bf
       -0.83951926 -1.5652977 0.46625608 -0.7059151
000130 b8 aa 35 bf 6b c0 cb be 50 be 8f 3f ff 0f c8 bf
       -0.7096362 -0.3979524 1.1229954 -1.5629882
000140 42 b7 a1 3e ae dd 10 bf e5 e4 ca bf 31 f7 99 3f
       0.31585127 -0.56588256 -1.5851103 1.2028562
000150 06 88 0d bf 5b d0 73 c0 b6 95 8e bf 3c 7c 9f 3e
       -0.5528568 -3.809592 -1.1139438 0.3114947
000160 1d e8 c9 be b4 18 fb bd 3f 4f 11 bf 49 7e 8a 3f
       -0.394349 -0.12260571 -0.56761545 1.0819789
000170 9b 59 ba be e5 93 aa bf a5 f2 c8 bf 02 63 77 bf
       -0.3639649 -1.3326384 -1.5699049 -0.9663545
000180 16 25 0d c0 c4 51 6d c0 af b5 ca 3f b6 03 18 c0
       -2.2053885 -3.7081156 1.5836695 -2.3752265
000190 72 3c a6 3d ea 54 b5 c0 48 93 be 3f 30 9e 3e c0
       0.08116998 -5.6666155 1.4888697 -2.978405
0001a0 bb ef a7 bf 94 00 b1 bf b4 d9 2d bf c0 3d b2 3d
       -1.3120035 -1.3828301 -0.67910314 0.08703184
0001b0 ae a9 46 bf 37 cb 2a c0 07 ca 18 3f 70 ad f1 bf
       -0.7760266 -2.6686532 0.5968327 -1.8881054
0001c0 a6 3d 1a 3f 1e c5 3c 40 78 21 87 bf d9 d9 d3 bf
       0.6025032 2.949531 -1.0557089 -1.6550857
0001d0 f2 dd 91 3e 8d 7c 82 40 1e a0 f8 3f d4 2f 48 bf
       0.28489643 4.077704 1.9423864 -0.7819798
0001e0 fe 8c f2 be 19 31 cb bf 3b 78 57 bf 11 e0 13 3f
       -0.47373194 -1.5874358 -0.8416783 0.57763773
0001f0 0e 9f b2 bd 23 ce d1 bf f6 3b 6e 3e 4f 9c 37 be
       -0.087217435 -1.6391033 0.23265061 -0.17930721
000200 93 6d 16 c0 4c 93 b9 bf f0 7d cd 3f dd 6b ec bf
       -2.3504379 -1.4498076 1.6054058 -1.8470417
000210 44 44 68 bf 0b 87 14 bf bb 07 d3 3f 70 57 a5 be
       -0.90729165 -0.5801856 1.6486734 -0.32293272
000220 8a c6 91 3f 67 e7 21 c0 b8 eb 22 3f 52 1b 4c bf
       1.1388714 -2.5297487 0.6364093 -0.7972919
000230 09 73 41 c0 d4 8f 32 be ac 64 cf 3e 44 02 09 3d
       -3.0226462 -0.17437679 0.40506494 0.033449426
000240 6f 54 62 bf db e9 bf bf e0 5e 9e be 6f 92 b9 3f
       -0.88410085 -1.4993242 -0.3093176 1.4497813
000250 9e e5 a1 be 95 72 4b c0 bf 2c 77 bf 54 1c 36 be
       -0.31620497 -3.1788685 -0.9655265 -0.17784244
000260 d4 a9 06 40 48 40 1b bf 35 a0 52 3f f1 3f 12 c0
       2.1041155 -0.6064496 0.82275707 -2.2851527
000270 93 0b 07 be 3b c9 03 3f 46 2d bc 3f 05 7a 12 3f
       -0.13188009 0.5147893 1.4701316 0.5721744
000280 4e b1 34 3f fa 1e bf 3f 25 3b c9 3f 9d 40 54 3e
       0.70583045 1.4931328 1.5721174 0.20727773
000290 ab 3c ae c0 97 88 11 bf ba d0 37 bf 59 79 d7 be
       -5.4449058 -0.56849045 -0.71802866 -0.42084768
0002a0 0a eb 00 bf 91 22 de bf e4 37 95 3f 84 39 4c bf
       -0.5035864 -1.7354299 1.1657681 -0.7977526
0002b0 3a b0 95 bf a6 e5 3f c0 36 2a 83 3f 61 77 1f 3d
       -1.1694405 -2.9983916 1.0247257 0.038932208
0002c0 76 7c a6 c0 41 8f 20 3e b9 40 a5 bd 28 1e 34 c0
       -5.202693 0.15679647 -0.080689855 -2.8143406
0002d0 5d a4 47 be 09 b4 0b 3e 9a fe 32 bf fb cd ad bf
       -0.19496293 0.13642897 -0.6991974 -1.3578485
0002e0 76 73 80 bf 6a 99 57 bf 09 44 9b 3f f6 0e ae bf
       -1.0035236 -0.84218466 1.2130138 -1.3598316
0002f0 2d 2a aa bf 31 21 32 bf 01 4c d1 3f b5 d8 af bf
       -1.3294121 -0.69581896 1.635132 -1.3738009
000300 31 f6 9e 3f 15 ed b6 3f e8 ec 76 bf ff 3f e8 3e
       1.2418882 1.4291102 -0.9645524 0.45361325
000310 44 e5 11 bf 82 8a 54 bf 86 78 cb be a5 80 95 3f
       -0.56990457 -0.83023846 -0.3974039 1.1679884
000320 26 3c df 3f 9b cb 9c be 7f cb 0a 40 a6 e3 b0 3d
       1.7440231 -0.3062409 2.1686704 0.086371705
000330 6a 78 58 3e e6 a1 18 3f f7 87 a7 3f e6 ef cf 3f
       0.21139684 0.5962204 1.3088368 1.6245086
000340 60 66 46 3f 86 16 80 3f 89 24 0b bf c4 66 84 3f
       0.7749996 1.0006874 -0.54352623 1.0343862
000350 19 5a 38 3f 1e 08 1c c0 58 c3 16 c0 2b e5 55 be
       0.7201248 -2.4379954 -2.3556728 -0.20888202
000360 9c 76 19 bf 0b 22 b1 3e ac cf 0d bf 36 13 b0 bf
       -0.5994661 0.34596285 -0.5539501 -1.3755863
000370 33 af 4d be 42 1d 80 be 31 5d 5a 3f 8a ff 92 be
       -0.20086364 -0.25022322 0.8529845 -0.28710586
000380 c2 0e e0 3f ea 79 b0 be ab 6d a1 be 12 c6 f4 3f
       1.7504504 -0.34468013 -0.31528983 1.9122946
000390 53 40 27 40 3f e2 33 bf 5a c8 dd bf ea bb c2 bd
       2.613301 -0.702671 -1.7326767 -0.09508498
0003a0 ce 4e dd 3f 35 9b 1b 40 fa e2 29 40 5e 4e 22 3f
       1.7289674 2.431348 2.6544785 0.6340083
0003b0 db 00 9d 3f b7 ea 47 40 20 b9 be bf 7b 51 84 bf
       1.2265886 3.1237009 -1.4900246 -1.0337366
0003c0 e4 52 be be 20 49 90 3f a6 d9 42 bc 4a 7f 11 c0
       -0.37172616 1.1272316 -0.011892712 -2.273394
0003d0 38 97 92 bf f3 f4 ae 3f e0 cc 46 40 b0 40 a2 3e
       -1.1452398 1.3668503 3.1062546 0.31689978
0003e0 18 69 53 bd 76 d7 08 3f a7 9e af be 5b 74 53 3f
       -0.051613897 0.5345377 -0.3430073 0.8259942
0003f0 82 38 75 3d cc bd d5 3e 1a 9e 91 bf f6 ff e6 3e
       0.059868343 0.41746366 -1.1376374 0.45117158

l_lstm.bias_ih_l1 f4 [32]
000000 dc 8a a0 bf d1 90 aa ba 2e ae 18 bf 7a b8 fd be
       -1.2542377 -0.0013013129 -0.5964078 -0.49554807
000010 77 fd 50 bf bc 22 03 bf df 4d 0c bf f1 eb 41 bf
       -0.81636757 -0.51224875 -0.5480632 -0.75750643
000020 46 8a 96 3f e6 cf 84 be 5b 44 f7 3e 81 70 4b 3e
       1.1760948 -0.25939864 0.4829434 0.19867136
000030 bc fa 2c bf 60 43 48 be a6 71 ec bc 4a 53 e6 3e
       -0.6757009 -0.19556952 -0.028862786 0.4498542
000040 14 82 e0 bd fc 55 35 3d 4a 21 bd 3d 52 b6 8a 3d
       -0.109623104 0.044271454 0.09234865 0.06773056
000050 d0 3f 09 be 4d 0e 22 bd 87 a6 a8 3e 08 ba 5b be
       -0.13403249 -0.03956442 0.3293955 -0.21457684
000060 f1 ee 28 3d 65 70 27 be f4 dc b6 be 03 9f 94 be
       0.041243497 -0.16351469 -0.3571545 -0.29027566
000070 72 42 17 3e d3 f4 73 3e b4 ad cf be 7b 36 0b bf
       0.1477144 0.23823862 -0.40562212 -0.54380006

l_lstm.bias_hh_l1 f4 [32]
000000 9a 42 93 bf aa 8b 5b be 70 85 4d bf a2 7c 26 bf
       -1.15047 -0.21439996 -0.80281734 -0.65033925
000010 54 8f 17 bf 07 ac 44 bf f4 4f 1d bf a1 4e 11 bf
       -0.59203076 -0.7682499 -0.61450124 -0.56760603
000020 a0 19 81 3f c4 b5 6a be 84 36 19 3f 2a 68 78 3e
       1.0085945 -0.229209 0.5984881 0.24258485
000030 9a d5 42 bf 0e 92 86 bd d4 8a cf bd 79 af 9a 3e
       -0.7610718 -0.065708265 -0.10133901 0.30212
000040 69 99 75 bd 90 62 8d be 40 02 7a be f3 cf 87 be
       -0.059960756 -0.2761426 -0.24414921 -0.2652584
000050 5e b3 07 be 0b 3b 51 be 14 6d 04 3e 17 61 02 3c
       -0.13252017 -0.2043268 0.12932235 0.007957718
000060 22 8a 2c 3f 5c f1 13 bf f1 72 71 be 82 6c 19 bf
       0.67398274 -0.5779016 -0.23579003 -0.59931195
000070 ca c3 8c 3e c6 ec c0 3d 1c dc d8 be 4c d9 4e be
       0.27493125 0.09420161 -0.4235543 -0.2020008

l_linear.weight f4 [1, 8]
000000 8b 38 91 3e 36 91 8b 3e 7a ca 95 be a9 d7 a4 3e
       0.2836345 0.27259225 -0.2925604 0.32195786
000010 11 71 8b 3e 48 10 ad 3e 77 99 a6 be 06 92 fe 3e
       0.272347 0.33801484 -0.3253896 0.49720782
