citylearn/data/datasets/ca_alameda_county_neighborhood/resstock-amy2018-2021-release-1-508005.pth (torch, 8966 bytes, 9 tensors)

l_lstm.weight_ih_l0 f4 [32, 13]
0	0x403f673c	2.990676
1	0x3fb983ed	1.4493386
2	0x3dd626e7	0.10456639
3	0x3dcba332	0.099432364
4	0xbf357dc1	-0.7089501
5	0xbea9f56d	-0.33195058
6	0x41211ca5	10.069493
7	0x41162e2c	9.386272
8	0x3fbf6ff7	1.4956044
9	0x3ef35f50	0.47533655
10	0x3e533702	0.20626453
11	0xbe6bc6f7	-0.23025118
12	0x3fbaf712	1.460665
13	0xbed82dbb	-0.4222239
14	0xbf89e585	-1.0773169
15	0x3da6ce22	0.081447855
16	0xbd94f55a	-0.072733596
17	0xbf23f702	-0.6404878
18	0x3f4bbeee	0.7958821
19	0xc036e85b	-2.8579319
20	0x405abea4	3.4178858
21	0xbeb07f7d	-0.34472266
22	0x3f5cfbe6	0.86321867
23	0x3ec48dac	0.38389337
24	0x3eaab29c	0.33339393
25	0xbf24a255	-0.643102
26	0x3f136780	0.57579803
27	0x3e2c02fe	0.16798016
28	0xbe4ac1bc	-0.19800466
29	0x3eafbad5	0.3432223
30	0xbe7d6aec	-0.24747819
31	0xbf0706f7	-0.52745
32	0x40000573	2.0003326
33	0x3ff801d5	1.9375559
34	0xbf33d28c	-0.70243144
35	0xbe284059	-0.16430797
36	0x3f49018b	0.7851798
37	0x3dcec426	0.10096006
38	0x3fc80004	1.5625005
39	0x3de355ab	0.11100324
40	0xbe2d71d5	-0.16937955
41	0xbd78fa39	-0.060785506
42	0x3c907b7e	0.01763701
43	0xbe935784	-0.28777707
44	0x3f0b441d	0.5440081
45	0xbfd62274	-1.6729264
46	0xc06bb43c	-3.6828756
47	0xbe371a17	-0.17881046
48	0x3faebca0	1.3651314
49	0x3f8b5f11	1.0888387
50	0xbdbe076e	-0.09278761
51	0xbfb0f452	-1.3824561
52	0xbf1c5a5b	-0.6107537
53	0xbfa25bae	-1.2684228
54	0xbdf2eeb5	-0.11861936
55	0x3c76eb8d	0.015070808
56	0x3ed2ed25	0.41196552
57	0x3e523f5a	0.20531979
58	0xbf93e655	-1.1554667
59	0x3fbd3b59	1.4783736
60	0x3f89d40d	1.0767838
61	0xbf84dcaa	-1.0379841
62	0xbfd30780	-1.6486664
63	0x3f94bcfb	1.1620172
64	0xbfd3992f	-1.6531123
65	0x3dd479e3	0.103748105
66	0x3f3ddf68	0.74169016
67	0x3eb0715c	0.34461486
68	0x3c90f08f	0.017692832
69	0xc02357b6	-2.5522285
70	0x400e7583	2.2259223
71	0x40ad1663	5.4089828
72	0xbff8cbc0	-1.943718
73	0xbf041013	-0.5158703
74	0xbf016410	-0.5054331
75	0xbff42eb5	-1.9076754
76	0x3e704013	0.23461942
77	0xbe6379e3	-0.22214465
78	0x3fa85aab	1.315267
79	0x3f301041	0.687748
80	0x3df2dc27	0.11858397
81	0x3ec2ae2d	0.3802351
82	0xbf0209a6	-0.5079597
83	0x405bb922	3.4331746
84	0xbf3c2953	-0.73500556
85	0xc111a628	-9.1030655
86	0xbfbc597e	-1.4714811
87	0x3ea70909	0.3262408
88	0xbeca1111	-0.39466146
89	0x3ebe8c56	0.37216443
90	0xbfc2a213	-1.5205711
91	0xbfb4b567	-1.411786
92	0xbf27af40	-0.65501785
93	0xbec0dfcc	-0.37670743
94	0x3e6f3702	0.23360828
95	0xbef4159c	-0.47672737
96	0x3fde2956	1.7356365
97	0xc030c90c	-2.762271
98	0x405187b9	3.2739089
99	0xbf91ebcd	-1.1400086
100	0xbf985c73	-1.1903213
101	0x3e8558a6	0.26044196
102	0xbcec42e6	-0.028840493
103	0xbf8f51b6	-1.1196811
104	0xbcbb4b33	-0.022863006
105	0xbe1bd600	-0.15218353
106	0x3ac7aa0c	0.0015233173
107	0xbe07a482	-0.13246349
108	0x3d7070b5	0.058701236
109	0xbf85a710	-1.0441608
110	0xc0c79ef0	-6.2381516
111	0xc0e08ffb	-7.0175757
112	0xbf72a551	-0.947835
113	0xbf93d35d	-1.1548878
114	0xbf403b3f	-0.750904
115	0xbb894a12	-0.004189738
116	0x3e3e5ea2	0.18590787
117	0xbf0c2cb1	-0.54755694
118	0x3f8fa0fe	1.1221006
119	0x3e0511ad	0.12995024
120	0xbe4141a6	-0.18872699
121	0x3fe9f346	1.8277366
122	0x3f4884d2	0.7832767
123	0xc01ff8fe	-2.4995723
124	0xbeeb48a2	-0.45953852
125	0xbf819eff	-1.0126647
126	0xc008be74	-2.1366243
127	0x3faf24af	1.368307
128	0xbea54c0c	-0.32284582
129	0xbc2ca85d	-0.010538188
130	0xbf47b508	-0.78010607
131	0xbf362071	-0.7114325
132	0xbf020ccb	-0.5080077
133	0x3e82e6c6	0.2556669
134	0xbe1a47d0	-0.15066457
135	0x3f155387	0.5833058
136	0xc17d2e61	-15.823823
137	0xc0310445	-2.7658856
138	0xbf0bf993	-0.54677695
139	0x3f4af517	0.7928023
140	0x3f3bc573	0.7334816
141	0x3e661891	0.22470309
142	0xc075fad9	-3.8434355
143	0x3fc36edf	1.526821
144	0x3f8551a9	1.0415546
145	0x3db4113a	0.08792348
146	0x3e3af00d	0.18255635
147	0xbe37af3c	-0.1793794
148	0xbe633a29	-0.22190155
149	0xc15f5204	-13.957523
150	0x40213870	2.5190697
151	0xbffc45da	-1.9708817
152	0xc05b124e	-3.4229922
153	0x3ed2b7eb	0.41155943
154	0xbf609e72	-0.8774177
155	0xbfdae216	-1.7100246
156	0x3e88b98f	0.2670407
157	0x3f449231	0.7678557
158	0xbe6fd65f	-0.2342162
159	0xbf850582	-1.0392306
160	0xbe06e573	-0.13173465
161	0x3fd72937	1.6809453
162	0xc022847c	-2.5393362
163	0x3fbd071d	1.4767796
164	0x3eb2b608	0.34904504
165	0x3f9fc808	1.248292
166	0xbed2a7e5	-0.41143718
167	0xbf65b476	-0.89728487
168	0xbe49e512	-0.1971629
169	0xbf442cc7	-0.76630825
170	0x3fabff84	1.3437352
171	0x3dbf50d1	0.093415864
172	0x3e401b4b	0.18760411
173	0xc0236ba4	-2.5534449
174	0x3e91d063	0.284793
175	0xc016a4ad	-2.353801
176	0xc02ccaf6	-2.6998878
177	0xc04ed02a	-3.2314553
178	0x4009e10f	2.1543615
179	0x3e527c06	0.20555124
180	0x3f1d5d31	0.61470324
181	0x3fd1472e	1.6349847
182	0x3e965276	0.29359788
183	0x400be7a3	2.186013
184	0xbe1f40a8	-0.15552008
185	0xbe6565fe	-0.22402188
186	0x400df4ce	2.2180667
187	0xc1076cf4	-8.4641
188	0xc0894c7b	-4.290586
189	0x3fa2e9de	1.2727621
190	0x3fd271d4	1.6440988
191	0x40fbf525	7.873675
192	0x3fb433eb	1.4078344
193	0x3dff7335	0.12473146
194	0x3f40cef6	0.753158
195	0x3f8d0bb3	1.1019195
196	0xc00704e6	-2.109674
197	0x3d67b3e6	0.05656805
198	0xbe874c19	-0.26425245
199	0x3f2b6a23	0.66958827
200	0x3fe3e34a	1.7803738
201	0x3feec741	1.8654557
202	0x3fa2b654	1.2711892
203	0xbfc1bf9c	-1.51366
204	0xbefe3a25	-0.49653736
205	0xbf166546	-0.5874828
206	0x3e92ae95	0.2864882
207	0xbfa21ea8	-1.2665606
208	0xbd797fed	-0.060913015
209	0xbd2ceeb0	-0.042219818
210	0x3a977641	0.0011555628
211	0xbb00057e	-0.0019534524
212	0xbc134e51	-0.00899084
213	0x3d977611	0.07395566
214	0xbfa13c33	-1.2596496
215	0x3f0a36bd	0.53989774
216	0x3d196077	0.03744551
217	0x3d22c964	0.039742842
218	0x3e21c54b	0.15797918
219	0x3cc43243	0.023949748
220	0x40185779	2.380339
221	0x3f2f31ad	0.68435174
222	0x3f154d07	0.5832066
223	0x3bc5cc4e	0.006036318
224	0xbcfe4c40	-0.031042218
225	0x3dcf0bd0	0.10109675
226	0x3eea8bd0	0.45809793
227	0x404eb30e	3.2296786
228	0xc04dc3cf	-3.2150762
229	0xbf55e6e1	-0.8355542
230	0xbf3bf99b	-0.7342774
231	0xbf488085	-0.78321105
232	0x3e0746ae	0.13210556
233	0xbfe13d13	-1.7596763
234	0xbe3d33d8	-0.18476808
235	0x3d396daa	0.0452706
236	0xbcac74cb	-0.021051785
237	0x3a82905b	0.0009961234
238	0xbf2c55ab	-0.6731822
239	0xbf1541c7	-0.58303493
240	0xc0775902	-3.8648076
241	0x410e8cdc	8.9093895
242	0xbe3c3e3e	-0.18383119
243	0xbe9689e8	-0.2940209
244	0x3e95905d	0.29211703
245	0x3e567eaa	0.20946756
246	0x3ec2f185	0.3807489
247	0x3e19f5fc	0.15035242
248	0x3bebcf20	0.007196322
249	0xbddaca73	-0.106831454
250	0x3c9f9620	0.019480765
251	0xbe01845c	-0.12648147
252	0xbeffa693	-0.49931774
253	0x40b0b5b9	5.522183
254	0xc08544f0	-4.164665
255	0xbe22d446	-0.15901288

l_lstm.weight_hh_l0 f4 [32, 8]
0	0x3f031cee	0.5121602
1	0x3f1b9687	0.6077656
2	0x405f3eff	3.48822
3	0x3ffae521	1.9601175
4	0xc0a87b74	-5.26507
5	0xbf71fdd4	-0.94527936
6	0xbfd92b56	-1.696635
7	0x3f2c5023	0.6730978
8	0x400ce9f7	2.20178
9	0xbfc07e9e	-1.503864
10	0x3f95305d	1.1655384
11	0xbff6cfa3	-1.9282116
12	0xbe9ec989	-0.31013134
13	0xbf9cd92a	-1.2253773
14	0xbebd0b89	-0.36922863
15	0x3f644469	0.89166886
16	0xbe1d1bd4	-0.15342647
17	0xbeccc5d7	-0.3999469
18	0x3fd3ecd5	1.655665
19	0xc09dd72b	-4.9325156
20	0x4099fce7	4.812122
21	0xbf4b3d3e	-0.79390323
22	0xc03a3e32	-2.910046
23	0xbff5dd94	-1.9208245
24	0x400e9e7b	2.2284229
25	0xbfbe3e47	-1.4862756
26	0xbfdef82c	-1.7419486
27	0x3f3cfca2	0.7382299
28	0x400c6359	2.1935637
29	0xc000101d	-2.0009835
30	0x400e79d9	2.226187
31	0x3fe790c6	1.8091056
32	0xbfe3b2ea	-1.7788975
33	0xbf30aa55	-0.69009906
34	0x402567ea	2.5844674
35	0x3f3cbbb3	0.73723906
36	0xbe6ba713	-0.23012953
37	0x3f8cceb0	1.1000576
38	0x3db02157	0.08600109
39	0x3e84212a	0.25806552
40	0xc006b755	-2.1049397
41	0x405c6f4b	3.4442928
42	0xc0619f80	-3.52536
43	0x3fd33132	1.6499388
44	0xbfaaad2e	-1.33341
45	0x3ffb695e	1.964153
46	0x3f009be9	0.502379
47	0xbef0d565	-0.47037807
48	0xbfdf20a9	-1.7431842
49	0x3fdd7a91	1.7303029
50	0xc038b41b	-2.8859928
51	0xc0136dcc	-2.3035765
52	0x408054e1	4.010361
53	0x3fbb0e03	1.4613651
54	0xc039ef5a	-2.9052339
55	0xbfbc3672	-1.4704115
56	0xbdb3fa16	-0.087879345
57	0xbf9dca4c	-1.2327361
58	0x4001b531	2.026684
59	0xbff9697d	-1.9485317
60	0x3f8a80ea	1.0820591
61	0x40466a4f	3.1002386
62	0x3fd72188	1.6807108
63	0xbf09824a	-0.5371443
64	0xbd6fc2d8	-0.058535427
65	0xbf67adc8	-0.90499544
66	0x3f1debce	0.61687934
67	0xc0136f03	-2.3036506
68	0x3fff378f	1.993883
69	0xc0118f12	-2.2743573
70	0xbf901c1d	-1.125858
71	0x3eb54eb0	0.35411596
72	0xbf9b3922	-1.212681
73	0xbf771c31	-0.9652739
74	0x4023b7ae	2.558086
75	0x40161a5a	2.3453584
76	0x3f12e2e5	0.57377464
77	0xbff3cead	-1.9047447
78	0x3ff17d22	1.8866313
79	0xbe05b3a6	-0.13056812
80	0xc025afdf	-2.5888593
81	0x405e0436	3.469007
82	0x3f248331	0.6426268
83	0x409eebe8	4.966297
84	0x3f8e8841	1.1135331
85	0x3ff3d1b6	1.9048374
86	0xc0c2c38b	-6.08637
87	0x3efaec03	0.49008188
88	0x3f167b94	0.58782315
89	0x3fd9b34f	1.7007846
90	0x40465bbd	3.0993493
91	0xbf454e68	-0.77072763
92	0x3fc11683	1.5084995
93	0xbfa8208a	-1.313493
94	0x40aa1933	5.315576
95	0x3eab08b4	0.33405077
96	0xbf111c67	-0.56683964
97	0xbf245641	-0.64194113
98	0xc056f981	-3.3589785
99	0xbf97c5aa	-1.1857197
100	0x3ef8fcd1	0.48630384
101	0x3e5ce7e9	0.21572842
102	0x4022f7fe	2.5463862
103	0xbfc28ff9	-1.5200187
104	0x4014f543	2.3274696
105	0xbef31c43	-0.474825
106	0x409023db	4.504377
107	0x3dd51257	0.10403889
108	0xbee32112	-0.44361168
109	0x3f465b29	0.7748285
110	0x40b590f6	5.6739454
111	0x3de13498	0.109963596
112	0xbfa3bc61	-1.2791864
113	0xbf9bf0d5	-1.2182871
114	0x3fa140e1	1.2597924
115	0x3fcd8dc9	1.6058894
116	0x3ef3c433	0.47610626
117	0xc038bb55	-2.8864338
118	0xbf0337bc	-0.5125692
119	0xbf9a15f1	-1.2037946
120	0x3fa9ef6b	1.327619
121	0xbf77615b	-0.9663293
122	0x3da7d6a7	0.081952386
123	0xc005f8eb	-2.0933177
124	0x3f8719ff	1.0554808
125	0x4035b64e	2.839252
126	0x3d8c7a4f	0.06859266
127	0xbf49ddd7	-0.78854126
128	0xbec9b9c8	-0.39399552
129	0x3ecc5951	0.39911893
130	0xbeca7a22	-0.39546305
131	0x3e4b3fc0	0.19848537
132	0x3e5b4000	0.21411133
133	0xbc8d5a41	-0.01725495
134	0xbef6ea82	-0.4822579
135	0x3f1824db	0.59431237
136	0xbf481429	-0.7815576
137	0xbf8790af	-1.0591029
138	0x3eae4d4e	0.34043354
139	0x3f12990a	0.5726477
140	0xbf5dff46	-0.8671764
141	0x3fc39855	1.5280863
142	0x3f537ad0	0.8260927
143	0xbf09ad73	-0.5378029
144	0x3e5bb631	0.2145622
145	0x3f6915a3	0.9104864
146	0xbf2f92bf	-0.6858329
147	0x3bbd00e9	0.0057679308
148	0xbfe95547	-1.822915
149	0xb9766a18	-0.00023499911
150	0xbf9ca2bc	-1.2237163
151	0xbff2b533	-1.8961548
152	0xbde2a3a9	-0.11066372
153	0x3eef6394	0.4675566
154	0xbf29211e	-0.6606616
155	0x3edb9172	0.42884403
156	0xbfa81064	-1.3130002
157	0x3de011be	0.10940884
158	0x3dd2272c	0.10261378
159	0x3e7cd0dc	0.24689049
160	0x3f06c008	0.52636766
161	0xbf41433b	-0.7549321
162	0xbcbea9ee	-0.023274388
163	0x40726622	3.7874837
164	0xc000e6c5	-2.014085
165	0xbf79ef7a	-0.9763104
166	0xc07a729c	-3.9132452
167	0x3e80f988	0.25190377
168	0xbea6914b	-0.32532725
169	0xbf550d64	-0.8322356
170	0xbf063d77	-0.5243754
171	0xbfbb1264	-1.4614987
172	0xbf79241b	-0.9732072
173	0xbff9239d	-1.9463993
174	0xbc433337	-0.011914066
175	0xbebf2167	-0.3733017
176	0x3eb6115d	0.35560122
177	0x40766038	3.8496227
178	0x3f35877d	0.70909864
179	0x4001bad2	2.0270276
180	0x3fcfe170	1.6240673
181	0x3f859c22	1.0438273
182	0xc012475a	-2.285605
183	0xbfbe5aa0	-1.4871407
184	0xbfc2c37d	-1.5215908
185	0x3eda57b0	0.42645025
186	0xbf31109c	-0.6916597
187	0x3f54e7da	0.8316628
188	0x40c208d0	6.0635757
189	0xc0a8aeee	-5.2713537
190	0xc02b4ff9	-2.6767561
191	0x3f1278f4	0.5721581
192	0xbe59d52f	-0.2127273
193	0xbede47db	-0.43414196
194	0xbfe5e943	-1.7961811
195	0xbfa2dd08	-1.2723703
196	0xc0124606	-2.285524
197	0xbfbca5ce	-1.47381
198	0x3f7262dc	0.946821
199	0xbf2017c6	-0.62536275
200	0x3f1e9cd1	0.6195803
201	0x3f6219ff	0.88320917
202	0xbf8eb5f5	-1.1149279
203	0x3f325030	0.69653606
204	0x3e6ef9d8	0.23337495
205	0x4041630b	3.02167
206	0xc0108765	-2.2582638
207	0x405ad72d	3.4193833
208	0x3faee795	1.3664423
209	0x3fa034ae	1.2516077
210	0xc042334b	-3.0343807
211	0x3ffc640e	1.9718034
212	0xbe7bf7d4	-0.24606258
213	0x3efbfea9	0.49217728
214	0xbffed75c	-1.9909472
215	0x3ffff81a	1.999759
216	0x3f79d7a9	0.97594696
217	0xbff29038	-1.8950262
218	0xbf4c73f4	-0.7986443
219	0x3f3e1d40	0.7426338
220	0x3fb16c91	1.3861257
221	0x4013ab17	2.3073175
222	0x3fe3d73d	1.780006
223	0x3f4d4f78	0.80199385
224	0x3f0ea6c5	0.5572322
225	0xbeb25849	-0.3483298
226	0xc026f56d	-2.6087296
227	0xbcf58b79	-0.029973732
228	0x3fb9a827	1.4504441
229	0xbe3953ab	-0.18098323
230	0xc0234a90	-2.551426
231	0xbe8b7e8d	-0.27244988
232	0xbdfdb782	-0.12388517
233	0x3f2790eb	0.654555
234	0xbcbd4a15	-0.023106614
235	0xbf6f6d4a	-0.93526137
236	0xc02107f3	-2.5161102
237	0xbd2d9b93	-0.042384695
238	0x406b15ed	3.6732132
239	0xbe5e1990	-0.21689439
240	0x3ee44782	0.44585806
241	0xbe5684f3	-0.20949154
242	0x3d5ee7f1	0.054420415
243	0xbf123d19	-0.5712448
244	0xbfb330d5	-1.3999277
245	0xbf1b2e1f	-0.6061725
246	0x3ea94054	0.3305689
247	0x3f3fc20f	0.74905485
248	0xbd46b301	-0.048510555
249	0x3e1cd702	0.15316394
250	0x3f9f2d39	1.2435676
251	0x3f05e45a	0.5230156
252	0x3f2d0264	0.6758177
253	0x3f834293	1.0254692
254	0xbf23ba44	-0.63956094
255	0xbdaed52c	-0.08536753

l_lstm.bias_ih_l0 f4 [32]
0	0x3f1d5cdb	0.6146981
1	0xbe54becb	-0.20775907
2	0xbee57e42	-0.4482289
3	0xbf0cacec	-0.5495136
4	0xbee129a6	-0.43977088
5	0x3d45dc77	0.048305955
6	0x3eaaeac4	0.33382237
7	0x3ee2708f	0.442265
8	0xbecda838	-0.40167403
9	0x3ebaf0b5	0.3651177
10	0x3e385081	0.1799946
11	0xbe3a10e5	-0.18170507
12	0x3f72535f	0.94658464
13	0xbd84084d	-0.06446896
14	0x3f0f4ca5	0.55976325
15	0x3f8a5c38	1.0809393
16	0xbe9ce79d	-0.30645457
17	0x3e9b0333	0.30275878
18	0xbeb9facf	-0.36324164
19	0xbe274706	-0.16335687
20	0xbf11d0b0	-0.56959057
21	0x3bc249a0	0.005929187
22	0x3f5dc6fa	0.8663174
23	0x3e49f53b	0.19722454
24	0x3f8bacdc	1.0912127
25	0xbe12e961	-0.1434684
26	0x3c9f8250	0.019471318
27	0xbd93ad8e	-0.07210837
28	0xbd02a829	-0.03189865
29	0x3c485226	0.012226617
30	0xbe6d9114	-0.23199874
31	0x3e0f5f12	0.1400111

l_lstm.bias_hh_l0 f4 [32]
0	0x3f28e437	0.6597323
1	0xbf664498	-0.89948416
2	0xbf023717	-0.5086531
3	0xbe699eac	-0.22814435
4	0xbe6b9dca	-0.2300941
5	0xbbfb41c8	-0.007667754
6	0x3d148a94	0.03626497
7	0x3f102faf	0.5632276
8	0xbef69a29	-0.4816449
9	0x3edb4f2e	0.42833847
10	0x3ecb66c9	0.39726856
11	0x3d9e2880	0.077225685
12	0x3f960222	1.1719401
13	0xbebdcb58	-0.370692
14	0x3e17351a	0.1476635
15	0x3f9093a1	1.1295053
16	0xbf39c80e	-0.72570884
17	0x3e8bf455	0.27334848
18	0x3cc91ad0	0.024548918
19	0xbf4737de	-0.7781962
20	0xbf1fdedf	-0.6244945
21	0xbe31afd0	-0.17352223
22	0x3ea98a2a	0.33113223
23	0x3e05b3ef	0.1305692
24	0x3fcd3f39	1.6034919
25	0x3e99a591	0.3000913
26	0xbd1a6ee5	-0.037703414
27	0xbe3dd44f	-0.1853802
28	0x3dcbb995	0.09947506
29	0xbe381267	-0.1797577
30	0xbe907641	-0.2821522
31	0x3e1c7126	0.15277538

l_lstm.weight_ih_l1 f4 [32, 8]
0	0xc02b0f5f	-2.6728132
1	0xbfb4dc0a	-1.412965
2	0x40120dc7	2.282091
3	0xc0ba91bc	-5.83029
4	0xbf6dca05	-0.9288638
5	0xbe4dba4a	-0.20090595
6	0x3fb2f766	1.398175
7	0x3f89fd76	1.0780475
8	0x3f08e044	0.534672
9	0x3e0779ae	0.13230011
10	0x3f0aa831	0.5416289
11	0x3e8baf6e	0.2728228
12	0xbf9b8723	-1.2150615
13	0x3f2ad1eb	0.6672656
14	0x3f702cd8	0.93818426
15	0x3f06d44e	0.526677
16	0x3f66bca0	0.9013157
17	0x3f595a22	0.84903157
18	0xbfe40e04	-1.7816777
19	0x3e1d3077	0.15350519
20	0xc032712b	-2.7881572
21	0xbfe2fbc7	-1.7733086
22	0x3f0e8a70	0.5567999
23	0x3f954964	1.1663022
24	0x3f5634a4	0.83674073
25	0xbf94819e	-1.1602056
26	0x3f2799fd	0.6546934
27	0x3f816fc4	1.0112233
28	0xbf2d5949	-0.67714363
29	0x3f3a802a	0.7285181
30	0x3f93186c	1.1491828
31	0x3f70c889	0.9405599
32	0x3d9114e6	0.07084064
33	0xbf8776bf	-1.0583113
34	0xbefd4439	-0.49466112
35	0x3f7747da	0.9659401
36	0xbf1cc479	-0.61237293
37	0x3f88a8a8	1.067647
38	0x3d1468cc	0.036232755
39	0xbdc4c949	-0.096087046
40	0xbff0abb9	-1.8802406
41	0x3f60115a	0.87526476
42	0x3f812277	1.0088643
43	0xc062283b	-3.5337055
44	0x3c3a2fc8	0.011363931
45	0x3ea5df0c	0.32396734
46	0x3f9d2c00	1.2279053
47	0xbe5879d2	-0.21140221
48	0xbfb1df2a	-1.3896229
49	0xbf3a3298	-0.7273345
50	0xbfe21c3d	-1.7664868
51	0x3e6304ff	0.22169875
52	0xbee5b0d5	-0.44861475
53	0x3f241dc3	0.6410791
54	0xbf29b290	-0.6628809
55	0x3f80b482	1.0055087
56	0xbf436589	-0.76326805
57	0xbee7b764	-0.45257103
58	0xbf5501c8	-0.8320584
59	0xbeb543bf	-0.3540325
60	0xbfc5d988	-1.545701
61	0xbde01a5e	-0.10942529
62	0xbe7e8d7e	-0.24858662
63	0x3fabc25b	1.3418688
64	0xc0b28a06	-5.5793486
65	0x3f9ea4ce	1.2394044
66	0xc04c725e	-3.1944804
67	0xbfaa608c	-1.3310714
68	0x3f276520	0.6538868
69	0xbee364fb	-0.4441298
70	0xc012d88e	-2.2944674
71	0x3f7e5f91	0.9936457
72	0x3fbe3686	1.4860389
73	0x3f626904	0.8844149
74	0xbf4a9fbe	-0.7915
75	0xbe8d065c	-0.27543914
76	0x401e31a7	2.4717805
77	0xbf736c61	-0.9508725
78	0x3bba74e8	0.005690206
79	0x3ea1043a	0.31448537
80	0x40972600	4.7233887
81	0xbe14fd64	-0.14549786
82	0x3f67561f	0.90365785
83	0xbf3cb299	-0.7371002
84	0x401bb382	2.4328313
85	0x3fcce255	1.6006571
86	0xbfad8f04	-1.355927
87	0x3e8d7bbe	0.2763347
88	0xbf88994e	-1.0671785
89	0xbd3ec973	-0.046578836
90	0xc00216f0	-2.03265
91	0xbfef3a19	-1.8689605
92	0x3f9a78aa	1.2068074
93	0x3f381243	0.71902865
94	0x3f0581bc	0.52151084
95	0xbf3b8491	-0.73249155
96	0x400ccefd	2.2001336
97	0x3e77e923	0.24210028
98	0xbfee6266	-1.8623779
99	0xbf9654c4	-1.1744618
100	0x407f1754	3.9857988
101	0xbf4d3af1	-0.8016806
102	0xc040614a	-3.005938
103	0x3dbf6aa0	0.09346509
104	0xc0804ce8	-4.009388
105	0x3ff8e85d	1.9445912
106	0xc0373544	-2.862626
107	0x3d22f644	0.03978564
108	0xbf9732ed	-1.1812416
109	0xbf8e2c41	-1.1107255
110	0xbfc7fcbf	-1.5624007
111	0x3f508b50	0.81462574
112	0xbf6912fa	-0.9104458
113	0x3f3ef690	0.74594975
114	0x40829af9	4.0814176
115	0xbf2c06ae	-0.6719769
116	0x3e7e8f6c	0.24859399
117	0x3f537a80	0.82608795
118	0x3d3170f5	0.043320615
119	0xbf8fec89	-1.124406
120	0x3fafb88d	1.3728195
121	0x3f52c095	0.82325107
122	0x3ed07680	0.40715408
123	0x3e0b550a	0.13606659
124	0x3f7228cb	0.94593495
125	0xbee343e0	-0.44387722
126	0x3fe2c936	1.7717655
127	0x3d196ee5	0.037459273
128	0xbfefe376	-1.874129
129	0x3f5f0b1e	0.8712634
130	0xbfaff6f2	-1.3747237
131	0xbc02ebd0	-0.007990792
132	0xbf1266f1	-0.57188326
133	0xbee106d3	-0.4395052
134	0x3d00b832	0.031425662
135	0x3d5c3e25	0.053770203
136	0x3fae1bcd	1.3602234
137	0xbf3a8906	-0.7286533
138	0x3f7aeeae	0.98020446
139	0x3e6c31ce	0.23065874
140	0xbdc16a9a	-0.09444161
141	0x3eb5adb2	0.35484082
142	0xbd05ff03	-0.0327139
143	0xbe0ef0f2	-0.13959101
144	0x3f9fcad5	1.2483774
145	0xbf49fbfc	-0.7890012
146	0x3dc7bb2d	0.09752498
147	0xbf913222	-1.1343424
148	0x3de18030	0.11010778
149	0xbda76ada	-0.08174677
150	0x3fae3298	1.360919
151	0xbf8322de	-1.0245016
152	0xbfd3bf07	-1.6542672
153	0x3f9ef3b6	1.2418125
154	0xbf84fefa	-1.0390313
155	0xbef26d25	-0.47348896
156	0x3ee4ddd7	0.447005
157	0xbe1c2af5	-0.15250762
158	0xbec7303d	-0.3890399
159	0xbe95b6fb	-0.29241166
160	0x3f8abe1a	1.0839264
161	0xbf75bd68	-0.95992136
162	0x3f6a8bc6	0.9161953
163	0xbf05a7cb	-0.52209157
164	0xbf771a15	-0.96524173
165	0x3f2bcb36	0.6710695
166	0x3f23572e	0.638049
167	0xbc23f301	-0.010006667
168	0x3f1a0a13	0.6017162
169	0xbf9099da	-1.1296952
170	0x40042876	2.0649695
171	0x3f82a15f	1.0205497
172	0xbf42a825	-0.7603782
173	0x3f58ffb2	0.8476516
174	0xbef97ff9	-0.48730448
175	0x3ec4ce13	0.38438472
176	0x3fc1b236	1.5132511
177	0xbf779376	-0.9670938
178	0x3dd2e2dc	0.10297176
179	0xbf4208ae	-0.75794494
180	0x3ea92e7a	0.3304327
181	0x3e9696a2	0.294118
182	0x3fd4f487	1.6637124
183	0xbf5259bf	-0.8216819
184	0x3ff8d667	1.944043
185	0xbf1222f5	-0.5708459
186	0x3f10dbb1	0.5658522
187	0x3def481c	0.11683676
188	0x3f877bc9	1.0584651
189	0x3f404051	0.7509814
190	0x3e9e8637	0.30961773
191	0x3f0dd5e0	0.5540447
192	0xbf86b34d	-1.0523468
193	0xbebf81fe	-0.37403864
194	0xbf8161ea	-1.0108006
195	0x40cab317	6.3343616
196	0xc059ce8a	-3.4032311
197	0x4001decb	2.0292232
198	0x400d6ddd	2.2098305
199	0x3f3a3ccf	0.72749037
200	0x3f90dbaa	1.1317036
201	0x3dc45aaa	0.09587605
202	0xbe615787	-0.22006045
203	0x3f8a5cdc	1.0809588
204	0xbf5847c0	-0.8448448
205	0x3d4e1b07	0.050318744
206	0x3e6554ff	0.22395705
207	0x3e45ab84	0.1930371
208	0x3f77196e	0.9652318
209	0x3f32c107	0.69825786
210	0xbfabdc8b	-1.3426679
211	0x4081a9a7	4.0519595
212	0xbf9bf076	-1.2182758
213	0xbfff12d4	-1.9927621
214	0xbf6faa13	-0.9361889
215	0x3e4085e0	0.1880107
216	0x3fab7d3a	1.3397591
217	0x3f32019a	0.69533694
218	0x4003b8b5	2.0581486
219	0x3e8e25c6	0.27763194
220	0x3e4cd3f6	0.20002732
221	0x3ea5e396	0.32400197
222	0x3ef19441	0.4718342
223	0x3f112fd1	0.5671359
224	0x3f404364	0.7510283
225	0x3f05b191	0.5222407
226	0xbee77949	-0.4520972
227	0x3f5a72d0	0.8533144
228	0x3f9e9b7f	1.2391204
229	0xbec27a27	-0.3798382
230	0xbf8f7166	-1.1206481
231	0x3e5b5be9	0.2142178
232	0xc00566a7	-2.0843904
233	0xbeda51cb	-0.42640528
234	0xbf647809	-0.8924566
235	0x3fc144f2	1.5099165
236	0xbdfa3db9	-0.12218804
237	0x3f5abdc5	0.85445815
238	0xbef949e5	-0.4868919
239	0xbeda7498	-0.4266708
240	0xbf779da3	-0.9672491
241	0x3f23e36c	0.64018893
242	0xbfd40bd4	-1.656611
243	0x3efb4422	0.4907542
244	0x3e9cbf6d	0.30614796
245	0xbe970749	-0.29497746
246	0xbfef50ff	-1.8696593
247	0x3ee96575	0.45585218
248	0x3dc61dfb	0.09673687
249	0x3c2b109c	0.010440972
250	0xbefe464d	-0.4966301
251	0x3eeb64af	0.45975253
252	0xbf0a1ab5	-0.53947
253	0xbe28cb05	-0.16483696
254	0x3fc70cfe	1.555084
255	0x3f3269c4	0.69692636

l_lstm.weight_hh_l1 f4 [32, 8]
0	0xc045369f	-3.0814588
1	0x3fbb911e	1.4653661
2	0x408ee324	4.465227
3	0x3f096bf3	0.5368034
4	0x3fba36b2	1.4547942
5	0xbfcd5fbb	-1.604484
6	0x3ff72343	1.9307636
7	0x402051cd	2.5049927
8	0xbfcf98a6	-1.621846
9	0xbe7cd533	-0.24690704
10	0x3f6eda8a	0.93302214
11	0xbf00c7d7	-0.5030493
12	0xbf00e7f7	-0.5035395
13	0xbfa54345	-1.2911154
14	0xbf77ac4f	-0.967473
15	0x3e958932	0.29206234
16	0xbfb458fd	-1.4089657
17	0xbf612043	-0.8793985
18	0x3f63d9ae	0.8900403
19	0x3ff48b14	1.9104943
20	0xbf8c8a6f	-1.0979747
21	0xc023dc8e	-2.5603366
22	0xbfaa8d14	-1.3324304
23	0x3f99fd10	1.2030354
24	0xbe5b35fd	-0.21407314
25	0x3ed11a0f	0.40840194
26	0xbf18ab89	-0.5963674
27	0xbfe393c4	-1.777947
28	0xbeb003f0	-0.34378004
29	0xbfa95af7	-1.3230885
30	0xbe694043	-0.2277842
31	0x3ee3c43b	0.4448565
32	0xbf18bbee	-0.5966176
33	0xbdc2cb87	-0.09511476
34	0xbf727359	-0.94707257
35	0xbf4dfad1	-0.8046084
36	0x3e220dd2	0.15825585
37	0xbfbb8e2d	-1.4652764
38	0xbf2555fe	-0.6458434
39	0x3ab597be	0.0013854427
40	0x3f032bd8	0.51238775
41	0xbe538ff2	-0.2066038
42	0x3ff939b4	1.9470735
43	0x3f070540	0.52742386
44	0x3fb9051d	1.4454685
45	0xbf4242a4	-0.75882936
46	0x3f9dd5e0	1.2330894
47	0x3f0d622d	0.5522793
48	0xbf41a030	-0.7563505
49	0x3f8817a1	1.0632211
50	0x3ff615aa	1.9225361
51	0xbede46f1	-0.434135
52	0x3fc76ebd	1.558067
53	0xbd6227d1	-0.055213753
54	0x3fafa1dc	1.372127
55	0x3f1cc157	0.61232513
56	0xbf425e97	-0.7592558
57	0x3f854d9c	1.041431
58	0x3fc1bf35	1.5136477
59	0xbd40b0cd	-0.04704361
60	0x3f75f577	0.96077675
61	0xbf8fe3c9	-1.124139
62	0xbd9bdc58	-0.076103866
63	0x3f84da92	1.0379202
64	0xc022dcf6	-2.5447364
65	0x3ec55687	0.38542578
66	0xbfcc8b86	-1.5980079
67	0xbf04a155	-0.51808673
68	0x3ebe31ea	0.37147456
69	0x3f8ac589	1.0841533
70	0x3ea32e9f	0.31871507
71	0x3f5e608f	0.86866087
72	0x3f965909	1.1745921
73	0x3e36a8aa	0.17837778
74	0xbf01ad90	-0.5065546
75	0x3ef29600	0.47380066
76	0xbde89a0b	-0.11357506
77	0xbf7e8e9b	-0.9943635
78	0xbfe2deb5	-1.7724215
79	0xbf89716f	-1.0737742
80	0xbfc578b3	-1.542746
81	0x3f1a8d8f	0.6037225
82	0x402d8e93	2.711827
83	0x3f4bb03a	0.79565775
84	0xbfbbddd5	-1.4677073
85	0x3f1290f6	0.5725244
86	0xbf932d44	-1.1498189
87	0x3f2de584	0.6792834
88	0x3f8cce73	1.1000503
89	0xbdd7a180	-0.105288506
90	0xbfff1859	-1.9929305
91	0xbef103fc	-0.47073352
92	0xbf080f2b	-0.53148144
93	0xbfb0d5b1	-1.3815213
94	0xbfdf6afa	-1.7454522
95	0xbf5631cc	-0.83669734
96	0x3f20cce5	0.62812644
97	0xbf090b89	-0.53533226
98	0xc012a848	-2.291521
99	0xbdfb4650	-0.122692704
100	0x3e9b5087	0.30334875
101	0xbf26fa12	-0.65225327
102	0xbf715b47	-0.94279903
103	0xbeec7eeb	-0.4619058
104	0x3f711f0c	0.94188
105	0x3fb70c6f	1.430067
106	0x3ee8f366	0.45498198
107	0xbfac55d0	-1.3463688
108	0x3fea9446	1.83265
109	0x3ed28b20	0.4112177
110	0xbdc6d6e4	-0.09708956
111	0x3e34d196	0.17658076
112	0x3fb49513	1.4107994
113	0xbd023532	-0.031789012
114	0xbfa02195	-1.2510248
115	0xbf355458	-0.70831823
116	0x3d218034	0.039428905
117	0xba05b09e	-0.00050998654
118	0xbf1d1a8a	-0.6136862
119	0xbf174a78	-0.59098005
120	0x3ee4318f	0.4456906
121	0xbe746ae7	-0.23868905
122	0xbf40f751	-0.75377375
123	0x3ebf2265	0.37330928
124	0xbe918115	-0.28418794
125	0xbf8ca88e	-1.0988939
126	0xbf2f5797	-0.68493026
127	0xbe89d068	-0.26916814
128	0xc0158fda	-2.336905
129	0x3fb2df4d	1.3974396
130	0x3d5d2fad	0.054000545
131	0xbed01b6a	-0.40645915
132	0x3f9700c7	1.1797112
133	0x3f9b5dcb	1.2137998
134	0x3f99c013	1.2011741
135	0x3ef67949	0.48139408
136	0xbf9811e9	-1.1880466
137	0xbfb87ab4	-1.4412446
138	0xbf58b786	-0.84655035
139	0x3f699688	0.9124532
140	0xbf4ec4ee	-0.8076924
141	0x3d9d6fdd	0.07687352
142	0xbe1da2ab	-0.15394084
143	0x3f4991fc	0.7873838
144	0xbf50de3d	-0.8158911
145	0x3f4b974f	0.79527754
146	0xbff9e7f6	-1.9523914
147	0x3f42054d	0.7578934
148	0x3fba4d77	1.455489
149	0x3f59249d	0.8482149
150	0xbfce83df	-1.6133994
151	0x3eac95de	0.3370809
152	0x3edadef8	0.42748237
153	0x3fae1348	1.3599634
154	0x3f1dd75e	0.6165675
155	0x3dcad54d	0.09903965
156	0x3f5d1472	0.8635932
157	0x3f3c23dd	0.73492223
158	0x3e4fda70	0.20298171
159	0xbf92fdc8	-1.1483698
160	0x3d13f799	0.0361248
161	0x3f304805	0.68859893
162	0xbf638dd1	-0.8888827
163	0xbeb21819	-0.3478401
164	0xbf1ae9e9	-0.6051317
165	0x4003f420	2.0617752
166	0xbf51b0ae	-0.81910217
167	0x3fd952a1	1.6978341
168	0xbfbc58a3	-1.471455
169	0x3b0e909d	0.0021753677
170	0xbec4a513	-0.38407192
171	0x3f2b4610	0.6690378
172	0xbf5fe29f	-0.8745517
173	0xbebf0071	-0.37305024
174	0x3f20c830	0.6280546
175	0x4021c919	2.527899
176	0xbf51da4a	-0.8197371
177	0xbe453b6e	-0.19260952
178	0xbf222507	-0.6333775
179	0xbf5a6c0a	-0.85321105
180	0xbdecff4e	-0.11572133
181	0x3e158380	0.14600945
182	0xbfd4aaf3	-1.661467
183	0x3e12abfd	0.14323421
184	0xbed3ed30	-0.41391897
185	0xbfccc037	-1.5996159
186	0xbfc68bcc	-1.5511413
187	0x3f39e471	0.726142
188	0xbf6ef4c2	-0.9334222
189	0xbfcf1fbb	-1.6181558
190	0xbfd39608	-1.6530161
191	0xbf66feb1	-0.9023238
192	0x40b55cdb	5.667585
193	0x3f0229f3	0.5084526
194	0x3f100565	0.5625823
195	0xbfca6b0a	-1.5813916
196	0xbe7836a3	-0.24239592
197	0xc03e809e	-2.9766002
198	0xbfdc8d7b	-1.7230676
199	0xbe8c5298	-0.27406764
200	0xbe83fad9	-0.2577732
201	0xbee3cd3a	-0.44492513
202	0xbf2f54c6	-0.6848873
203	0xbd785577	-0.06062838
204	0xbf8e1ca4	-1.110249
205	0xbf31fedc	-0.6952951
206	0xbf478358	-0.7793479
207	0xbde16e50	-0.110073686
208	0xbec633da	-0.38711435
209	0x3f2b5f71	0.6694251
210	0x3f36c794	0.7139828
211	0xbed21f81	-0.4103966
212	0xbea962ce	-0.33083194
213	0x3fb24edf	1.393032
214	0xbfa15e58	-1.2606916
215	0x3fee4293	1.8614067
216	0xbf964096	-1.173846
217	0x3c88010d	0.016602064
218	0xbfbedb6b	-1.4910711
219	0xbf643265	-0.89139396
220	0xbfa71725	-1.3053938
221	0xbfa5c92a	-1.2952015
222	0xbfe1a475	-1.7628313
223	0xbeee2d2c	-0.46518838
224	0xbf525358	-0.8215842
225	0xbf812dbb	-1.0092081
226	0xbfe3f1c4	-1.7808156
227	0x3e20bc5b	0.15696852
228	0xbf50b856	-0.81531274
229	0xbfafc39f	-1.3731574
230	0xbef5e6a0	-0.48027515
231	0xbee3fafd	-0.44527426
232	0x3e27b91f	0.16379212
233	0x4008b62d	2.1361191
234	0x3fe307e1	1.773678
235	0xc0470b8f	-3.1100805
236	0x40513e4f	3.269428
237	0x3fa78227	1.3086594
238	0x3fa029e3	1.2512783
239	0x3fe6a82c	1.8020072
240	0x3f45f47c	0.7732618
241	0xbe477827	-0.19479428
242	0x3e0975ac	0.13423795
243	0x3ecb7655	0.39738718
244	0x3fa1d5e4	1.2643399
245	0x3ecc9f81	0.39965442
246	0x3fc3634a	1.5264676
247	0xba929c86	-0.0011185564
248	0xbe94316e	-0.28943962
249	0x3e99e3ff	0.3005676
250	0x3f7902c8	0.9726987
251	0x3e8807fa	0.26568586
252	0x3ec447a0	0.38335896
253	0xbf33e9e4	-0.70278764
254	0xbe719751	-0.23592879
255	0x3ed88d63	0.4229537

l_lstm.bias_ih_l1 f4 [32]
0	0xbe79337c	-0.24336046
1	0xbf08be1a	-0.5341507
2	0xbf4f3713	-0.8094341
3	0xbf4116e9	-0.75425583
4	0xbe351cfd	-0.1768684
5	0xbf47e80c	-0.7808845
6	0xbf283c77	-0.6571726
7	0xbeae5c83	-0.34054956
8	0xbf2d2575	-0.6763528
9	0x3e9e90ce	0.30969852
10	0xbfba056e	-1.4532907
11	0x3f1491e5	0.5803512
12	0xbd0e78a7	-0.03478303
13	0xbf709835	-0.9398225
14	0xbcfd48ae	-0.030918445
15	0x3e922eb3	0.28551254
16	0x3e1dd2ef	0.15412496
17	0xbd7a549f	-0.061115857
18	0xbbc93e05	-0.0061414265
19	0xbdb1247c	-0.08649537
20	0xbe87ddee	-0.26536506
21	0xbdbb825b	-0.09155723
22	0x3c93919b	0.018013766
23	0x3ddd9428	0.10819274
24	0x3ea02761	0.31280044
25	0xbe50d99f	-0.20395516
26	0x3f5acdf9	0.8547054
27	0xbf98f16e	-1.1948678
28	0xbf1ec8aa	-0.6202494
29	0xbebbf469	-0.36709908
30	0xbe461c1f	-0.19346665
31	0xbde3d656	-0.11124866

l_lstm.bias_hh_l1 f4 [32]
0	0xbeb0be0c	-0.34519994
1	0xbf92389c	-1.1423526
2	0xbf6640d2	-0.8994266
3	0xbeb9eabe	-0.36311907
4	0xbdcb61d0	-0.09930766
5	0xbe9ceda7	-0.30650064
6	0xbf30dc2d	-0.6908596
7	0xbf33d020	-0.7023945
8	0xbf68a09f	-0.9087009
9	0xbe7f7987	-0.24948703
10	0xbf55a83d	-0.83459836
11	0xbd53b960	-0.05169046
12	0xbeebb2b4	-0.46034777
13	0xbf331779	-0.6995769
14	0xbe29ff5c	-0.16601318
15	0x3ef3ce0f	0.47618148
16	0x3bfc0df1	0.0076920916
17	0xbcf49177	-0.02985452
18	0xbeacf9e0	-0.3378439
19	0x3e24cea5	0.16094454
20	0x3de751c3	0.11294892
21	0x3e4a9474	0.19783193
22	0xbe9544a8	-0.29153943
23	0xbe4be29e	-0.19910666
24	0x3e2008b2	0.15628317
25	0xbe3f2c72	-0.18669298
26	0x3f3614a8	0.7112527
27	0xbf1e6ab6	-0.6188158
28	0xbf6b4486	-0.91901433
29	0xbe3e06bc	-0.18557256
30	0xbf0c7c36	-0.5487703
31	0xbf272dcb	-0.6530425

l_linear.weight f4 [1, 8]
0	0xbe9645e7	-0.29350206
1	0x3eb45053	0.35217533
2	0x3e9a39ac	0.30122125
3	0xbedba1b4	-0.42896807
4	0x3ea93278	0.33046317
5	0x3eb73652	0.3578363
6	0x3ec9b3db	0.3939503
7	0x3ed0fcad	0.40817776
