citylearn/data/datasets/ca_alameda_county_neighborhood/resstock-amy2018-2021-release-1-38608.pth (torch, 8440 bytes, 9 tensors)

l_lstm.weight_ih_l0 f4 [32, 13]
0	0x3e3a919e	0.18219611
1	0xbd2f75ae	-0.042836837
2	0xbd38d49f	-0.045124646
3	0xbdad3531	-0.08457411
4	0x40054ea6	2.0829253
5	0x403ac06b	2.9179943
6	0x3f266f29	0.65013367
7	0x3fc50160	1.5391045
8	0xbe9d2ced	-0.30698338
9	0xbf28aeda	-0.658918
10	0x3ef2dbe8	0.474334
11	0x3d055d1b	0.032559495
12	0xc0153f0e	-2.3319736
13	0xbfaea340	-1.364357
14	0x3f18022b	0.5937831
15	0x3e743773	0.23849277
16	0xbebe808b	-0.37207446
17	0xbf9ea0ef	-1.2392863
18	0xbf47c322	-0.78032124
19	0xc01d8fe6	-2.4619079
20	0xbf684678	-0.90732527
21	0xbf8c3efb	-1.095672
22	0x3f534581	0.8252793
23	0x3f0ffafa	0.56242335
24	0xbf24f154	-0.6443074
25	0x3fded747	1.7409447
26	0xbf66d6d0	-0.9017153
27	0xbf5d2dd4	-0.86398053
28	0xbdc05264	-0.09390715
29	0xbe3d9083	-0.18512158
30	0xbe4bb3e4	-0.19892842
31	0xc00fb5a5	-2.2454617
32	0xc11517e8	-9.3183365
33	0x40c742e8	6.2269173
34	0x3fbab719	1.4587127
35	0x3ff4af10	1.9115925
36	0x3f0f5172	0.5598365
37	0x3f2c4c86	0.67304265
38	0xbf270852	-0.6524707
39	0xbe651179	-0.22369947
40	0x3f092cbf	0.535839
41	0xbdb03284	-0.08603385
42	0xbf0222a6	-0.5083412
43	0xbf149af5	-0.58048946
44	0xbf9f024b	-1.2422575
45	0x4210e29f	36.22131
46	0xc00de962	-2.2173696
47	0x402a7176	2.663175
48	0xbf98f853	-1.1950783
49	0xbefde5fa	-0.4958952
50	0x3f4852d8	0.7825141
51	0xbf9ccd43	-1.2250141
52	0xbe8d53d6	-0.27603024
53	0x3e8ad15b	0.2711285
54	0x3e3c8f08	0.18413937
55	0x3cb1e1f8	0.021714196
56	0xbf3a4abb	-0.7277028
57	0xbdab3783	-0.083601974
58	0xbf941786	-1.1569679
59	0x410879fb	8.52978
60	0x3fb227c4	1.3918386
61	0x401ed25b	2.481589
62	0x403f375f	2.9877546
63	0x3df954ce	0.12174378
64	0xc0066a61	-2.1002429
65	0xbd7c8478	-0.06164977
66	0xbf007bec	-0.5018909
67	0x3ea6e1c8	0.32594132
68	0xbe99b665	-0.30021968
69	0x3f1f7411	0.6228648
70	0xbfb13e99	-1.3847228
71	0xbfbac406	-1.4591072
72	0xbd439df0	-0.047758043
73	0x401b2502	2.4241338
74	0x3faf0b6b	1.367536
75	0x3f89b73c	1.0759044
76	0x3ec462a2	0.383565
77	0x3f938876	1.152602
78	0x3e873520	0.2640772
79	0x3e8dcdb8	0.27696013
80	0xbf212f9d	-0.6296328
81	0x3def51aa	0.11685498
82	0x3eaab740	0.33342934
83	0xbeacbf11	-0.33739522
84	0xbfd22c47	-1.6419762
85	0xc067605e	-3.6152568
86	0x3f671ae8	0.9027543
87	0xbf66091a	-0.8985764
88	0x3f13f6ea	0.57798636
89	0xbeb1f07a	-0.34753782
90	0x3f8d5f08	1.1044626
91	0x3f56de32	0.83932793
92	0x3e2e5914	0.17026168
93	0x3c3c088d	0.011476648
94	0xbe82e09e	-0.25561994
95	0x401b5435	2.4270146
96	0x3eb57dcf	0.35447547
97	0x3fd457d9	1.6589309
98	0xbf97a19b	-1.1846193
99	0x3f3bc52b	0.7334773
100	0x3f396443	0.7241861
101	0xc01d41c7	-2.4571397
102	0xbe08d531	-0.13362576
103	0xc005ea9a	-2.092444
104	0xbe6a1246	-0.22858533
105	0xc004db36	-2.0758796
106	0x3b8527c8	0.00406358
107	0x3d74bf28	0.059752613
108	0xbe181e5b	-0.1485533
109	0x40206d68	2.5066776
110	0xbd7c0c2f	-0.061535057
111	0xbf0c9c2e	-0.5492581
112	0xbfe98fb8	-1.8246984
113	0xbf23119f	-0.6369876
114	0x3b8f170f	0.0043667625
115	0xbd45987d	-0.048241127
116	0xbf80eef3	-1.0072922
117	0xbec313e0	-0.381011
118	0x3f76bbbc	0.9638021
119	0xbcf2e9ba	-0.029652465
120	0x3e57ac31	0.2106178
121	0x3fa1b0c2	1.2632067
122	0x3e555efc	0.20837015
123	0xc00cd918	-2.2007504
124	0x3bed20f0	0.0072365925
125	0x3ffaf72e	1.9606683
126	0xbea9ee63	-0.33189687
127	0xbfa72493	-1.3058037
128	0x3f198fce	0.59985054
129	0x3fc86ece	1.5658815
130	0xc05d09d6	-3.4537253
131	0x3e9a00b5	0.30078664
132	0x3e13a291	0.14417483
133	0xbe78e0e3	-0.24304537
134	0x400316c2	2.048264
135	0xbe4d148b	-0.20027368
136	0x3fc7344a	1.5562832
137	0xc0272ce0	-2.612114
138	0x3ea1a01f	0.31567475
139	0x40530b82	3.2975774
140	0x3fcc2fd0	1.5952091
141	0xbf9e39c6	-1.2361381
142	0x3fd1459b	1.6349367
143	0x3f03dd48	0.51509523
144	0x3f1e504d	0.6184128
145	0x3ddf8d82	0.10915662
146	0x3f4331c1	0.76247793
147	0x3f105dd6	0.5639318
148	0x3f5df968	0.8670869
149	0xc091db05	-4.557986
150	0x3fc8b13f	1.5679091
151	0xbfeab96e	-1.8337839
152	0x3eab761d	0.3348855
153	0xc0689244	-3.6339273
154	0xbf58b1ca	-0.84646285
155	0xc01568db	-2.3345249
156	0x3eed52b0	0.46352148
157	0xbf88f46b	-1.069959
158	0xbbb3d5ee	-0.005488149
159	0x3bc81d9a	0.0061070444
160	0xbf915da2	-1.13567
161	0xbf940a58	-1.1565657
162	0x406b0712	3.6723065
163	0xc0e36837	-7.1064715
164	0xbfcee6c6	-1.6164176
165	0x3f8a849c	1.0821719
166	0x4030bd97	2.7615716
167	0x3f0dd2ce	0.5539979
168	0x3f9c405e	1.2207143
169	0x3f100b2a	0.56267035
170	0xbe6d26e0	-0.23159361
171	0xbd89e1a6	-0.06732492
172	0x3f5d3fb4	0.8642533
173	0x3d11eff6	0.035629235
174	0x3f9fd048	1.2485437
175	0xc1f1b643	-30.213995
176	0x3e3a48c9	0.18191828
177	0xbfdb4728	-1.713109
178	0xbee3775d	-0.44427004
179	0xbf499026	-0.7873558
180	0x3da0baab	0.07848104
181	0x3fe95540	1.8229141
182	0x3e21a002	0.15783694
183	0xbe96b95d	-0.29438296
184	0x3d24ef8e	0.04026752
185	0xbd5d19b3	-0.053979587
186	0xbe93275c	-0.28740966
187	0xbd716c48	-0.058941156
188	0xbf9cc00c	-1.2246108
189	0xbe71234a	-0.23548618
190	0xbf83c8bc	-1.0295634
191	0xbf94fe95	-1.1640192
192	0x3f7ad8fa	0.9798733
193	0x3e7e38ee	0.24826404
194	0x3fec7a82	1.8474886
195	0x3f2d61fc	0.6772764
196	0x3f46b8ab	0.7762553
197	0x3e267097	0.16253887
198	0x3ea81e31	0.32835534
199	0xbe3ba5e2	-0.18324998
200	0x3f327cfc	0.6972196
201	0xc02c2a0a	-2.6900659
202	0xc046843b	-3.1018207
203	0x3ea8f8da	0.3300236
204	0xbf3aeb03	-0.7301485
205	0x400e1752	2.2201734
206	0xbe8b7749	-0.27239445
207	0xbf7b9b7c	-0.98284125
208	0xbfb0cfda	-1.3813431
209	0x3e9288d3	0.28620014
210	0xbf2735d6	-0.6531652
211	0xbf1dcdc6	-0.6164211
212	0xc08eb0df	-4.4590907
213	0x3e28abf8	0.16471851
214	0xbf84f264	-1.0386472
215	0xc113edb7	-9.245536
216	0xbfb583ba	-1.4180825
217	0xbfd955e4	-1.6979337
218	0xbe97c02d	-0.29638806
219	0xc0982dd9	-4.7555966
220	0x3f69e24f	0.91360945
221	0xbf0cbfc4	-0.5498011
222	0xbe27050a	-0.16310516
223	0xbd99ff10	-0.075193524
224	0xbc90ec6e	-0.017690863
225	0x3e090ec1	0.13384534
226	0x3f81c590	1.0138416
227	0x3fc4a505	1.536286
228	0x3fa3518c	1.2759261
229	0x3ef4a025	0.4777843
230	0x3d601868	0.054710776
231	0xbe53febc	-0.20702642
232	0x3e405ff8	0.18786609
233	0x40104ee1	2.2548144
234	0xbed43046	-0.4144308
235	0x3e0f46db	0.13991873
236	0xbd816a9b	-0.063191615
237	0xbdfb5be2	-0.12273385
238	0x3f8e5a3d	1.1121289
239	0xbe197cd7	-0.14989029
240	0x40cbba7f	6.3665156
241	0xbf3c775d	-0.73619634
242	0xbf2bfea1	-0.6718541
243	0xbf71db6e	-0.9447545
244	0xbfc13090	-1.5092945
245	0x3e3c4335	0.18385012
246	0x3fa71ab2	1.3055022
247	0x3dfa5c18	0.12224597
248	0x3d55feaf	0.05224484
249	0xbd274172	-0.040833898
250	0x3d1153e3	0.03548039
251	0xbec33ca5	-0.38132206
252	0xbe1094ff	-0.14119337
253	0x400d7039	2.2099745
254	0x40b65601	5.6979985
255	0x3e9e6119	0.30933455

l_lstm.weight_hh_l0 f4 [32, 8]
0	0x3d3d3dc9	0.0462015
1	0xbf8a98c8	-1.0827875
2	0xc00e89ff	-2.2271726
3	0xbe89a1a8	-0.26881146
4	0xbf138f7c	-0.57640815
5	0x3e4676d1	0.19381262
6	0x40183201	2.378052
7	0xbff37649	-1.9020473
8	0x3fc376fb	1.5270685
9	0xbf88839a	-1.0665162
10	0x3da569cd	0.080768205
11	0xbfd47f6f	-1.660139
12	0x3f2f576f	0.6849279
13	0xbfede756	-1.8586223
14	0x3edf0b3b	0.43563256
15	0xbfa4ea20	-1.2883949
16	0xbce27b2d	-0.027646625
17	0x3fa267ed	1.2687966
18	0xbf729fd0	-0.94775105
19	0x4019cac2	2.4030004
20	0x406e73d6	3.72582
21	0x3f9ab084	1.2085118
22	0xbfaa504d	-1.3305756
23	0xbf372421	-0.71539503
24	0xc054d3e8	-3.3254337
25	0xc056a83b	-3.354018
26	0x40287efd	2.6327507
27	0xc03dce01	-2.9656985
28	0x3f87377b	1.0563806
29	0x4014cdf7	2.325071
30	0xbefc86ab	-0.49321494
31	0xbfd0b1d7	-1.6304272
32	0xbfcb4e4f	-1.5883273
33	0x3f6c1117	0.9221358
34	0x405d0184	3.4532175
35	0x4056b45a	3.3547578
36	0xbfaff569	-1.3746768
37	0x4066d595	3.606786
38	0xc0540752	-3.3129468
39	0x405d03a0	3.4533463
40	0x3f0f5246	0.55984914
41	0xbc41733f	-0.011807262
42	0x3f6f9814	0.9359143
43	0x401d6651	2.45937
44	0x4032c20b	2.7930934
45	0xc001b46e	-2.0266376
46	0xbf9e8d96	-1.2386959
47	0x403ddd22	2.9666219
48	0xbf605c5e	-0.8764094
49	0xbb80deae	-0.0039327955
50	0xbef7daa7	-0.48409006
51	0xbf8a7e90	-1.0819874
52	0xc03b7336	-2.928907
53	0xbd04a5bb	-0.032384615
54	0xbf5a5540	-0.8528633
55	0x3ed41513	0.41422328
56	0xbff28fdc	-1.8950152
57	0x3ff7adae	1.9349878
58	0xbfcaf183	-1.5854954
59	0x400d97af	2.212383
60	0xbfe59d4e	-1.793863
61	0xc06c8e23	-3.6961753
62	0xbf597fbb	-0.84960526
63	0xbf0ea9e5	-0.5572799
64	0xbdc3bc0a	-0.0955735
65	0x3f3b2d04	0.73115563
66	0xc01c9002	-2.4462895
67	0x3eeec365	0.4663345
68	0x3d8ceeea	0.06881507
69	0x3e1c1914	0.15243942
70	0x3ec20d1e	0.37900633
71	0xbf8d7e11	-1.1054097
72	0xbd52bc99	-0.051449392
73	0xbe607b3b	-0.21922009
74	0xbd232d30	-0.039838016
75	0xbef72a5d	-0.48274508
76	0x3f99bc2b	1.2010549
77	0x3fa6f29e	1.3042791
78	0x3ee0a969	0.4387925
79	0x3f3359b9	0.7005878
80	0xbf8c7439	-1.0972968
81	0x3fb30b7c	1.398788
82	0xbf382332	-0.71928704
83	0x402953da	2.645743
84	0xbf5f7e86	-0.87302434
85	0x3e9b18aa	0.30292255
86	0xbe37af88	-0.17938054
87	0x3ff20bc3	1.8909839
88	0xbe185c27	-0.14878903
89	0xc072c89b	-3.793494
90	0x40b2ae1f	5.583755
91	0xbfac7b19	-1.3475066
92	0xc00ca26e	-2.197414
93	0x4020b6f8	2.5111675
94	0x40696687	3.6468828
95	0xbfc87144	-1.5659566
96	0x3ef7bb7d	0.4838523
97	0x3f4faace	0.8112
98	0xbfcc7031	-1.5971738
99	0xc01d10bd	-2.4541466
100	0x3f1bf19a	0.6091553
101	0xbe88af45	-0.2669622
102	0xbf81fd3a	-1.0155404
103	0x40920562	4.563157
104	0xbfb1bd82	-1.3885958
105	0xbfee5b85	-1.862168
106	0x3dd025dd	0.10163472
107	0xc029b00c	-2.65137
108	0x3f1af8fd	0.60536176
109	0x3f02d0a6	0.5109962
110	0xbe9e8270	-0.3095889
111	0xbfe11f4b	-1.7587675
112	0xbf677f43	-0.9042856
113	0xbce53e2a	-0.027983744
114	0x3f87ced2	1.0609992
115	0x3f63fd0c	0.89057994
116	0x3e564dea	0.2092816
117	0x4007522f	2.114391
118	0x3ec7d62b	0.39030585
119	0x3fb0715b	1.3784593
120	0x3efe5158	0.49671435
121	0xc07a84f2	-3.9143643
122	0xc0a3d8d8	-5.12022
123	0xc0a963e1	-5.2934422
124	0x40090f2c	2.141551
125	0xbf88456d	-1.0646187
126	0xbff1d656	-1.8893535
127	0x4077b89b	3.8706424
128	0x3ecb0cc0	0.39658165
129	0x3f31f069	0.6950746
130	0xbfd49a43	-1.6609577
131	0xc0045610	-2.0677528
132	0xbf517acc	-0.81828
133	0xbf60e024	-0.8784201
134	0xbfa9f619	-1.3278228
135	0x3f7df534	0.99202275
136	0x3ee8facf	0.45503852
137	0xbfd2e8a7	-1.647725
138	0x3f73cfd9	0.95239025
139	0xbfbe1c98	-1.4852476
140	0x3f131bc4	0.5746424
141	0xbf22b780	-0.6356125
142	0x3e1023c4	0.14076144
143	0x3e49d6b8	0.19710815
144	0x3f16a4c4	0.5884516
145	0xbff65086	-1.9243324
146	0xc0910814	-4.532236
147	0x3f1e92b8	0.61942625
148	0x3e8049e6	0.2505638
149	0xbee483a0	-0.44631672
150	0x3fed7b4c	1.8553252
151	0x3f88b969	1.0681583
152	0xbfc91d3c	-1.5712047
153	0x403bc00d	2.9335968
154	0xc0d38e6b	-6.611135
155	0xbdc856fb	-0.09782215
156	0x40a8a555	5.270182
157	0xc0c5e0d4	-6.183695
158	0x3eada023	0.33911237
159	0x4085caf7	4.181026
160	0xbed7528a	-0.4205516
161	0x3e580040	0.21093845
162	0xbea23c1b	-0.31686482
163	0xbdab565e	-0.083660826
164	0xbfde5ed6	-1.7372692
165	0xbe34033c	-0.17579359
166	0xbe1d7cd0	-0.15379643
167	0xbdac08eb	-0.084001385
168	0x3f44626c	0.7671268
169	0x3e744274	0.23853475
170	0xbfb71b84	-1.4305272
171	0xc01a7b05	-2.4137585
172	0xbf43f334	-0.76542974
173	0xbf9265de	-1.1437337
174	0x3f6dcad3	0.9288761
175	0xc00d1bb6	-2.2048163
176	0xbe4aa4d4	-0.1978944
177	0x3f152b1f	0.5826892
178	0xbea35644	-0.31901753
179	0xbe9888b7	-0.29791805
180	0xbeb371ea	-0.35047847
181	0xbf29b313	-0.6628887
182	0xbf54bd24	-0.83101106
183	0xbf0f4c91	-0.55976206
184	0xbfb78c2d	-1.4339653
185	0x3fc9231f	1.5713843
186	0x3f921320	1.1412086
187	0x40028da9	2.0398962
188	0xbf3d4c92	-0.7394496
189	0xbfc9e6b5	-1.5773531
190	0x3e814173	0.25245246
191	0xc07f41e6	-3.9883971
192	0x3e45cf2c	0.19317311
193	0xbef06e87	-0.46959326
194	0xbf7d716e	-0.99001205
195	0xbf72737a	-0.94707453
196	0xbf582427	-0.84430164
197	0xbf987ad1	-1.191248
198	0x3f9a5f5b	1.206035
199	0x3e236314	0.15955764
200	0xbddcc3ad	-0.1077951
201	0xbea9e327	-0.33181116
202	0x3f195d9b	0.59908456
203	0x3f6cdc53	0.9252369
204	0xc0339662	-2.8060536
205	0xbe1f8925	-0.1557966
206	0x3f5fa3ca	0.873593
207	0x3e0534d5	0.13008435
208	0x3f3cb49d	0.73713094
209	0x3f29a82b	0.6627223
210	0xbf84197c	-1.0320277
211	0xbffbd9d6	-1.9675853
212	0xbf821b1f	-1.0164527
213	0x3fc88c26	1.566777
214	0x3f10c2b1	0.56547076
215	0x3e9f25fd	0.3108367
216	0x40189ade	2.3844523
217	0xc01fc9bc	-2.496688
218	0xc084f1a0	-4.1544952
219	0xbff1faa5	-1.8904616
220	0xbe6edce0	-0.23326445
221	0xbfba2653	-1.4542946
222	0x409a3b83	4.8197646
223	0xbf82e036	-1.0224674
224	0xc00c8489	-2.1955893
225	0xbf19f8b2	-0.60145104
226	0xc0153577	-2.3313882
227	0x3ef46665	0.4773437
228	0x3f1100a3	0.56641597
229	0xbe029211	-0.12751032
230	0xbe6dba6a	-0.23215643
231	0xbff484ef	-1.9103068
232	0x3e88722f	0.26649615
233	0xbea71fa4	-0.32641327
234	0xbfc5e002	-1.5458987
235	0x3f0ddd12	0.5541545
236	0xbf28287c	-0.65686774
237	0xbe38b3f2	-0.18037394
238	0x3fbb7a4f	1.4646701
239	0x3c34483e	0.011003552
240	0xbf8bac8b	-1.0912031
241	0xbe716fb3	-0.23577766
242	0x3f837226	1.026921
243	0x40ad6930	5.4190903
244	0xc08e6d00	-4.4508057
245	0x3f95d7e7	1.1706513
246	0xbf876698	-1.0578184
247	0x3f0ce2b7	0.5503344
248	0xc0025c4e	-2.0368838
249	0x3faee846	1.3664634
250	0x3e8cf12f	0.27527758
251	0xbc171b7a	-0.0092228595
252	0x3e48fa12	0.19626644
253	0x3f4cce06	0.80001867
254	0xbe9cc4b0	-0.3061881
255	0xc04c427c	-3.191558

l_lstm.bias_ih_l0 f4 [32]
0	0x3eb9d37f	0.3629417
1	0xbda440e5	-0.0802019
2	0xbecdb15a	-0.4017437
3	0x3cf4956a	0.029856402
4	0xbf81cbdf	-1.0140342
5	0xbf8c9e97	-1.0985898
6	0x3ea10acc	0.3145355
7	0xbfa054ec	-1.2525916
8	0x3f905ee1	1.1278955
9	0xbe7b04ef	-0.24513601
10	0x3e767969	0.24069752
11	0xbec39c83	-0.38205346
12	0xbe853dc2	-0.2602368
13	0xbd869caf	-0.06572854
14	0x3ef892d5	0.48549524
15	0x3c9d4167	0.019196225
16	0xbeaede57	-0.34154007
17	0xbe432735	-0.19057925
18	0xbef6d980	-0.48212814
19	0xbeb90c63	-0.36142263
20	0x3d9e11f4	0.07718268
21	0xbebd9bc7	-0.3703291
22	0x3f303ae1	0.6883984
23	0x3dee597d	0.11638162
24	0x3ec68265	0.38771358
25	0xbe43c4da	-0.19118062
26	0xbf15eb01	-0.5856171
27	0xbf2626ca	-0.6490294
28	0x3e8b5fb4	0.27221453
29	0xbf589879	-0.84607655
30	0x3f26eb5f	0.652029
31	0xbe875987	-0.2643549

l_lstm.bias_hh_l0 f4 [32]
0	0x3f0cd226	0.5500816
1	0xbf248eef	-0.642806
2	0xbe526c7e	-0.20549199
3	0xbd9c5076	-0.07632534
4	0xbf8d7648	-1.1051722
5	0xbfa5494a	-1.2912991
6	0x3f3c35f6	0.7351984
7	0xbfe0057b	-1.7501673
8	0x3f70a430	0.9400053
9	0xbd857246	-0.065159366
10	0x3ef95e14	0.48704588
11	0xbe251a0f	-0.16123222
12	0x3e1ea847	0.1549388
13	0xbeafd1e3	-0.34339818
14	0x3eee8628	0.46586728
15	0x3d904b1d	0.07045577
16	0xbf1fe413	-0.6245739
17	0xbf2a4d12	-0.6652385
18	0xbea335c6	-0.31876963
19	0xbdacd9ba	-0.084399655
20	0x3f044618	0.51669455
21	0xbe7e33aa	-0.24824396
22	0x3ea33054	0.3187281
23	0xbe2da656	-0.16957983
24	0x3e942675	0.2893559
25	0xbd48032d	-0.048831154
26	0xbf46140e	-0.7737435
27	0xbf3df96e	-0.74208724
28	0x3d9a76fc	0.07542226
29	0xbf73f8df	-0.9530162
30	0x3f1c26c6	0.60996664
31	0xbeac38cf	-0.33637092

l_lstm.weight_ih_l1 f4 [32, 8]
0	0x3fa837c9	1.3142024
1	0x3e9feaa2	0.31233698
2	0xbf1dde80	-0.61667633
3	0x40ba789e	5.827224
4	0x3fc93a14	1.5720849
5	0xbf1ec6c4	-0.6202204
6	0xbf0d9aef	-0.55314535
7	0x405badfa	3.4324937
8	0x401de3c0	2.4670258
9	0xbf02f56c	-0.51155734
10	0xbf656010	-0.89599705
11	0x401368d3	2.303273
12	0xbd0ece53	-0.034864735
13	0xbf24bfc9	-0.6435514
14	0x3f84bcf7	1.0370167
15	0x3fbb09b3	1.4612335
16	0x3fc2ebff	1.522827
17	0x3eebd9c4	0.4606458
18	0xbf61b243	-0.8816263
19	0x40066de1	2.1004565
20	0xbf98d2f7	-1.1939381
21	0xbea232eb	-0.31679472
22	0x3ef5419b	0.47901616
23	0x3fd1d643	1.6393512
24	0x3f6cc51b	0.9248826
25	0x3e283d99	0.16429748
26	0xbec6672b	-0.38750586
27	0x3fd46ac6	1.6595085
28	0xbe4a728b	-0.19770257
29	0x3d520432	0.051273532
30	0x3f2792e6	0.65458524
31	0x3f75e5a6	0.9605354
32	0x3f138e2d	0.5763882
33	0x3e824f17	0.25450966
34	0xbcb959fd	-0.022625918
35	0x400e8ae1	2.2272265
36	0xbf3beb36	-0.7340578
37	0x3bb19369	0.005419184
38	0x3eca35be	0.39494127
39	0xbe47f3e2	-0.19526628
40	0x3fad0192	1.3516104
41	0xbee4f5b3	-0.44718704
42	0xbf0eb4e8	-0.5574479
43	0xbeb6cb31	-0.35701898
44	0xbf0cdd82	-0.55025494
45	0xbf3feb86	-0.74968755
46	0x3ea08e4d	0.31358567
47	0x401e312b	2.471751
48	0xbd57a394	-0.052646235
49	0xbf0059cb	-0.50137013
50	0xbf24ef70	-0.6442785
51	0x3fa8464a	1.314645
52	0x3f827a24	1.0193524
53	0xbe2187a9	-0.15774406
54	0xbeb3bd74	-0.3510548
55	0x3fe39cf2	1.7782271
56	0xbe82cfcc	-0.2554916
57	0x3f603cbb	0.8759267
58	0xbe60c435	-0.21949847
59	0x4044a45d	3.072532
60	0x3fb52caa	1.4154255
61	0xbf803260	-1.0015373
62	0xc004cdc0	-2.075058
63	0x3fcf801c	1.6210971
64	0xc0067670	-2.1009789
65	0xbfaf58a9	-1.3698932
66	0xbf80bcc1	-1.0057603
67	0xc010d543	-2.2630165
68	0x3fa7837d	1.3087002
69	0x4063265a	3.5492158
70	0x4037847e	2.8674617
71	0xc09c6fc4	-4.8886433
72	0x3ffdb222	1.9819987
73	0x3f52bed0	0.82322407
74	0x3e66137c	0.2246837
75	0xc07fe986	-3.9986281
76	0xbf0c41d9	-0.54787976
77	0xbfb70c20	-1.4300575
78	0xbfc4192a	-1.532018
79	0x3d826461	0.06366802
80	0x3f1d9906	0.6156162
81	0x3fccf39d	1.6011845
82	0xbf90d48f	-1.1314868
83	0x3ea64db6	0.32481164
84	0x3e776fde	0.24163768
85	0x3e907032	0.28210598
86	0xbe2a81f9	-0.16651143
87	0xbf8f915b	-1.1216234
88	0x3fbeb027	1.4897507
89	0x3f15da33	0.5853607
90	0xbd193fed	-0.03741448
91	0xbf8e9203	-1.1138309
92	0xbfd0e3b8	-1.6319494
93	0xbe143c3a	-0.144761
94	0xbf5d72fc	-0.8650358
95	0xbf96f866	-1.1794555
96	0x3f49a6db	0.78770226
97	0x3f19a134	0.600116
98	0x3d71ad16	0.05900296
99	0xbfea7bed	-1.8319069
100	0xbdfdf329	-0.12399895
101	0x3e969d92	0.29417092
102	0xbf7f6228	-0.9975915
103	0xbe9ef912	-0.310494
104	0x3fa0e409	1.2569591
105	0x3eb17d66	0.34665984
106	0xbf092ac0	-0.53580856
107	0x3f1f8e45	0.6232646
108	0x3f797b76	0.9745401
109	0xbf66116b	-0.8987033
110	0xbf8bc2db	-1.091884
111	0xc028b587	-2.6360795
112	0xbfc5dee9	-1.5458652
113	0x3c5b233a	0.013375098
114	0xc057a342	-3.3693395
115	0x3e8c51df	0.27406213
116	0xbd81e761	-0.0634296
117	0xbf545c05	-0.8295291
118	0xbf2f6893	-0.6851894
119	0xc0101151	-2.251057
120	0xbffd3ff8	-1.9785147
121	0xbf9bd45a	-1.217418
122	0x3effe3bf	0.49978444
123	0xbf26a15e	-0.65089977
124	0xbe165fb2	-0.14684942
125	0x40329cc5	2.7908185
126	0x402306c1	2.5472872
127	0xbfb3ec34	-1.4056458
128	0x3faaa14e	1.3330476
129	0x3f108643	0.5645487
130	0xbf6fcebd	-0.9367483
131	0x3eadb8e1	0.33930114
132	0x3db1cb12	0.08681311
133	0xbe55cf61	-0.2087989
134	0x3e044e34	0.12920457
135	0xbed8295b	-0.42219052
136	0x3faa9196	1.3325679
137	0x3f425ae4	0.7591994
138	0xbed6c08c	-0.41943777
139	0xbde4b0e9	-0.111665554
140	0xbf45ce29	-0.772677
141	0xbf0b7338	-0.54472685
142	0xbf809e18	-1.0048246
143	0xbf944c89	-1.1585857
144	0xbf5f9156	-0.8733114
145	0xbf30c878	-0.6905589
146	0x3fa94f87	1.3227395
147	0x3e3d77a0	0.18502665
148	0x3f579e10	0.8422556
149	0x3fe1b5b8	1.7633581
150	0x3f371f6d	0.71532327
151	0x3f54ea96	0.8317045
152	0xbf930f35	-1.1489016
153	0xbf403336	-0.7507814
154	0x3f0eb3cb	0.5574309
155	0x3d91d7b3	0.071212195
156	0x3eab379a	0.33440858
157	0x3f5db44e	0.8660325
158	0x3e1f8b68	0.15580523
159	0x3ecd612a	0.40113193
160	0x3f555430	0.83331585
161	0x3f4ac52a	0.792071
162	0xbf5ad4c2	-0.8548089
163	0xbf1c7d78	-0.6112895
164	0xbf1bcdaf	-0.60860723
165	0xbf9fa4b1	-1.2472135
166	0xbf37666b	-0.7164065
167	0xbf4f1f37	-0.80907005
168	0x3fb44725	1.4084212
169	0x3deaed04	0.114709884
170	0xbf628d8e	-0.88497245
171	0xbea04d0e	-0.31308788
172	0xbf236a28	-0.63833857
173	0xbe8840f0	-0.26612043
174	0xbf4928d8	-0.7857795
175	0xbf00ee55	-0.50363666
176	0xbf1fbb00	-0.62394714
177	0xbf9d63aa	-1.229604
178	0x3f01dbb4	0.50725865
179	0x3f466baa	0.7750803
180	0x3f60fa92	0.8788234
181	0x3fadda06	1.358216
182	0x3f917334	1.1363282
183	0x3f268f95	0.6506284
184	0x3f937a75	1.1521746
185	0x3c87692e	0.016529646
186	0xbe82d88e	-0.25555843
187	0xbfab7abd	-1.3396832
188	0xbe3fe208	-0.18738568
189	0xbf9c93e6	-1.2232635
190	0xbe204b86	-0.1565381
191	0xbf80d7e7	-1.0065888
192	0xbdc4ef78	-0.096159875
193	0xbd03bbea	-0.03216163
194	0xbf6b1a8f	-0.918374
195	0xbda0bce1	-0.07848526
196	0x3f04db55	0.51897174
197	0x3f6899f6	0.90859926
198	0x3f617160	0.8806362
199	0xbfae125f	-1.3599356
200	0x400765b9	2.1155837
201	0xbeff5268	-0.49867558
202	0xbf53e612	-0.82772934
203	0x3fc2f22a	1.5230153
204	0x3efaf203	0.49012765
205	0xbe5ace42	-0.21367744
206	0x3ca92edc	0.020652227
207	0x3fa2e107	1.2724923
208	0x3f826863	1.0188106
209	0x3f159ddd	0.58444005
210	0x3f216257	0.6304068
211	0x3f1737a8	0.590693
212	0xbf17d102	-0.59303296
213	0xbd891cf5	-0.06694976
214	0xbefbd71e	-0.4918756
215	0xbf0e7fb3	-0.55663604
216	0x3e138840	0.14407444
217	0x3de59384	0.11209777
218	0x3e0d951a	0.13826409
219	0x3e227fd9	0.15869083
220	0x3f5cf2eb	0.86308163
221	0xbe14e34c	-0.14539832
222	0xbae53c42	-0.0017489272
223	0xbf3ba5ab	-0.73299664
224	0x3ec99b6f	0.393764
225	0x3e832470	0.25613737
226	0x3f29e555	0.6636556
227	0x3fbabc58	1.4588728
228	0xbe193bc6	-0.14964208
229	0x3e8a401e	0.27002043
230	0xbe222dde	-0.1583781
231	0xbecad708	-0.3961718
232	0x3f754fca	0.95824873
233	0xbea8ed66	-0.3299362
234	0xbf0f7c7b	-0.5604932
235	0xbfce95de	-1.6139486
236	0x401c46f1	2.44183
237	0xbf2f3c68	-0.6845155
238	0xbadd2620	-0.0016872324
239	0x3fe30623	1.7736248
240	0xbf267e55	-0.6503652
241	0x3f0af0d2	0.5427371
242	0x3ed6ab04	0.4192735
243	0xbec93110	-0.39295244
244	0x3f0a44dc	0.5401132
245	0x3f012428	0.50445795
246	0xbe3a75da	-0.1820902
247	0xbeb14b93	-0.3462797
248	0xbf99aebb	-1.2006449
249	0xbf279b59	-0.65471417
250	0xbf5c9049	-0.8615766
251	0xbe2cb01e	-0.16864058
252	0xbfc1b718	-1.5134001
253	0x3c2c3182	0.01050985
254	0xbf9cfaa9	-1.2263995
255	0xbf2b083a	-0.6680943

l_lstm.weight_hh_l1 f4 [32, 8]
0	0xbf78612c	-0.9702327
1	0x3f847819	1.0349151
2	0xbf0f4851	-0.5596972
3	0x3d3893d6	0.045062862
4	0xbe6851c1	-0.22687437
5	0x3fc777ec	1.5583472
6	0xbd5355de	-0.05159556
7	0x3f6ef147	0.9333691
8	0x3f39fbe2	0.7264997
9	0x3ea794a8	0.32730603
10	0x3e2790fd	0.16363902
11	0xbd03c055	-0.032165844
12	0xbf8eedca	-1.1166317
13	0x3f59252e	0.84822357
14	0x3f810b60	1.0081596
15	0xbea90860	-0.33014202
16	0x3eb282e1	0.34865478
17	0xbdfe8fb1	-0.12429751
18	0x3f960729	1.1720935
19	0x3eec990d	0.46210518
20	0xbf86e223	-1.0537761
21	0xbe9e897a	-0.3096426
22	0x3f7e2a51	0.9928332
23	0xbfb66268	-1.4248781
24	0x3dd3798c	0.103259176
25	0x3e285171	0.16437317
26	0x3ec19b79	0.3781393
27	0x3fb62626	1.4230392
28	0xbdd94a9d	-0.106099345
29	0x3ed5d732	0.41765743
30	0x3fa2609e	1.2685735
31	0xbe5da80c	-0.21646136
32	0x3f28e4fa	0.6597439
33	0xbe35da8c	-0.1775915
34	0x3e9cdd55	0.30637613
35	0xbe0d62b5	-0.13807185
36	0xbfd4b183	-1.6616672
37	0x3f969ae3	1.1766018
38	0x3f8f5015	1.1196314
39	0xbf756818	-0.9586196
40	0x3e59bc9c	0.21263355
41	0x3fbf27bd	1.4934002
42	0x3e77374f	0.24142192
43	0x3d82f684	0.063946754
44	0xbd6d4563	-0.0579275
45	0x3e5de591	0.21669604
46	0x3f275b24	0.65373445
47	0x3fb5b541	1.4195939
48	0x3f2f85fd	0.68563825
49	0x3eac9306	0.3370592
50	0x3ecfc814	0.40582335
51	0xbe0b3184	-0.13593107
52	0xbf90416a	-1.1269963
53	0x3fb76c3e	1.4329908
54	0x3df81f69	0.12115366
55	0xbf9c5ef7	-1.2216481
56	0x3edf37a3	0.43597135
57	0x3ff627ef	1.9230937
58	0xbff55bc4	-1.916863
59	0xbf99a1e3	-1.2002529
60	0x3e6ab7ab	0.22921626
61	0x3f9c3c97	1.220599
62	0xbeb61561	-0.35563186
63	0xbf137e4d	-0.57614595
64	0xbfced15a	-1.6157639
65	0xc03b4c09	-2.9265158
66	0xbf953438	-1.1656561
67	0xbee52bd1	-0.44759992
68	0x3dbb1c90	0.09136307
69	0xbffb2301	-1.9620057
70	0xbf21ae66	-0.63156736
71	0xbf69fb99	-0.9139953
72	0xbf4a47a1	-0.7901555
73	0xbdea9b82	-0.11455442
74	0x3fb3ee9a	1.405719
75	0x3faf50f8	1.3696585
76	0xbf33d864	-0.7025206
77	0xbf359009	-0.70922905
78	0x3f847998	1.0349607
79	0xbf8799f2	-1.0593855
80	0x3e8926d1	0.26787427
81	0xbf762a75	-0.96158534
82	0x3e81bab7	0.25337765
83	0xbc5094b1	-0.012730763
84	0xbf5e0772	-0.8673011
85	0x3e0333df	0.12812756
86	0xbd4f434d	-0.050601292
87	0xbf43a7b0	-0.76427746
88	0x3ea36352	0.31911713
89	0xbcf2999d	-0.029614264
90	0x3eeb8da0	0.4600649
91	0x3f908049	1.128915
92	0xbe815ba7	-0.25265238
93	0xbe353b90	-0.17698503
94	0xbe82ddff	-0.25559995
95	0xbf1fb8e9	-0.62391526
96	0x3eb66cf6	0.35630006
97	0xbf1ce6b1	-0.6128951
98	0x3cc4365b	0.0239517
99	0x3eaac3fd	0.33352652
100	0xbed1c5f4	-0.4097134
101	0xbebac0f1	-0.36475328
102	0xbe8b1f3f	-0.27172276
103	0xbe6a6b37	-0.22892462
104	0xbe4cf2ad	-0.20014448
105	0x3f8c1d2e	1.0946405
106	0x3f4501c6	0.7695583
107	0x3f3822c5	0.71928054
108	0x3ca06f18	0.019584224
109	0xbf40fe49	-0.7538801
110	0x3ee80b71	0.4532123
111	0x3e94c63d	0.29057494
112	0x3e3bf5b2	0.18355444
113	0x3f1827b3	0.59435576
114	0xbfaff144	-1.3745503
115	0xbf2ddcb9	-0.6791492
116	0x3f43977e	0.76403034
117	0x3f0f6ffd	0.56030256
118	0xbd14e7b3	-0.036353778
119	0x3db44962	0.08803059
120	0xbfce9b6f	-1.6141185
121	0xc00e58d6	-2.224172
122	0xbfa2323a	-1.2671578
123	0xbd948963	-0.07252767
124	0x3e16738a	0.14692512
125	0xc034ade1	-2.8231127
126	0xbedb0458	-0.42776752
127	0xbfd7d7eb	-1.6862768
128	0xc05a8bc0	-3.4147797
129	0x3ef380c4	0.47559178
130	0xbe23ac93	-0.159838
131	0x3f5f505b	0.8723199
132	0xbed9ab0c	-0.4251331
133	0xbf90ee2e	-1.1322687
134	0xc01442d3	-2.3165786
135	0x3f4155d9	0.7552162
136	0xbff3a56b	-1.9034857
137	0xbf93a6ea	-1.1535313
138	0x3f7e7082	0.99390423
139	0x3fc670bf	1.5503157
140	0xbeea81e0	-0.45802212
141	0xc0039c89	-2.0564291
142	0x3f59b396	0.8503965
143	0xbfd186e9	-1.6369296
144	0x3f1edf04	0.62059045
145	0xbf075e11	-0.5287791
146	0xbfd7e242	-1.6865923
147	0xbfafc439	-1.3731757
148	0x3f6b940d	0.9202278
149	0x3f7cf66b	0.98813504
150	0xbc5ed810	-0.013601318
151	0x3fee59b5	1.8621126
152	0x3f43dd4a	0.76509535
153	0xbfcf945c	-1.6217151
154	0x3f92b792	1.1462271
155	0xc0023902	-2.0347295
156	0xbef68b49	-0.4815314
157	0x3fa71128	1.3052111
158	0x3fba51e3	1.455624
159	0x3f905aa0	1.1277657
160	0xbf942a21	-1.1575357
161	0xbf6e8303	-0.9316866
162	0x3f6426fd	0.8912199
163	0x3fa3ea30	1.2805843
164	0xc001ce39	-2.0282118
165	0xbf9c36be	-1.2204206
166	0x3e4c3de9	0.19945492
167	0xbfeb6ef7	-1.8393239
168	0xbf77b94a	-0.96767104
169	0x3e9d0a0a	0.30671722
170	0xbe08d571	-0.13362671
171	0x3ef73cd2	0.4828859
172	0xbe220f7e	-0.15826222
173	0xc0444ba9	-3.067118
174	0xbf22d017	-0.6359877
175	0xbd048206	-0.032350563
176	0x3fe0e661	1.7570306
177	0x3f85414c	1.0410552
178	0xc01db882	-2.4643865
179	0xc0072684	-2.1117258
180	0x40090d57	2.1414392
181	0x3fdd58b5	1.7292696
182	0xc010b3bb	-2.2609699
183	0x3fd39aa8	1.6531572
184	0xc003ceb9	-2.0594923
185	0x3fcbce61	1.5922357
186	0xbf29be08	-0.6630559
187	0x3edc8358	0.43068957
188	0x3f6ff9ce	0.93740547
189	0xbfebd5f0	-1.8424664
190	0xc002c77a	-2.043425
191	0xc0073e71	-2.1131861
192	0x3e41b433	0.18916397
193	0x3f6fe713	0.93711966
194	0xbe938623	-0.28813276
195	0xbf05701a	-0.5212418
196	0x40020115	2.031316
197	0x3f339212	0.7014476
198	0xbf9bf067	-1.218274
199	0x401ef6b7	2.4838083
200	0x3e4ce1da	0.2000803
201	0x3eef6dd0	0.46763468
202	0xbe40c6a5	-0.18825777
203	0x3de28032	0.110596076
204	0xbec26e7e	-0.37974924
205	0x3fa09c84	1.2547765
206	0x3f98d7dc	1.1940875
207	0x3efb107b	0.4903601
208	0xbeca4608	-0.39506555
209	0xbed0053f	-0.40629002
210	0x3f934602	1.150574
211	0x3f8d4392	1.1036246
212	0xbf8d4b3a	-1.1038582
213	0xbf047b1b	-0.51750344
214	0x3f116cb5	0.568065
215	0xbf1df848	-0.6170697
216	0xbe155b92	-0.14585713
217	0x3ec26872	0.3797031
218	0x3ea27f76	0.3173787
219	0x3fde6655	1.7374979
220	0x3d9f34f7	0.07773774
221	0x3e196bba	0.149825
222	0x3eae2f44	0.34020436
223	0x3caf605d	0.021408254
224	0x3eaa09ce	0.33210605
225	0x3e55b1fb	0.20868675
226	0x3dc7efb4	0.097625166
227	0x3ef7967e	0.48357004
228	0xbf7e4077	-0.99317116
229	0x3e697ae1	0.22800781
230	0x3e4874a6	0.19575748
231	0x3e4d2655	0.20034154
232	0x3ea58b87	0.32333013
233	0x3f7e364d	0.99301606
234	0x3eb98a39	0.36238268
235	0x3cd52c2c	0.02602204
236	0x3efb03d8	0.4902637
237	0xbedd3831	-0.43206933
238	0x3f29d49d	0.6634005
239	0x3fead2f9	1.8345634
240	0xbcdc9e7a	-0.026931036
241	0xbe00c8f2	-0.12576655
242	0xbec0e1e8	-0.37672353
243	0xbe9c78e9	-0.30560997
244	0xbf48ebaf	-0.78484625
245	0x3df05f37	0.11736911
246	0x3e158204	0.14600378
247	0xbd50124d	-0.050798703
248	0xbf1ba02d	-0.60791284
249	0x3fcb12d9	1.5865127
250	0xbfa88943	-1.3166889
251	0xbef64afe	-0.4810409
252	0x3f2c6d01	0.67353827
253	0x3f53e5fe	0.82772815
254	0x3e262283	0.16224103
255	0x3e91ebd7	0.28500244

l_lstm.bias_ih_l1 f4 [32]
0	0xbf2b6423	-0.6694967
1	0xbf10e93d	-0.56605893
2	0xbe808a65	-0.25105587
3	0xbf1f1025	-0.6213401
4	0xbf20e0ca	-0.62843
5	0xbe81b398	-0.25332332
6	0xbf979f4f	-1.1845492
7	0xbf583f79	-0.8447185
8	0x3c7ee2ae	0.015556974
9	0x3e60b91a	0.2194561
10	0x3f382ca0	0.7194309
11	0x3df5cb10	0.12001622
12	0x3f4413a6	0.7659248
13	0xbf4fee87	-0.8122334
14	0x3f3f38fc	0.74696326
15	0xbd734bca	-0.05939845
16	0xbaee7462	-0.0018192644
17	0xbc262f83	-0.010143164
18	0xbe01195c	-0.1260733
19	0xbecbeccc	-0.398291
20	0xbe3cfd9a	-0.18456116
21	0x3d932458	0.071846664
22	0xbe26dbaf	-0.1629474
23	0x3e00807e	0.12549016
24	0xbe54c107	-0.20776759
25	0x3e45efc7	0.19329749
26	0xbf2ee7e6	-0.683226
27	0xbf1cda25	-0.6127036
28	0xbf0a7331	-0.5408202
29	0xbeb9396c	-0.36176622
30	0xbe6adbc8	-0.22935402
31	0xbf33578b	-0.70055455

l_lstm.bias_hh_l1 f4 [32]
0	0xbe17a61f	-0.14809464
1	0xbe9b5064	-0.3033477
2	0xbf6b782a	-0.9198023
3	0xbef3ea78	-0.47639823
4	0xbee82237	-0.45338604
5	0xbf082174	-0.53176045
6	0xbf3d487e	-0.7393874
7	0xbf499709	-0.78746086
8	0xbedeb74f	-0.43499228
9	0x3e581ae0	0.21104002
10	0x3f4a4a58	0.7901969
11	0xbe0a209d	-0.13489003
12	0x3f1dafea	0.6159655
13	0xbfa4d10e	-1.2876298
14	0x3f9f38a7	1.2439164
15	0xbe671099	-0.22564925
16	0x3ea8b0bc	0.32947338
17	0x3e9a9a13	0.30195674
18	0x3b7e50bd	0.0038805448
19	0x3df79e07	0.12090688
20	0x3e9bd05a	0.30432397
21	0x3e91d980	0.28486252
22	0x3dc86641	0.097851284
23	0x3e0ed20a	0.13947311
24	0xbe43f912	-0.19137982
25	0x3e1ec2a4	0.15503937
26	0xbf45fb20	-0.7733631
27	0xbe1ca487	-0.15297137
28	0xbf25a95d	-0.6471155
29	0x3e0ba176	0.13635811
30	0xbf0bb044	-0.54565835
31	0xbf7d848d	-0.9903038

l_linear.weight f4 [1, 8]
0	0x3ecf4e2d	0.4048933
1	0x3efe45b2	0.49662548
2	0xbef1d597	-0.4723327
3	0xbed9acf6	-0.4251477
4	0x3ed20039	0.41015795
5	0x3ed6173b	0.41814598
6	0xbef6b526	-0.4818508
7	0x3ecf3af9	0.4047468
