citylearn/data/datasets/ca_alameda_county_neighborhood/resstock-amy2018-2021-release-1-360202.pth (torch, 8966 bytes, 9 tensors)

l_lstm.weight_ih_l0 f4 [32, 13]
00000000: d914 b63f 8b8b c83f 47e4 bb3d 99e9 263e
00000010: bccb 8140 ae8b 76bf 563a e9be 5dab 4bc0
00000020: b5a2 7840 cc10 a140 5895 023f e800 f3bd
00000030: e9cd 1dbf 9ae4 e33d e146 6abe b482 3dbe
00000040: d089 113d eb6e 1fbf 32a1 87be c279 15c0
00000050: 9f0a 1a40 61d9 963d b7c5 b4bd f0ff 153f
00000060: 9a97 e73d 0149 9a3e 9e07 673e 892a 4b40
00000070: 4672 0d3f f50d 7ebd e32e d53f 1fdc f33f
00000080: c233 a2bf b24a e440 c447 ebbf 500e 903e
00000090: 5328 3b3f 116b a2bf 7100 13bf cc34 803f
000000a0: 163b 2e3f 733c fe3e ee10 31be 3da6 ed3e
000000b0: 0b06 803f f2e7 613f ff90 333f 4704 2bbe
000000c0: a1d4 95be f462 1e3f 691b 9abe 18bf 42be
000000d0: 89f7 95be 5276 743f 3a14 173f 8bc4 78be
000000e0: 148d 65be 8874 c4bf d058 963f 0e1a d3c0
000000f0: f4d1 193f 39cb 01bf 66af 0f3f 7a2b a2be
00000100: e934 293f 0f17 3e3f 3aea 32bf a054 b23d
00000110: 6e8c a93d 96ce 27bf 97d4 8a3c fcbe 063e
00000120: 689b 2e40 c6cc 8b3c 9cd8 2f3f 017f 96be
00000130: 4c6b 53bd b7a0 ea3f 7642 0240 8ae6 5b3f
00000140: 6072 423f 8fb4 26be 96d2 903e 4be5 37bf
00000150: 0f0b 073e d94f c240 1237 99be f599 d73e
00000160: d0da df3e 3095 72bf f35a 5a3f 1269 83bf
00000170: b970 47be 3a28 ab3e 5e78 29bd a588 933e
00000180: 3888 02bf 4ec9 c1bf 567a bfc0 2bf1 11be
00000190: fc0d 50bf ba7c 0b3f 3bc6 3c3e 1ddc 8c3f
000001a0: 98cf bc3e 7262 613e fc0a b33d ef32 3b3d
000001b0: c317 9140 db9b 3f3f fad6 4c40 fef2 1a40
000001c0: bf70 c5bf a695 48bf 622c 00bf dee2 c73e
000001d0: b767 38bf 1247 0c3f da38 0e3e 7cce 57bd
000001e0: 5cce 98bc 0fc3 17bf b5d1 0abf e70c c33e
000001f0: 1595 e0be 9bd7 23bf 5f40 053f 7563 1d3f
00000200: 8dde 09bb 9d5c 0040 a3f2 f43f adf2 8f3e
00000210: 9ecc 07be 183e 28be 6701 68bf 926b 99bf
00000220: 0688 25c1 aa1e 48c1 12fc 273f 343e 393f
00000230: 8ad9 0e40 e6e9 c53e 18db 9ebf 6612 923e
00000240: 3bb4 be3f 1926 0b3f 3e2a 153e 62e7 fb3e
00000250: 9884 b4bf e3cb fcc0 9be3 81be dc1e d83f
00000260: 2097 a73e bf1c be3f c756 3ebe 4ba7 f3bf
00000270: 3611 b43e 829b fabf d1ac 7abe 1e7b aa3e
00000280: a909 2240 4b57 6ec0 2c91 fdc0 f3b0 6841
00000290: 20f0 8cbf a7e3 a0be 4fe8 b33f 29f2 a33d
000002a0: 0de8 db3f 2aea 41bf 3ac4 19bd 1721 c4bd
000002b0: c24b 5b3d 1ae0 c93e a2d0 06bf 0aa8 ffbf
000002c0: 4636 8540 6bdd 313e 4a14 3e3f 711f 0c3d
000002d0: fae3 62bd 8c85 be3f 76f8 bdbf 59cb 9fbf
000002e0: 51f4 cdbe 9ff9 d83e d1ab 8ebf 10b7 8d3f
000002f0: e8bc b5c0 66a7 ce3f 9e68 dc3e 34f2 233f
00000300: 05c0 c63f 5cf6 8ebe f944 373f eaa8 003f
00000310: 2be4 533f e554 683e 03de 7cbe a551 a03e
00000320: 1a22 0b3e ccdd 3fc0 f452 30c0 9b72 d33e
00000330: 4c30 0bc0 a024 873e ed95 01bf 032d f33f
00000340: 339f cabe 9fa4 e3bf d90d 9a3d 84b9 943e
00000350: 5af4 e1bf aeb0 5f3e 9edb 3b40 13ca 6340
00000360: 9b61 3bc0 9157 06c0 cc7e 44bf 55e1 edbd
00000370: fa3d 123f 9075 953e cc9f 583e 4e97 373c
00000380: 38b6 1139 3e54 23bd 59a6 74bd 24af 343f
00000390: ffcf 2d3f bcac 80bd 9c9b 413b 4021 893e
000003a0: 0995 03bd a9a7 d83f bd70 01be ebad cebe
000003b0: f862 0dbe 0a94 883d cee9 2dbe c10a 02bf
000003c0: c7c4 80c0 944a 4a41 b822 973b d4fe 2ebe
000003d0: bc51 883f 5e2f a33d a1da 2fbf 4624 22be
000003e0: dc7e 68bd 386e a2bb 2e6e 4fbc a021 11be
000003f0: bb68 cebc 5b3b 64c0 b4ca ddbf bd2d d93d
1.4225112 1.5667585 0.091744 0.16300048 4.05612 -0.96306884 -0.4555232 -3.1823342
3.8849308 5.0333004 0.5100913 -0.11865407 -0.6164232 0.11127587 -0.228786 -0.1850689
0.03553182 -0.6227862 -0.2649017 -2.3355565 2.4068983 0.073656805 -0.088267736 0.58593655
0.113082126 0.30133823 0.225615 3.1744711 0.5525249 -0.06202503 1.6654934 1.9051551
-1.2672045 7.134118 -1.8381276 0.2813592 0.73108405 -1.2688924 -0.5742255 1.0016112
0.6805891 0.49655494 -0.17291614 0.46415892 1.0001844 0.88244545 0.7014312 -0.1670085
-0.29263785 0.6186974 -0.30099037 -0.19018209 -0.29290417 0.9549304 0.5901524 -0.24293725
-0.22417098 -1.5348063 1.1745853 -6.5969305 0.6008599 -0.5070072 0.5612701 -0.31673795
0.6609636 0.74253935 -0.6988865 0.08707547 0.08278738 -0.655496 0.016947074 0.13158792
2.7282352 0.017065417 0.68689895 -0.2939377 -0.051616 1.8330296 2.0353065 0.8589865
0.7595577 -0.16279815 0.28285664 -0.7183425 0.13187812 6.072247 -0.29924828 0.42109647
0.43721628 -0.9475889 0.8529503 -1.026644 -0.19476594 0.33429128 -0.041374557 0.2881519
-0.50989103 -1.5139558 -5.9836836 -0.14252155 -0.8127134 0.5448719 0.18434994 1.1004673
0.3687713 0.2201021 0.087423295 0.04570287 4.5341506 0.7484719 3.2006211 2.421081
-1.5425032 -0.78353345 -0.5006772 0.39040273 -0.72033256 0.54795945 0.13888875 -0.052687153
-0.018653087 -0.5928201 -0.5422624 0.3809578 -0.4386374 -0.6400086 0.5205135 0.61479884
-0.0021037192 2.0056527 1.9136547 0.28114834 -0.13261649 -0.16429937 -0.9062714 -1.1985953
-10.345709 -12.507486 0.65619004 0.7236054 2.2320275 0.38655013 -1.2410612 0.28529662
1.4898752 0.5435501 0.14566895 0.4919997 -1.4102964 -7.8998885 -0.25368962 1.6884418
0.32732487 1.4852523 -0.1858779 -1.9035429 0.3516938 -1.9578707 -0.24479987 0.33297056
2.5318396 -3.724078 -7.923971 14.5432005 -1.101078 -0.31423685 1.405527 0.08005173
1.7180191 -0.7574793 -0.03754065 -0.09576624 0.053539045 0.39428788 -0.526621 -1.9973156
4.162875 0.1736962 0.7424971 0.034209672 -0.055393197 1.4884505 -1.4841449 -1.2483932
-0.4022546 0.42377946 -1.1146184 1.1071491 -5.67931 1.6144836 0.43048567 0.6404145
1.552735 -0.27922332 0.7158962 0.5025774 0.8277003 0.22688635 -0.24694066 0.3131229
0.13587227 -2.9979124 -2.755063 0.41298375 -2.1748228 0.2639513 -0.50619394 1.8998111
-0.39574584 -1.7784613 0.075221725 0.29047787 -1.7652695 0.21844742 2.9352794 3.5592086
-2.9278324 -2.0990946 -0.76755977 -0.11615244 0.5712582 0.29191256 0.21154708 0.011205507
0.0001389616 -0.03987526 -0.059728954 0.70579743 0.678955 -0.062829465 0.0029542213 0.2678318
-0.032124553 1.6926166 -0.12640662 -0.40367064 -0.13807285 0.06668861 -0.1698372 -0.5079766
-4.0240207 12.643208 0.004612293 -0.17089397 1.0649943 0.07968019 -0.68692976 -0.1583415
-0.056761608 -0.0049569868 -0.012660546 -0.14172983 -0.025196424 -3.5661228 -1.7327485 0.10604427

l_lstm.weight_hh_l0 f4 [32, 8]
00000000: e77c 25bd e149 3240 ef26 85bf 5db6 893f
00000010: 529e bfc0 0be7 89bd 342d 1a3f c7f4 2f3f
00000020: 9ad5 0e3f f190 183c 28fc 9cbf 32bd 34be
00000030: 378d c2be 789c 11bf 258c a23e a851 8f3e
00000040: 46ec 63c0 6c22 7bc0 a599 87c0 9c5b 0ec1
00000050: e14d 913f bfe1 25c0 7b78 a23f 75e0 2dbf
00000060: e636 25be 2615 85bf 804d 623f 3b2a 7ebd
00000070: 1a81 2cbf cd0c 943f 694a 8ec0 38a6 b63f
00000080: 0ef5 1b40 b35a 413f e111 8140 fa7b 233f
00000090: a589 0440 1ecd a03e 6828 c0bd 831f bdbf
000000a0: 6aea 6e3f e287 0240 45e4 e7be 3317 3b40
000000b0: af8f 7ebf 540c aabe dec4 023e aebe 873e
000000c0: 0ad5 1040 3b98 31c0 65ea d63f 432e 0bc0
000000d0: 2abe 903f a5c1 91be b51d d63f bcc5 09bf
000000e0: 6a55 c73e f61b 263f 08eb 21bf 83e9 603f
000000f0: 4c49 4340 52bb 0940 16e6 f5bf 365d 1940
00000100: 9b36 863e 5f89 823f 3851 393e 2752 d83f
00000110: 0b2e 653f 001a 38bc beae 85bf b2e2 f4be
00000120: 3380 c9be e5c7 5dbf e07c 98bf 36a4 2d3f
00000130: 1ce3 a0bf 150f b93e febe 0540 80f1 58bf
00000140: 1a62 153f 4750 3240 4bdb 513f ecde 613f
00000150: 74d0 02bf e5e2 613e 4310 9c3f 7958 5a3f
00000160: a29d b03f d3e2 3040 c919 523f 0aa7 993f
00000170: e96e 1441 e34b 233f 5da4 4bc0 0f00 ac40
00000180: 63c0 b13f 02ad 4c40 677f 793f b6dc 993e
00000190: 675c 183e 97ce ff3f 66ad 2ac0 8a37 05be
000001a0: 7e28 6c3f 808c 483e c83c 653f af6a c13e
000001b0: 6583 a1bf a2b2 aabe 8112 e13e 7917 8ebf
000001c0: 7a22 753f 5ac3 173f b652 0ac0 2535 4140
000001d0: e566 85bf 6ba5 bd3e 2bc3 3f3f d762 4dc0
000001e0: 3f97 a03f bb8a a23e d137 883f c7fc cfbe
000001f0: 8b3b 503f 6b7c 8e3e ec6f f7bf 4e95 2cbf
00000200: 6ba8 b23f af46 65c0 443c 2a40 6cf7 4340
00000210: 2ea2 1dbe 5888 0abf c7b3 32be 6b5d d5bf
00000220: a3e2 573f c897 a9be 89c9 15bf 938f 1e3f
00000230: d151 36bf 0545 d4be 6fb0 27bd 5336 03bf
00000240: 8722 0b3e 6b57 6e3f 4efa 5bbf 3da3 3d3f
00000250: 9695 bcba b1bb a2bc 3fe0 e93e de54 933f
00000260: 0e41 ce3e e6ea 06bf 6c4b 50be 301d 51bf
00000270: 647d 8ebe 69ad 65bf 5448 67be be2c 60be
00000280: 125e 7bbf f9b3 3e3f 2d59 583f c614 69bf
00000290: e642 4fc0 0807 3c3e 3a72 3b3f 797e 593f
000002a0: 9460 033f 6145 0a3e 5507 d83e f806 23c0
000002b0: a8a8 203d c840 3d3f c165 b53e 95de 0ec0
000002c0: 04a4 74bd 7f1a 0d3f b334 d23f a34d 63bf
000002d0: a09f 603c 133d bdbe 3f6f 83bf 37db c93f
000002e0: a936 e4be 5ff9 553f 55ec a53e 58c5 fc3d
000002f0: 7274 00be 3a16 0c3f f15a f43d 5ef1 41bf
00000300: 4a86 c5be 36a8 ccbe 311e d5bd 97ec 7b3e
00000310: b077 f23d f1e1 b0be 8e08 bebe 5fb3 aebd
00000320: c188 85bf ef19 37be 1d2a 81c0 6ae5 b9c0
00000330: 9e39 b5bd 6067 303f be43 e63f 7143 b43e
00000340: 8f3f 273f 6ca4 d8bf 7910 82bf 4143 503f
00000350: 3396 d0bf 3b69 21bf 444d edbe 3f4f 1c40
00000360: a783 7fbf ab39 89bf 07cd 67bf 7981 2240
00000370: fed9 2d3f 6614 35be 793b 98bd ae05 52be
00000380: 9f58 263f cd74 1140 97b5 a6bf a2a9 913f
00000390: 6abf 4a3b 4da6 c83f 8a2d 0d40 60d8 e73f
000003a0: 8f63 013f 49aa 503c c88c 1abf 79a0 bd3f
000003b0: 0c77 b3bd 1aea 1d3e 35fa 8cbf a079 83bf
000003c0: 1bf5 6c40 f042 a940 da55 9940 6867 6640
000003d0: 546a 1f40 6ffc 893f 3ea6 93c0 c15e bebf
000003e0: 0b25 5abb 855b c8bf a0aa 2abf 989c 10c1
000003f0: 02e6 0cc0 9c58 273e 81de 9840 0d0a ccbf
-0.04040232 2.7857592 -1.0402507 1.0758778 -5.988076 -0.06733521 0.60225224 0.68732876
0.5579468 0.0093119005 -1.2264452 -0.17650297 -0.37998363 -0.5687938 0.31747547 0.27991986
-3.561296 -3.923976 -4.2375054 -8.897366 1.1351892 -2.5919034 1.2693018 -0.6792062
-0.16134223 -1.0397079 0.88399506 -0.062051993 -0.67384493 1.1566406 -4.4465833 1.4269476
2.436832 0.7552902 4.0334325 0.6386105 2.0709012 0.31406492 -0.09382707 -1.4775242
0.9332644 2.0395436 -0.45291343 2.923291 -0.99437994 -0.3321253 0.12770411 0.26512665
2.2630029 -2.7749164 1.6790282 -2.1746986 1.1308033 -0.28468052 1.6727816 -0.53817344
0.38932353 0.64886415 -0.63249254 0.8785631 3.0513487 2.1520581 -1.9210842 2.3963141
0.26213536 1.0198172 0.18097389 1.6900071 0.8952338 -0.011236668 -1.0443952 -0.47829205
-0.3935562 -0.8663314 -1.1913109 0.6782869 -1.2569308 0.3614432 2.0897822 -0.847435
0.58352816 2.7861497 0.8197524 0.88230777 -0.51099324 0.2205921 1.2192463 0.8529125
1.3798106 2.7638443 0.82070595 1.2004101 9.277078 0.6378767 -3.181907 5.375007
1.3886837 3.1980596 0.97460026 0.30051202 0.14878999 1.9984921 -2.6668334 -0.13009468
0.92249286 0.19584846 0.8954587 0.37776706 -1.2618223 -0.3333941 0.4395943 -1.1100913
0.9575573 0.5928246 -2.1612983 3.0188687 -1.0422026 0.37040266 0.7490718 -3.2091577
1.2546157 0.31746468 1.0642034 -0.4062254 0.81340855 0.27829298 -1.9331031 -0.6741532
1.3957647 -3.5824392 2.6599283 3.0619764 -0.15393898 -0.54114294 -0.17451392 -1.6669134
0.84330195 -0.33123612 -0.58510643 0.61937827 -0.7121859 -0.41458908 -0.040939745 -0.5125477
0.1358739 0.9310214 -0.8592881 0.74077207 -0.0014387842 -0.019864889 0.456789 1.1510274
0.40284008 -0.52702177 -0.20341271 -0.8168516 -0.2783004 -0.8971773 -0.22586185 -0.21892068
-0.98190415 0.74493366 0.8451107 -0.9104732 -3.2384582 0.18362057 0.7322117 0.84958607
0.5131924 0.13503028 0.42193094 -2.5473003 0.039223343 0.73926973 0.35429195 -2.2323353
-0.05972673 0.55118555 1.6422333 -0.8879034 0.013709933 -0.36960658 -1.0268325 1.5770024
-0.44572952 0.83583635 0.3240687 0.12342328 -0.1254442 0.54721415 0.11931408 -0.7575892
-0.38579017 -0.39972085 -0.10406149 0.2460197 0.11839235 -0.3454738 -0.37115902 -0.08530306
-1.0432359 -0.17880987 -4.036391 -5.8092546 -0.0884888 0.6890774 1.7989423 0.35207704
0.6533136 -1.6925178 -1.0161277 0.8135262 -1.6295837 -0.63051194 -0.46348011 2.4423368
-0.9981026 -1.0720724 -0.9054722 2.5391524 0.67910755 -0.17683563 -0.074332185 -0.20509979
0.64978975 2.272754 -1.3024167 1.1379893 0.0030936846 1.5675751 2.2059045 1.8112907
0.5054254 0.012735912 -0.60371065 1.4814597 -0.08762941 0.15421334 -1.1013857 -1.0271492
3.70246 5.289421 4.79173 3.6000614 2.4908648 1.0780162 -4.614043 -1.4872667
-0.003328624 -1.565293 -0.66666603 -9.038231 -2.2015386 0.16342396 4.777161 -1.5940567

l_lstm.bias_ih_l0 f4 [32]
00000000: 76d8 fb3d ef6e 4abf 7085 e83d 0850 1cbf
00000010: af2a 80bf 6608 0dbf 2846 50bf afeb 473e
00000020: 6958 883e a860 ce3e 97c3 d1be 5de1 8fbf
00000030: 9962 9f3e 4821 7ebe e9b9 cebe 272c 25bf
00000040: e2fe b7be 6160 2fbf 8f3e 43bc 6770 4ebe
00000050: 2400 bdbe 5404 3fbe 2e42 5ebe e3e7 363f
00000060: 8b0d aa3d 75a6 b1be 9d4b e4be 5e47 3a3d
00000070: acb9 e8bc 8e33 02bf d00d 7fbf 40d1 2dbe
0.12297146 -0.7907552 0.11353576 -0.6105962 -1.0013026 -0.5509094 -0.8135705 0.195235
0.26629952 0.40308118 -0.40969536 -1.124065 0.31129912 -0.24817383 -0.40376213 -0.64520496
-0.35936648 -0.6850644 -0.011916771 -0.20160066 -0.3691417 -0.18653995 -0.21704933 0.7144758
0.08303364 -0.3469731 -0.44588938 0.045478217 -0.028408848 -0.50859916 -0.9963045 -0.16974354

l_lstm.bias_hh_l0 f4 [32]
00000000: 2e68 e6bd 395a 78bf 78ba 843e a3d2 eebe
00000010: 2dc2 59bf 5d23 c1be 0360 30bf 525c bb3d
00000020: a9b6 5fbd 3638 fb3e ff34 f3be ce34 4fbf
00000030: 9e20 f1bc 2296 febd dd24 e0be 5d79 a2be
00000040: f9da dc3d 2ae2 d2be 5f00 a63e c4b0 9abe
00000050: 6937 0dbf 96c3 1d3e 59d6 22be 8686 8a3e
00000060: ec9b a73e 1409 60bc 72f9 47be d77f 13be
00000070: 3da1 d93d 04cf cdbe 614f 37bf 08ab 3cbe
-0.112503394 -0.9701267 0.25923514 -0.46645078 -0.85061914 -0.37722293 -0.688965 0.09148468
-0.054617558 0.49066323 -0.4750137 -0.8093995 -0.029434498 -0.12430979 -0.43778124 -0.31733218
0.10783953 -0.41188174 0.32422158 -0.30212986 -0.55162674 0.15406641 -0.1590208 0.27055758
0.32736146 -0.013674039 -0.1952875 -0.14404236 0.10626457 -0.40197003 -0.716055 -0.18424618

l_lstm.weight_ih_l1 f4 [32, 8]
00000000: 0c9d 1d3f dca4 e43e b916 e8be bd2b 8cbf
00000010: 3e9f 023f 99cd 0e3f 058b 4b3e 7706 21bf
00000020: f57b 213e 7393 d63d 5a38 993f ccb8 46bf
00000030: 730c a33f 00ff 2bbf ada1 53bf 26f4 c43c
00000040: 7085 48bf 3707 453f 69e2 943f 63b3 37c0
00000050: 572a 893d b80a 0fbf af4c d0bd a950 1d40
00000060: a297 b13e c351 89be 051b 3b3d e11b 04bf
00000070: 8efb 7d3e bf65 b9bf 1b9e 3dbf 977b 2b3e
00000080: b1df a3bf 4f49 a03e b528 993e 81ff 5ebe
00000090: 447f f7bf c341 85be 3bb1 dd3f 2fbe 0cbd
000000a0: ee2f 8e3f 29c5 2b3f 0ca5 88c0 db82 e13e
000000b0: 2f9c f2bf c984 83be 83f5 4840 ac6c 1fc0
000000c0: 9704 093f 527f a23f 6170 ff3e 7bc9 78bf
000000d0: 7a21 b2bf 5de4 543f 7e5c 05be f686 be3e
000000e0: 5f9e 11bf 2de5 733f 36b8 b03f be35 a7bf
000000f0: e6dc 583f 5c90 f2be 33d7 2240 669d 953e
00000100: d4dd 6bbe ab8a 97bf c206 813f cc1b f2bf
00000110: e86a c53f f8e8 e2be 7e81 2240 8d2c 023f
00000120: 4583 ce3f 6edb dd3f 37c7 3f40 9cc8 2740
00000130: 6a4f 9dbf cfb8 aa3e 6862 bf3e ee3e c9bf
00000140: c641 1dbf fd0e 78be d178 6ebe f82e da3e
00000150: 7283 e6c0 8f10 0dbc 6cbb 0440 d51e 1040
00000160: 40e6 5b40 50b6 c93f 0c43 ad40 b047 5140
00000170: c11f d1bf bac4 653f 4b7c b13f a630 853f
00000180: ae24 2a40 ef40 843f f1d8 a040 1d94 1c40
00000190: 72f3 3d40 3875 2040 1853 7ec0 a473 b2bf
000001a0: 56fb 83bf 44da 493f 4dda 083f 80e6 92bf
000001b0: ab1e b6c0 4236 88bf c727 e1bf 84ac 7840
000001c0: 1ef5 d2be 4ce6 52be 9806 dc3e 297c 193f
000001d0: d928 09bf 99e8 b03d 26f1 9d3e 5a9d 9ebf
000001e0: 515b 46bf ea1d 833e 9b6b dabe 1dcd ff3f
000001f0: ba90 abbf 517a 10bd a525 52bf 084d 5640
00000200: 4580 bc3f af74 173f 8aac 9b3d 0867 713e
00000210: 0d81 043f 13d6 823f f022 eebd e848 063f
00000220: d4b1 a0bf e116 0ebf a906 e2bc 3df9 0bbe
00000230: d4ce 86be 385c 8cbf a52c 9e3d a26b 0cbe
00000240: 1591 a0bf 421e 8ebf b0a3 01bf 254c 31be
00000250: 6ca7 0dbf 1e1e 63bf 8236 ac3e 8b3e b23f
00000260: 209d d73f 5de7 1f3f b747 6cbe 0d50 e9bd
00000270: 1562 2d3e d366 503f b894 3cbd d278 cdbe
00000280: aaa4 92bf e696 59bf 182f 8abf 9419 1d3e
00000290: b12a 0ebf 2d77 22bf c89c d9be ee42 583f
000002a0: aea6 ce3f cb48 10be 30c1 12be 21eb 0d40
000002b0: c667 9a3f cb84 1a3f f8d5 0b3d 5d05 d5bc
000002c0: aa6e 81bf 2874 67bf 6082 32bf 93bf 7fbf
000002d0: 907e 00bf 4481 3dbf 7732 0cbe 4dc2 503f
000002e0: 1d0c a7bf b44f e6be 6342 0ebf 033b 233e
000002f0: acb9 083a b8a5 49bf 3612 403f 642b 313f
00000300: 165f d43e 9e90 92be c942 f13d 1937 82bf
00000310: 1018 863f bc76 063f 520e 1abd 8348 af3c
00000320: 2b72 463e 2f56 193f 1d8a f5be 4b01 cabe
00000330: 8769 26be a075 c73e 44e8 fbbd a12a 64bf
00000340: d01d f3bf 47d2 fbbf 7d73 9abf ab9d 0ebe
00000350: 7db9 6cc0 a84c 6a3e 75c3 edc0 9bf5 1c3f
00000360: 17e6 d1bb f935 75bf d837 bcbe d286 7f3e
00000370: 05fd bf3f 4d54 32bf eefb 1cc0 50c8 7d3e
00000380: 5204 1cbf d7eb a6bf eb43 b23f 96c8 e63f
00000390: 51cc d3bf 7733 98be 013c 413e 337f 0abe
000003a0: 0248 80be 0380 bdbe f25a f33f 9c33 a93f
000003b0: 7195 dd3f 0fbf f13e 9d1d 57c0 7143 6cbe
000003c0: 0f97 bfbd 0bad a73f 25f3 4d3e 8052 80bf
000003d0: bb0a 1ac0 77ec 213f 777c 443f 7c21 1ebf
000003e0: 6db2 00bf e677 ef3e a649 14c0 4e0b 6c3f
000003f0: 207b 9a3f 92d8 a53f 3a8a a43f c6ff 6bc0
0.6156776 0.44657028 -0.45329836 -1.0950848 0.51024234 0.5578247 0.1987725 -0.6290049
0.15769942 0.104773425 1.1970322 -0.7762573 1.2738174 -0.67185974 -0.8266857 0.0240422
-0.7832861 0.76964134 1.1631595 -2.870324 0.06697529 -0.5587573 -0.10170876 2.458048
0.34686 -0.26820192 0.045680065 -0.5160504 0.24802992 -1.4484175 -0.74069375 0.16746365
-1.280264 0.3130593 0.2991387 -0.21777155 -1.9335713 -0.26026735 1.7319711 -0.03436106
1.1108377 0.6709772 -4.2701473 0.44045147 -1.8953913 -0.25687245 3.1399848 -2.4910078
0.5352263 1.2695105 0.49890426 -0.97182435 -1.3916466 0.83160955 -0.13023564 0.37212342
-0.5688228 0.9527157 1.3806217 -1.3063276 0.84712064 -0.47375762 2.5443847 0.29221648
-0.2303384 -1.1839193 1.0080187 -1.8914733 1.542325 -0.44318366 2.5391536 0.5084923
1.613381 1.733259 2.996534 2.6216192 -1.228986 0.33344123 0.37379766 -1.572233
-0.6142849 -0.24224468 -0.23288275 0.4261396 -7.2035456 -0.008609905 2.0739393 2.2518818
3.4359283 1.5758762 5.4144344 3.2700005 -1.6337816 0.89753306 1.3866056 1.0405471
2.6584888 1.0332316 5.026482 2.44654 2.9679837 2.5071545 -3.9738216 -1.3941541
-1.0311077 0.7884867 0.534581 -1.1476593 -5.6912436 -1.0641558 -1.7590264 3.8855295
-0.41202635 -0.20595664 0.4297378 0.5995508 -0.53577954 0.086381145 0.30848044 -1.239177
-0.7748309 0.2560876 -0.4266022 1.9984471 -1.3403542 -0.0352729 -0.8208869 3.3484516
1.4726645 0.5916242 0.076012686 0.2357446 0.51759416 1.022158 -0.116277575 0.52454996
-1.2554269 -0.5550366 -0.027591066 -0.13669296 -0.26329672 -1.0965643 0.07723359 -0.13712934
-1.2544276 -1.1102984 -0.5064039 -0.17314203 -0.5533359 -0.8871783 0.33635336 1.3925337
1.6844826 0.6246241 -0.23074232 -0.113922216 0.16931947 0.814069 -0.046040267 -0.4013124
-1.1456501 -0.8499588 -1.0795622 0.15341789 -0.5553389 -0.634631 -0.42502427 0.84477127
1.6144617 -0.14090268 -0.14331508 2.2174761 1.2062919 0.60358876 0.034139603 -0.026003534
-1.0111897 -0.90411615 -0.69730186 -0.99901694 -0.5019312 -0.7402537 -0.13691126 0.8154648
-1.3050572 -0.44982684 -0.5557005 0.1594048 0.00052156555 -0.7876849 0.7502779 0.69206834
0.41478795 -0.2862596 0.117803164 -1.0173064 1.0476093 0.52524924 -0.037611313 0.021396881
0.19379489 0.5989713 -0.47956935 -0.3945411 -0.16251193 0.38956928 -0.123001605 -0.89127547
-1.8993473 -1.9673547 -1.2066494 -0.13927333 -3.6988213 0.22880805 -7.4301095 0.61312264
-0.0064056027 -0.9578548 -0.36761355 0.24953774 1.499909 -0.6965988 -2.4528766 0.24783444
-0.6094409 -1.3040723 1.3926977 1.8029964 -1.6546727 -0.29726765 0.18870546 -0.13525085
-0.25054938 -0.37011728 1.9012129 1.3218875 1.7311231 0.4721608 -3.3611825 -0.23072602
-0.09354984 1.3099684 0.20112284 -1.0025177 -2.406905 0.6325144 0.7675242 -0.61769843
-0.50272256 0.46771163 -2.3169951 0.9220475 1.2068825 1.2956717 1.2854683 -3.6874862

l_lstm.weight_hh_l1 f4 [32, 8]
00000000: 029e bdbf a8cc 873f 0cec e23f d1e9 e7bd
00000010: d42f ad3f e4e0 0740 4a51 1840 4970 493f
00000020: 8079 36c0 4c97 c93f 0281 b4be 652f c1bf
00000030: da69 1140 7b91 e8be e34f ddbd 1368 d83f
00000040: 1002 e73e 7b69 81bf c1ad 3d40 69cf 423f
00000050: 315a c83f 20f6 7740 aaf4 42bf 2dc2 e5bd
00000060: 32c7 5ebe aee2 92bd 9926 123f 2f31 3ebf
00000070: 202c 3abe 2e07 20be b4ad 99be 6d64 683e
00000080: 9164 753f 8b52 5dbf 5f7a ab3e 6e00 57bf
00000090: 688c d2bd 267f 60bf 2b1c a2bf e93b 09bf
000000a0: 156c b2bf 06c0 aebe 3a2c 65c0 9da2 933f
000000b0: bfae 083f f9ef ac3e 1f5c fdbe ae47 d03e
000000c0: 2fad 423e b065 9d3d 1d97 1140 013c 67bf
000000d0: 54af 0240 1b31 0740 37ae dfbe 4483 953f
000000e0: 2519 1abe fa95 b9be d502 d5be 0465 743e
000000f0: e410 f03f b263 8ebe a78a 78bf 5ef7 d33f
00000100: fcda 873e dbfc 5cbe 1b02 0fbf c7dd 25bf
00000110: 57da 873e dfac 13c0 794d fe3e ce58 283f
00000120: 3fa4 783f 1206 f4bf 0214 99c0 22d6 3b3f
00000130: 322e 24be cf21 0c3f 78aa a1c0 4c4a 88bf
00000140: 2d14 ce3f 70d6 be3d 2279 c2be 74a9 09bf
00000150: acd0 eabe 30a6 11c0 da0f 2ebf 3ebc 8ebf
00000160: 3ba0 f03f ce9e ecbf 3de0 08c0 0b44 ba3e
00000170: 5ead 7ebf 85cb 3ebe 7d97 19c0 8a8f 1cc0
00000180: 7525 183f 89af 72bf 6679 adbf 1ace fe3f
00000190: 89c2 47bf 1b2a 233f e489 babf 4044 fbbf
000001a0: 76b5 0d3f e8a6 99be 774e a440 0bae 13c0
000001b0: b1e9 f63f 51cf 52bf cc5d e6be d0ae a8be
000001c0: 00e1 f6bf 1ad4 8e3f 0cb2 0b3f 7245 9dbf
000001d0: 1b16 94be be90 1ebe 961d f13e 42f2 053f
000001e0: 9e14 8a3e e283 e4be 7942 2dc0 56a3 93bf
000001f0: 5fc5 5a3f cf8c bcbf 2ea3 49c0 7d91 babc
00000200: b316 12bf 65ea 8d3f e3f9 17bf 01e5 b9be
00000210: d93e 943f 9a30 143c 8eed aa3d 582c 6c3f
00000220: 955c 17bf a104 87bf 09a2 a73d 6b88 493f
00000230: d683 a0bf 6b0d 893e 5044 b33d 9821 8fbe
00000240: f1a9 963f 014e 90bf e7d0 debf 2618 e33f
00000250: 34dc c3bf 23bd 933f 2a0c 24bf 6d63 8ebf
00000260: ba8f 983e 1909 9b3e 9399 3e3e 7251 18c0
00000270: e42f 9b3f 5b8e 33bd 0203 5b3f c690 593f
00000280: 2849 cdbe f5d2 3f3f ac0c f73e 04ef 72be
00000290: 8453 32c0 e7e5 d5be 4f14 d9be fbbb 823f
000002a0: 1379 163f ce53 cabf c2ff 7abe 6357 71bf
000002b0: a35f 073f bde9 0fc0 b5af cebf f200 06c0
000002c0: 0d8e 1a3f bb79 d3bf 30be eb3e 14fe 803f
000002d0: f2c3 5dbf b059 8d3f 703d 84bf 0890 e7bf
000002e0: a957 8abe 2fa2 483f 57e7 483f a519 a33e
000002f0: 3f39 2bc0 5468 e23e 7915 e33d a017 13c0
00000300: 821c 54bf 5c45 d13e c971 033f a7b2 c73d
00000310: 6796 35be d539 c03e 56a8 9c3f bc3d 44be
00000320: 31ab 2dbf ae5d 75be ac63 c03e 2bd0 893e
00000330: d113 0f3f 2723 24bf cb84 9ebf 3f2d 023f
00000340: bba3 4b40 0348 acbf 8487 973f 8db7 0140
00000350: 4de5 2f40 0a6d 9640 b70d b0bf 0a8a 953e
00000360: 5cd2 363e 140c 3cbf 16cb c13e 9443 b13e
00000370: dcda 91bf a6f7 9bbe 9c3a 71bf 8799 cdbe
00000380: 5335 8abe a5ed 663f 8bdf 873e 2be0 86bf
00000390: 5a36 503f ef2e 98bf a04b fc3e be0f 14bf
000003a0: e7bd e9bf 74f7 c03f 46a8 b0bf c637 9b3e
000003b0: fe3c ab3f 056a 3440 051f f53d dfe9 a93f
000003c0: a35d c6be cd41 ba3e c840 7d3f dd24 7cbf
000003d0: 7dab f93e 2fac 8d3e 414f 93be 12dd 433f
000003e0: 0397 2a40 c945 f8bf f374 f73f 3cf7 c6be
000003f0: 04c0 4b3f bbf8 19bf 2bfc e7bf 1b32 96bf
-1.4813845 1.0609331 1.7728286 -0.11323894 1.3530221 2.1231012 2.3799615 0.7868696
-2.8511658 1.5749297 -0.35254675 -1.5092589 2.2720857 -0.45423493 -0.10806253 1.6906761
0.4511876 -1.0110315 2.96373 0.7609773 1.5652524 3.8743973 -0.7615458 -0.11218677
-0.21755674 -0.07172142 0.57090145 -0.742938 -0.18180895 -0.15627739 -0.30015337 0.2269456
0.9585658 -0.86454076 0.334918 -0.8398503 -0.102806866 -0.87694013 -1.2664846 -0.5360704
-1.3939234 -0.34130877 -3.5808244 1.1534001 0.5339164 0.33776835 -0.49484345 0.40679687
0.19011377 0.07685411 2.2748482 -0.90325934 2.0419512 2.1123722 -0.43687603 1.1680684
-0.15048654 -0.36247236 -0.41603723 0.2386666 1.8755155 -0.27810436 -0.97086567 1.6559865
0.2653426 -0.21580832 -0.5586259 -0.6479153 0.26533768 -2.3074262 0.49668482 0.65760505
0.9712562 -1.9064353 -4.7836924 0.73373616 -0.16033247 0.5473909 -5.052059 -1.0647674
1.6099907 0.093182445 -0.37983042 -0.5377419 -0.4586233 -2.2757683 -0.6799294 -1.1151197
1.8798898 -1.8485963 -2.1386864 0.36380038 -0.9948329 -0.18632324 -2.399871 -2.446261
0.59432155 -0.94799095 -1.3552673 1.9906647 -0.7803121 0.6373612 -1.4573331 -1.9630203
0.5535501 -0.30010152 5.134578 -2.3074977 1.9290067 -0.8234759 -0.44993436 -0.3294587
-1.9287415 1.1158478 0.5456855 -1.2286818 -0.28923115 -0.15484902 0.47092885 0.5232278
0.26968855 -0.4463187 -2.7071822 -1.1534221 0.85457414 -1.4730471 -3.1505847 -0.022774452
-0.57065886 1.1087157 -0.5936567 -0.3630753 1.158168 0.009044791 0.08346091 0.92255163
-0.59125644 -1.0548288 0.08185203 0.7872378 -1.2540233 0.2676805 0.08753264 -0.27955317
1.1770612 -1.1273805 -1.7407502 1.7741745 -1.5301576 1.1542095 -0.6408106 -1.1124092
0.29797155 0.30280378 0.18613271 -2.379971 1.212399 -0.043836933 0.85551465 0.8498653
-0.40094876 0.7493127 0.48251855 -0.2372399 -2.7863474 -0.41776964 -0.42398307 1.0213617
0.58778495 -1.5806825 -0.24511626 -0.94273967 0.52880305 -2.2486413 -1.6147372 -2.0938077
0.60373 -1.6521524 0.4604354 1.0077538 -0.86627114 1.1042995 -1.0331249 -1.809083
-0.27020004 0.7837247 0.78477997 0.31855503 -2.675369 0.4422022 0.1108808 -2.298317
-0.82856 0.4087323 0.513455 0.09750872 -0.17733155 0.37544122 1.2238872 -0.19164175
-0.6783934 -0.23961517 0.37576044 0.26916632 0.5588961 -0.6411614 -1.2384275 0.5085029
3.1818683 -1.3459476 1.1838231 2.026828 2.7483704 4.7008104 -1.3754185 0.29206878
0.17853683 -0.7345593 0.37850255 0.3462187 -1.1394916 -0.30462378 -0.94230056 -0.40156195
-0.26993808 0.90206367 0.26537737 -1.0537161 0.81332934 -1.1889323 0.49276447 -0.5783652
-1.8261079 1.5075517 -1.3801353 0.3031599 1.3377988 2.818971 0.11968807 1.3274497
-0.38743314 0.36378327 0.98926973 -0.9849375 0.48763648 0.27670428 -0.28771403 0.765092
2.665467 -1.9396297 1.9332565 -0.388605 0.7958987 -0.6014516 -1.812383 -1.1734041

l_lstm.bias_ih_l1 f4 [32]
00000000: c7a9 79bf ec42 7bbe ecd0 78bf 67c2 e93d
00000010: ac3f 01bf 3292 453d 690c 4bbf c319 7bbf
00000020: e38d 51bf 6629 48bf 0d33 12bf 622a f7be
00000030: 52c7 16bf 8fc0 efbf ffcb ac3e 430d 163e
00000040: 0188 263e 87f7 90be e543 673e cc7c 5d3d
00000050: dfd5 67be 1dff c13d ed4c a9bd b606 29bd
00000060: 93ee a1bd 8b32 1abf 40b7 b1be 7bc4 d9bd
00000070: 8caa 07bf 3ded dabd 9483 14be 6690 af3e
-0.97524685 -0.24537247 -0.9719379 0.114140324 -0.5048778 0.048235126 -0.7931581 -0.98086184
-0.81857127 -0.7818817 -0.5710915 -0.48274523 -0.5889789 -1.8730639 0.33749387 0.14653496
0.16262819 -0.28313848 0.22584493 0.054074094 -0.22640179 0.09472487 -0.082666256 -0.041266166
-0.079068325 -0.6023337 -0.3471012 -0.10633179 -0.5299461 -0.10689781 -0.14503318 0.34289855

l_lstm.bias_hh_l1 f4 [32]
00000000: dbdc 12bf ac6b 9fbe a1e4 3abf 5678 8abe
00000010: 4efd 35bf 91a0 17bf 5dd3 65bf 4d10 84bf
00000020: 2911 fdbe 2538 5dbf 3387 13bf 2e0b 25bf
00000030: 4b91 5bbf c738 bcbf 8a38 ec3d aeb3 093e
00000040: 2eb3 96bd ddc5 733e 6553 3cbe 560e 013e
00000050: f735 5e3e ee04 263e 4830 d83d 75a3 0bbd
00000060: f8cb 4ebe 46a2 a8be ebdd b5be 4e3b 96be
00000070: 8a5b 24bf 0d70 86bd 1e4a 59be 10bc cf3e
-0.5736825 -0.31136835 -0.7300511 -0.27044934 -0.7108964 -0.5922938 -0.8977564 -1.0317475
-0.49427155 -0.86413795 -0.5762817 -0.64470184 -0.85768574 -1.4704827 0.115342215 0.13447449
-0.073583946 0.23805948 -0.18391187 0.12603125 0.21700273 0.16212818 0.10556084 -0.03409143
-0.20194995 -0.32936305 -0.35520872 -0.2934212 -0.6420218 -0.06564341 -0.2121968 0.40573168

l_linear.weight f4 [1, 8]
00000000: 2c81 053f 4e10 e6be 1862 57bf b492 ff3e
00000010: 0a00 d0be 19b5 873e 111d fdbe 9937 afbe
0.52150226 -0.44934314 -0.84134054 0.49916613 -0.4062503 0.26505354 -0.49436238 -0.34222105
