citylearn/data/datasets/ca_alameda_county_neighborhood/resstock-amy2018-2021-release-1-136749.pth (torch, 8966 bytes, 9 tensors)

l_lstm.weight_ih_l0 f4 [32, 13]
00000000: d222 73be 1c3c 0abf a359 773d fc76 4fbe
00000010: ca6c e4be bc31 91be 01f9 d9bf 831b a13e
00000020: 49ff 8bbe 8d3c 123e 2f8a 093e 7351 883d
00000030: 8323 f1bf dfc2 acbe 6339 553e 30fa 8a3e
00000040: 7db6 d83e 50ae 0bbf 8d5a 833d 3adb b4bf
00000050: adc1 cf3f 3a56 703f ef54 4cbf e55b 243f
00000060: 9079 e33c e9c4 6c3f 70da 99be 4704 e4be
00000070: af36 08be f435 243e 70ff 0bbf 30a8 81be
00000080: 473b 683f 806d de3f f12c 483d dd7a 713f
00000090: eea6 4e3f f273 b9be c457 64be eab7 0e3f
000000a0: 709f 83be c6fc 43bb aab0 1c3e 1a96 62be
000000b0: b9e1 b3bf c224 2440 d39b 1540 547e e5bc
000000c0: 1521 97bd b5ac b53f 4ce7 c83d bcd9 923e
000000d0: cd66 123e e858 743f 6864 22be 67ac 913e
000000e0: 2ad3 cbbf f5f7 1b3f 6f1d 06c1 33e3 7b40
000000f0: a6c1 6b3d 80cd d83d a9d0 423f ddf2 0a3f
00000100: 023a 44be 65ab 903f e4fd d33e 6f7f 1b3c
00000110: 8895 e83b 73ea c83e e192 ad3e 89e5 a53f
00000120: 0724 9bc0 586e 04bf a3bb aebf 901b c1bf
00000130: 1dab 04be beb8 7fbe a699 9dbe 19e8 923d
00000140: 1a02 cdbd 3013 b13c b373 7c3f a028 86be
00000150: 5155 883f d540 5bc0 fa23 b43f 066c f93b
00000160: 4195 1a3f 2bfd 2abe 5286 0b3f 477f 83be
00000170: 8e3a 4bbe 3bf7 cdbd 7ae6 86be b180 70bf
00000180: f189 7fbe 3938 ccbf 6ae8 9540 ef0d e23e
00000190: 5f48 04be 55a9 aa3f 6e14 1cbf 5353 b93d
000001a0: fb3f b23d 9c5a ffbd 7e0f 763e 53dc 7bbe
000001b0: 3237 4b3e e1ff 81bf f431 a1bf 974b 8a3f
000001c0: 629e b83e 6378 183d aca7 0abe 801a d2be
000001d0: da57 d6bf c031 e03e 2b29 2d3f a563 43bd
000001e0: bdd5 8ebe 54ba e33e abb6 1e3f 6391 353f
000001f0: aec0 6bbf 2330 afbe 6dda 57bf ae92 723f
00000200: 05f4 4cbe 974b b63f e47e 28bf 3d47 c83e
00000210: 8406 413e 01b2 a93d c367 283f 5d02 ce3e
00000220: 29ee 97c0 7d55 8fbf 8447 ec3f 632f 5840
00000230: a319 88be 9e66 9abf 5b59 4c3f c93a a73f
00000240: 72c7 56bf c6bd a4bd e123 07be cb63 09bf
00000250: cc09 e43c 39d6 6c3f c798 5340 58dd a0bf
00000260: 9a16 8cbf 0e2c 9c3f faf9 4bbd aaa6 d03e
00000270: a2c3 98bf 28ea 0abe ad58 023e 4993 9ebe
00000280: bd5b 14c0 e67b 44bf 0605 8cc1 275c c440
00000290: 2c4b af3f b611 f43f ba5d 1a40 9d33 4e3f
000002a0: c7b9 98bd c314 f4bf 0cd5 a0be 94da 96bd
000002b0: add7 a23d aa59 323e 19db 7abe 8825 4fbe
000002c0: db5c 3bc1 56ea a0be 819b df3e 2bcc 1540
000002d0: aa12 2c3e 0cf3 c4bf 26a6 823e e674 673d
000002e0: 521a ba3c 168b 3f3d 1114 a83d e201 62be
000002f0: a2ff 15c0 d199 46be 13ed c5bd aee1 25bf
00000300: 39fe ccbe 34d4 4e3e 9ff5 24bf 9963 bd3f
00000310: 0f4f 01c0 2f7e 78be 54cb 4cbf 1276 f13f
00000320: 6231 cf3f fd4e 5fbf 6a70 72c0 f577 3fc0
00000330: fafd 6ac0 e437 64be 58ce 6e3f 3db6 213f
00000340: 81f0 fbbe 1b7d 83bf 417a debe 2074 6abe
00000350: e92f 60bf 4023 533f d19d bec0 c436 db3f
00000360: 8e3d d6be 0778 95be 8c0b 783f 3dc0 44bf
00000370: d0ff 0c3f 3d1a 533d b8ec 543e 30b2 853c
00000380: b6ab 593d 2a73 543e 9d55 75be 940e 31c0
00000390: 24c4 473e 6f9a 26be cfc5 7abf d9ce 4cbe
000003a0: 9440 733d b590 debf 39f7 8dbe b096 90be
000003b0: 56a1 d2bd 7765 113d 0e97 11be fb00 103e
000003c0: e083 5a3f 826b 913f d224 bbbe 0182 d23d
000003d0: 1189 eabe 5c2f 713e e0ed e93f 1921 823d
000003e0: 6294 963d c61e a33c 9c05 653d 9e65 833e
000003f0: 5fff c8be 5aa1 58c0 a96a 35bf 7d5b 4bbd
-0.23743752 -0.5399797 0.06038822 -0.20260233 -0.4461425 -0.28358257 -1.7029115 0.31466302
-0.27343205 0.14280911 0.13431619 0.0665616 -1.8838962 -0.33742425 0.20822673 0.27144003
0.42326728 -0.54562855 0.064137556 -1.4129403 1.623098 0.9388157 -0.798171 0.6420272
0.027767926 0.9248796 -0.30049467 -0.44534513 -0.1330211 0.16036206 -0.5468664 -0.2532363
0.9071545 1.7377167 0.048870984 0.943281 0.80723464 -0.36221272 -0.22299105 0.5574938
-0.2570758 -0.0029905303 0.15301767 -0.22127572 -1.405326 2.5647435 2.3376358 -0.02801434
-0.07379357 1.4193331 0.098097414 0.28681743 0.14297028 0.9544816 -0.15858614 0.28451845
-1.5923817 0.6092523 -8.382186 3.9357421 0.057557724 0.10586071 0.7609964 0.5427683
-0.19162753 1.1302305 0.4140464 0.009490832 0.0070979036 0.3924137 0.33901122 1.2960674
-4.848148 -0.5173087 -1.3651012 -1.5086536 -0.129559 -0.24972817 -0.30781287 0.07173175
-0.100101665 0.021615595 0.98614043 -0.2620287 1.0651037 -3.425832 1.4073479 0.0076117544
0.60383993 -0.16698138 0.5450183 -0.25683042 -0.19846556 -0.10056921 -0.26347715 -0.9394637
-0.24954964 -1.5954658 4.684621 0.44151255 -0.12918232 1.3332926 -0.60968673 0.09049096
0.087036096 -0.12468454 0.24029347 -0.24595766 0.19845274 -1.0156213 -1.259337 1.0804318
0.36058336 0.037224185 -0.13540524 -0.41035843 -1.674556 0.43787956 0.6764094 -0.04770245
-0.27897444 0.44478095 0.6199748 0.7092497 -0.9209088 -0.34216413 -0.84317666 0.94755065
-0.20014961 1.4241818 -0.6581862 0.3911685 0.18850142 0.08285905 0.6578333 0.40236178
-4.7478223 -1.1197964 1.8459325 3.3778923 -0.2658206 -1.2062566 0.79823846 1.3064815
-0.8389808 -0.08044009 -0.1319728 -0.53667897 0.027836703 0.9251438 3.3061998 -1.2567549
-1.0944397 1.2200944 -0.049798943 0.40752155 -1.1934702 -0.13565886 0.1272914 -0.30971745
-2.3180993 -0.76751554 -17.502453 6.136249 1.3694816 1.9067905 2.4119706 0.80547506
-0.07457309 -1.9068836 -0.31412542 -0.07365909 0.07951293 0.17417017 -0.24497642 -0.20229161
-11.71017 -0.31428784 0.43673328 2.3405864 0.16803995 -1.5386672 0.25517386 0.056507967
0.022717629 0.046763502 0.08206952 -0.2207103 -2.3437276 -0.19394614 -0.09664359 -0.64797485
-0.40037706 0.20198137 -0.6443729 1.479602 -2.0204504 -0.24266885 -0.79997754 1.8864157
1.6186945 -0.872299 -3.7881112 -2.9916966 -3.6717515 -0.22286946 0.93283606 0.631687
-0.49206927 -1.0272554 -0.43452647 -0.2289586 -0.87573105 0.8247566 -5.9567647 1.7126088
-0.41843837 -0.29193136 0.9689262 -0.7685583 0.5507784 0.051538695 0.20793426 0.016320318
0.053142272 0.20747057 -0.2395844 -2.7665148 0.19508415 -0.16269849 -0.9795808 -0.20000781
0.05938776 -1.7387911 -0.27727678 -0.28239965 -0.10284679 0.035497155 -0.14217779 0.14062874
0.85357475 1.1360934 -0.3655153 0.102787025 -0.45807698 0.23553222 1.8275719 0.06353969
0.073525205 0.019912135 0.055913553 0.25663465 -0.39257333 -3.384848 -0.70865875 -0.049647797

l_lstm.weight_hh_l0 f4 [32, 8]
00000000: 492c 833e 9709 7abf 3ae0 a93c ffeb a0bd
00000010: ee1b 473c 2b17 163f daee 46bd a3af c83e
00000020: 1238 453f 5761 053e 7cf4 1a3f c65e 68bf
00000030: 1f96 4abf dcc5 50be f3a3 f6be faa5 76be
00000040: 60ca 693f 0944 863f 2c06 b9be 2230 b9bf
00000050: a938 363e c7f6 073f 5d34 b53e fece 4f40
00000060: 8358 bf3f b0da 753f bcf0 5b3d 7bd9 0740
00000070: 770c 49bf 9dea 2f3f e222 0f40 fd67 17c0
00000080: 90f8 6fbe c6a8 47bf c3bd e73e a367 94be
00000090: 7acb 83bf 9a76 0440 f546 a73f a58e 0cbf
000000a0: ba5b e3be 932a 883f 71f1 8640 d32a 8a3f
000000b0: 163c 7f3f f600 3440 88cb c2bf a97e 8540
000000c0: 73d5 20c0 270d d3bf feb9 be3e 5f03 1740
000000d0: a574 173f 814e 7cbf 8dde b3be 3a29 b240
000000e0: 4fd6 ba3f cd60 98bf 6f06 88bf 0c63 003f
000000f0: c831 0cc0 3b55 b63f a34d 2440 2bce 81bf
00000100: 2d16 fb3d 5a84 95be 1d20 973f 8ea4 f1be
00000110: 898d b03e 56d8 7f3f e5cd 3e3f 0c41 38be
00000120: ab57 5d3f 9987 b73e 34a2 20be 38ec e5be
00000130: dc18 4bbe 79e3 7ebf 46ad 78be 2062 e4be
00000140: 8f97 85bf d6dc 2040 a8f4 f43e 11ba 8640
00000150: 1118 423f 4dcb 2e3e e970 afbf 1b80 2f40
00000160: 0554 1940 dc92 d1be caa5 5b40 f67f e43e
00000170: 35d4 6ebf c9a7 2840 0009 83bf 7683 9240
00000180: a732 26bf b15d 77c0 0f59 a43e 07eb d5be
00000190: 4b31 b6c0 5223 c83f e7b4 b63e 91ae 38bf
000001a0: 5111 aebf 6399 473f 8f9c eebf ab7a 9f3f
000001b0: 302d 54c0 4d2b 78bf eb29 a53f 5aa0 e2c0
000001c0: 08d0 3e3e cf88 973d 7fe3 283f 6c6c 113f
000001d0: 4aba e1bd 926a 1e3f e805 5fbe 3327 edbe
000001e0: 5c4d 583e 412a d5bf aa99 a0bf c12c d93f
000001f0: 8594 4e3f ba33 11c0 279e a4bf e6cd 66bf
00000200: 644d 0fc0 0144 df3d beb1 04c0 328b 623f
00000210: 0fda c2bf 9093 2940 6a9f d3be 3523 e3bf
00000220: e3a2 0bbf 38a2 21be 2b51 623e 608d 54be
00000230: c890 1a3f 2b38 4f3f 8fff b93d 253b 30c0
00000240: 57df ea3e c0f3 7d3e 81bd 94bf 6cbb bd3f
00000250: 53d2 863e 1c85 bb3e 59df 13be 5dad 603f
00000260: 8093 24bf 2890 2cbf 30c4 333f aecf 7fbf
00000270: afa9 f43e 03ae 583f d070 73be 0a57 29be
00000280: 0f08 7c3f 068d e6bf c03a c3be 9b80 18c0
00000290: 5293 393e 19e5 da3d 8f20 d13e 2967 5ec0
000002a0: b6e9 353e cac2 c3be 2540 b6bf 9cfd 363f
000002b0: 579a 8cbf 0d38 af3f d06c 1140 cc0a 3abd
000002c0: 5a38 4a3f 1857 043e 263e f3be b829 02be
000002d0: fd38 f1be 26e2 86be b58f 28bf ade7 a53e
000002e0: ffd2 4a3e c6f9 6a3f 04ea 3140 f856 ef3e
000002f0: 61a8 91bf ad6e 573e 9caf 04bf 7a58 07bf
00000300: 15ff 8bbe ca7d 0dbf 9a61 96be dec6 5d3f
00000310: 96ae 073f cc04 9e3e ec72 87be bff4 a1bf
00000320: 0eee cb3f ed8b f13e 13a1 d13e a64b 62bf
00000330: 7bee d5be e7ee 1e3e 0ec4 7ebc 051d 9bbe
00000340: f050 0dc0 cc34 1740 b213 f73f 1b12 863f
00000350: 73a4 69bf 89b1 563f 7deb 76bf bde0 1d40
00000360: 8a2b 8c3f 7b04 2abc 0934 6d40 2821 cc3f
00000370: 99d0 963f 0587 2cc0 fb16 5c3f bfbb 793f
00000380: 1654 ec3f ea88 f93f 3503 c8bf e731 893f
00000390: 35b8 973e f327 a9c0 e804 913f 2660 acbe
000003a0: da03 ad3e e18a 453f d84c ddbe 59a9 ebbd
000003b0: da68 6cbe 6a5f 383f 9f7b 493f c8c5 2dbf
000003c0: b2e3 80bf 75f7 4d3f 3646 20c0 3b13 cebf
000003d0: 3f5b 133f ec57 bec0 a5f4 81c0 62a3 12c0
000003e0: f0e4 a83e 40ec 79bd 24bb d9bd 961e 8ac0
000003f0: 911a 06c0 d96a 773f 86c8 a2bf 4fee a0c0
0.25619724 -0.9767088 0.020736802 -0.07857513 0.012152655 0.586291 -0.04856763 0.391965
0.7703868 0.13025413 0.60529304 -0.9076961 -0.79135317 -0.20387977 -0.48171958 -0.24086753
0.91324425 1.0489513 -0.3613752 -1.4467814 0.17795052 0.5311093 0.35391513 3.2470088
1.4948887 0.96036816 0.05369638 2.122649 -0.78534645 0.68717366 2.236504 -2.365722
-0.23434663 -0.779919 0.45261964 -0.2898532 -1.0296471 2.0697389 1.3068529 -0.5490516
-0.4440592 1.0637993 4.216973 1.0794319 0.9970106 2.8125587 -1.5218363 4.1717114
-2.513028 -1.6488389 0.37251276 2.3595808 0.5916236 -0.9855729 -0.3513073 5.5675325
1.4596652 -1.1904541 -1.0626963 0.50151134 -2.1905384 1.424476 2.5672386 -1.0141042
0.12260089 -0.2920254 1.1806675 -0.47195858 0.34482983 0.9993948 0.7453292 -0.17993563
0.86461896 0.3584564 -0.15686876 -0.44906783 -0.19833702 -0.99565846 -0.24284849 -0.44606113
-1.0436877 2.5134788 0.47842908 4.210213 0.7581797 0.1706974 -1.3706332 2.742194
2.3957531 -0.40932357 3.431994 0.44628876 -0.9329255 2.6352408 -1.0237122 4.5785475
-0.6492104 -3.8650935 0.32099196 -0.41780874 -5.693517 1.5635779 0.35684893 -0.7214137
-1.3599035 0.77968425 -1.8641528 1.245931 -3.315258 -0.9694107 1.2903417 -7.082074
0.18634045 0.07399141 0.6597213 0.56806064 -0.1102186 0.61881363 -0.21779597 -0.4631897
0.2112326 -1.665352 -1.2546895 1.6966783 0.8069537 -2.2687821 -1.2860764 -0.90157926
-2.2390985 0.109016426 -2.0733485 0.88493645 -1.5222796 2.6496315 -0.4133256 -1.7745119
-0.5454542 -0.15784538 0.22101276 -0.20757055 0.6037717 0.8094508 0.09081947 -2.75361
0.4587352 0.24800014 -1.1620332 1.4822822 0.2633234 0.36624992 -0.14440669 0.8776453
-0.6428757 -0.67407465 0.70221233 -0.9992627 0.47785708 0.8464052 -0.23773503 -0.16537109
0.98449796 -1.8011787 -0.3813076 -2.3828495 0.18122604 0.10688228 0.40845153 -3.4750464
0.17764935 -0.3823455 -1.4238325 0.7148073 -1.0984601 1.368898 2.2722664 -0.045420453
0.78992236 0.12923849 -0.47508353 -0.12711227 -0.4711379 -0.26344413 -0.6584428 0.32403317
0.19807051 0.91787374 2.7799082 0.4674604 -1.137951 0.21038313 -0.5183046 -0.5286938
-0.2734305 -0.55270064 -0.2937134 0.8663157 0.5300077 0.30863035 -0.26454866 -1.2652816
1.5932024 0.47177067 0.40943202 -0.8839668 -0.4178351 0.15520822 -0.015549673 -0.30295578
-2.208065 2.3625975 1.9302886 1.0474275 -0.91266555 0.8386465 -0.96453077 2.466842
1.0950787 -0.010377045 3.706301 1.5947618 1.1782409 -2.695741 0.85972565 0.975521
1.8463161 1.9494908 -1.5625979 1.0718354 0.29632726 -5.2861266 1.1329622 -0.33667105
0.33792 0.7716504 -0.4322269 -0.1150691 -0.23086873 0.7202059 0.78704256 -0.67879915
-1.0069487 0.80455714 -2.5042853 -1.6099619 0.57561105 -5.9482327 -4.061114 -2.291222
0.32987165 -0.06101632 -0.10631397 -4.3162336 -2.0953715 0.9664741 -1.2717445 -5.0290904

l_lstm.bias_ih_l0 f4 [32]
00000000: 8588 86bd c98d 20bf c444 b8be 3456 fdbe
00000010: 6c59 19be bd64 d73e 78b4 123f 5ccd 78bf
00000020: d0a8 32be 4638 88be fc5e 3a3f e3ad 42bf
00000030: e51d 5dbf 1cf1 1c3f 18e4 0cbe ee16 d63c
00000040: 4100 9cbe c3a8 243f 80b9 08bf 9b41 063f
00000050: c0a8 bf3e 6798 3ebf e829 12bf 5b28 853e
00000060: 4d4d 133f 89bd 1abf e773 673e f88e 94be
00000070: 35a2 22be c1f8 a7be 0c48 0b3f f389 96bf
-0.06569008 -0.62716347 -0.35989964 -0.4947983 -0.14975518 0.42069045 0.57306623 -0.97188354
-0.1744721 -0.26605433 0.72801185 -0.7604658 -0.8637374 0.61305404 -0.13758886 0.02613398
-0.30468944 0.6432001 -0.5340805 0.52443856 0.37433434 -0.744513 -0.57095194 0.2600735
0.57539827 -0.6044546 0.22602807 -0.29015326 -0.1588219 -0.32806972 0.5440681 -1.1760849

l_lstm.bias_hh_l0 f4 [32]
00000000: 0e89 183e 2904 6bbf 6b4e 3fbf 90be 0abf
00000010: c8d6 85bc 7874 39be e432 683f 32a5 28bf
00000020: db99 4a3d 0963 dcbe ebb6 d73e 9f93 96bf
00000030: 812e 3abf 03d6 3d3f 9a3e 0fbe ed4e e7be
00000040: 33dd 06bf a855 253e 0d5c 303c a786 8e3e
00000050: 05d4 fe3e bfd5 57bf f80c f7be 1015 8d3d
00000060: 1937 cf3e 0852 47bf 63a9 4b3d a1c7 17bf
00000070: 9625 843b 0e77 d0bc 4c8d 723f ca78 8dbf
0.14896032 -0.9180322 -0.7472903 -0.54197025 -0.016337767 -0.18110836 0.9070265 -0.6587707
0.049463134 -0.43044308 0.42131743 -1.17638 -0.7272721 0.7415468 -0.13988724 -0.45177403
-0.52681273 0.16145957 0.010764134 0.27837107 0.49771133 -0.84310526 -0.48252082 0.06888783
0.40471724 -0.77859545 0.049722087 -0.59288985 0.004032801 -0.025447395 0.9474685 -1.1052487

l_lstm.weight_ih_l1 f4 [32, 8]
00000000: ad58 0c3f ce57 e93f a650 d03f 1002 08c0
00000010: fe6b 573f fcfb e93f c338 4abf f5eb 6040
00000020: 5445 bc3e ac4e b93d cf58 18bf e5a9 40bf
00000030: c8b5 2fbc 0391 9a3e 8ba8 28bf bd25 30bf
00000040: 28be 4fbf 068b 053f 65c3 70bf ba48 44c0
00000050: 9f07 be3f 9d34 d63f ee2e 93bf e11f a03e
00000060: 7535 d13e c216 533f d330 ac3f 36ff c9bf
00000070: 0724 913f 3ac9 f1bf d2d6 893f f165 70be
00000080: d55f 243f 35e3 40be 00df d4be 3d31 983f
00000090: bc7d 30bf 4c51 7bbf 1e28 c8be a86b 1fc0
000000a0: 388c 96be f06c c83d bf6f 63bf eb72 27bf
000000b0: ed48 b63e b363 963e e74c 2abf 5c3b 0ec0
000000c0: 48f6 02bf 23ba 343f a0f6 58bf e7d5 39be
000000d0: a683 3b3e 6211 10bf 3574 89bf 6abf 30c0
000000e0: 83b8 7abe f5ca 16bf 39e8 b13f 2006 2c40
000000f0: 3f80 cbbf b867 233f 5ac2 bf3f cb2e f1be
00000100: da08 833f d13e 5640 4a6c 87be 32fc 09bf
00000110: ec8f d8bf eac8 60bf 2201 cbbf da43 2dc0
00000120: 6637 6d3e a1e1 92be f607 863f 6f19 c6be
00000130: 93b5 9e3e 1129 9e3f d67f 773f 6a29 af3f
00000140: d845 663f 5942 babe 7b3f 2040 c807 a63f
00000150: ebe1 4c3f c9db 363f 85cc 663e d233 d8be
00000160: 4015 0a3f e176 123f 3c21 2940 596c 23bf
00000170: f545 7abf a555 95be 761d bebe ba40 3840
00000180: 3013 8a3f ce1e 90bf 01e5 64c0 8a06 6cc0
00000190: 55b3 26bf 795e c33d 991d 7740 dbe5 9ec0
000001a0: 73b9 1a3f ffe1 35bc 4768 823f 8d97 1c40
000001b0: b6f9 28be efaa bf3e b6ce fbbe d5d1 9d40
000001c0: 1dce 7d3e 4898 6fbf b125 233f c25d a5be
000001d0: f1d0 f0bd 2f0e 4dbe 3f36 e83e 77cf b13f
000001e0: c1df 843e ce83 4740 a540 d53f 7a67 193f
000001f0: 5796 5b3f 927f 51bf b4ce f0bf a1ba 343d
00000200: c099 8ebf 5fab 0ebf 87b0 473d 32fe 043f
00000210: bf64 4d3f 8a59 903f 838c 5a3e dfd4 3c3d
00000220: 9573 a73c 3ee5 053f b771 37bf 1371 6c3e
00000230: 3bed 36bf 05cf 6fbf e973 a4bf 688a 0b3f
00000240: 4d1e 94be dc5d 79bf 835b 1c3f 5445 ab3d
00000250: 433e 723f a815 9b3f 015a 613f 8584 43bb
00000260: 8113 3e3f c163 853e 2030 65be af9b 04bf
00000270: 5fcc b0be 328a 80bf 71cb cdbf a4ab 30bf
00000280: 3fb5 d63e ade8 573f 41b5 99bf a609 2f3f
00000290: df8b 85bf c34d 60bf f0ed 8ebf 817c 963e
000002a0: 5926 40bd 5203 23bf ef12 4a3f ed13 19be
000002b0: 8f8c 253f d789 5f3f 4ae1 ba3f 6851 96be
000002c0: f8fa e9be 5233 fc3e c53c 6bbf dacc 0a3f
000002d0: dd5c 28bf ac6d 1ebf b01d e9bf b6f0 a33e
000002e0: 16b9 143e 4050 743e 8164 2e3e 5adc c93e
000002f0: e9aa 42bf 199d 72bf d22e 99bf 8181 e1be
00000300: 71d9 2b3e 3a62 bb3f 4c1d b1be e508 5cbf
00000310: 7cb2 c23f c58d b6bd da1c 30bf 08d4 5ac0
00000320: cd2a d93d f7c9 7abe 8fed 84be b482 083f
00000330: ca90 453e 0c32 203e 2f5a 3cbf 9de5 7fbf
00000340: c1f2 02c0 f19e febf e92c 57be d137 08c0
00000350: afb5 cb3f 1d33 3d3f 60b5 efbe 98fa ad3e
00000360: 888c 4ebe 1676 da3e 8583 31be ab53 f1bf
00000370: 5f45 4d3e fef4 f2bf 4b25 d23f 3708 bdbe
00000380: 114e 94be f327 38c0 c478 903e b166 4d40
00000390: c866 18bf 6dc3 e5bf 4805 a53e d967 cc3d
000003a0: adb8 54bf 93cf a9be df03 e9be 37d1 05bf
000003b0: ad4a db3e e883 01bf 8130 f4bd d596 8dbf
000003c0: 8808 d63d 835f d43e c79d 03bf e2f5 72bf
000003d0: 19fa 553f becb 7ebe 5bb5 04bf c9a5 96bf
000003e0: ae02 c6bf 58af c9bf 614b 443f f641 2d40
000003f0: f086 0a3e 3fd8 00c0 d7d1 33be e704 02bf
0.5482281 1.8229921 1.6274612 -2.125126 0.8414916 1.8280025 -0.7899286 3.5144017
0.36771643 0.090482086 -0.5951051 -0.7525924 -0.010724492 0.3018876 -0.65882176 -0.68807584
-0.8114953 0.5216526 -0.9404815 -3.0669389 1.4846076 1.6734806 -1.1498697 0.31274322
0.40861097 0.824566 1.34524 -1.5781009 1.133912 -1.8889534 1.0768683 -0.23476388
0.6420873 -0.18836673 -0.41576385 1.1890026 -0.68941855 -0.98170924 -0.39093107 -2.4909458
-0.29403853 0.09786403 -0.88842386 -0.65409726 0.35602513 0.2937294 -0.66523594 -2.222373
-0.51157045 0.7059652 -0.8475132 -0.18148004 0.18311939 -0.56276524 -1.0738589 -2.761683
-0.24484448 -0.5890344 1.3898994 2.6878738 -1.5898513 0.6383014 1.4981186 -0.47106013
1.0237076 3.347584 -0.26449805 -0.53900445 -1.6918921 -0.8780657 -1.5859721 -2.7072663
0.23165664 -0.28687766 1.047118 -0.3869128 0.30997905 1.2356282 0.9667944 1.3684514
0.89950323 -0.36378744 2.5038745 1.2971125 0.80032223 0.71429116 0.22538956 -0.42227036
0.53938675 0.57212645 2.6426535 -0.638372 -0.97762996 -0.29166904 -0.37131852 2.8789506
1.0787106 -1.1259401 -3.5764773 -3.687899 -0.6511739 0.095395036 3.8611815 -4.9655585
0.60439223 -0.011101245 1.0188073 2.44675 -0.16501507 0.374351 -0.49181145 4.9318643
0.24785657 -0.9359174 0.6372939 -0.32298094 -0.117586024 -0.20024942 0.45353886 1.3891438
0.2595196 3.1174197 1.6660353 0.5992352 0.85776275 -0.8183528 -1.8813081 0.044123296
-1.1140671 -0.5573024 0.048752334 0.5195037 0.8023185 1.1277325 0.21342663 0.046101447
0.020440856 0.5230292 -0.7165789 0.2309001 -0.71455735 -0.9367526 -1.2847873 0.54508066
-0.28929368 -0.97408843 0.61077136 0.08362833 0.94626254 1.2115984 0.8802796 -0.0029833626
0.7424851 0.2605267 -0.2238164 -0.51800054 -0.34530923 -1.0042174 -1.607771 -0.690119
0.41935155 0.8433941 -1.2008439 0.683741 -1.043331 -0.87618655 -1.1166363 0.29391864
-0.04691157 -0.6367694 0.7893514 -0.14949007 0.646676 0.873197 1.4600003 -0.29358983
-0.45699286 0.49257904 -0.918896 0.5421883 -0.657667 -0.61886096 -1.8212185 0.32019585
0.1452373 0.23858738 0.17030527 0.39425927 -0.7604204 -0.9477096 -1.1967413 -0.44044116
0.16782166 1.4639351 -0.34592664 -0.8595107 1.5210719 -0.08913759 -0.68794024 -3.4191914
0.10603867 -0.24491106 -0.25962493 0.5332444 0.19293514 0.15644091 -0.7357511 -0.9995974
-2.0460665 -1.9892255 -0.21013226 -2.1284068 1.591482 0.7390612 -0.46818066 0.3398025
-0.20170796 0.42668217 -0.17335327 -1.8853658 0.20045994 -1.8981016 1.6417631 -0.3692033
-0.2896581 -2.8774383 0.28217137 3.2093928 -0.5953183 -1.7950264 0.32230592 0.09980745
-0.8309429 -0.3316618 -0.45510766 -0.5227236 0.4283041 -0.505919 -0.11923314 -1.1061655
0.10450846 0.4147912 -0.51412624 -0.9490644 0.83584744 -0.24882409 -0.51839226 -1.1769344
-1.5469568 -1.5756636 0.7667752 2.707151 0.13528037 -2.0131986 -0.17560516 -0.5078873

l_lstm.weight_hh_l1 f4 [32, 8]
00000000: a51f b83f 8fe0 363f 44cb ee3e 4327 43be
00000010: 712d 313f 9856 f9be e9f7 be3f dc17 bebf
00000020: eaa5 2abf 9140 39be f456 a5be bc63 a73c
00000030: 8ed2 9d3f 2b53 643e 4191 6ebd df42 393e
00000040: fc28 85bf d9ec 7a3f 61fb 7abf 69cc d3bf
00000050: 5fec 7940 ef28 e43b 058a 1940 8e6b d3bf
00000060: 1ec8 86bf 40fd 553f 6b86 88bf 63d7 1fc0
00000070: e5f0 7dbf bee2 153f 0a50 053e 160c ac3f
00000080: 3396 9dbf 16ed 17bf b809 a33e e8d9 bbbf
00000090: 20d0 da3f d797 0340 68ff 473f 14a7 dcbf
000000a0: 0813 b3be 4f78 f33e cac7 8a3e 4cc2 67bf
000000b0: 68ab 793e 8225 5d3f 0b2e 82bf dee7 603e
000000c0: 3b41 3cbf 0cab 0f3e 2438 7d3e a69b 98bf
000000d0: adb6 7a3e 3e3e 013f dd51 62bf 656a 903e
000000e0: 7643 4a3e 5c48 873e ccfe 58be 178e b4bf
000000f0: 23fc aebe 027f 9d3e ba0a 2ebf 4e3c 2fc0
00000100: 7710 9a3f 7512 873e aa67 11c0 8fe9 a93d
00000110: 4003 a93e b17d 59bf 4fc4 d73f 2fc2 abbd
00000120: 81fc a63f 30e2 92bf 92cf d43e 64a2 4abc
00000130: 9fde b9be ca69 a13e ae76 883e 7c78 e9bb
00000140: 40f1 14be 202e 533f 97dd 873e aa7e 193f
00000150: 4c0b f8bf c443 87be 9fa5 0bbe 5562 993f
00000160: b1e3 a1bf adc2 903f 17de e0bf a700 733f
00000170: 5e0e 65bf e8c1 633d bd80 6e3f 1d36 7b40
00000180: 1dee 5bbe 039b 5a3f c6f3 ac3f ff68 cebf
00000190: 4c40 85c0 674e 093f d3c6 53c0 61f6 463e
000001a0: 6ef3 983e e139 06bf 6e3a dbbe 6f68 8d3e
000001b0: bfa1 f7bd 44fc ee3e de32 e03e df9a d63e
000001c0: 7747 aa3d 3a7d 11bf dc9f cb3b 0262 1bbf
000001d0: 3574 fabe b117 123f 03c0 06be dfe9 cc3e
000001e0: 1614 ebbf 8b5b d03f 344c 40c0 ef7c 9b3f
000001f0: d890 0840 2ded 06c0 eb7e 9b3f 60b2 f43e
00000200: 679b 35c0 8380 303f e193 bf3f 3bad 1fc0
00000210: ead3 cc3f 5527 d2bd 8edf 17c0 6dbd 93bd
00000220: d1bb 113f ed39 f2bf 2a39 863e 250e bbbe
00000230: 5b10 01bf 443e 253f 13d9 203f 03bf 59bf
00000240: 67ed 7ebf a2e8 933f 83c6 0dc0 a705 16bf
00000250: ebe0 d63f b222 d8be 9ab2 a2bf 5dca 993f
00000260: bcb4 75be 18d3 12bf 6daa 8f3e d624 0cc0
00000270: 5775 593e 60fb 043e 0398 5840 dac8 e2bf
00000280: d01a b43e 71a5 51bf 3f3c a7be 2a0c 6cbe
00000290: f9e7 d8bf 7534 323f d4ac d6be aef6 e0bf
000002a0: c53f 26bf 5c0d 683f 10a5 20bf 125c 023f
000002b0: 4402 5f3e cf78 12c0 bd44 4fbe 7b10 333f
000002c0: 7926 e13f 31be 8abf e9c2 cd3f a3fc c5bf
000002d0: 67ad 38bf bca4 7e3f 5357 5cbf e554 a6bf
000002e0: a036 25bf ffba 92bf d2b4 b7bf 0567 0fbf
000002f0: 5a6f ca3f f116 073f 1104 cc3f 9175 59c0
00000300: 2a87 293f 23b1 073f abf3 5e3f 9075 923e
00000310: dfe0 8c3f 8846 d63e 5d42 42bf 1e4d b2bf
00000320: aa7c 9b3e 4903 573d c900 ad3e ff01 82be
00000330: b6e8 9c3f 8a84 bcbe 4a1d cf3e 082c ac3d
00000340: b0c7 bebf a8c8 733f 6841 9bbf 09eb 5ebf
00000350: 3796 3e40 eb4d 0cbf db7f 0d40 32fa a8bf
00000360: 454b 79bf d730 683f 8ccb d6be fdbe 8fbf
00000370: 2cf8 2cbf 8c78 f63e 7f56 1fbf 7b09 0040
00000380: ed29 92bf 7681 e13e b636 a33e 27eb 9cbf
00000390: ccbe a93f 415b e53d c41d a93f 80e7 c3bf
000003a0: 76ff 19bd 05b3 c53d 0f61 8c3e ec68 04bf
000003b0: ff0d d33e 7e94 eb3e dfcf 3abe 6235 6abd
000003c0: 0e9a 30bf 73fc bb3e 79bf 31be c0a6 babf
000003d0: cecf ee3e 68e9 733b c4bf bebd c6da 963e
000003e0: 3a03 80bf 3b84 0ebf df08 ae3c e564 30bf
000003f0: f11a 67bf 4c5b 963f 098f 19c0 369f 3dc0
1.4384657 0.714364 0.46639454 -0.19057946 0.69209963 -0.48698878 1.4919406 -1.4851031
-0.66659415 -0.18091036 -0.32292902 0.0204333 1.2329881 0.22297351 -0.058243994 0.18091916
-1.0403132 0.9801765 -0.98039824 -1.6546756 3.905052 0.0069628875 2.399049 -1.6517198
-1.0529821 0.83589554 -1.0666021 -2.4975212 -0.991957 0.58549106 0.13018814 1.3441188
-1.2311462 -0.5934614 0.31843352 -1.4675875 1.7094765 2.0561426 0.78124094 -1.7238488
-0.34975457 0.47552726 0.27105552 -0.9053085 0.24381793 0.8638536 -1.0170301 0.2196345
-0.73537034 0.14030093 0.24728447 -1.19225 0.24483748 0.504856 -0.88406163 0.28206173
0.19752297 0.26422393 -0.21190947 -1.4105862 -0.3417674 0.30760962 -0.6798512 -2.7380557
1.2036275 0.2638127 -2.2719522 0.08296501 0.33010292 -0.84957415 1.6856784 -0.08386647
1.3045808 -1.1475277 0.41564614 -0.0123678185 -0.3630266 0.31526023 0.26653045 -0.0071249586
-0.14545155 0.82492256 0.26536247 0.599589 -1.9378448 -0.2641889 -0.13637398 1.1983134
-1.2647611 1.130941 -1.7567776 0.9492287 -0.8947505 0.055604845 0.9316519 3.9251778
-0.21477552 0.8539278 1.3511894 -1.6125792 -4.1640987 0.5363526 -3.3090103 0.19429924
0.29873222 -0.52432066 -0.42818016 0.2761874 -0.120913975 0.46676838 0.4378881 0.41915032
0.08314412 -0.56831706 0.006214125 -0.60696423 -0.48916784 0.570674 -0.13159184 0.4002218
-1.8365505 1.6277937 -3.004651 1.2147502 2.1338406 -2.108226 1.2148107 0.4779234
-2.83761 0.68946093 1.4967004 -2.4949481 1.6002171 -0.10261408 -2.3730197 -0.072138645
0.5692721 -1.8923928 0.26215488 -0.3653423 -0.5041558 0.64548135 0.6283123 -0.85057086
-0.99581 1.1555369 -2.2152412 -0.58602375 1.678739 -0.4221397 -1.2710755 1.2014881
-0.23994726 -0.57353354 0.28059712 -2.1897483 0.21236168 0.12986517 3.384278 -1.7717545
0.35176706 -0.8189307 -0.32663152 -0.23051515 -1.6945792 0.69611293 -0.41928732 -1.7575281
-0.64941055 0.90645385 -0.62751865 0.5092174 0.21778208 -2.2886236 -0.20241065 0.6994702
1.7589866 -1.0839292 1.6075107 -1.5467724 -0.7213959 0.99470115 -0.86070746 -1.2994658
-0.64536476 -1.1463317 -1.4352057 -0.5601657 1.5815232 0.5276938 1.5938741 -3.3978007
0.6622187 0.53004664 0.8709056 0.28605318 1.1006125 0.41850686 -0.7588251 -1.3929784
0.3036855 0.052493367 0.33789662 -0.25392148 1.2258518 -0.3681987 0.40452033 0.08406836
-1.490469 0.9522805 -1.2129335 -0.87077385 2.9779184 -0.54806393 2.2109287 -1.3201354
-0.9738048 0.90699524 -0.4195217 -1.123016 -0.6756618 0.48138845 -0.6224136 2.0005786
-1.1419045 0.44044083 0.3187768 -1.2259263 1.3261352 0.11199046 1.3212209 -1.5305023
-0.037597142 0.09653286 0.274178 -0.517226 0.41221616 0.46011728 -0.18243359 -0.057179816
-0.6898507 0.3671604 -0.17358197 -1.4582138 0.46642917 0.0037217978 -0.0931392 0.29463786
-1.0000985 -0.5567052 0.021244464 -0.6890395 -0.90275484 1.1746612 -2.3993552 -2.9628425

l_lstm.bias_ih_l1 f4 [32]
00000000: 1df4 53bf c59c c4be fe68 87bf 04b2 22bf
00000010: 02ef 6bbf 921e 49bf 900b b6be 83de 75bf
00000020: e6ad 0fbf 58d7 41be 02d3 3cbe 077b 78be
00000030: 1b3e 94bf 0792 b13c 56b6 183f d5d0 c2bc
00000040: 09dd c53d f12a 9d3c bd1a bdbe aaed 2abd
00000050: 0c49 873c d620 eaba 238c a0bd dc50 483e
00000060: 6c75 993f 81a4 00bf e764 80be 27f5 5bbf
00000070: e11a 2a3f ae2f e43d 04de 9bbe 37cb 8e3d
-0.8279436 -0.38400856 -1.0578916 -0.6355288 -0.9216157 -0.7856227 -0.35555696 -0.9604265
-0.5612472 -0.18929803 -0.18439868 -0.24265681 -1.1581453 0.021676077 0.5965322 -0.02378122
0.096613 0.019185515 -0.36934462 -0.04173056 0.016514324 -0.0017862569 -0.07839229 0.19562095
1.1988959 -0.50251013 -0.25076982 -0.8592095 0.66447264 0.11141907 -0.30442822 0.06972354

l_lstm.bias_hh_l1 f4 [32]
00000000: f058 73bf 7b6f 18bf 698b 5cbf 7849 07bf
00000010: a458 31bf 884a 2bbf 41f4 58be 048b 5ebf
00000020: f5bf 5abe d86d 0a3c 742d 55be dd46 853b
00000030: 6c2c a3bf c3d2 adbe eacd df3e 55e3 d93d
00000040: 2348 31be 10e2 d63d 518b 2c3e cb50 fa3d
00000050: 998d 653e 4470 0abe b51f 823e 6dca dbbd
00000060: 2d3c 833f 2ca2 95be 940b 523d 6c03 94be
00000070: d6d9 483e 67e7 cebe 1d2d 5abe 309b 55be
-0.9505758 -0.59545106 -0.86150223 -0.5284648 -0.6927588 -0.669106 -0.21186925 -0.8693087
-0.21362288 0.00844904 -0.2081812 0.0040672855 -1.2747931 -0.3394986 0.43711787 0.10639063
-0.17312674 0.10492337 0.1685002 0.12222441 0.22417296 -0.13519388 0.25414816 -0.10731969
1.0252739 -0.2922529 0.051280573 -0.2890886 0.19614348 -0.4041092 -0.21306272 -0.2085998

l_linear.weight f4 [1, 8]
00000000: a454 e83e ed61 efbe 80cc 093f f148 cbbe
00000010: de3f c5be 27a0 023f bf5c b9be 40b8 e1be
0.45377076 -0.467544 0.5382767 -0.39704087 -0.3852529 0.51025623 -0.36203572 -0.44085884
