citylearn/data/datasets/ca_alameda_county_neighborhood/resstock-amy2018-2021-release-1-97851.pth (torch, 8440 bytes, 9 tensors)

l_lstm.weight_ih_l0 f4 [32, 13]
00000000: e94b 333f 3dfa 753c 8f2d 9c3e ce53 273e
00000010: c4a6 fc3e 512a 91bf 7c58 72c0 47b6 80c1
00000020: 53a1 2c3d 5757 2e40 338c 01c0 2082 ab3e
00000030: 48bc 66bf 1c85 04c0 0121 f0bf eb36 abbd
00000040: 05b7 2ebe a17f 71bf 4cc8 20be 04af 42c1
00000050: bac4 9c40 dd6a 0a40 88c1 763f a300 e03e
00000060: 10eb 8c3f 243b b83f de94 1abf 054d f5be
00000070: 6d82 a8bd 01ed 223e ecde f23e 8918 f23b
00000080: ea72 3fbf 5076 6d3f 1e9e 5e3f e4ce 0d3f
00000090: 30e9 fa3d 284e d6be 988e 0440 2f98 873f
000000a0: 53c2 3340 dcfa fbbd db2f ec3d 6b54 07c0
000000b0: ffd5 873f 7eb4 89bf 6fed 773f 37c4 1ac0
000000c0: 15b2 37c0 1a84 75bf 813b 303e fb05 f1be
000000d0: 067a de3e 3f50 47bf fe2d d1be 063e 2f3e
000000e0: 38bf e9be d68e 79bf f11c c13f 6647 6d40
000000f0: a807 413f e3dd 9abe 27dd 73bf 8787 66bf
00000100: 6b4e 13c0 2bc7 af3f 30e5 073f 0c2e 0cbe
00000110: 8224 07be 4389 e6be fac0 e73d b7d9 88be
00000120: 842c a73f f79a 253f f0ac 25be 1290 5cbe
00000130: eb42 33be 84a3 c93d dedc 593f a330 a23e
00000140: 26cc 25be ec20 da3e 8cbd d8bc ae85 5dbe
00000150: 0a44 b0bf e945 dd3f 333e 0e3e 1ba6 7f3f
00000160: dcd2 25bf aee2 3abf e9cb 3c3e 9bb4 a4be
00000170: d8f7 34bf e2da 5abc 9e60 0ebe c59b f33d
00000180: ddfb 483e 922a f8bf 5f57 8cbf 1b90 bbbe
00000190: 66ac 4abf 0dad 2dbf e36a 5d3d 6c35 0ec0
000001a0: 0095 8f3e 40be 74bc 6e80 e3bd 28eb 823f
000001b0: fd73 f1be 0126 fdbf f01c 0cc0 5808 9040
000001c0: 28e9 a5bf 2b6b 20bf a57f f73e 4a17 d9bf
000001d0: 0359 b2bf 6082 5f40 636a 0840 fd49 4ebe
000001e0: 6cc9 223d bf9a 1b3f 7141 da3e 91e9 bac1
000001f0: 7859 f63f 9f17 b5bf f07b a8bf bdba 25c0
00000200: f13b 48bf d8bd ce3f 7491 38bd 9b58 a93e
00000210: 69e4 443e 1ac9 cabd 35af 9d3b d3c4 f33e
00000220: 16eb afbf 8e11 4abf e6e4 31be 138c b1be
00000230: 8f16 993e 1230 0c3f 0efe 1740 6f74 72bf
00000240: 6e26 bc3f 0f37 473f 7cc9 c4c0 278b 88c0
00000250: 6f25 e2be 1fc5 0440 20e8 8040 3f8f 1ac0
00000260: 04cb 6f3c 5017 2abf 09f3 9bbf 3228 8abd
00000270: 03db dd3f 568b a03f da9e e33d 1b1a babd
00000280: 781a a1bf dd50 f83e a48f 8640 e1d8 b43e
00000290: 273a c0bf 3564 5c3e a3c6 dabf 844f 763f
000002a0: d063 81bf a789 073f 8ab4 2c3e 8e3c 58bd
000002b0: 7c1d 5e3d b6bf 793e a3f4 c0bd affc 1ac0
000002c0: 48f2 46c0 fc88 05bf 6ee0 f63c 8b14 99bd
000002d0: 5e63 a3bb dfc0 cc3f c8f1 673e 0504 16bf
000002e0: ed11 ed3f 116d 08bf 04c1 db3f a157 b7be
000002f0: 7b94 cf3f d473 edc0 3962 8fc0 08e7 92c0
00000300: 4b13 a8bd df25 613e ce0d 0bbf 17cd 85bf
00000310: 5089 18bf 24d2 e63d 42b8 3d3d b743 9d3e
00000320: 1d65 a0be 305b 36bf 99a7 47c0 cbe9 86bf
00000330: 0111 22bf 38b1 d43e a96e 8f3e 8f77 e4bf
00000340: bcc2 0c3d f337 f83c 4c59 be3c 2e1a cfbd
00000350: 2625 093e c3ec 413d 48b6 1d41 05a1 fac0
00000360: 0c80 2abd 6d28 41be a41f 49bf 22f6 4dbc
00000370: 8d70 fe3f da7f 9a3e 6ae0 053f 63ca 863d
00000380: 6e92 e2bd 1dcc 573f fa4f f43e a7df 8a41
00000390: 2721 8cc0 b2a6 cbbe affe c1be 3b94 60bf
000003a0: a89f 523e a1dc 65bf 7305 68be 00a0 b93d
000003b0: 5e82 00bd bda1 ecbb 7697 8cbd f52a 93bc
000003c0: 230b b93d 3479 c93d 749f 823d 94fb 87bd
000003d0: 365e 8a3d 921b 1fbd f8b3 0d40 335d fdbe
000003e0: 8dc1 f43e b6f3 0ebe 05dc 363e 100d 00bf
000003f0: e1de c1bf 0dab da40 1b4b 563f c9fd 803f
0.70037705 0.015013275 0.30503508 0.16340563 0.49345982 -1.1341039 -3.7866507 -16.089003
0.04214604 2.7240808 -2.024182 0.33497715 -0.90131044 -2.0706244 -1.8760072 -0.08360084
-0.17062004 -0.9433537 -0.15701407 -12.167728 4.8990145 2.1627724 0.96389055 0.43750486
1.1009235 1.4393048 -0.60383403 -0.47910324 -0.08228002 0.15910722 0.474357 0.0073881787
-0.7478472 0.92758656 0.8696002 0.55393815 0.12251508 -0.41856503 2.0712032 1.0593318
2.8087356 -0.12303707 0.11532565 -2.1145275 1.0612181 -1.0758207 0.9684667 -2.418226
-2.8702443 -0.95904696 0.17210199 -0.47074875 0.43452471 -0.7785682 -0.40855402 0.17113504
-0.456537 -0.97483575 1.5086957 3.7074828 0.7540231 -0.3024741 -0.95259327 -0.9005055
-2.3016613 1.3732656 0.5308409 -0.1368944 -0.1319752 -0.45026597 0.11316104 -0.26728603
1.306046 0.6468958 -0.16179252 -0.21539333 -0.17505996 0.09845641 0.8510264 0.31677732
-0.16191158 0.42603242 -0.02645757 -0.21633026 -1.3770764 1.728696 0.13890915 0.9986283
-0.6477487 -0.73002136 0.1843716 -0.3216904 -0.7069068 -0.01335785 -0.13904044 0.11894945
0.19627328 -1.9387991 -1.0964164 -0.3663338 -0.7916931 -0.6784218 0.054057013 -2.2220106
0.28043365 -0.014937937 -0.111084804 1.0228014 -0.47158805 -1.9777223 -2.1892662 4.5010185
-1.2961779 -0.62663525 0.48339573 -1.6960232 -1.3933414 3.4923325 2.1314933 -0.20145412
0.039742872 0.60783 0.42628053 -23.364046 1.9246054 -1.4147834 -1.3162823 -2.5895226
-0.78216463 1.6151686 -0.04506059 0.33075413 0.19227757 -0.09901638 0.004812146 0.47611102
-1.3743618 -0.78933036 -0.17372474 -0.3467718 0.29900023 0.5476085 2.3748813 -0.94708914
1.4699228 0.7781839 -6.1495953 -4.2669864 -0.44169185 2.0745313 4.0283356 -2.414993
0.014635805 -0.6644182 -1.2183543 -0.06745948 1.7332462 1.2542522 0.11114283 -0.090870105
-1.2586203 0.48499194 4.2050343 0.35321715 -1.5017747 0.21522601 -1.7091869 0.9621508
-1.0108585 0.52944416 0.16865745 -0.052792124 0.054227337 0.24389538 -0.09421661 -2.4216726
-3.1085377 -0.52162147 0.030136313 -0.074746214 -0.0049862107 1.599636 0.22650826 -0.58599883
1.8521096 -0.5329142 1.7168279 -0.35809043 1.6217188 -7.420389 -4.48074 -4.590702
-0.08206805 0.21987103 -0.5431794 -1.0453213 -0.5958452 0.1127055 0.0463183 0.30715725
-0.31327143 -0.7123289 -3.1196043 -1.0540098 -0.63307196 0.41541457 0.28014114 -1.7848986
0.0343654 0.030300116 0.02323594 -0.10112415 0.13393077 0.047344934 9.857002 -7.8321557
-0.04162602 -0.18863077 -0.78563905 -0.01257089 1.9878098 0.30175668 0.52295554 0.06581571
-0.110630855 0.8429583 0.47717267 17.359205 -4.379047 -0.39775616 -0.3788962 -0.8772618
0.20568717 -0.8978978 -0.22658329 0.09063721 -0.031374328 -0.007221429 -0.068648264 -0.01796482
0.09035327 0.09837571 0.063780695 -0.066397816 0.067562506 -0.038844652 2.2141094 -0.49485168
0.47803918 -0.13960156 0.17857368 -0.5001993 -1.5146142 6.83338 0.8370835 1.0077449

l_lstm.weight_hh_l0 f4 [32, 8]
00000000: 2f61 96bf 6ae7 9d40 8d05 48bf e871 ae3e
00000010: 126c 86bf da7e 0140 d478 ea40 9676 f83f
00000020: 0563 3e40 58ed 7fbf a4a8 7f3c 27c1 dcbf
00000030: 50ae 1540 2372 42bf 53f2 803e d6b3 1240
00000040: 8bcc 72bf bb9f 10bc ab5b 32be 9efa 443f
00000050: 9aa2 60bf d8c6 07be 34c8 763d 47ed f6be
00000060: 9fc3 e8bf 09bd e8bf 814c 693f ed0a bc3f
00000070: 13cd a540 92de e0be b329 acbe c318 bf3d
00000080: 3ee2 8340 4d78 39bf 1772 fcbe 2161 0d3e
00000090: 549e dabe ff7e 5d3e 4e2f 533e ed8b ebbe
000000a0: 0d82 24c0 5efc 80c0 02f1 753f 3d37 31be
000000b0: 57f3 b3bf 746d 3b3f fdb4 33c0 b1e1 2940
000000c0: ea19 4b3f 2112 3fc0 fbca d83f 9abb 8b3f
000000d0: c9dd e2bf 93bd c2bf 5e4e 99bf 4b55 cb3f
000000e0: 7b62 34bf 8c84 723f 0bb3 433e 6ecc 643f
000000f0: 0281 03be 9718 9abe 26fc a43e 7ddd f3be
00000100: a542 3a40 c02a 7740 a1f3 9bbf 298e 60c0
00000110: 0cd9 3840 cde6 1340 71f8 2140 80fa a93f
00000120: 3fd7 8140 1624 e1c0 db69 a73f 0eac b9be
00000130: ad0d 0ec0 cee7 5940 1df2 ec3f 0275 e4c0
00000140: 5b19 a43e 15ba b73e fd0f 75be 9949 333f
00000150: 59be d43e 0220 38bf 3f71 8fbb 2432 00bf
00000160: a298 4b3f 30b4 84bf c515 963f 8130 dd3f
00000170: 38bb 5640 4fd4 f2bd 9051 8940 8422 7bbd
00000180: 24b6 d640 c6c2 b7be f8a6 42be 5742 b7bf
00000190: 3554 a3bd 8fc0 503f a7ff b23f b04c 3abf
000001a0: 355f 8abf 0108 5a3f b2f3 10bf af6a 06c0
000001b0: af3f 133e b54f b4be 7e11 413f 7ccf 49bf
000001c0: 4a11 963f f86e a83f b8cf f93e 9096 c93f
000001d0: c4cf 0ec0 bd1d 47bf 33ce da3f 46f6 f0c0
000001e0: a643 cdbf 9c76 0a40 3c98 61bd ad23 c0bf
000001f0: 057d ab3d 61a6 b0be 034f 6f3e 91ed e3be
00000200: 01d4 80bf ae87 103f 34bb 1f3f 8e1b 763f
00000210: 601f c9bf 1f88 e43e d348 b43e 2715 9f3d
00000220: 8b86 23c0 685d 1e40 c1ae 06c0 ccec 8740
00000230: 8422 2abf 7f9f 0040 e597 c2be 9463 0b3d
00000240: 9a40 9f3e c6e2 063e d28d f9be 16cf 7d3e
00000250: 60d0 b23c 6459 b7be 2336 34bf 7a12 42be
00000260: 9500 60c0 d90a eebf 7bd2 08c0 9106 0fc0
00000270: fcfb 1a40 828f 9e3e 378f ed3e 81d7 92bf
00000280: c7fb 2141 dfea 60bf 65c7 d2be 48ad c3bf
00000290: bc26 abbf 8d62 0abe 2b5f be3e 747e 083e
000002a0: 4266 113e 37f7 343f 2823 163d 833f df3e
000002b0: a840 a13e 3577 9fbf e25b 313c f786 66be
000002c0: 8cdf e8bf 8457 abbf fd03 9d3e 4d8b 7ebf
000002d0: 70c2 15c0 0e2c 173e 239a 4dbf 401f bf3e
000002e0: c4b7 a3c0 54af 873f 047e 953e 0540 283e
000002f0: 9983 95be 10b2 03bf c725 7e40 a242 bc3f
00000300: fade e43f da65 2f40 bfec 433e 7059 573f
00000310: 1a55 6c3c b08d c43f 9a7e 7dbe a8c5 093e
00000320: 72a6 fbbf 1bd3 853d b414 7ebf 5b84 883e
00000330: 34d7 29bf 300d 913f 56a8 5f3e fd9f 063f
00000340: 8a84 43be bbe8 abbd 3be9 a43e ede5 a5be
00000350: a01e a5be 5498 903e 8e7c 87bf f030 77bf
00000360: 9fb3 3240 7f0f 00c0 18ee 1540 fb60 53c0
00000370: 5876 0dc0 3004 48bf 057e ebbf 7abd a63f
00000380: 6fe2 2840 50c0 39bf 9984 c73e 7fac 8a3f
00000390: 57f7 aa3f 18eb b83e 81fe b23f 2588 c53f
000003a0: cd17 a33f 457b cc3f 458e 4f40 b071 d73f
000003b0: 1760 7340 8e95 1f3f 2008 c1bf 0bf6 813f
000003c0: 9bc7 cbc0 df10 acbf 6160 ae3f 8aff 37c0
000003d0: c0bb 8bbf ae3a 81be b44e d0bf e4c4 913f
000003e0: 55d2 c33f f7ca ac3f f518 e7bd 1887 d83e
000003f0: 2a5d debd 7077 0dbf 8fa5 1740 ace9 8fbe
-1.1748408 4.934499 -0.7813347 0.3407128 -1.050173 2.0233674 7.3272495 1.941119
2.9747937 -0.9997153 0.015604172 -1.7246445 2.3387642 -0.7595541 0.2518488 2.2922263
-0.9484336 -0.008827145 -0.17417781 0.7694491 -0.8774811 -0.13259447 0.060249522 -0.48227903
-1.8184699 -1.8182689 0.9113236 1.4690834 5.1812835 -0.43919808 -0.33625564 0.09330895
4.1213675 -0.7244919 -0.49305794 0.13806583 -0.4269892 0.21630476 0.20623514 -0.46005192
-2.5704377 -4.0308065 0.96070874 -0.17306228 -1.4058636 0.7321389 -2.8079216 2.6544
0.79336417 -2.9854815 1.6936945 1.0916626 -1.7723933 -1.5214103 -1.1977041 1.5885404
-0.7046277 0.947335 0.19111268 0.89374435 -0.12842181 -0.30096886 0.32223624 -0.4762992
2.9103177 3.8619843 -1.2183725 -3.5086768 2.8882475 2.310962 2.5307887 1.3279572
4.057525 -7.035655 1.307918 -0.3626408 -2.2195847 3.4047732 1.8511387 -7.139283
0.32050595 0.35884157 -0.2393188 0.70034176 0.41551474 -0.7192384 -0.0043775137 -0.5007651
0.79529774 -1.0367489 1.1725394 1.7280427 3.355177 -0.11856901 4.2912064 -0.061312214
6.709734 -0.35890788 -0.19009006 -1.431712 -0.079750456 0.8154382 1.3984269 -0.72773266
-1.0810305 0.85168463 -0.5662185 -2.1002614 0.14379762 -0.35217062 0.75417316 -0.7883222
1.1724026 1.3158865 0.4879129 1.5749073 -2.231431 -0.7777975 1.7094177 -7.5300627
-1.603627 2.1634893 -0.055076823 -1.5010887 0.08373455 -0.34501937 0.23369984 -0.44517186
-1.0064698 0.5645703 0.62395024 0.96135795 -1.57127 0.44635102 0.3521181 0.07767706
-2.5550869 2.474451 -2.1044161 4.247656 -0.66458917 2.0097349 -0.3800651 0.034030512
0.31103975 0.13172445 -0.48741013 0.24786028 0.021827877 -0.35810387 -0.70395106 -0.18952361
-3.5000355 -1.859706 -2.1378467 -2.2347758 2.42163 0.30968863 0.46398327 -1.1472017
10.123969 -0.87858385 -0.4116775 -1.5287256 -1.3371196 -0.13514157 0.37181982 0.13329488
0.14199165 0.7068972 0.03665462 0.43603143 0.3149464 -1.2458254 0.010825129 -0.22512423
-1.8193221 -1.3386083 0.30667105 -0.99431306 -2.3399925 0.147629 -0.8031332 0.3732853
-5.1161823 1.0600381 0.29197705 0.16430672 -0.29201964 -0.51443577 3.9710557 1.4707835
1.7880547 2.7405915 0.1913328 0.84120846 0.014424587 1.535574 -0.24755326 0.13454306
-1.966017 0.06534406 -0.9925034 0.2666348 -0.66344 1.133215 0.21841559 0.5258787
-0.19093528 -0.08393999 0.3220919 -0.32401982 -0.32249928 0.28241217 -1.0584886 -0.9655905
2.7922132 -2.0009458 2.342657 -3.3027942 -2.2103481 -0.7813139 -1.8397833 1.3026574
2.6388204 -0.7255907 0.3896835 1.0833892 1.3356732 0.36116862 1.3983918 1.5432173
1.2741638 1.5975119 3.2430584 1.683157 3.8027399 0.6233758 -1.5080605 1.0153211
-6.368116 -1.3442649 1.3623163 -2.8749719 -1.0916672 -0.25240082 -1.6274018 1.1388211
1.5298563 1.349944 -0.11284057 0.42290568 -0.108576134 -0.5526037 2.36948 -0.28107965

l_lstm.bias_ih_l0 f4 [32]
00000000: 6ffe 3d3e 9863 d63e 8b93 13bf 2f84 95bf
00000010: 960f 12be aa46 503e 2ec8 84be c2b3 c53e
00000020: 01aa e33e e7f3 8dbf 1c35 abbe 9441 e93e
00000030: 9896 8e3e 93cd 883e f6f2 aabf 926e ca3e
00000040: ffed c8be f53b 7ebe d697 86be 187c fe3e
00000050: 34b3 be3d 1ea4 18bf 4f42 d73d d3d3 3b3f
00000060: c16e 1e3f ae00 c4be 71bd 04bf bca3 1cbf
00000070: 760b c83e c4fa 393e 6051 0fbe f223 a23e
0.1855409 0.4187286 -0.5764701 -1.1680964 -0.14263758 0.20339456 -0.25933975 0.38613707
0.4446564 -1.1090058 -0.33438957 0.45557845 0.2784927 0.2671934 -1.3355396 0.39537483
-0.39244077 -0.2482756 -0.26287717 0.4970405 0.09311524 -0.5962542 0.10510694 0.73370093
0.6188775 -0.3828177 -0.51851565 -0.6118734 0.39071244 0.18162066 -0.13995886 0.3166805

l_lstm.bias_hh_l0 f4 [32]
00000000: ca23 043f 69a8 d53d 8937 20bf 922d 83bf
00000010: 6217 d43b be0a 40be 69e6 2e3e c256 75bd
00000020: cd3c df3e c07f a2bf 008d 9dbd d2c6 843e
00000030: 589f c03d efc0 7c3d 2f64 9abf b356 583e
00000040: 5625 b1be 332b 2bbe 4d8b 52be 7186 513f
00000050: 4a9d d43e 0cfd 92be e299 8b3e ea5d 873e
00000060: 908b 093d 05f0 55bf 6ec2 13bf f7da 86bf
00000070: 8df2 553e ab40 a43d e05c 18bf 051d c03e
0.5161711 0.10432512 -0.6258474 -1.0248282 0.006472514 -0.18754098 0.17080082 -0.05989719
0.43601075 -1.2695236 -0.07692909 0.25932938 0.094053924 0.061707433 -1.2061824 0.21126823
-0.34598798 -0.16715698 -0.20560952 0.81845766 0.41526252 -0.28708684 0.2726584 0.26438838
0.033580363 -0.83569366 -0.5771855 -1.0535573 0.20893307 0.08020147 -0.59516716 0.3752214

l_lstm.weight_ih_l1 f4 [32, 8]
00000000: 63b0 9ec0 3def 60be 06ee 603e 98f8 31be
00000010: 0bae f83d 9b48 83bf 8159 3540 5d7a 64c0
00000020: d257 d23f e497 8cbe 5aaf 0f3e bbd6 f3bd
00000030: 5ea9 7bbf f969 293f b1f5 0240 9b23 2ebf
00000040: 35ac b43e d019 9dbe cb92 b43e 265b c4bd
00000050: 0070 9735 721a 11bf b480 a93f 8b9f 04c0
00000060: 374c 2e40 39f7 1dbf 05b8 35be 625f 7abd
00000070: b22b 3ebf c098 8dbf df9e 9c3f 07d2 01c0
00000080: a2b8 75bf ffb3 07bb 5a57 493f f1d3 2240
00000090: e0e5 dcbe 7ff2 433d 0374 593e 0ddb 19c0
000000a0: d5a5 83bf f9ed a2bd 1bc6 9a3e db53 543f
000000b0: 249f 39bf 0186 babe 5e9f 0540 be74 30c0
000000c0: 8b62 8ebf 2192 69be c796 523f 6773 9abd
000000d0: d61f 603f 155d 1bbf 03f5 0f40 9b73 59bd
000000e0: a18b 58c0 1a97 45be 9ef5 1b3d ea91 d23f
000000f0: de8f 72be e549 cdbe 4964 9d3f 237f 36c0
00000100: 6a82 eabf d53d dbbe 47a4 0e3f c771 fe3f
00000110: f1a3 29bf 1844 863f 8a22 c4bf 5d7e 05bf
00000120: e2e4 e53f 977a 8e3e 68a4 523f 7f69 bd3d
00000130: 0051 f9bf 976c b03f ddf7 fdbf 7388 0bbf
00000140: bbc8 3c40 805a 833e 3117 1c3e bac7 bfbe
00000150: 8d4f c93e 5e3a e63f b1ac 1fc0 10f4 d43f
00000160: bee2 583f 8747 87c0 efe9 62bf ec13 c1bd
00000170: a609 dd3f d063 c7c0 a6ef 693f 8649 d23f
00000180: b853 aabf e2e5 29be 356d 863f 9f98 c53d
00000190: 108e 1840 0f76 9f3f eb11 dcbf f964 3b40
000001a0: f90a c9bd 8d97 8c3e a232 ef3e c7b5 aebe
000001b0: 3820 b93e 5693 183f 818b 3dc0 35ac 5c3e
000001c0: 4fa8 7840 42f5 6b3e eb93 733f d0b0 133f
000001d0: f81f 41be 8c82 c93f cc27 e8bf 0075 2540
000001e0: 3eff 2f3f 93dc cebe d221 653e 3aae dcbe
000001f0: 69bc 5a3d 6bc6 683f e73e 33c0 ebcd 823d
00000200: 2762 5b3e a654 17bf dbfc 573f de01 57bf
00000210: 1065 f7be 76dc c23f 00da 7b3e e409 34bf
00000220: a89f 9f3f dedb 65bf 69c8 0b3f 499c eebe
00000230: e818 67bf f1ea a23f 85fb 783f 6b00 5dbf
00000240: 9d65 8bbe 96c9 403f d454 4fbf 8648 443f
00000250: a8a4 243f 0684 d4bf 7e50 b9be aeef 173f
00000260: c517 9c3f cc75 23bf df1b 8b3f 4e51 71be
00000270: 514f 50be b6e6 fd3f ea2c 4b3f 338f 20bf
00000280: e07a 163f 564c 13bf 0337 c83e 3908 21bf
00000290: 3f28 06bf 618b be3f 58db 8dbe 5528 31bf
000002a0: eeb7 923e d3ef 18bf e15d 423f 742d 36bf
000002b0: 9805 ccbe 32b5 b13f 3050 a93e 968f 3dbf
000002c0: b5fd 5e3d 79f5 703f 0844 22bf bdca 973f
000002d0: ed6e 543f 837f 93bf a0cc 62bf 0916 833f
000002e0: 6842 9ebe 1f95 3ebf aeeb 3a3f d869 8dbe
000002f0: a7b6 bebe c67d b33f 1173 913c 3cb8 6dbf
00000300: 5cc7 81c0 cee3 293e d19a 8f3f 6a1c 11be
00000310: e2de d33e 7d92 acbe 4b42 783f f20d 04c0
00000320: 0623 df3e 111f f43e dcf3 0f3f e5d8 83bf
00000330: 8ccb a7bf 0600 993f c410 063f ef7e 7fbd
00000340: 62c9 cdbe 1f20 9a3e 2a34 813b 009c 603f
00000350: 5f7c cfbe 2ad6 bb3d dc9d 023f e8ad 31bf
00000360: cc1b 983f b843 b5ba ffc0 e2be 982c f6be
00000370: be9d f6bd a127 ffbe 72df 7f3d 9185 2a3e
00000380: f6da 00c0 bb82 f13e 8d7e 013f c015 ef3f
00000390: cccc 4dbf 8d81 323f e8ed 5ebf 7ccc f8bf
000003a0: d59c bcbf 5d31 cf3d 8602 cc3e e113 87bd
000003b0: 4388 00be ddbc af3e d051 ea3e 84e6 e8bf
000003c0: 5eb0 e3bf 923b b13e 3f86 9f3f b49e 7cbe
000003d0: 66d3 d93e d6fd e13e 0cfa 013f d45c 1940
000003e0: 092d 34c0 86d7 44be d5e6 933e f1ef ca3e
000003f0: 7842 d8bb 01ab 303e 1aef 26bf 6f66 ffbf
-4.9590316 -0.21966262 0.21965799 -0.17379987 0.12142571 -1.0256532 2.833588 -3.5699685
1.6433051 -0.27459633 0.14031735 -0.11906191 -0.9830531 0.66177326 2.0462458 -0.6802308
0.35287634 -0.30683756 0.35268244 -0.09587698 1.1282973e-06 -0.5668098 1.3242402 -2.0722377
2.7234018 -0.61705357 -0.17745979 -0.06112612 -0.74285424 -1.1062241 1.2235984 -2.028444
-0.9598485 -0.0020706651 0.7864891 2.5441859 -0.4314413 0.047838684 0.21235661 -2.4039948
-1.0284983 -0.07955546 0.30229267 0.82940453 -0.72508454 -0.36430362 2.087852 -2.7571254
-1.1123823 -0.2280965 0.8226132 -0.075415425 0.8754858 -0.60688907 2.2493293 -0.053088766
-3.3835223 -0.19295922 0.038076036 1.645078 -0.23687693 -0.4009544 1.229623 -2.8515098
-1.8321049 -0.42820612 0.5571942 1.9878472 -0.6626578 1.048953 -1.532304 -0.5214594
1.7960474 0.27827904 0.82282114 0.092486374 -1.9477844 1.3783139 -1.9841267 -0.5450508
2.9497516 0.25654984 0.15243222 -0.37457067 0.39318505 1.7986562 -2.4949152 1.6636982
0.8472098 -4.2274814 -0.88638204 -0.09427628 1.726857 -6.230934 0.913813 1.6428688
-1.3306799 -0.165916 1.0502077 0.09648251 2.3836708 1.2457904 -1.7192968 2.928038
-0.09816546 0.27459374 0.46718317 -0.3412306 0.36157393 0.59599817 -2.9616396 0.21550067
3.8852727 0.23042777 0.9514758 0.5769167 -0.18859851 1.5742965 -1.8137145 2.585266
0.68748844 -0.4040266 0.22376183 -0.43101674 0.05340234 0.9092776 -2.8007143 0.06386932
0.21424161 -0.5911354 0.843702 -0.83987224 -0.48319292 1.5223529 0.24594879 -0.7032759
1.2470598 -0.89788616 0.54602677 -0.4660361 -0.9027238 1.2727948 0.9725879 -0.8632876
-0.27225962 0.75307596 -0.8098881 0.7667316 0.64313745 -1.660279 -0.36194223 0.593501
1.2194754 -0.6385162 1.086788 -0.23566172 -0.20342757 1.9836032 0.7936541 -0.62718505
0.5878124 -0.57538354 0.3910447 -0.6290317 -0.5240516 1.4886285 -0.27706409 -0.69202167
0.28655952 -0.5974094 0.759245 -0.71163106 -0.39848018 1.3883421 0.3306899 -0.7404722
0.054441173 0.9412456 -0.6338506 1.1858746 0.8298176 -1.1523288 -0.8859348 1.02411
-0.3091004 -0.7444629 0.7301587 -0.27619815 -0.37248728 1.4022758 0.017755063 -0.92859244
-4.055586 0.16590807 1.1219121 -0.14170995 0.41380984 -0.33705512 0.96976155 -2.0633512
0.43581408 0.47679952 0.56231475 -1.0300566 -1.3108993 1.1953132 0.5236933 -0.062376913
-0.40192705 0.3010263 0.003942986 0.8773804 -0.40524575 0.09171708 0.51022124 -0.69405985
1.1883483 -0.0013829386 -0.4428787 -0.48080897 -0.12041806 -0.49834922 0.062468953 0.16652514
-2.0133643 0.47170052 0.50583726 1.8678513 -0.8039062 0.6972893 -0.87081766 -1.9437404
-1.4735361 0.10116837 0.39845675 -0.065955885 -0.1255198 0.3432378 0.45765543 -1.8195348
-1.7788198 0.3461576 1.2462844 -0.24669915 0.42544097 0.44138974 0.50772166 2.3962908
-2.8152487 -0.1922284 0.28887048 0.39636186 -0.0065997206 0.17252733 -0.6520859 -1.9953135

l_lstm.weight_hh_l1 f4 [32, 8]
00000000: a12e 31bf 5d4a 0bbf 0692 943e 59be eabf
00000010: a8b1 a03f 75e0 253c b6cf 203e b6f7 523f
00000020: be0e 2cbe 9cbd 97bf 20a3 233f 2a7a 39bf
00000030: 1b17 29bf 1b76 cdbe 00a0 ca3e bcc8 c4be
00000040: 4faa 9f3f 6292 4e3d 7cc3 f5be fb95 b5bf
00000050: 44c7 aa3f f586 093f 6a0b 593d 1a0b 613f
00000060: d506 e5bd 8c6a a33f 9b84 d1bf 89cb 8d3e
00000070: 2ccc 0d40 ed4c 203f 3809 ebbf 542b 873f
00000080: 9cc7 b73f 0421 fabd 3be1 8abd 6d50 f4bf
00000090: 1f3d 0bbf cdb1 f63d 4cd8 98be 15bf 22bc
000000a0: f513 2f3f 19d3 5bbe 175a 333e d91b 7fbf
000000b0: d206 c23e 33f1 49be 007d 663e e2d7 a73d
000000c0: cbf6 0f3f d0a9 17bf 5b60 013f 5210 10c0
000000d0: bad1 67bf d1a2 033e 549e 0c40 8ba3 853d
000000e0: 1300 9a3f 2991 c03e d224 28be 24c2 06c0
000000f0: a637 973f ed5a 83be 246c 3cbe ca1d 6dbe
00000100: a1f5 69bf 1a29 4fbf db95 153f 2745 a1be
00000110: f612 e0be 7516 8cbc 0b98 72be 4573 89be
00000120: 9a9f 903e a8a3 c3bf be27 323e 2fdd 84bd
00000130: 02bc 9ebe b533 28bf 8968 d63e b99b e3be
00000140: 06cc ed3d 2336 a33d 230d 50bb 3b7d 46be
00000150: 0e1b 1abe a1c0 4abe 01a3 43be efbe 9ebe
00000160: a394 50c0 18d2 bd3f aba5 5cbe b744 b93f
00000170: 0f96 c2bd 293a abbf 75ad 46bf cd06 81bf
00000180: 7280 073f 5b52 dd3e e596 833e 7be5 60bf
00000190: 4542 2fc0 f711 143e c01b dcb9 8ff5 11bf
000001a0: 18e9 d6be fc0c 70be 19da 093e eda8 64be
000001b0: 5e69 acbf 00ed d6be 26bf 12be b9e9 77bf
000001c0: 852e 923f fb76 c1be 937d 633e f52a f0be
000001d0: 9f62 07bf 7878 d13e 38e6 913f 7bfc c23e
000001e0: 98e9 b3bd d6bb b4bc a604 9c3e 7a4f fe3d
000001f0: 861b 99bf 41c9 4ebf 5b92 e73e 3664 a6bf
00000200: 70ca a9bf 6258 e8bf 22f6 0040 4eb3 b5bf
00000210: 9347 b9bf 9200 e5bf bd9d 0440 281b cabf
00000220: 6870 7f3f fb00 63bf ebe7 c7be 6980 4e3f
00000230: 6450 30bd 3cbd 243f c2d1 2a3f ae41 d43e
00000240: 3eb2 e9bd db80 433f a2b1 c2bf 87c8 e73e
00000250: e089 953f 4713 393f 9873 50bf 8072 1c3f
00000260: 46aa 863f 940d 0abe ccdd 603f fffa d5bf
00000270: ae0e c8bf 78d1 463e b872 d83e b5e6 6cbc
00000280: 21dc 703f 6c16 b0be 1977 4c3f 0a8e 0abf
00000290: e2b7 38c0 48fd 27be ab71 1d3f 2ef6 01bf
000002a0: d0af 0dbe a02d 39bf 0fad 893f f846 e9be
000002b0: e78c 87bf 7734 e4bf 6aab a53f 84f0 41bf
000002c0: 031e adbf 9392 a1bc 84a6 2abe 8887 debe
000002d0: 0ab9 183f 0d19 33be 3e3c 1cc0 6a99 c1be
000002e0: d3f4 9cbd c86b 7fbf d8ec 733f f054 ddbe
000002f0: 9d19 ccbf 119d 74bf c1f1 bd3f ba36 0ac0
00000300: d7a5 1ebf 9540 43bf 4b7a 2f3e 5243 19c0
00000310: cf77 ec3c a699 2abe 5258 d43d 9022 c33d
00000320: 01c2 c73d 210d 8bbf 5b57 3e3f 4cb5 1dbf
00000330: 1ea6 5ebf 8db1 a6be db49 313f 2efd 98be
00000340: 99d6 933f 90bf 663e 8655 133f dc17 e4bf
00000350: 3ef8 02bf 937d 25bc 9643 1d3d 8672 2abf
00000360: d643 f9be 642c 833f f9cc ebbf a1a2 8e3f
00000370: c89e b03e 44d3 e83d 6d2c 0dc0 de9a 4abf
00000380: bd56 673f eefd c53d d385 543f 5c46 26c0
00000390: 06e0 a5bf d094 cfbb 0756 1bbf 6b21 4ebf
000003a0: a42e ee3e 5251 20bd 1836 29be f036 c7bf
000003b0: c16b 2e3e ae3e 54be b34c c1bd c1fe 10bf
000003c0: 6c2c 913f 3f4e 723e 8e5d 9f3e aea7 29c0
000003d0: 170f dabf ded8 3b3f f577 d13f 9114 00be
000003e0: 412e fc3e 938a ae3d 27c7 b83e f55d d2bf
000003f0: aa42 953d 87ea bebe c8c1 15be 0a30 65bf
-0.69211775 -0.54410344 0.29017657 -1.833934 1.2554216 0.0101243155 0.15704235 0.82409227
-0.16802499 -1.1854739 0.63920784 -0.7245203 -0.6605088 -0.4012917 0.39575195 -0.38434398
1.2473849 0.05043257 -0.48000705 -1.4186395 1.3342061 0.53721553 0.0529894 0.87907565
-0.11182944 1.276689 -1.6368593 0.27694348 2.2155867 0.6261738 -1.8362188 1.0560098
1.4357791 -0.122133285 -0.067812406 -1.9087044 -0.5439014 0.120456316 -0.2985252 -0.009933253
0.68389827 -0.21467246 0.17514835 -0.9965187 0.37895828 -0.19720916 0.22508621 0.08195473
0.5623595 -0.5924349 0.5053765 -2.250996 -0.9055439 0.12855078 2.1971636 0.06525334
1.2031273 0.37610748 -0.16420296 -2.1055994 1.1813858 -0.25655308 -0.18400627 -0.23155895
-0.91390425 -0.8092209 0.58431786 -0.31498072 -0.43764466 -0.017100552 -0.23690812 -0.26845756
0.28246766 -1.5284319 0.17397973 -0.064875 -0.31002814 -0.657039 0.4187663 -0.44454744
0.1161118 0.0796931 -0.0031746111 -0.19383709 -0.15049383 -0.19800045 -0.1910515 -0.31005046
-3.259072 1.482974 -0.21547572 1.4474095 -0.09501278 -1.3377124 -0.77608424 -1.00802
0.52930367 0.43226895 0.2570106 -0.8785016 -2.7384198 0.14459978 -0.00041982345 -0.5701532
-0.4197471 -0.23442453 0.13462104 -0.22330065 -1.3469656 -0.41977692 -0.1433073 -0.9684101
1.1420447 -0.37786087 0.22215872 -0.46907774 -0.5288486 0.40912223 1.1398382 0.38083252
-0.08784789 -0.022062223 0.30472296 0.12417503 -1.1961524 -0.8077584 0.45228848 -1.2999332
-1.3264904 -1.8151972 2.0150228 -1.4195344 -1.4474968 -1.7890799 2.0721276 -1.5789537
0.99780893 -0.8867337 -0.39044127 0.8066469 -0.043045416 0.6435125 0.66726315 0.4145636
-0.1141095 0.7636849 -1.5210459 0.45270178 1.1682701 0.7229504 -0.8142638 0.61112213
1.0520713 -0.13481742 0.87838435 -1.6717223 -1.562948 0.19415843 0.42275023 -0.014459302
0.9408589 -0.34392107 0.7986923 -0.54122984 -2.8862233 -0.16405213 0.6150157 -0.50766265
-0.13836598 -0.72335243 1.0755938 -0.45561957 -1.0589875 -1.7828511 1.2942936 -0.7575762
-1.3524784 -0.019723212 -0.16665083 -0.43462777 0.5965735 -0.17490025 -2.441177 -0.37812358
-0.07663884 -0.99773836 0.9528327 -0.43228865 -1.5945317 -0.95552164 1.4839402 -2.1595902
-0.619718 -0.7627042 0.17136495 -2.394734 0.028865723 -0.16660175 0.10368408 0.09528077
0.097538 -1.0863382 0.74352044 -0.6160476 -0.86972225 -0.32557335 0.6925332 -0.2988066
1.1549865 0.22534013 0.57552373 -1.7819781 -0.5116004 -0.01010074 0.038394533 -0.66581
-0.48684567 1.0247922 -1.8421928 1.114338 0.3449614 0.11368421 -2.2058365 -0.7914256
0.9036673 0.09667574 0.830167 -2.5980444 -1.2958992 -0.0063348785 -0.6067814 -0.8051974
0.4651996 -0.039140053 -0.16524541 -1.556364 0.17033292 -0.20727035 -0.09438457 -0.56638724
1.1341681 0.23662661 0.31126064 -2.6508594 -1.7035855 0.7337779 1.6364733 -0.12507845
0.4925404 0.08522525 0.3608944 -1.6434923 0.07288106 -0.37288305 -0.14624703 -0.89526427

l_lstm.bias_ih_l1 f4 [32]
00000000: e5d1 46bf aa67 74bf d4a1 953c ffcd 76bf
00000010: 72b4 22bf 4d1d 55bf 8ee9 54bf d403 9fbe
00000020: f53b 653e 2fca 0dbf 1d36 f3bc faa8 d9be
00000030: 6f6b 76bf 3394 95be b828 8abe ed92 dabe
00000040: 303e 0fbd 62b9 5cbd f0f2 873e d11d 143e
00000050: e8b3 1abe 47e8 82be f1bc 923e e6b5 5ebd
00000060: f427 1c3c 731e 17bf b589 80bf d6cf acbe
00000070: 2d4b 51bd 31be a3be fe28 2ebf fee7 953d
-0.77664024 -0.9547068 0.018265642 -0.96408075 -0.6355659 -0.83247834 -0.83168876 -0.31057608
0.22386153 -0.5538663 -0.02968889 -0.4251173 -0.9625768 -0.2921463 -0.2698419 -0.4269022
-0.034971416 -0.053887732 0.26552534 0.14464499 -0.15107691 -0.2556784 0.28659776 -0.05437269
0.00953101 -0.59030837 -1.0042025 -0.33752316 -0.051097084 -0.31981042 -0.680313 0.073196396

l_lstm.bias_hh_l1 f4 [32]
00000000: 2add b2be 48c7 3bbf b77b 93bd 31c4 f3be
00000010: a863 2cbc bc7b 84be b162 11bf 008c 23bf
00000020: 4a39 bb3e 8642 a7be 7ad0 b4be 2ad8 713b
00000030: bb76 6abf 2d72 a3be 9e26 1ebf 8807 9fbe
00000040: 3d16 31be 23f0 92bd fdcc 28bd c4a1 c7be
00000050: f7a3 903d 6878 613d 733e 36be 76b5 f9bd
00000060: 9020 d8be e12a dfbe 16bc 87bf d972 40be
00000070: b746 25bf 3220 cdbe f844 41bf 1e35 ebbe
-0.3493436 -0.73350954 -0.07201331 -0.4761062 -0.010521807 -0.25875652 -0.56791216 -0.638855
0.36567146 -0.3266794 -0.35315305 0.0036902525 -0.9158742 -0.31923047 -0.61777675 -0.31060433
-0.1729364 -0.07174709 -0.041211117 -0.38990605 0.07062524 0.05504647 -0.1779726 -0.12192814
-0.42212343 -0.43587402 -1.0604274 -0.18793811 -0.6456103 -0.40063626 -0.7549586 -0.45938963

l_linear.weight f4 [1, 8]
00000000: e26f 123f eaf4 063f 4999 ecbe a4e5 d83e
00000010: 2e1f d63e 2cf3 f43e 3131 d9be 2f2c f23e
0.5720197 0.5271746 -0.46210697 0.42362702 0.41820663 0.47841775 -0.42420343 0.47299334
