citylearn/data/datasets/vt_chittenden_county_neighborhood/resstock-amy2018-2021-release-1-147002.pth (torch, 8966 bytes, 9 tensors)

l_lstm.weight_ih_l0 f4 [32, 13]
000000 6f 7c f0 3d a7 2e 0b be b0 c0 06 bd e1 95 00 3d
       0.11742484 -0.13592015 -0.032898605 0.031392936
000010 f1 b0 0f be a9 32 70 3e 63 1c 7a 3f 0f a9 c0 be
       -0.14032342 0.23456825 0.97699565 -0.3762898
000020 48 cb 24 3e d4 97 5d bd 4a fd 1e be 3a 3a b5 3d
       0.1609317 -0.054099873 -0.1552631 0.088489965
000030 93 d5 0b 40 06 ea dc be 47 ef 37 bf 9a 87 30 3f
       2.1849105 -0.43147296 -0.71849483 0.6895691
000040 c6 96 62 bc d4 ec 4f bf 29 d0 89 bf c3 87 3a 40
       -0.0138298925 -0.81220746 -1.076665 2.9145362
000050 0a 84 19 bf 05 53 d8 bf 29 11 9e bb ce 6f 89 bd
       -0.599671 -1.6900336 -0.004823823 -0.06710778
000060 4f b4 d1 bd 79 f5 d9 3f e0 07 92 3e 5b 66 82 3f
       -0.10239469 1.7028037 0.28521633 1.0187486
000070 0d 66 f7 3d 24 a3 63 bd cb 12 ec 40 7f d9 c2 3f
       0.120800115 -0.055575505 7.377294 1.5222625
000080 ce f9 00 c0 7f 13 f0 40 57 74 55 bf 7d 8a 89 3f
       -2.0152469 7.50238 -0.83380646 1.0745388
000090 c6 01 35 3f 87 0b 95 bf db 8c 91 be 2c 37 6a 3f
       0.7070583 -1.1644143 -0.28427777 0.91490436
0000a0 69 03 0c c0 88 37 97 bf 07 95 f0 bd f9 7c 0a 40
       -2.1877081 -1.1813822 -0.11747175 2.1638777
0000b0 d5 83 50 3f ab 6b 90 bf 81 e3 0c 40 24 6d e5 bf
       0.8145116 -1.1282858 2.2013857 -1.7923932
0000c0 d5 17 7b 40 be 2f 41 bf 32 a9 9a 3f b8 9d dc 3e
       3.9233296 -0.75463474 1.2082884 0.4308908
0000d0 9b 42 99 3b 66 dd 2c 3d 9b a7 08 be 31 34 7f bd
       0.0046771294 0.04220333 -0.13345186 -0.062305633
0000e0 b0 8c d6 be be 4c 89 3e a6 11 ef bf 8e 09 b4 3f
       -0.4190421 0.26816362 -1.8677261 1.4065416
0000f0 6f 0e d4 3d 52 c8 8e bd 59 8d 2f 3e 7a df a6 bd
       0.103543155 -0.06971802 0.17143764 -0.081480935
000100 b3 22 06 40 7e 1d 47 3f d5 da 44 3f 9c 6b bb be
       2.0958679 0.77779377 0.7689641 -0.36605537
000110 b8 2f 9a be 8b 0e 14 3f 9c 25 6f 3f 2e 22 4a 3f
       -0.30114532 0.5783469 0.9341676 0.78958404
000120 fe eb 42 bf 8d 1b 80 bd b1 68 91 be 5f 30 39 bf
       -0.76141346 -0.06255255 -0.28400186 -0.72339433
000130 36 b1 c1 bd 29 3a c3 bf 7d d8 b0 3e a3 e1 01 3f
       -0.094576284 -1.5252124 0.34540167 0.5073492
000140 6f 49 82 3e 94 f8 1f bf a7 1e 1f bf 52 a3 9c 3f
       0.2544665 -0.62488675 -0.62156147 1.2237341
000150 03 cc dc bf 8e 72 35 40 8a 01 23 3f 4c 6e 90 bf
       -1.724976 2.8351169 0.63674223 -1.128366
000160 a2 f7 1a 40 15 da 1e bf df 8e b4 be 7d c5 b4 bc
       2.4213643 -0.62051517 -0.35265252 -0.022066826
000170 28 9f 60 be bc d2 52 be aa 26 fb 3d 36 af 90 bf
       -0.21935713 -0.20588201 0.12263234 -1.130347
000180 3e 71 be be 15 04 38 c0 3d c3 ac 41 56 5d 6a 3f
       -0.37195772 -2.8752491 21.595331 0.9154867
000190 d3 5e a2 3e 1f d5 8c 3e fa 41 04 3e b0 3b 9e 3f
       0.3171297 0.27506348 0.12915793 1.2361965
0001a0 69 bf 0a 3e 03 e2 9f 3e 4f 18 4a 3d c2 ea be 3c
       0.1354958 0.3122712 0.04933959 0.0233053
0001b0 52 8c 18 3d 23 fe 9d bd b3 f4 80 3e fc bd 20 bf
       0.037243195 -0.07714488 0.2518669 -0.62789893
0001c0 b8 3e e1 bd 04 e5 58 3d c8 87 2d be 9f cf c9 bd
       -0.10998291 0.05295278 -0.16946328 -0.09854054
0001d0 f9 7b 11 40 c1 3c 77 bf 44 39 c2 bf 37 f9 b0 3f
       2.2731917 -0.9657708 -1.5173726 1.3826054
0001e0 3c c4 91 bf a5 2f 11 c0 95 a1 be bf 15 7c 86 bf
       -1.1388011 -2.268533 -1.4893061 -1.0506617
0001f0 15 47 0f c1 51 4e 1b 40 25 c9 39 40 c9 fd 30 40
       -8.954854 2.426655 2.902902 2.7654898
000200 99 1b f2 bf 59 ae 34 3f 26 74 90 be 7a 09 8d be
       -1.8914672 0.70578533 -0.28213614 -0.27546293
000210 ac 7b e9 bd 8c a2 85 3e 74 6c a7 3f db c2 2a 40
       -0.11400542 0.26100576 1.3079972 2.668143
000220 c1 07 67 3f 92 74 30 40 96 d6 9b 3f 58 26 e9 3e
       0.90246207 2.757115 1.2174861 0.45537066
000230 c4 98 98 3f 02 6c 2f 3f 16 95 a7 be 7f 98 c1 3f
       1.192162 0.6852418 -0.3273093 1.5124663
000240 e1 48 eb bf 9b c2 f3 3e 40 aa 86 be c0 c3 49 40
       -1.8381616 0.4760941 -0.26301765 3.1525726
000250 d3 67 82 3e 03 28 b5 be 99 a3 42 40 32 fd 67 bf
       0.25469837 -0.3538209 3.0412352 -0.9062072
000260 42 49 3e 40 c1 aa 55 bf b8 73 02 40 dc 96 ac 3d
       2.9732213 -0.83463675 2.038313 0.08427212
000270 9f 81 04 bf bf e1 58 be 88 05 8f 3d fc 19 7a 3d
       -0.51760286 -0.21179865 0.06983477 0.061059937
000280 51 eb 14 bd db 9f d0 be c6 c5 7f bf 72 61 93 3e
       -0.036357228 -0.4074696 -0.99911153 0.28785282
000290 dd f5 bc 3d ef ba fb 3e c2 f4 4e 3f c2 a2 7a 3e
       0.09226582 0.49166057 0.8084222 0.2447615
0002a0 b2 69 e9 3f 4b 85 00 bf bf 15 3f be 99 c3 b7 be
       1.8235381 -0.5020339 -0.18660639 -0.35891417
0002b0 a5 eb 68 bd f4 f2 12 bd bf 29 97 3e 79 7b 17 c1
       -0.056865353 -0.03587623 0.29524037 -9.467645
0002c0 31 2e 3b c0 cb 25 af be fe 8a 54 3e 9e 45 cd be
       -2.9246943 -0.3420852 0.20756146 -0.40092176
0002d0 a6 b9 e5 bc 5a b5 6f c0 30 5a 07 bf 3a ed 80 bf
       -0.028042626 -3.7454438 -0.5287199 -1.0072396
0002e0 2b 47 42 3e 53 e7 3a 3e 09 ae b3 bf 5d a3 24 40
       0.18972461 0.18252306 -1.4037486 2.572471
0002f0 9e 86 39 40 6d aa db 3f a7 8d a3 bf b3 e3 9f be
       2.8988414 1.7161385 -1.2777604 -0.31228408
000300 7a c9 ed 3f c3 e4 ca 3e 4a c9 28 3f de bb 71 be
       1.8577111 0.39627656 0.6593214 -0.23606822
000310 83 81 b1 3f 07 dc 3d 3e 5d c5 8a be d4 87 81 3e
       1.3867649 0.18540965 -0.271037 0.2529894
000320 9d 32 0f bf f9 df c9 c0 a1 76 56 41 a9 58 a8 bf
       -0.55936605 -6.3085904 13.403962 -1.3152057
000330 3d dd 5a bf 28 9c 00 bf 83 16 12 3f de ee b7 3f
       -0.8549383 -0.50238276 0.570656 1.4369771
000340 65 b2 0a 3d 7f 57 b7 3d 07 97 7b bc a2 e7 7a bb
       0.033861537 0.089522354 -0.015355832 -0.0038285037
000350 f7 52 8f 3d 24 6f bc 3d b0 ac 2b 3f e1 01 76 3e
       0.06998246 0.09200886 0.67060375 0.24024154
000360 67 48 7f 3c 70 1d 60 3d 88 a6 31 be 8f 4b 49 bb
       0.015581227 0.054715574 -0.17348683 -0.0030715202
000370 d2 6e 00 40 4f 70 47 3f fd 8e 02 40 1c d5 59 be
       2.006764 0.77905744 2.0399773 -0.21272701
000380 ff b2 a9 bd bd d5 46 3f b1 1e c0 be 2e 24 4c c1
       -0.08286094 0.7766989 -0.37523416 -12.758833
000390 4a 81 35 41 2f b6 a2 3b 23 cf cf 3d a0 52 80 bf
       11.344065 0.0049655656 0.1014693 -1.0025215
0003a0 99 0c 78 be c6 c3 03 bf 95 2f 55 be ac 51 c7 3c
       -0.24223556 -0.514706 -0.20818932 0.024330936
0003b0 20 81 28 be 3f 95 37 bc 0d 9c 77 bf a2 80 08 c0
       -0.16455507 -0.011205017 -0.9672249 -2.1328511
0003c0 4d a5 a0 bf f3 25 9f c0 e8 38 86 bf 1f c9 bd 3e
       -1.2550446 -4.9733825 -1.0486116 0.37067506
0003d0 34 0b da bd 8c 83 ee 3e 12 1a a5 3d 71 35 08 bf
       -0.10646668 0.46584737 0.08061613 -0.53206545
0003e0 7d 66 8e 3f 38 ff 72 3f 4d b2 4c bf d9 ac 72 3f
       1.1125027 0.9492068 -0.79959565 0.94794995
0003f0 1c 5b 80 3f e6 71 02 3d b9 67 9e 3f 12 7e 10 bf
       1.0027804 0.031846903 1.2375404 -0.5644237

l_lstm.weight_hh_l0 f4 [32, 8]
000000 5e 16 1a bf b6 72 07 3c 87 17 ba 3e 4d b7 5c be
       -0.6019038 0.008267095 0.36346075 -0.21554299
000010 0d 6f 76 3e a8 b8 17 bf 00 79 bc 3e fe 62 0a bf
       0.240658 -0.5926614 0.36811066 -0.540573
000020 c9 eb 68 be f5 4b 57 40 eb cb f4 be 6e 97 2b 40
       -0.22746195 3.364011 -0.47811827 2.6811175
000030 ff 5b bb 3f 1c 87 7d 40 d8 73 87 40 30 09 ff 3f
       1.463745 3.9613714 4.232891 1.9924679
000040 2a b8 5f bf 14 55 55 bf f2 df 22 3f a7 76 ea 3b
       -0.8739039 -0.83332944 0.63622963 0.0071552577
000050 24 fd ec 3d e9 28 af 3e ca 03 99 bf b6 26 2e 3e
       0.1157172 0.342109 -1.1954281 0.17006955
000060 d6 5a aa 3e d8 48 2c 3e 9e 95 47 3e bf 4b 27 bd
       0.33272427 0.16824663 0.19490668 -0.04084372
000070 24 f0 ec 3e a3 84 42 3d d5 04 c7 bf 95 7b 98 bf
       0.46276963 0.047489773 -1.554835 -1.1912714
000080 bf 6c 7d 3e ce 46 ae be 7d 74 60 3f 32 6e 1b bf
       0.24748515 -0.34038395 0.87677747 -0.6071502
000090 f1 46 d4 3e d7 65 55 3e b1 2a 50 3f 91 0b 01 bf
       0.41460374 0.2083963 0.8131514 -0.50408274
0000a0 f4 a2 d9 be 34 a8 ab bf 26 e5 93 3e 7f e5 2c 3e
       -0.42507136 -1.3410707 0.28885764 0.16884421
0000b0 91 40 07 3f 80 9d c0 be 91 6b 33 3e 0b 3c 90 3e
       0.52832896 -0.37620163 0.17521502 0.2817081
0000c0 7b fa 91 3b cd 8d 55 40 62 c8 95 3f e3 5a eb be
       0.0044549084 3.3367798 1.1701777 -0.4596778
0000d0 71 5f 92 bf 5e 0e 56 40 5b 6f 29 40 f1 13 bc bf
       -1.1435376 3.344627 2.6474216 -1.4693586
0000e0 51 0a c7 bf 30 fd d2 be c3 1e e2 bf 36 47 c0 bf
       -1.5550023 -0.41208792 -1.7665638 -1.5021732
0000f0 99 4e 93 be ea cd 3a 40 f8 a2 9d bf bd c4 22 bf
       -0.28770903 2.918818 -1.2315359 -0.6358145
000100 df 8b ce 3b ee 37 0e 3e 4a 31 02 3e b2 47 53 bc
       0.006303295 0.13888523 0.12714115 -0.012895511
000110 2d 2b 8a 3e 91 b7 28 bf 53 f5 05 3e de c9 e0 be
       0.26986066 -0.659051 0.13081865 -0.43904012
000120 42 0c f1 be 88 3e a5 c0 29 cf 92 3f db 59 31 bf
       -0.47079664 -5.163883 1.146947 -0.69277734
000130 57 57 03 40 3d 8b 2b 40 74 1e 24 3f 59 e2 35 c0
       2.0522058 2.6803734 0.6410897 -2.8419402
000140 70 d1 28 bf ca 63 04 c0 9a 02 4d 3f 56 c9 04 3e
       -0.65944576 -2.0685906 0.80082095 0.12967429
000150 3f 51 94 be 69 d2 0e 40 f3 05 50 bf 5c cb 49 3e
       -0.28968236 2.2315924 -0.8125908 0.19706482
000160 22 69 c9 3e 29 2f 87 3f bf ea 09 3f 15 56 36 3e
       0.39338022 1.0561267 0.5387382 0.17806275
000170 04 d5 7c 3f 3a e3 9c bf f2 cd 6e bf 4d 2f 52 bf
       0.98762536 -1.2256844 -0.93283 -0.82103425
000180 55 4b 41 3e 84 14 3a 3e 87 1c e2 bc ac 3c 2a bf
       0.18876393 0.18171889 -0.027601494 -0.6649883
000190 be 79 36 3e 63 a8 5c 3f 36 3f dd 3d ee fb d4 bd
       0.17819878 0.8619444 0.10803072 -0.10399614
0001a0 44 67 1e c0 d8 30 46 40 e9 df b4 be a3 46 8b be
       -2.4750528 3.0967312 -0.3532708 -0.2720233
0001b0 e2 2d 56 3f ec 50 d4 bf 66 ef 99 bf a3 64 6f 3f
       0.8366376 -1.6587195 -1.2026184 0.93512934
0001c0 f5 2c 88 be f5 81 a4 c0 2a 22 8f 3f c9 13 bd 3f
       -0.265968 -5.140864 1.1182301 1.4771663
0001d0 bd df 01 c0 6f f8 68 40 97 d5 0d 40 cd 03 36 be
       -2.029281 3.6401632 2.2161615 -0.17774887
0001e0 ce a4 54 bf 1d 37 03 3f 9e 8f 77 bf a3 80 5d be
       -0.8306397 0.5125597 -0.9670352 -0.21631102
0001f0 0d fb da be a2 18 2b 40 a9 c7 c5 be 22 45 8f 3f
       -0.42769662 2.6733785 -0.3862889 1.1192973
000200 69 29 31 3e e5 ea 44 3e b9 16 45 3e bb 7a 2a be
       0.17300953 0.1923023 0.1924695 -0.1664838
000210 0e 06 b8 bd 34 b2 11 bf 4f dd cd 3e 5f 58 e1 3c
       -0.0898553 -0.5691254 0.40207908 0.027507959
000220 0e 90 76 3e a9 7a b2 bf e3 2b 67 3f be 77 a5 bf
       0.2407839 -1.3943683 0.9030134 -1.2927167
000230 10 df fb bf ef 60 df 3f ea 1d bd bf 2a 1c 09 3f
       -1.9677448 1.7451457 -1.4774754 0.535586
000240 58 7e 7d be f2 11 37 3c ce d8 35 3e 31 5f 05 3f
       -0.24755228 0.011173712 0.17758486 0.52098376
000250 51 8d 3c 3f 7c 88 29 3f e8 b1 10 40 72 0c c4 be
       0.7365313 0.66223884 2.2608585 -0.38290745
000260 ba c8 7b 3e 68 1c 84 3e 60 f1 29 bf f4 0d 79 be
       0.2458829 0.25802922 -0.66383934 -0.24321729
000270 33 8c b7 be 00 5a 6a bf 9d 3c f8 be b9 07 01 3e
       -0.3584915 -0.9154358 -0.48483744 0.12600602
000280 ab a6 03 bd 5f 64 36 3f d1 c0 0d bf 6a 5b a2 bd
       -0.03214137 0.71246904 -0.5537234 -0.07927592
000290 7d db 8b be 41 e2 0e 3e eb 39 fb bd 2b b0 42 3f
       -0.27315894 0.13953497 -0.12266906 0.7605006
0002a0 0c ec c8 be 54 4e bb bf 09 c2 1e 40 05 20 f0 be
       -0.3924259 -1.4633279 2.480593 -0.4689943
0002b0 39 d1 2b 3e dc 9f 20 be df a3 fa 3e b2 67 63 c0
       0.16779031 -0.15685982 0.4895315 -3.553204
0002c0 1f 42 11 bf b1 fb 37 40 e7 68 cf bf 41 48 5a be
       -0.5674152 2.874737 -1.6203889 -0.21316625
0002d0 70 e5 c2 3f 83 c8 b5 3e e5 1f 20 be b8 88 29 40
       1.5226269 0.3550454 -0.15637167 2.6489697
0002e0 7f 96 3d bd bc 9d 82 c0 73 7d e0 3e 7b e7 a6 3e
       -0.046286102 -4.0817547 0.4384571 0.3259848
0002f0 5a c2 84 bf 5d f6 a8 3f 94 e4 59 3f 62 62 50 c0
       -1.0371811 1.3200184 0.8511441 -3.2560048
000300 6b 44 8b 3e 7e e6 04 40 6a 05 82 3e d8 bc ee 3d
       0.27200636 2.0765681 0.25394756 0.11657113
000310 01 91 3f bd 6c dc aa be 66 3f e4 be a7 e5 99 be
       -0.046769146 -0.33371294 -0.4457962 -0.30058023
000320 98 ea 8c bf 87 fb 0f 40 82 b3 1d bd 84 8f e4 be
       -1.1009092 2.249727 -0.03850127 -0.44640744
000330 1e d9 f9 3f 3b e1 5f 40 54 bf 4b 3f 45 68 c5 bd
       1.9519384 3.498122 0.7958882 -0.096390285
000340 2d 18 9e 3d 63 d5 04 40 eb 68 71 be 1f cb 8b 3f
       0.07719455 2.075524 -0.2357518 1.0921363
000350 76 10 8c 3e cf 8a ee 3f d6 c0 0a bf 76 62 a5 3f
       0.2735631 1.8636111 -0.54200494 1.2920673
000360 23 86 e1 3b 56 8e 1f 40 8b ca 5c 3f 5c e0 97 3e
       0.0068824454 2.4930625 0.86246556 0.2966336
000370 d1 5d a2 3e 45 4e a7 3f dc 59 32 3f 0f aa be 3e
       0.317122 1.3070761 0.69668365 0.3723912
000380 46 e7 99 3d 16 a8 8f be 42 60 ea 3c 09 f4 04 bf
       0.07514815 -0.28057927 0.028610352 -0.5193487
000390 59 d2 ed be b6 c7 b7 3e 8e fd cd 3d ec 8f db 3c
       -0.46449545 0.35894555 0.10058127 0.026802026
0003a0 1d dd 20 bf 3a eb 2a bf ef 7e 45 3e 07 8e 8e be
       -0.6283739 -0.6676518 0.19286703 -0.27842733
0003b0 a5 c5 2d 3f e6 84 92 be 81 ba 74 3e 98 8a 88 be
       0.67879707 -0.28617018 0.2389927 -0.2666824
0003c0 bd 68 09 40 7c 4f 5d 3f 74 25 da 3f d7 be c6 3f
       2.1470177 0.8644941 1.704268 1.552699
0003d0 21 e5 fa bf 51 55 db 40 94 23 0a 40 06 63 d7 bf
       -1.9601175 6.8541646 2.1584215 -1.6827095
0003e0 c3 1b d9 3e 78 23 4a bf aa ea a3 3f b3 90 5d bf
       0.42403993 -0.7896037 1.2805989 -0.8654892
0003f0 99 8b c9 be 5a ee 33 40 ea ed 17 40 b3 32 8a bf
       -0.39364317 2.8114228 2.3738961 -1.0796722

l_lstm.bias_ih_l0 f4 [32]
000000 b4 fe fa be ad 14 08 bd a6 11 57 3e 4c ab c6 3e
       -0.49022448 -0.033222843 0.21002826 0.38802564
000010 23 8b 6d bf 18 16 4e 3e 61 71 df be 3a 19 43 bf
       -0.9279043 0.20125616 -0.4364119 -0.7621037
000020 e1 02 54 be d7 ac 0b be 2d fd 3c bf b1 33 41 bd
       -0.20704223 -0.13640152 -0.73823816 -0.047168437
000030 23 ff 5f bf 38 ec f1 3c 9f 01 ec bd bc d5 08 3e
       -0.8749868 0.029531583 -0.11523747 0.13362783
000040 6b 9a 89 bd 54 a9 f1 be 87 b8 d6 bd f5 8e 82 3e
       -0.06718906 -0.471995 -0.104844145 0.25499693
000050 a0 1a 0f 3d 1d f4 b5 be 25 97 25 be e3 1d 0c 3f
       0.0349375 -0.35537806 -0.16170938 0.54733104
000060 1e 50 22 be 79 ab 15 bf 8a 5e 9c be 99 e0 ef be
       -0.15850875 -0.5846477 -0.30540878 -0.46851042
000070 9d 73 0d bf ec 57 1e 3e 33 26 43 bf 3c bb 5d bf
       -0.55254537 0.15463227 -0.7623016 -0.8661382

l_lstm.bias_hh_l0 f4 [32]
000000 99 71 47 bf ff 61 f5 3e 59 31 c9 be 7e 48 c7 3e
       -0.7790771 0.47926328 -0.39295462 0.38922495
000010 94 2d 0a bf 1c cb 1a 3f 66 52 e7 be a8 f5 6b bf
       -0.53975797 0.6046617 -0.45180053 -0.92171717
000020 69 d7 19 bf 3e be 1d be 94 23 80 bf c3 e2 81 bd
       -0.60094315 -0.15404603 -1.0010858 -0.063420795
000030 64 fe 5e bf d0 4f fa bd 93 7f f9 be 13 e4 47 be
       -0.8710692 -0.12222254 -0.48730144 -0.19520597
000040 72 32 eb be 79 c9 b9 be 05 78 88 bd c4 eb 10 3f
       -0.45936924 -0.36286524 -0.06663517 0.5660975
000050 0e a1 bb 3c 02 9d 17 bf 4b 3b 07 be ca 03 e5 3e
       0.022903945 -0.5922395 -0.13206212 0.44729453
000060 69 c7 d5 be 97 f7 e9 be 98 60 01 bf dd 24 6a bf
       -0.417537 -0.4569671 -0.50538015 -0.914625
000070 1c b7 49 bf 3d 78 11 3f 37 e0 43 bf 6e 70 a2 bf
       -0.7879503 0.56824094 -0.76514 -1.2690561

l_lstm.weight_ih_l1 f4 [32, 8]
000000 38 2b fd 3c 40 9f 13 40 01 e3 e2 3e b0 20 ff 3e
       0.030904397 2.3065948 0.44313815 0.49829626
000010 7f 35 2f bf 08 ac 0a bf 7d 2c 54 bf df bc b1 be
       -0.68441004 -0.5416875 -0.82880384 -0.3471441
000020 c0 6f 60 3e a1 1c 54 3f 16 52 2c bf 6a 52 56 bd
       0.21917629 0.82856184 -0.67312753 -0.05232469
000030 9e f9 0d c0 3a a1 b7 bf a8 4a 9b 3f 4a b8 ba 3e
       -2.2183604 -1.4346077 1.2132158 0.36468726
000040 17 0d b3 bf 6c 4d 83 3f 1f 25 ce be a7 9e bc bf
       -1.398837 1.0258002 -0.40262696 -1.4735917
000050 67 88 c5 be 10 16 d7 bf 51 ba 0c c0 f3 74 dc 3d
       -0.3858063 -1.6803608 -2.1988719 0.10764494
000060 78 31 8e bf d1 f6 b3 3e 9d e4 40 3f f6 14 05 bf
       -1.1108847 0.35149243 0.75348836 -0.5198511
000070 4c 98 27 be ef be 22 bf 5c 50 34 c0 22 64 68 bf
       -0.1636669 -0.6357259 -2.8174047 -0.9077779
000080 07 99 96 bf 5e 24 92 39 75 f3 01 bf fc f9 bb be
       -1.176545 0.00027874386 -0.5076211 -0.3671416
000090 0d 32 51 bf 80 13 b0 bf 88 6c da bf 5f a7 ae be
       -0.81716996 -1.3755951 -1.7064371 -0.3411207
0000a0 1e 6d fd bd 7b 64 6d bf c2 76 12 3e 9f e3 7f bf
       -0.12374328 -0.92731446 0.14303115 -0.999567
0000b0 89 62 8d bf f4 21 1a bf 98 65 69 3f 13 6e 81 be
       -1.1045696 -0.6020806 0.91170645 -0.25279292
0000c0 3f a7 f6 3e 39 8c 20 3f c8 62 d9 be 6b 37 49 be
       0.48174474 0.6271396 -0.42458177 -0.19650047
0000d0 8a 19 f5 3e 3e 09 3c 3f 8c 4f 0f c0 6b 45 57 bf
       0.47871047 0.734516 -2.2392302 -0.840903
0000e0 c1 11 8f be 94 da 3f 3f ad e0 13 40 45 c2 3f bf
       -0.27943233 0.749429 2.3105881 -0.74905807
0000f0 10 fa 60 bf a1 87 37 3e 47 57 d5 3f f8 19 55 c0
       -0.87881565 0.17922832 1.666726 -3.32971
000100 b5 ac 32 3f b3 43 9b 40 80 43 70 bf f2 32 4d 3f
       0.6979478 4.852014 -0.93852997 0.8015586
000110 64 66 7a be ff ff 24 bf 3c 60 96 3f 3e c6 bc 3f
       -0.24453121 -0.6445312 1.1748118 1.4747999
000120 31 db 4f bf af 86 a7 40 09 54 35 c0 b4 0a 67 bf
       -0.81193835 5.235191 -2.833254 -0.90250707
000130 30 37 15 3f d7 40 32 c0 c6 c2 5a bf 30 01 ce 3f
       0.58287334 -2.7852075 -0.8545345 1.6094112
000140 cf 43 01 3f ae 40 2b 40 d2 62 1b bf 02 f9 bb be
       0.5049409 2.6758227 -0.6069766 -0.36713415
000150 72 d4 7a bf 7d 5b 65 bf 0e 25 00 40 d7 50 a7 3f
       -0.97980416 -0.89592725 2.0022616 1.3071545
000160 33 19 22 3f 90 70 43 c0 26 1a fd 3f 83 60 cb 3e
       0.633197 -3.0537453 1.9773605 0.3972207
000170 8b 60 f7 be 27 60 c2 3f 06 b3 0a 40 ec 15 37 3f
       -0.48315844 1.5185593 2.1671767 0.71517825
000180 a3 7a 87 3f 95 83 6f 3f 20 67 58 3f e4 37 89 3e
       1.0584301 0.93560153 0.84532356 0.26800454
000190 bc 3b 87 bf 40 50 73 3f d9 6c c1 3f cd 60 fc 3e
       -1.0565104 0.95044327 1.5111343 0.49292603
0001a0 4f 4e c1 bf 03 85 98 bd 0a 31 d6 3f 21 87 0f c0
       -1.5102023 -0.07447245 1.6733716 -2.2426226
0001b0 72 7c 55 3f 81 96 6d 3f ea 2a a6 3f 84 65 64 be
       0.83393013 0.92807776 1.2981846 -0.2230435
0001c0 12 46 a1 3f e1 62 7b bd 7c 49 b3 bf 34 8a e4 3f
       1.2599509 -0.061373595 -1.4006801 1.7854676
0001d0 c6 55 e5 be 54 76 8b bf 6e df d0 bf ba 3d e8 3e
       -0.44792002 -1.0895486 -1.6318185 0.45359594
0001e0 c7 8d 67 3f 3b 85 3c 40 70 2d 1e c0 96 73 2b c0
       0.9045071 2.9456317 -2.4715233 -2.6789298
0001f0 88 dc b2 bf 0a c6 18 3f 18 7d ad be 13 0f 6e 40
       -1.3973551 0.59677184 -0.338845 3.71967
000200 5d 0c 39 3f db 15 78 bf 7c be 95 be 0c db f1 bd
       0.7228449 -0.9690835 -0.2924689 -0.11809358
000210 47 c8 1f bf fa 10 b4 3f ba 1e 24 be f7 ea ab 3e
       -0.62414974 1.4067681 -0.16027346 0.335777
000220 4a ae d9 3e 76 cb 5b bf f7 44 d6 3c ed a0 5f be
       0.42515785 -0.8585733 0.026155932 -0.21838732
000230 79 f6 3b bf 06 0d 4e 3e 04 6b 75 bf 68 e8 54 3f
       -0.7342296 0.20122156 -0.9586642 0.83167124
000240 60 70 90 3f d0 93 86 be 31 27 b8 be 5d c9 c3 3e
       1.1284294 -0.26284647 -0.359674 0.38239565
000250 f4 84 67 bf 30 cb 82 3f e1 77 a8 be bc 67 bd 3e
       -0.90437245 1.0218258 -0.3290396 0.36993206
000260 50 74 92 bf b1 02 31 3f 5e 46 fc 3e 9e 17 00 bf
       -1.1441746 0.6914473 0.49272436 -0.50036037
000270 61 64 4e 3f a1 ff 49 bf 31 77 a3 3e 05 b3 89 bf
       0.80621916 -0.78905684 0.31926873 -1.0757757
000280 0b 78 89 3f 6f bf f2 be 6b b0 e0 be 72 e7 03 3f
       1.0739759 -0.47411677 -0.43884596 0.5152503
000290 bd 56 55 bf a5 f5 4e 3f a4 63 ce be 89 f8 2d 3f
       -0.8333548 0.80843574 -0.40310395 0.6795736
0002a0 40 91 9f bf 6d b0 4a 3e 8d a5 2a 3c bc f8 4f bd
       -1.2466202 0.19793864 0.010415447 -0.05077432
0002b0 de 28 8d 3f 9a e2 5d bf ad f0 81 3e b0 b0 0c bf
       1.1028097 -0.8667389 0.25378934 -0.54957104
0002c0 a0 22 e5 be bb 41 bc be 99 b6 51 3f 7b 8f 2d be
       -0.4475298 -0.36768898 0.81919247 -0.16949265
0002d0 cc 95 5a be 86 4b 32 be 15 b2 f4 3f 87 22 06 3f
       -0.21346205 -0.17411622 1.9116846 0.52396435
0002e0 80 3a a4 3f 98 94 28 3c c0 39 f7 bc 06 87 1c 3e
       1.2830353 0.010289334 -0.030178905 0.15285882
0002f0 bd fa 09 bf 49 12 f2 3f ac fb f3 3e 93 3e 99 3d
       -0.5389822 1.891183 0.47652948 0.07482638
000300 c9 53 78 3f 0d 83 5d 3f eb e2 f6 3e 49 1a a3 3e
       0.97002846 0.8652809 0.4822 0.3185599
000310 06 51 b4 bf d1 d0 be 3e a7 46 7a 3f f0 4d f2 3d
       -1.4087226 0.3726869 0.97764057 0.11831272
000320 fc 88 7f be 60 67 ff 3c a0 be de 3e 5d 6f cc be
       -0.24954599 0.031177223 0.4350481 -0.39928713
000330 1c 72 20 c0 a1 b3 cb be 64 d4 a0 3f 6d d2 5a 3d
       -2.5069647 -0.39785483 1.2564816 0.053423334
000340 80 83 da 3d 5d e4 3d 40 37 7f 24 be f3 35 34 be
       0.10669613 2.9670632 -0.16064154 -0.17598705
000350 82 be e5 bf e9 b8 b9 bf 19 5c 80 bf ea ec e3 be
       -1.7948763 -1.4509555 -1.0028106 -0.4451669
000360 02 2f 92 3e b9 0f 02 c0 73 14 17 be 3a c8 3c be
       0.2855149 -2.0322096 -0.14753895 -0.18435755
000370 09 9c 60 bf 8a 4c 9d bf 2b 31 4c c0 28 42 57 bf
       -0.8773809 -1.2288983 -3.190501 -0.8408532
000380 e9 4e a3 3d c1 c2 08 3f 92 9c d6 be 52 00 21 3f
       0.07974035 0.5342217 -0.4191633 0.62891114
000390 4e 83 a8 bf 75 a2 fe bf d7 75 1d bf b3 52 9c 3d
       -1.3165071 -1.9893328 -0.61507934 0.07632961
0003a0 97 63 40 3f 43 1e 11 be 15 c2 32 3f 52 fc 46 bf
       0.7515196 -0.141717 0.69827396 -0.7772876
0003b0 b3 60 f1 bf a1 8a 80 bf 5d 38 56 3f ca 0f 00 be
       -1.8857635 -1.0042306 0.83679754 -0.12506023
0003c0 17 c4 3a bf ab 8b 6b bc 85 f2 9d bf 39 e2 a9 3f
       -0.7295546 -0.014376561 -1.2339636 1.3272163
0003d0 bc 53 5e 3e 50 ad c9 bf 01 17 9d bf 46 cc a2 3e
       0.2171163 -1.5756016 -1.2272645 0.31796473
0003e0 57 89 90 3f d7 dd 23 bf 97 58 8c 3f e3 7a 2d bf
       1.1291913 -0.64010376 1.0964535 -0.67765635
0003f0 4d 33 13 c0 35 b8 92 be d3 b6 ab bf c6 56 82 3e
       -2.3000062 -0.28656164 -1.3415169 0.25456828

l_lstm.weight_hh_l1 f4 [32, 8]
000000 d2 a7 89 3f 5b 37 c2 be b2 18 05 c0 8e 70 6d 3f
       1.075434 -0.37932858 -2.0796323 0.9274987
000010 56 ae 86 bf 6b 4f bd 3e a7 f1 a7 3f dc b6 73 bf
       -1.0521953 0.36974654 1.3120621 -0.95200896
000020 4a ef 70 bf 81 b1 74 bf 71 06 4d bf 70 28 19 bf
       -0.94115126 -0.9558335 -0.80087954 -0.5982733
000030 37 93 c3 3f fe 1f 43 3f 0b b9 03 3f 0a a3 12 c0
       1.5279301 0.7622069 0.5145423 -2.291201
000040 db 6b 87 3f ef 80 18 3f 5e b2 c6 3f c4 4c 1a 3f
       1.057979 0.5957174 1.5523183 0.60273385
000050 a4 78 f1 3e e3 07 92 be 3e 5c 95 3e bd 0c 8e 3f
       0.47162354 -0.28521642 0.29171938 1.1097637
000060 47 21 68 3e a3 1b 90 bd 40 fe 1c 3f a2 02 a7 3f
       0.22668944 -0.07036521 0.61325455 1.3047678
000070 e9 79 a9 bf db 69 36 bf 4b e1 ec be 6d 8c cc 3f
       -1.3240329 -0.7125527 -0.46265635 1.5980355
000080 fc eb de bd 74 df 75 bd 19 85 2d 3f 90 27 36 40
       -0.10884854 -0.060027555 0.67781216 2.8461647
000090 5a 5a 45 bf 39 30 15 be 89 31 42 3f 15 55 ac 3e
       -0.7709099 -0.14569177 0.75856835 0.33658662
0000a0 1c 1b ad be dc fe a5 bf 9b 9b cd 3e a7 43 0a 3f
       -0.33809745 -1.2968402 0.4015778 0.5400948
0000b0 f8 66 6e 3f 01 8f 85 bf e7 bb 2b 3f 82 2e 69 be
       0.9312587 -1.0434266 0.6708359 -0.22771648
0000c0 3d 6e 27 3e 34 62 ec 3e 77 4d 13 bf 87 a7 1a 3f
       0.16350646 0.46168673 -0.57540077 0.60411876
0000d0 1e b9 40 bf 2e bb f4 3d 71 3b 09 c0 c8 8c 55 3e
       -0.75282466 0.11949764 -2.144253 0.20854485
0000e0 b1 5d 72 3f 12 3e 4a 3f d3 41 88 3f c2 84 55 bf
       0.9467421 0.7900096 1.0645088 -0.834057
0000f0 67 a8 f1 3f b1 7b 84 bf db 7c 9a bd 6f 72 e3 3f
       1.8879517 -1.0350248 -0.075433455 1.7769297
000100 12 87 3e 3f de 4a 63 3e 3d 0f 02 c0 4a 49 19 3e
       0.7442485 0.22196528 -2.03218 0.14969364
000110 04 23 c6 bf f5 e2 c0 3e bc 48 0b 3f 84 3a a6 bf
       -1.5479436 0.37673154 0.5440786 -1.2986608
000120 a4 33 26 c0 c3 de a1 bf e7 5f 2c c0 8d e0 be 3d
       -2.596902 -1.2646106 -2.6933534 0.093201734
000130 05 ac 87 3e a5 02 ea 3f 6d 35 96 3f 9f 23 45 c0
       0.26498428 1.8282057 1.1735054 -3.0802991
000140 00 96 c3 be 5e f8 00 bf 1f f9 89 bf 4f fc 7c 3e
       -0.38200378 -0.5037898 -1.0779151 0.24705623
000150 ba d6 73 bd 18 05 6a 3f f7 e9 d7 be 17 5a 4f bf
       -0.05953095 0.9141402 -0.4217069 -0.8099684
000160 ac 6a 8b 3f 95 c9 bb 3f af 4f 8b 3e f1 4d 05 c0
       1.0891929 1.4670893 0.2720923 -2.0828822
000170 bf 4a c3 3f 9e ab 12 bf 25 b8 84 3e b8 6a 90 3f
       1.5257186 -0.5729312 0.2592174 1.1282568
000180 de fb f0 3e 2a 0b 07 3f 3a b7 4b 3d 01 1b 96 bf
       0.4706716 0.5275141 0.049735285 -1.1726991
000190 1a b8 5f 3f 7b 9e b9 be 27 71 70 3e 98 88 a1 3d
       0.8739029 -0.36253724 0.23480664 0.07887381
0001a0 32 55 2e 3f ee f9 26 3f df 7f 11 bf c6 bf 05 be
       0.6809875 0.6522511 -0.5683574 -0.13061437
0001b0 a9 35 1a 3f e6 92 91 bf a9 c5 de 3f 24 a7 03 3e
       0.6023813 -1.1372955 1.7404071 0.12856728
0001c0 3e 14 52 3f 6c ff 48 3f 2a c5 04 3f e1 2c d3 3e
       0.8206214 0.7851474 0.5186335 0.41245177
0001d0 8b 8d c1 3e 9f 05 04 bf d5 5b 27 c0 a1 03 14 3d
       0.378033 -0.5157108 -2.61498 0.036136273
0001e0 3a f2 c6 3f 7f eb f7 3f e1 06 d7 be 79 98 00 c0
       1.5542672 1.9368743 -0.41997436 -2.0093062
0001f0 18 00 ef 3f d6 28 af bf 4a d8 fc 3e b8 1a ef 3e
       1.8671904 -1.3684337 0.49383765 0.46700072
000200 2f 9f 3b c0 8f f9 92 bf 5d 9e 15 40 12 84 da 3e
       -2.9315908 -1.1482409 2.3377907 0.42678887
000210 a3 c7 03 40 27 34 df 3f 60 3c 46 3f 28 ca 27 be
       2.0590599 1.7437791 0.77435875 -0.1638571
000220 39 d0 88 40 98 ee 20 c0 18 04 a8 3f 04 f5 9d bf
       4.275418 -2.5145626 1.3126249 -1.2340398
000230 8e d0 3f 3f 19 24 8c 3e 6a bc 1d 3f f2 76 25 40
       0.74927604 0.2737129 0.6161562 2.5853848
000240 fc 3b 9f bf 06 61 dc bf 76 fd c3 bf 8a 1c 75 3f
       -1.2440181 -1.7217109 -1.5311725 0.9574667
000250 82 2d 45 bf c9 d3 a4 3f 08 48 aa 3f 3f a2 a3 bf
       -0.77022564 1.2877132 1.3303232 -1.2783889
000260 09 ca 13 3f e1 cc 0e 3f af 4e d0 bd 9a 2e d2 bf
       0.57730156 0.5578137 -0.10171258 -1.6420472
000270 63 bd 2d 3f c0 cc 77 bf 6e 8c 20 bf 91 45 7c 3f
       0.67867106 -0.967968 -0.6271428 0.9854365
000280 63 fd 99 bf 2a 87 72 bf 21 e0 3c 3e e3 56 65 3f
       -1.2030452 -0.94737494 0.18444873 0.89585704
000290 4d 63 ea bf 21 6e 27 3f 31 0f 75 3f 73 42 26 bf
       -1.8311554 0.6540242 0.95726305 -0.64945143
0002a0 66 f0 b4 3d 31 e6 26 3e ee d3 5e bf ab 56 c3 be
       0.08834915 0.16298749 -0.8704213 -0.3815206
0002b0 fe 31 53 bf 99 3b 27 c0 5a a4 0f bf 41 72 cd bd
       -0.8249816 -2.6130126 -0.56110156 -0.10031558
0002c0 f5 c0 49 bf 7c 40 ce be 5e a7 b1 be ce 4e 3e bf
       -0.78810054 -0.40283573 -0.34698004 -0.74338996
0002d0 87 b2 a0 bd 31 55 61 be 21 4b bd 3f 08 a6 d2 3e
       -0.078465514 -0.22005154 1.4788553 0.41142297
0002e0 27 bf 3d 3e ee 7a 66 bf 30 55 81 3f 48 a1 11 bf
       0.1852995 -0.90031326 1.0104122 -0.5688672
0002f0 32 c3 35 3f 78 ce df 3f 52 a4 ae 3e c5 c1 59 c0
       0.7100097 1.7484884 0.3410974 -3.4024518
000300 6b ac 22 3f fb d7 9c bf c1 73 89 bf d1 6d 07 3f
       0.6354434 -1.2253412 -1.073845 0.5290194
000310 32 6d 12 bf 63 7b 69 3e 89 bb 4f 3f bb ff 80 bf
       -0.5719787 0.22800975 0.8114553 -1.0078043
000320 78 e0 30 bf d9 9d 78 3f 52 df 88 bf 6a 9d bf bd
       -0.6909251 0.97115856 -1.0693152 -0.09356196
000330 dd fc fa 3e 8c 2f ba 3d af d7 d7 3f c8 aa 82 bf
       0.49021044 0.090911 1.6862696 -1.0208368
000340 c1 82 7c be 23 ca 5d be a6 cf 79 3f e9 6a e0 3e
       -0.24659254 -0.2165914 0.9758247 0.43831566
000350 7c ce 74 3f e6 22 75 3e 4c b0 84 be 8f ce dd 3e
       0.9562757 0.23939094 -0.25915754 0.43321654
000360 2a bd 0e bf c2 56 46 bf 93 40 4a bf 90 ff c2 3f
       -0.5575739 -0.7747613 -0.7900478 1.5234241
000370 26 3a a7 bf fc 2b 75 3e 2e 13 cc bf 5a da 94 3e
       -1.306462 0.2394256 -1.5943353 0.2907284
000380 32 7b 07 bf a4 06 7a bf 89 71 14 bd 2d 90 f9 3f
       -0.52922356 -0.9766638 -0.036241088 1.9497124
000390 85 ba e5 3d bf 8e 9c 3e 97 7f c8 bf 33 06 02 bf
       0.112172164 0.30577657 -1.5663937 -0.5079071
0003a0 4d 21 3b bf 71 5d 81 bf 8e 40 13 3e f0 1c 6c 3f
       -0.7309769 -1.0106641 0.14380094 0.92231655
0003b0 11 ce 97 3f a9 a8 81 bf 50 86 2b 3e 44 d5 59 bf
       1.1859761 -1.0129596 0.16750455 -0.8509104
0003c0 f3 c6 92 3f 19 d8 9a 3f e2 43 f2 3d 3a d0 39 bf
       1.1466964 1.2097198 0.11829354 -0.72583354
0003d0 00 a0 b0 3e 8f d9 eb be 5a 46 e7 bf e7 29 8d 3f
       0.3449707 -0.46064422 -1.8068345 1.1028413
0003e0 59 51 2b 3e a9 4e cc 3e 28 2b 14 3d a1 9d 03 3d
       0.1673025 0.39903763 0.03617397 0.03213275
0003f0 3e 83 07 3f f5 0a 90 be 34 17 a0 bf 57 66 27 3f
       0.52934635 -0.2813336 -1.2507081 0.65390533

l_lstm.bias_ih_l1 f4 [32]
000000 34 3d d1 3d ba 1c 86 3d 4c 33 22 be bd 7c 86 bf
       0.10216752 0.06548448 -0.1583988 -1.0506817
000010 40 6f b3 be 7e 70 04 be 1e a0 fb be 7a 91 48 be
       -0.35045815 -0.12933537 -0.49145597 -0.19586745
000020 92 e4 53 3e 1d 8e ab be 42 01 cc 3e be 48 7c be
       0.20692661 -0.3350686 0.3984471 -0.24637124
000030 58 1b 2c be 34 81 a4 bf 45 d7 62 3f 7d b9 c2 bf
       -0.16807306 -1.285193 0.88609725 -1.5212857
000040 02 11 6f bb 4b 5c f7 3d 2d 74 48 3e 41 8b b4 3e
       -0.0036478643 0.1207815 0.19575568 0.35262492
000050 31 cf e3 bd 5d 3a d2 3d 91 0d aa be 8e 44 91 bd
       -0.11123503 0.10265038 -0.33213475 -0.07093154
000060 0b ea 57 be bb e3 71 be f4 c9 64 3e 3b 0e 2e 3f
       -0.21085374 -0.23622029 0.22342664 0.67990464
000070 bb d8 19 3f fa f4 fc bd 21 80 8b 3f 4c f8 92 3f
       0.6009633 -0.12351413 1.0898477 1.1482024

l_lstm.bias_hh_l1 f4 [32]
000000 06 f6 d3 be a7 81 64 be 40 37 9b be 74 da 04 bf
       -0.41398638 -0.22315083 -0.3031559 -0.51895833
000010 ac c3 6c bf 3b 28 da be 1c 1c 08 bf 05 5f e9 bd
       -0.9248607 -0.42608818 -0.5316789 -0.11395077
000020 f8 16 1e 3e 7d be 51 be f9 61 c5 3e fd 9c 00 bf
       0.1543845 -0.20482822 0.3855131 -0.50239545
000030 41 c0 1e bf 32 ac bd bf 62 34 3b 3f 3c f7 b8 bf
       -0.62012106 -1.4818175 0.73126805 -1.445045
000040 50 8a 7b 3e 5e 6d a7 3c 32 f6 0d 3e fc c0 16 3e
       0.24564481 0.020437893 0.13863447 0.14722055
000050 5c f3 20 3a 97 2f 8e 3e 31 9e 10 bf fa ed 43 be
       0.0006139779 0.27770683 -0.5649138 -0.1913375
000060 16 e7 bf be 5b 6d 1c bf 41 9b 0a 3e 0f 15 8c 3e
       -0.37480992 -0.61104363 0.13535787 0.27359816
000070 82 4c 59 3f 2d 40 ac 3d 53 09 84 3f c9 b3 84 3f
       0.84882367 0.08410678 1.0315346 1.0367366

l_linear.weight f4 [1, 8]
000000 a0 72 c8 3e 72 da f6 3e ce 27 e7 3e e0 50 00 bf
       0.39149952 0.48213536 0.45147556 -0.50123405
000010 58 c4 19 3f 53 ad e5 be a0 d5 a2 ba 79 5e e9 3e
       0.6006522 -0.44858798 -0.0012423284 0.4557989
