citylearn/data/datasets/vt_chittenden_county_neighborhood/resstock-amy2018-2021-release-1-373117.pth (torch, 8966 bytes, 9 tensors)

l_lstm.weight_ih_l0 f4 [32, 13]
00000000: a008 acbe e411 363f c8d1 25be 8a80 07be
00000010: cecf 0840 56ce a23f 6938 15bf fde9 39c0
00000020: 4295 a740 78fa 7d40 9f02 883f c297 edbf
00000030: 893c a5be 09de b93e 041e c9be 5b9d 013e
00000040: 4251 cdbe 07b0 ae3f 5b4b 2440 7dcc 3d40
00000050: d8cb 2c40 376d 50bf 43c4 22bf 4ec3 c3be
00000060: dd23 89bf fabd 6e3f b9b0 c8be 11b0 d7bd
00000070: 407f aa3d 2f9c 143e 5a26 65be 1aa8 74be
00000080: 54b2 803f 36a1 9ebf 7ccb 1f3f eece c33e
00000090: cc88 4cbf ef59 45bd e8f3 a03f dab7 a0bd
000000a0: d65b cfbd be1e 20bd 39b4 99bd fb3b 36bd
000000b0: 711f e9bd 4f32 0ebe 6612 d2be f345 f4bd
000000c0: 99d0 2fbe 0567 7b3e d8fa 88bd 9e3f 2dc0
000000d0: 4832 8ebd db43 b3be beda 69bf b2f5 323f
000000e0: aa16 a63f 5dde d73e 861a a440 6213 36c0
000000f0: e178 cfbf 49f0 ce3e cbad e53d 2a10 17be
00000100: b7ac babe 4f38 5f40 7f01 1dc0 dfd5 02bf
00000110: d972 b63f ebb1 acbe 167d afbe 883e 69bf
00000120: 3b4f 29c0 6235 ac3e cb88 553f 0588 4e3e
00000130: b1f9 a23f 13cf e73e daaa ebbe 0b38 90be
00000140: 72de 4dbd ae45 16bc dab6 c63d 4794 90bd
00000150: 8e49 e63f a676 f13f 9200 f2bd 4b59 a2bd
00000160: 06a0 26bf 91a8 e13d 95c8 0ac0 79e4 2abf
00000170: d57d 0fbf 5c39 40c0 8c0f 5040 e1d6 4140
00000180: 767e 89bf b096 9dbf 7313 0dc1 6ef2 18bf
00000190: e886 f040 c77d 1c40 05ab 1940 e7e6 22bf
000001a0: a8a1 f0be e6b1 893f ee24 a8bf 2b88 81bf
000001b0: 8335 35bf d7f0 5c40 9a8b 23be b9f1 6cc0
000001c0: 90e7 1b3e f9d0 4abc 4c46 b13f 594a f13f
000001d0: 88aa a9be 7c96 dfbd 1700 fdbd a18d 493d
000001e0: 0084 a03e 6d18 d53f fc7f c43f 7d4f 41c0
000001f0: b62f 4c3f fe04 31bf 8034 1dc0 552a c2bf
00000200: c59e 9a3f 8a5b 5b3e 1ebf bc3e 5a71 4cbc
00000210: 09d8 023d 9e57 fcbb c0c0 353e 0b7d 9e3d
00000220: c4f2 073f 47fd 3abf 7491 4bbd e270 f63e
00000230: 373e 19be 4439 133d d332 f73f 9f94 f2bc
00000240: f8fd 99bd 0bf9 c23c 8dfd 9f3d 3279 4e3d
00000250: 3c45 123e 98f1 45bf 84c2 83bf 8664 54bd
00000260: 0b93 a03d 9445 b7bd b6ca c33d 52e6 1ec0
00000270: 656b 613f 5062 8e3f bfed d73e 2da1 403f
00000280: d000 583f ab28 073f 1da3 573f 4cfb 203f
00000290: 77f0 a93f 7ec5 c33f 84b3 8a3f 5aa5 563f
000002a0: 9826 b53f d110 9440 1d31 273f b29a 31bf
000002b0: c942 7cbe d878 abbd 5d1b 14be e81e ea3c
000002c0: a9e2 b6c0 a6ed 14bf 19fc 31bd 3c15 353d
000002d0: 38bf ccbe 52ec b9bf 75ec 05bf 8505 eabe
000002e0: 5d60 3ebd 7046 ed3d aa85 a1be 16ea 973e
000002f0: 889f 3ebf a192 1040 f2b7 d2be 4ed4 583e
00000300: 02a3 e7bd c5b6 19be dd1e c1bf e071 acbf
00000310: 76dc 1340 91df d43f 3923 1b40 70dc b93f
00000320: 12fe ecbf 1846 333f c7b1 4440 9a42 6cbf
00000330: 7471 1f40 066b 3dc0 f312 2e40 e82d 8dbf
00000340: 2a2d c93e 5fe8 cd3e a8a4 bd3e 06cc bd3e
00000350: 5095 c13e 5081 2c3f 1311 70bb c69f 9a3e
00000360: 9950 b8bd 81db 8fbc 8e6f 363f f9a0 853e
00000370: e141 333f 942f 333f 4327 e5bf 9e25 113d
00000380: 585b cd3e f1f3 483e 390f 8b3e 0cb4 28c0
00000390: 4be8 c940 234f 26bf 298c ab3e 832b 43bf
000003a0: 5bc1 8f3e 999c 5c3f a69e b33d 84ab a3be
000003b0: bb87 d03d 89fb c73d 8022 223f 5b11 e83f
000003c0: 3ebb 4a40 956c 423f b29a aebf a74d 8abf
000003d0: 30ee 90bd 78c6 553d bea4 903f de3a 1cbf
000003e0: b97b 08bf 0bf6 bf3f bd88 7c40 07d2 f5bc
000003f0: a378 b53f 8b4c e940 1139 a0bf 0338 113f
-0.3360033 0.7112105 -0.16193306 -0.13232628 2.1376834 1.2719219 -0.582892 -2.9049065
5.23697 3.9684124 1.06258 -1.8561938 -0.32272747 0.36302212 -0.39280713 0.12657683
-0.40101057 1.3647469 2.5670993 2.965606 2.6999416 -0.8141665 -0.6358072 -0.38234943
-1.071407 0.9325863 -0.3919733 -0.10531629 0.08325052 0.14512704 -0.22377911 -0.2389225
1.0054421 -1.2392948 0.6241987 0.38243812 -0.79896235 -0.04818147 1.2574434 -0.07847567
-0.10124938 -0.039091818 -0.07505078 -0.044490796 -0.1138295 -0.13886379 -0.41029662 -0.11927404
-0.17169417 0.24551018 -0.0668847 -2.707008 -0.06943184 -0.35012707 -0.913494 0.6990615
1.2975667 0.42161837 5.1282377 -2.844933 -1.6208764 0.40417698 0.11214789 -0.1475226
-0.36459896 3.4878118 -2.4532163 -0.5110759 1.4253799 -0.3372949 -0.3427512 -0.9111104
-2.6454608 0.33634478 0.83411855 0.20169075 1.273245 0.45275173 -0.46028787 -0.28167757
-0.05026097 -0.009171886 0.09702845 -0.07059532 1.7991197 1.8864334 -0.11816515 -0.079271875
-0.65087926 0.110184796 -2.1684926 -0.6675487 -0.5605138 -3.003501 3.250949 3.0287402
-1.0741718 -1.2311611 -8.817248 -0.5974492 7.516468 2.4451768 2.4010632 -0.6363358
-0.46998334 1.0757415 -1.313627 -1.011968 -0.7078478 3.4521997 -0.15971223 -3.7022536
0.15225053 -0.0123789245 1.3849578 1.8850814 -0.33137918 -0.109173745 -0.12353533 0.049207333
0.31350708 1.6648079 1.5351558 -3.0204766 0.797603 -0.6914824 -2.4563293 -1.5169169
1.2079703 0.21421638 0.3686456 -0.012478197 0.03194431 -0.0077008745 0.1774931 0.07738694
0.53104806 -0.7304272 -0.04969926 0.48132998 -0.1496514 0.035943285 1.9312385 -0.029611884
-0.07519144 0.023800394 0.07812033 0.05040855 0.14284223 -0.7732177 -1.0293736 -0.05185368
0.07840546 -0.08948818 0.095601484 -2.4828076 0.88054496 1.1123753 0.42173573 0.75245935
0.8437624 0.5279643 0.84233266 0.6288345 1.3276509 1.5294645 1.0836034 0.83846056
1.4152403 4.627053 0.65309316 -0.6937667 -0.24634852 -0.083726585 -0.14463563 0.02857919
-5.7151685 -0.5817512 -0.04345331 0.044209704 -0.39989638 -1.4525244 -0.5231393 -0.45707336
-0.046478618 0.115857005 -0.3154729 0.2967078 -0.74462175 2.2589495 -0.41155964 0.21174738
-0.11310388 -0.15011127 -1.5087544 -1.3472252 2.3103309 1.6630727 2.4240248 1.4520397
-1.8515036 0.7002883 3.0733507 -0.92289126 2.4912996 -2.9596572 2.7199066 -1.1029634
0.3929227 0.40216348 0.37039685 0.3706972 0.3780923 0.67384815 -0.003663127 0.30200022
-0.08999748 -0.017560722 0.7126397 0.26099375 0.700224 0.69994473 -1.7902607 0.035436265
0.40108752 0.19624306 0.2716005 -2.6359892 6.309606 -0.64964503 0.3350537 -0.7623827
0.28077206 0.8617645 0.08770494 -0.31966794 0.101821385 0.097647734 0.6333389 1.8130296
3.1676784 0.75946933 -1.3640959 -1.0804948 -0.07076681 0.052191228 1.1300275 -0.61027324
-0.53313786 1.4996961 3.9458458 -0.030007375 1.417744 7.2905936 -1.2517415 0.5672609

l_lstm.weight_hh_l0 f4 [32, 8]
00000000: 9055 07bf 56ac c73e 3963 78be afee 833f
00000010: 1d0d b43f 4ce6 5d3f 97bf 74bf 73fb 1cbe
00000020: 30dd 71bf fd74 1dbf 8a6d 8dbf e22b 733f
00000030: aad8 8c3f 5f16 4abf dc70 76bf 35ed 0bc0
00000040: 1e8f ffbc 12da 35bf 27dc 18bf 8d53 73bf
00000050: ad65 443d 726f 273f f639 02bf 2e40 44bf
00000060: d494 183f 4494 083d d141 0cbe 584f 6d3f
00000070: 9cef b0be 70bc b1be 5d89 773e 6d9b 903e
00000080: a700 d2bf 05a3 b53f f133 8fbf a2c8 ee3d
00000090: f5ac c93f 58fc e93f 062d 19bf 7854 f93f
000000a0: 53ad 573e 640a f5be 51ff 793f 4c38 99be
000000b0: f0e7 453f e404 1440 8936 f33e 70c2 b640
000000c0: a33d 363f dbe1 6a3e 26e5 983c 626e bf3f
000000d0: 0bf4 60bf fd5a 8dbe 4e69 fabd 3edd 39be
000000e0: 10e1 f1be f86c a1bd 1268 633e a46c 6ebe
000000f0: c1e3 7e3f 9239 0040 1f55 42bf e363 103f
00000100: 4d5a f93d 46c7 4f40 e736 023f 41ab 423f
00000110: 1941 8c3e 738c 563f d380 abbf f735 86bc
00000120: 38e5 62bf 8a78 2bbe 4f4e b5bf 224f 3abf
00000130: 9cf5 babe 6cbb a53e 3bb4 51bf f0aa 833f
00000140: dc87 fa3c 1860 44bc 8f4d 4abe bcfd f9bd
00000150: 08bd 733f b6fd 5b3f 6257 1a3b 263f a0bb
00000160: c05d 653d 5364 0b3f 94de 0dbe 6fa5 d23e
00000170: b988 41bf 503f 6dbe b988 b1be c154 cf3e
00000180: f16f 1c3f 606e 873f 9848 a43f 270a 693f
00000190: e44a 6c3f c422 ba3f 99c9 a83f 55e5 4f3f
000001a0: e760 c53f eb1f 4e40 a9ea 8cbf eeae d8bd
000001b0: 9a67 e03f ad42 113f f11d 1bbf a149 99c0
000001c0: 53ea 8c3e 1db8 0f3f 6736 383e d5e3 403f
000001d0: 2873 dabe 4281 c6be da39 1ebf 548d 88bd
000001e0: c230 c13e e48e 7b3e 63b0 e1bf ce88 10bf
000001f0: 8ea6 d53f 4ec2 a4bf a48a 7bbf d249 393f
00000200: 47f5 023f 3152 a23e d4ca 1f3f d48a c43e
00000210: 4995 173e 26be 113f 3e25 5f3f 18e5 823e
00000220: a347 c0be 9ace 6040 3693 0b3f eb3f 083f
00000230: cab4 0540 2113 8c3f a88a 0fbf ac81 943f
00000240: 57fa 9a3e 3967 adbe da24 3c3f 62e6 32bf
00000250: 05cd 0a40 7814 5d3f 6e1b fbbd fbd1 0b3f
00000260: b6b1 b73e 646d c43f 057b 003f c1ae 1f40
00000270: 04b9 c83f 168b 023f ae4f c63e 1d57 d83e
00000280: d43d 583f 3fd1 393f 37dd 4b3f 0774 813f
00000290: 0886 4abf 9f3a a13f 2fb8 9e3f e7b9 593f
000002a0: b9e3 1c40 e7ec c73e 33ef 473f cfd2 123e
000002b0: 9c8e 0940 b862 c73c 1cf0 973d eb12 0940
000002c0: 04de b73e 9f91 ba3f d72b a63f 0246 4a3f
000002d0: c2cc 633e 8e0d b23e ccc3 9f3f 7362 903f
000002e0: 244f c43f 4d4c 173f 4f5a 203f 6878 763f
000002f0: 9bd4 b13f 7241 473d 64c6 4a3f 6a27 9ebf
00000300: fdfc 533d f8b6 473e d5fb 1a3e 3adc 6abe
00000310: ee13 b1be 3966 22be 9ea6 f33d 92d1 333d
00000320: a5d5 a8bf 8ec0 c2bf 1742 c8be 08e5 8abf
00000330: c92d 78bf 7f5e c7bf dec5 bfbe ce84 1f3f
00000340: 8d76 95bf eb46 f03d 6091 80be 9691 4fbf
00000350: bf80 9e3e e52d 32be 17da debe 002d b8be
00000360: 7390 f93f 9227 703f 5db3 153f c07a 3540
00000370: d226 a73f 67c9 603f 3353 0740 bd3a d93f
00000380: 01f1 263f 634d 0bbf 61e1 70bf df43 713f
00000390: 3bfe 1d3e 8341 c93e e8ee bebe 5197 65be
000003a0: d306 4740 1dba da3e 3a4b 41bf 2082 283f
000003b0: 6578 ba3f aae1 aabe 8825 cd3f 7e85 aebe
000003c0: dadb 403f c7ca 543f 3767 2f3d e420 c03f
000003d0: 55de 5e3f 90a3 3e3e dec3 633f b132 093f
000003e0: 7815 89bf ab54 2140 0340 dc3d e05e 03bf
000003f0: 6f50 fdbf b103 17bf 73b0 19c0 a839 fdbe
-0.52864933 0.3899867 -0.242566 1.0307215 1.4066502 0.8667953 -0.9560484 -0.15330295
-0.9447813 -0.61506635 -1.1049054 0.94988835 1.1003621 -0.78940386 -0.9626596 -2.186353
-0.031196173 -0.71035874 -0.59710926 -0.95049363 0.047948528 0.6540443 -0.5086969 -0.7666043
0.59602094 0.033344522 -0.13696982 0.92699194 -0.34557807 -0.3471408 0.24173494 0.2824358
-1.6406449 1.4190375 -1.1187726 0.116593614 1.5755907 1.8280134 -0.59834325 1.9478903
0.21062212 -0.4785949 0.97655207 -0.29925764 0.77307034 2.3127985 0.47502545 5.711235
0.711878 0.2293772 0.018663954 1.4955561 -0.8787238 -0.2760848 -0.122271165 -0.18150803
-0.47242022 -0.07882112 0.22207668 -0.2328363 0.99566275 2.0035138 -0.75911134 0.56402415
0.12175427 3.2465377 0.50865024 0.7604256 0.27393416 0.8380806 -1.3398689 -0.016383154
-0.8863101 -0.16745201 -1.4164523 -0.72777 -0.3651551 0.32369554 -0.81915635 1.0286541
0.03058236 -0.011985801 -0.19756149 -0.12206599 0.95210314 0.8593401 0.002355062 -0.0048903404
0.05599761 0.5444996 -0.13854438 0.4114184 -0.7559925 -0.23168683 -0.34674624 0.4049435
0.6110831 1.0580559 1.2834654 0.91031116 0.92301774 1.454186 1.3186523 0.8120931
1.5420197 3.220698 -1.1009113 -0.1058024 1.7531617 0.56742364 -0.6059256 -4.790238
0.27522525 0.5614031 0.17989503 0.75347644 -0.42665982 -0.3877049 -0.61807024 -0.06667581
0.37732512 0.24566227 -1.7631954 -0.5645875 1.6691453 -1.2871797 -0.98258424 0.72378266
0.51155514 0.31703332 0.62418866 0.38387167 0.14803042 0.5693077 0.871662 0.2556541
-0.37554654 3.51261 0.545215 0.5322253 2.0891595 1.0943338 -0.5607095 1.1602073
0.3026912 -0.33867815 0.7349373 -0.69882786 2.1687634 0.8635936 -0.12261091 0.5461728
0.3587777 1.5345883 0.5018771 2.4950411 1.5681462 0.5099348 0.38732666 0.42253962
0.8446934 0.7258491 0.7963442 1.0113534 -0.79110765 1.2596015 1.2399958 0.8504929
2.451399 0.3904793 0.78099364 0.1433823 2.1493292 0.024339065 0.07418844 2.1417797
0.35911572 1.457569 1.2982129 0.79013073 0.22246078 0.34775966 1.2481627 1.1280044
1.5336652 0.591008 0.626378 0.96277475 1.3893007 0.048646398 0.7920897 -1.2355778
0.05175494 0.19503391 0.15135129 -0.22935572 -0.34585518 -0.15859307 0.11897014 0.043901034
-1.3190199 -1.5215013 -0.39112923 -1.0851145 -0.9694486 -1.5575713 -0.37455648 0.6231202
-1.1676804 0.117322765 -0.25110912 -0.8108152 0.309576 -0.1740032 -0.43525764 -0.35971832
1.9497207 0.9381038 0.5847681 2.835617 1.3058722 0.87807316 2.114453 1.697105
0.6521149 -0.5441496 -0.940939 0.9424419 0.15429012 0.39307794 -0.37291646 -0.22421004
3.1097915 0.42720118 -0.7550541 0.65823555 1.4567991 -0.33375293 1.6027079 -0.3408622
0.75335467 0.83121914 0.042823043 1.5010037 0.87058 0.18617082 0.88970745 0.53592974
-1.0709677 2.5207927 0.10754397 -0.5131664 -1.9790171 -0.5899001 -2.4013946 -0.4945805

l_lstm.bias_ih_l0 f4 [32]
00000000: 7d23 883e 804d 02be d7d1 a7be dabe c63e
00000010: be06 f8be fc84 133f 9ece b83e e34c e33d
00000020: e9bd 593f 2465 cc3c a771 843d c95d bd3e
00000030: d515 b53f bc00 c83e 23b8 963e c0df 5ebf
00000040: 06ef 2c3f 13f1 2dbe c5db 803d 5143 823f
00000050: c0b6 513e ddce 823f ab43 983e 7c06 f53e
00000060: 99eb 1e3e 96f8 d0be c731 37bf 4453 733f
00000070: 0272 67be 016d 453f bbb6 1b3f ab4f 8dbe
0.26589575 -0.12724876 -0.32777283 0.38817483 -0.48442644 0.57624793 0.36095136 0.11098649
0.85055405 0.024950571 0.0646699 0.36985615 1.4147288 0.3906306 0.2943736 -0.87060165
0.6755222 -0.16986494 0.06291918 1.0176793 0.2047987 1.021938 0.29739127 0.4785651
0.15519561 -0.40814656 -0.7156033 0.9504893 -0.22602084 0.7711945 0.608257 -0.27599844

l_lstm.bias_hh_l0 f4 [32]
00000000: c58c 873e d596 483e c72a d23d 6076 8a3e
00000010: 3daa fabe 0dd9 103f 9e2b f13e 3bc5 1a3e
00000020: d2b8 cd3e 683e 69be ced2 85be 2870 20be
00000030: 8655 753f 5374 863e 2c77 aa3e 08dd 3bbf
00000040: 1b8b 0c3f 439b d73d c051 963e 0995 473f
00000050: b444 88be 5430 133f 6fd4 a63e 6c33 5a3e
00000060: d0aa 15be 44a7 5bbf c6a6 86be 3f51 a43f
00000070: cb60 8f3e bab4 023f 9e39 203e 5dff e7be
0.26474586 0.19588788 0.102620654 0.27043438 -0.48958007 0.56581193 0.4710359 0.151143
0.4018007 -0.22777712 -0.26137394 -0.15667784 0.95833623 0.26260623 0.33294046 -0.7338414
0.5489976 0.10527661 0.29359245 0.77961785 -0.26614916 0.5749562 0.3258395 0.21308678
-0.14615941 -0.858021 -0.26299113 1.2837294 0.28003535 0.51057017 0.15646979 -0.45312014

l_lstm.weight_ih_l1 f4 [32, 8]
00000000: 56b4 723f 49ee 28bf eb79 033f 85a8 763e
00000010: 069f 543f 1265 c3be 376c 27be a302 99bf
00000020: 598d 4ebe e5ad 44c0 8cdc 353f fb8f c73f
00000030: 4d28 f43f ab14 3dc0 0b8f 72bf b5ef 3440
00000040: 162b 1abf 0f60 2c3c f855 db3d 0e07 b0bf
00000050: 2113 67bf 6ea7 43bd 8c4c a8bf 0f7e 683e
00000060: 9a5a a5bf cfff 3b40 c948 1bbf f059 a7bf
00000070: d17e 373e 5cbf 9c3f d456 a9bf 2f05 a7bf
00000080: 7b5a 64bf 9a39 bc3f a8e4 6dbf 287f 97bd
00000090: a798 6d3f 35da bc3f 64c5 dcbf 2e95 f5bf
000000a0: 60c4 243e 5503 8ebf 061b c13e 3e91 aebf
000000b0: ccd7 6a3f cae6 203f 2e8a 9ebf 31ec 09be
000000c0: 74a2 153e 9bd8 b4be 568d a2bf 781f 063f
000000d0: 6032 a93f 3a55 013f 865b 073e 7911 02bf
000000e0: 8dfd 7a3e 4d0b 79bf 9abb bebf 2ba2 a8be
000000f0: 1bd1 d93e 8f7c af3e f6a7 40bd 031c 54be
00000100: aa18 dfbe 5c35 d0bf 8879 c93e aa2e afbf
00000110: 4a57 65c0 551e 0e40 9e17 1ec0 f74f d2be
00000120: 7b52 74bf 7213 36c0 c03a 20bf 8a0d 9f3f
00000130: 85e8 cc3e bc0a 153e 28cf a1bf d395 03c0
00000140: 05d2 09bf bbc4 453f 835d 2c3f 6ef9 8dbf
00000150: 7543 c8be 93a0 35bc deb6 b6bf 3570 253f
00000160: 6add 603f bf0f 953e c977 cb3e 0edf 12bf
00000170: b213 e33f 3e8e 113e b6d8 823f b419 09c0
00000180: 581d ff3f a3e9 41be 57bf 3b3f b2f9 24c0
00000190: 0f8c 82bf 99d9 23c0 1374 47bf dc79 a8be
000001a0: d549 b0bf 57b9 00bf 8679 9abe 7bfa a6bf
000001b0: f970 0340 0739 543f 7b8d 14bf 94a6 0abf
000001c0: cecb 47bf bdc6 acbe 3f06 883e 408d cabf
000001d0: ce82 55bf 4067 863e d0a3 87bf baab fbbf
000001e0: d716 903f eff6 08c0 f509 1e3f f300 23c0
000001f0: 8bcc b5bf 6ef4 c9bf 936c b0be c554 3bc0
00000200: ce05 313d c993 08bd c66e 2abf 8d95 993f
00000210: 06b6 833f 63cc 9c3e 4242 51be 7e6f 493e
00000220: b465 e63e f222 0fbe acb7 91bf 6096 b83f
00000230: cc39 f33e f09a 073f 2547 513e 1edf 13be
00000240: b0cc 0c3e ab22 96be fdcc 5f3f b72b 39bf
00000250: d7a2 883c 90af a73e cf86 eabe db8e 3e3f
00000260: 80bf 243e 453e 0d3e abc0 d73e 07be 76bf
00000270: 74f6 43bf ad28 383d 9db4 bebe 94bf 653f
00000280: 1898 5ebd 27b3 db3d 60f2 f6be 3791 8e3f
00000290: 60b9 fb3f 216e adbc efcf 0a3f b8d8 89bf
000002a0: 9f9f d1bd 9583 0a3f 4763 493f 4b5f 8fbf
000002b0: 04ca d6bf 49f2 b8be 3274 28bf c40c 533f
000002c0: beb0 ca3e 5026 b3be cec2 58bf db05 bf3f
000002d0: f40e 3b3f 4454 db3d ba78 143f 0c69 bdbe
000002e0: 7eff d83e 6973 6fbf ac79 0dbf ee3c 4d3f
000002f0: c389 0840 8b6b 3e3e 521b fa3d 28d6 25be
00000300: abcd 673f c96f c6bf 6072 1a3e 84ed 683e
00000310: dad1 873f 67a3 61bf ff1b 3ebf dd0c febf
00000320: 0cab 53bf a584 6bbf 278d 0740 fee0 1e40
00000330: 9711 0940 84d6 27bf 17ca 523e 9d12 6c40
00000340: a86c debe 18e4 603e 4fee 313f 0216 31c0
00000350: 1880 0bc0 f208 9bbf a74f 18c0 0b10 7bbf
00000360: 0cd2 e1bd d0b7 acbe 0f5a 9a3f 8376 2bbf
00000370: 81fb 08be 073f 5abf e4e5 75be e4c8 a8be
00000380: b932 7bbe 5e17 873e 2817 f63e 91f2 8abe
00000390: 2591 f83e 75a0 193e 88e5 90bf 1f27 cfbf
000003a0: 20c7 15bf 7118 77bf 527a 643d 5a73 babf
000003b0: 10a9 3d3f ae7f 2abf 5f34 f1bf b3e7 8cbf
000003c0: 1eb1 f23e be49 a1bd 70bd 05be 59a7 c23e
000003d0: 6e8a b83f 384b 893f c6db 01bf fab7 1fbf
000003e0: c433 733f 9753 f7bf 5e52 a7bf e36d f8be
000003f0: f07f 093e 6c60 f83e 14c1 35be e38a 10c0
0.9480642 -0.65988594 0.5135791 0.24087723 0.8305515 -0.38163048 -0.16349874 -1.195393
-0.20171107 -3.0731137 0.7103965 1.5590814 1.9074799 -2.9543865 -0.94749516 2.8271306
-0.60221994 0.010520949 0.107097566 -1.3752153 -0.90263563 -0.047767095 -1.314836 0.22704338
-1.2918274 2.9374883 -0.60657936 -1.3074322 0.1791947 1.2245898 -1.3229623 -1.3048457
-0.8920056 1.4705079 -0.92927027 -0.073973 0.92811054 1.4754092 -1.7247739 -1.9186151
0.16090536 -1.1094767 0.3771593 -1.3638074 0.9173553 0.62852156 -1.2385919 -0.13469006
0.14612752 -0.35321507 -1.2699382 0.5239177 1.3218498 0.5052067 0.13218507 -0.5080791
0.24510784 -0.9728287 -1.4901001 -0.32936224 0.42542347 0.34274718 -0.04703518 -0.2071381
-0.43573505 -1.6266284 0.39350533 -1.3686116 -3.5834527 2.2206013 -2.4701915 -0.41076633
-0.95438355 -2.8449368 -0.62589645 1.2426007 0.40021148 0.14554876 -1.2641344 -2.0560195
-0.5383609 0.7725331 0.6733019 -1.1091745 -0.39113966 -0.011085647 -1.4274557 0.6462434
0.8783785 0.29113576 0.39739826 -0.57371604 1.7740386 0.14214417 1.0222385 -2.1421938
1.993083 -0.18936782 0.73338836 -2.5777402 -1.0198992 -2.560156 -0.7791149 -0.3290547
-1.3772532 -0.50282806 -0.3017084 -1.304519 2.0537703 0.82899517 -0.5802838 -0.5416043
-0.78045356 -0.33745375 0.26567265 -1.5824356 -0.8340272 0.26250648 -1.0596867 -1.9661782
1.125697 -2.1400716 0.61733943 -2.546933 -1.4203047 -1.5777719 -0.34457836 -2.927049
0.043218426 -0.033344064 -0.66575277 1.1998764 1.0289924 0.30624685 -0.20435432 0.19671437
0.44999468 -0.13978174 -1.1384177 1.4420891 0.47505033 0.5297079 0.20437296 -0.14440581
0.13749957 -0.29323325 0.8742216 -0.7233233 0.01667921 0.3275113 -0.45805976 0.7443673
0.16088676 0.13793285 0.42139181 -0.9638371 -0.7654793 0.044960666 -0.37247172 0.8974545
-0.054344267 0.1072753 -0.48231792 1.1138066 1.9665947 -0.021170678 0.5422353 -1.0769262
-0.102355234 0.5410703 0.7866711 -1.1200956 -1.67804 -0.3612235 -0.658023 0.82441354
0.3958797 -0.34990168 -0.8467225 1.4923662 0.7306969 0.10709432 0.57996714 -0.36994207
0.42382425 -0.93535477 -0.5526378 0.80171096 2.1334083 0.18595712 0.12212242 -0.16194975
0.905482 -1.5502864 0.15082693 0.22746855 1.0610917 -0.8813996 -0.7426147 -1.9847676
-0.8268287 -0.91999274 2.1179903 2.4824824 2.1416986 -0.655617 0.20584904 3.688636
-0.43442273 0.21962011 0.69504255 -2.7669683 -2.1796932 -1.2112105 -2.3798616 -0.98071355
-0.110263914 -0.33733988 1.2058734 -0.6697771 -0.13377191 -0.8525242 -0.24013478 -0.32965767
-0.24531068 0.26385015 0.48064542 -0.27138188 0.48548236 0.15002616 -1.1320047 -1.6183814
-0.58506966 -0.9652167 0.055780716 -1.4566453 0.74086094 -0.66601074 -1.8844107 -1.1008209
0.47400755 -0.07875393 -0.13060546 0.380183 1.4417245 1.072608 -0.5072597 -0.623901
0.95000863 -1.9322385 -1.3072011 -0.48521337 0.1342771 0.48511064 -0.17749435 -2.258477

l_lstm.weight_hh_l1 f4 [32, 8]
00000000: 4aee 47bf 28b6 c53e 22aa 00be 2ca4 cbbe
00000010: cd78 6ebf 3cc8 71bd 7001 b3bd 0dcb eebe
00000020: 89f6 ee3f bca7 c240 f13b 2440 2606 cc3f
00000030: d0a8 d9be a720 8d3f a9b3 ecbe e3b3 443d
00000040: 8c51 06c0 36f1 a6c0 9212 013f bf79 313f
00000050: bd24 2cbd 11b8 fbbe e75b 79c0 e3cd 8dbe
00000060: ea7e 8b3d b631 88be f015 b83f d5d0 ba3f
00000070: 8968 9bbf a2ec d63f 8a3d 2940 d378 b73f
00000080: ceed 063f 44b9 51c0 c57a d83f 3269 01c0
00000090: 7f37 cfbf 3f65 0a3e a38e d9be 0d60 0a40
000000a0: 1fb8 8b3f 9679 9ebf f7b5 0540 3bb9 123f
000000b0: e1e5 b03e 3038 efbe 8f52 ce3f 414c fd3f
000000c0: d681 3abf 1138 4b3e a262 bf40 276d 853f
000000d0: 62c9 ddbf e04a 0040 f5b3 a5bf f507 51be
000000e0: 8781 4f3d 0008 33bc 90ad 1440 ec1f eebd
000000f0: bf04 9dbf bdfb ae3e c3b5 6a3f 12a0 88bf
00000100: 2183 00c0 4bea edbf 9292 cdbe 0bb2 923d
00000110: 64b9 20bf 093c 0f3f 96f9 2f40 56b1 a4bf
00000120: ab67 87bf 7207 c5be 8a07 5440 b280 1c40
00000130: 832c 33c0 ca8d d33f be56 6f3f 2918 97bf
00000140: 903d 95bf dbbb ddbf 6ea2 9ebe 2379 b23f
00000150: 5e20 bcbe 836f eb3e 95e5 12c0 91ef 2bbf
00000160: 9a9e cf3f ff75 2b40 41f6 bdbe ae9a ad3d
00000170: e489 7e3e e350 b8be 9677 5d40 28fe 0c40
00000180: 46cc 933f 2c45 e03e 2d82 65bf 001f dcbe
00000190: d0cf 263f 7fa7 3f3d a410 4740 bc91 aa3f
000001a0: 56bb 4540 6dd6 3840 cd35 b7bd 95f5 febf
000001b0: 86f8 6c40 2337 f9bf 61a9 11be d0ae 5a40
000001c0: 6ebf 82bf d08a 5dbe 1824 053f 20d6 a33f
000001d0: 2b64 e0be e4b4 653f 4c1b 8f3f 0c13 28bf
000001e0: 034d 1ebf 6a05 1cc0 b45e 863f acce 4a3f
000001f0: 199c 45bf 2352 cb3d 22be dabd 64d3 4cbf
00000200: c422 1bc0 f7d7 aa3e 3399 1a3e 0748 27bf
00000210: 900e cf3e 5b3c 9f3e 3d74 d63e 1320 22bf
00000220: e3b7 c9bf e231 28c0 4277 373f a1e6 913f
00000230: 9c70 34bf 4557 4d3f 7fcc 963e 60f7 4dbf
00000240: 12d9 41bf 3535 61c0 34d7 8d3f 56bf a93f
00000250: 228f 05be 9491 a9be fb53 3bc0 9b39 1d3f
00000260: 79b3 6a3f 9a54 10c0 ee80 4e3f 0473 6bc0
00000270: 22bc 0740 a463 2b3d aa5f debf 520a 903f
00000280: 996a e7be fd6a a03f 662d c63e d966 97bf
00000290: fb6c 3ec0 3ba8 57be ddd4 1dc0 6f0e 88be
000002a0: 2cac 08bf 798b 793f 656d a0be 8367 d6bf
000002b0: a945 9b3f 2dcb 52be 8ae0 b1c0 dfe8 1dbf
000002c0: 06c2 9abf 14dd 5bbf f487 d13d 1f55 b73f
000002d0: edb6 c2bf a086 443f ec9a a0bf 8dac c5bf
000002e0: b17f 58be aa8f 6bbf b4ce 653d ce4e f3bf
000002f0: d171 9c3e 6adc 6cbf ba70 be3c 9b29 f1bf
00000300: 91f1 33bf 83a1 eb3e 40ed 93bf 28c0 0ebf
00000310: b3f7 96bc ceaa 70bf 41e8 ffbd 49f8 853e
00000320: fce3 053f 1d2f 4340 2ca5 7d40 e54a c53f
00000330: 1a73 2abe 8dbc d83f e01b 33c0 c866 c3be
00000340: 900a fcbf f578 83c0 1670 99be c15e e03e
00000350: e7f4 70bf 8339 2cbf 584e c3bf b8d5 f4be
00000360: 0aaa 363f 0ca0 823f 4b9e 00be 87b1 2a3f
00000370: e05a 33bd c66c 2dbf 38e7 2d3f 3d16 843f
00000380: 306c 523e e69c 1cc0 3256 a33f bc41 c2bf
00000390: 34cb d5bf 7237 2c3f 4240 0a3e b0e1 de3f
000003a0: 45ae 0840 be44 ecbf 685f c23f 0b47 a4bf
000003b0: fc8b 983f 5616 153f 9cd1 2340 1a55 2e40
000003c0: 8024 a73d b449 413f 86a5 a040 aa19 0a3f
000003d0: 767e a2bf 21f5 873f 810a cfbe 9d59 2d3e
000003e0: ab26 3e3f 8e29 cabe 0a28 8f3f c204 9dbe
000003f0: b428 b8bf e799 b1bd 9dea 373f 7649 16bf
-0.78097975 0.38615537 -0.125649 -0.3977369 -0.9315308 -0.05902885 -0.087405086 -0.4663929
1.8668987 6.0829754 2.5661585 1.5939376 -0.42511606 1.102559 -0.4623082 0.048023116
-2.0987272 -5.2169447 0.5041896 0.69326395 -0.042027224 -0.4916387 -3.8962343 -0.27696142
0.06811316 -0.26600426 1.4381695 1.459498 -1.2141277 1.6790965 2.644381 1.4333748
0.5270661 -3.2769327 1.6912466 -2.0220456 -1.6188811 0.13515185 -0.42491636 2.1621125
1.0915564 -1.2380855 2.0892313 0.5731389 0.34550384 -0.46722555 1.6118945 1.9788896
-0.72854364 0.19845606 5.98079 1.0423936 -1.7327082 2.00457 -1.2945544 -0.20413192
0.050660636 -0.0109272 2.3230934 -0.11627182 -1.2267073 0.34176436 0.91683596 -1.067385
-2.0080035 -1.8587126 -0.40150887 0.07162865 -0.62782884 0.5595098 2.7496085 -1.2866619
-1.0578512 -0.38482243 3.3129601 2.445355 -2.7995918 1.6527646 0.93491733 -1.1804248
-1.1659412 -1.7322954 -0.309833 1.3943218 -0.36743444 0.45983514 -2.2952626 -0.67162424
1.6220276 2.679077 -0.3710194 0.084767684 0.24857289 -0.35999212 3.460424 2.2030125
1.1546714 0.43802774 -0.8965176 -0.429924 0.65160847 0.046790596 3.1103907 1.3325725
3.089559 2.8880875 -0.089458086 -1.9918696 3.7026687 -1.9469951 -0.14224769 3.4169197
-1.021467 -0.21634984 0.520082 1.2799721 -0.43826422 0.8972914 1.1180205 -0.65654063
-0.6183626 -2.4378304 1.0497651 0.79221606 -0.7719131 0.09927776 -0.10680796 -0.80010056
-2.423997 0.33367893 0.15097503 -0.6534428 0.40440798 0.31100735 0.41885558 -0.6333019
-1.5759243 -2.6280446 0.7166635 1.1398507 -0.7048433 0.8021129 0.29452893 -0.8045559
-0.7572185 -3.5188725 1.10813 1.3261516 -0.13042882 -0.3311888 -2.9270008 0.61416024
0.91680104 -2.2551637 0.8066548 -3.678895 2.1208577 0.04184307 -1.7372944 1.125315
-0.45198515 1.253265 0.3870651 -1.1828262 -2.9754016 -0.21060269 -2.4661171 -0.26573512
-0.53387713 0.97478443 -0.3133346 -1.6750339 1.2130634 -0.20585318 -5.5586596 -0.6168346
-1.2090461 -0.85884213 0.10231009 1.4322852 -1.5212075 0.7676792 -1.2547278 -1.5443283
-0.2114246 -0.9201609 0.05610533 -1.9008424 0.30555585 -0.92523825 0.023247112 -1.8840822
-0.70290476 0.4602166 -1.1556778 -0.5576196 -0.018428659 -0.9401063 -0.12495471 0.2616599
0.52301 3.0497506 3.9632063 1.5413481 -0.1664547 1.6932541 -2.7985764 -0.38164353
-1.9690723 -4.1085153 -0.29968327 0.43822291 -0.9412369 -0.67275256 -1.5258284 -0.47819304
0.7135321 1.0205092 -0.12560384 0.66677135 -0.043787837 -0.677441 0.67930937 1.0319287
0.20549083 -2.4470763 1.276068 -1.517631 -1.6702638 0.672721 0.13501075 1.7412624
2.1356366 -1.8458478 1.5185366 -1.283418 1.191772 0.58237207 2.5596685 2.7239442
0.08161259 0.7550309 5.0202055 0.5394541 -1.2694843 1.0621682 -0.404377 0.16928716
0.7427775 -0.3948483 1.1184094 -0.30667692 -1.4387422 -0.08671933 0.71842366 -0.5870584

l_lstm.bias_ih_l1 f4 [32]
00000000: b049 dfbd 4e7d 44be 2d2d 693e a03f 66bf
00000010: 2752 c9be e5b8 ad3e 875b 53be 2976 42be
00000020: b91d 07bf 9da2 1fbf 6aa4 3ebe c61a 453f
00000030: ef03 083f ab42 80be de83 39be 9dc4 e83d
00000040: c6e7 253c 110b 9abe a119 6e3e a370 923e
00000050: ade0 c0bd 2728 ae3e 1c3d 3b3d 1060 23be
00000060: de5b f8bd d58f bb3d b977 1bbf fc6a 6c3e
00000070: 96e7 90be 4233 febe cbba 40bc 470f 0a3e
-0.10902727 -0.19188425 0.2277114 -0.89940834 -0.3932049 0.33930126 -0.20640384 -0.18990387
-0.5277973 -0.62357503 -0.18617406 0.7699398 0.53131 -0.25050864 -0.1811671 0.11365626
0.01012606 -0.30086568 0.23251964 0.2860156 -0.094178535 0.3401501 0.045712575 -0.15954614
-0.12126897 0.09158293 -0.6072956 0.23087686 -0.28301686 -0.49648482 -0.011763285 0.1348239

l_lstm.bias_hh_l1 f4 [32]
00000000: 09fe 2bbe c5c9 ebbe db85 1bbe d88c fdbe
00000010: bdb9 22bf 6fd7 eebb 84ca bfbe c03c 1fbf
00000020: 8776 51bf 56a4 eebe 71e7 113e 4b44 053e
00000030: de8b d03c 1b32 b23d c9d7 5cbd edef 49be
00000040: 6fd5 a3be 180b 0d3b 6b30 c93e 4de7 d3bd
00000050: f82a b0be ce35 153e cb8d cabe 5294 14be
00000060: 96e7 4a3e 9808 0d3e 4aec 61bf 163c 54be
00000070: a756 eabd 8217 46bf 25d5 52be d7bd 82be
-0.16796125 -0.46052375 -0.1518778 -0.49521518 -0.63564664 -0.0072888653 -0.37459195 -0.6220207
-0.81821483 -0.46609753 0.14248444 0.13014333 0.025457319 0.08700963 -0.053916726 -0.1972043
-0.31998774 0.0021521505 0.39294752 -0.103468515 -0.34407783 0.14571306 -0.39561304 -0.14509705
0.19814906 0.1377281 -0.88251173 -0.20726046 -0.11442309 -0.7737962 -0.2058912 -0.2553546

l_linear.weight f4 [1, 8]
00000000: e4cf c0be 953d 0ebf a8ff 743e 865d ed3e
00000010: 1e54 efbe c0b5 103f 8388 1cbf 360e e6be
-0.37658608 -0.55562717 0.2392565 0.46360415 -0.46743864 0.5652733 -0.611458 -0.44932717
